EcoSculptor/results/Final_1.2/Hunteranimal/Hunteranimal-499929.onnx (onnx, 58409 bytes, 6 tensors)

network_body._body_endoder.seq_layers.0.weight f4 [256, 47]
0.3165033 -0.080432326 0.02889353 -0.011952734 0.1862159 -0.11127288 -0.132062 -0.14942653
0.23395677 -0.1246804 -0.12465425 0.020202795 0.14491351 -0.34333786 0.11444558 0.06958205
0.09137862 0.12528318 -0.084062256 0.2417544 -0.25127605 0.08385142 -0.21331993 0.31632444
0.19712068 0.028806325 -0.1938082 0.024317937 0.22886571 0.0066265976 0.07962146 0.01696802
-0.10934932 -0.002923803 -0.19830702 -0.1295696 0.1911793 0.093174726 0.079051055 0.05141875
0.22142622 0.22282484 0.20253845 -0.22505192 0.017275251 -0.08137443 -0.07045749 -0.19332857
0.12573774 0.045721915 0.03840414 -0.063157596 0.056473263 -0.11080882 0.028510408 -0.11101371
0.043933757 0.19146685 -0.3235442 0.19438376 0.042453244 -0.059920166 0.06187499 -0.35918388
-0.05067505 0.16290402 -0.3008256 0.0974156 0.02294226 -0.14719014 -0.2316916 -0.18356483
0.19534518 0.010885111 0.046104025 -0.07669085 0.11715977 0.083657496 0.13323934 -0.1723567
0.08288291 0.014297203 -0.0022558214 -0.008977992 -0.02417761 -0.17023565 -0.18695337 0.06501955
-0.20708908 0.06850646 -0.25904772 0.15547806 -0.28432718 -0.19295058 -0.11539543 -0.0798997
-0.19531016 0.18581988 -0.07999868 -0.10592728 -0.25122827 0.15057866 -0.20525138 0.07980439
-0.23103593 -0.0768911 0.15847053 -0.0012023881 -0.044420056 -0.117767535 -0.3539642 -0.011133265
-0.11459877 0.18413585 -0.15619732 0.17884815 0.039901063 -0.01321785 -0.08633935 0.029534722
-0.14499249 -0.10267871 -0.2991963 -0.19735713 0.1027308 -0.10135652 -0.15527846 0.14413363
-0.04371626 0.061649665 -0.020978872 -0.028745048 0.16092776 0.24636064 -0.05302511 -0.21575592
-0.020226415 -0.12162824 0.12909204 0.04359538 -0.21845447 0.19745357 -0.34630927 -0.038269114
0.16707817 0.15901631 0.19930576 -0.28764486 -0.018796109 0.035406254 -0.03629102 0.2508501
0.2369904 0.1669477 0.11405295 0.20787269 0.0789017 0.33652037 -0.19227013 0.17658578
-0.17146027 -0.10900638 -0.14259315 -0.028357953 -0.044820476 0.11861611 -0.030218763 -0.082198955
0.29101306 0.3321179 0.17666024 0.0564295 0.0733542 0.27908453 0.09727704 0.094331
0.03652795 0.07202501 0.066704765 0.24462342 0.012507956 0.08441886 0.063428134 0.07079684
-0.036748365 0.011369736 -0.09640047 -0.055095963 0.093781516 -0.29388618 -0.054148685 0.029714292
0.17482673 0.12631157 -0.096069954 0.26268047 -0.33869487 0.08840971 0.14676905 0.09100517
0.20436618 0.17017242 -0.107180156 0.08278042 -0.048683684 -0.08717127 -0.05896896 -0.041241992
0.20613891 0.049054008 -0.34348282 0.14879723 -0.11054368 -0.13382852 0.013136877 -0.23245741
0.15570404 0.11372086 0.20154716 0.12580515 -0.10236798 -0.01140118 -0.15598504 0.09125781
-0.09307622 -0.02421362 0.21641776 -0.16645718 -0.22471324 0.119417146 -0.010501363 -0.14609973
0.097428285 0.15365648 -0.01447484 -0.23314115 0.110932305 -0.15692678 0.006406469 -0.083914004
-0.17206247 -0.14529404 -0.042837035 0.01276988 0.03648442 -0.11629221 -0.17198668 -0.16952862
-0.13777891 0.057606634 -0.16394441 0.021583335 0.20097636 0.15856111 0.07250659 -0.030282388
00000000: b80c a23e b4b9 a4bd 20b2 ec3c 66d5 43bc
00000010: 62af 3e3e 09e3 e3bd 433b 07be 4503 19be
00000020: 5d92 6f3e 7058 ffbd ba4a ffbd 5580 a53c
00000030: 3564 143e fbc9 afbe 7262 ea3d 0981 8e3d
00000040: b724 bb3d 3c4a 003e d528 acbd 778e 773e
00000050: 41a7 80be 4bba ab3d 8a70 5abe 47f5 a13e
00000060: 01da 493e 3efb eb3c a875 46be 6936 c73c
00000070: c65b 6a3e ee23 d93b 9310 a33d 8400 8b3c
00000080: 89f2 dfbd 469d 3fbb ff10 4bbe e5ad 04be
00000090: 82c4 433e 64d2 be3d 85e5 a13d 789c 523d
000000a0: 8ebd 623e 322c 643e 3d66 4f3e 0374 66be
000000b0: d484 8d3c a3a7 a6bd 044c 90bd edf7 45be
000000c0: 65c1 003e e746 3b3d a94d 1d3d c558 81bd
000000d0: 8250 673d bcef e2bd a98e e93c 285b e3bd
000000e0: e2f3 333d e30f 443e 96a7 a5be 890c 473e
000000f0: 74e3 2d3d d96e 75bd a170 7d3d f3e6 b7be
00000100: a490 4fbd 50d0 263e d005 9abe d581 c73d
00000110: 68f1 bb3c 03b9 16be 9040 6dbe 6bf8 3bbe
00000120: 9108 483e 7757 323c 93d7 3c3d 1810 9dbd
00000130: 76f1 ef3d 9f54 ab3d e56f 083e 467e 30be
00000140: 84be a93d d13e 6a3c 67d6 13bb 6e18 13bc
00000150: 2010 c6bc 4152 2ebe b470 3fbe f828 853d
00000160: 290f 54be 1d4d 8c3d e7a1 84be a435 1f3e
00000170: 5593 91be d694 45be 7054 ecbd 74a2 a3bd
00000180: 63ff 47be 9147 3e3e 59d6 a3bd 67f0 d8bd
00000190: fea0 80be 4b31 1a3e 6b2d 52be 7c70 a33d
000001a0: af94 6cbe 1579 9dbd 1946 223e 7399 9dba
000001b0: cef1 35bd 1b30 f1bd cc3a b5be 4c68 36bc
000001c0: c3b2 eabd 1c8e 3c3e 31f2 1fbe f823 373e
000001d0: 4c6f 233d ae8f 58bc afd2 b0bd cdf2 f13c
000001e0: e978 14be 3749 d2bd 4230 99be fd17 4abe
000001f0: 8764 d23d 0294 cfbd 5101 1fbe c497 133e
00000200: d20f 33bd 5c84 7c3d e2db abbc bc7a ebbc
00000210: 3fca 243e f745 7c3e dc30 59bd 1fef 5cbe
00000220: deb1 a5bc 3a18 f9bd b430 043e 1291 323d
00000230: 87b2 5fbe 4531 4a3e 734f b1be 13c0 1cbd
00000240: 8a16 2b3e 2cd5 223e cf16 4c3e 3046 93be
00000250: 4cfa 99bc 2606 113d e5a5 14bd 6d6f 803e
00000260: 9dad 723e 56f4 2a3e 9894 e93d 94dc 543e
00000270: 3797 a13d 664c ac3e 76e2 44be e7d2 343e
00000280: 4893 2fbe bd3e dfbd f003 12be f04e e8bc
00000290: ad95 37bd 01ed f23d 578d f7bc ed57 a8bd
000002a0: aaff 943e 5b0b aa3e 6ce6 343e 9f22 673d
000002b0: ba3a 963d 2be4 8e3e 2f39 c73d 9c30 c13d
000002c0: 559e 153d d981 933d 829c 883d 907e 7a3e
000002d0: 2bee 4c3c cce3 ac3d 9ce6 813d effd 903d
000002e0: 7485 16bd 2148 3a3c 9c6d c5bd 4eac 61bd
000002f0: 8610 c03d 4078 96be 03cb 5dbd 636b f33c
00000300: c705 333e d257 013e 53c0 c4bd 0e7e 863e
00000310: 6a69 adbe 2610 b53d a04a 163e eb60 ba3d
00000320: 5e45 513e ae41 2e3e 4581 dbbd c888 a93d
00000330: 8b68 47bd da86 b2bd 7089 71bd 5ded 28bd
00000340: 1416 533e dbec 483d fbdc afbe 4d5e 183e
00000350: ba64 e2bd 580a 09be 0e3c 573c 5109 6ebe
00000360: e170 1f3e 7be6 e83d 6162 4e3e 11d3 003e
00000370: 4ea6 d1bd 04cc 3abc 8bba 1fbe 60e5 ba3d
00000380: bf9e bebd a45b c6bc 9e9c 5d3e c073 2abe
00000390: 3a1b 66be fa90 f43d e90d 2cbc 2b9b 15be
000003a0: 7b88 c73d 2058 1d3e e127 6dbc 8ebc 6ebe
000003b0: 7a30 e33d 6ab1 20be 5bed d13b 1bdb abbd
000003c0: 2531 30be f6c7 14be e375 2fbd c238 513c
000003d0: b070 153d 9c2a eebd 471d 30be e998 2dbe
000003e0: ea15 0dbe eff4 6b3d 0be1 27be 89cf b03c
000003f0: bfcc 4d3e d85d 223e 567e 943d c512 f8bc

network_body._body_endoder.seq_layers.0.bias f4 [256]
-0.010496 0.014297383 0.03329828 0.0011563838 -0.011213329 0.05221092 0.026874674 0.050324988
0.058052134 -0.021681033 0.018509809 0.03160063 0.025280317 0.011603376 0.03563989 0.012806224
0.0033593937 0.02976434 0.050776437 0.05786554 -0.005180665 0.02516634 0.005665184 0.0036587904
0.03347387 0.015928643 0.0010767574 0.018279355 0.026265116 0.00119765 0.043250207 0.022289325
0.0032110473 0.0039852327 0.03556973 0.03820571 0.020152733 0.006039442 0.04370392 0.038961917
0.052015226 0.023115741 0.002205346 0.009024841 0.0041672294 -0.0047775595 0.00402044 0.012012484
0.055429667 0.0031866007 0.04567818 -0.018041072 0.04167311 0.034869183 0.04864813 0.031983808
0.04849641 0.015462403 0.0015455402 -0.0016755143 0.04834514 0.0083767595 0.0056629754 0.013306417
-0.010013399 0.01860253 0.0014660324 -0.016924424 0.010168169 0.05728855 0.015560702 0.029676696
0.0066948566 0.025961656 0.051003806 0.00459857 -0.012358373 0.009345419 0.0215565 0.039574146
0.019146051 0.02013299 0.028147941 -0.011199525 0.07809089 0.04715352 0.040169377 0.00076362863
-0.0047631124 0.08722938 0.073616266 0.01567412 0.06057261 0.03393668 0.039025586 0.013163265
0.0341421 0.016468525 0.032501865 0.019792464 -0.00058233854 0.024145195 0.045696273 0.026676012
0.037937168 0.017833177 0.043121487 0.04179278 0.058409777 0.032832686 0.050429687 0.06407341
0.090578005 -0.01299312 -0.0009140245 0.053376153 0.0414456 0.015794503 0.005560033 0.045370366
0.0061654486 0.013892767 -0.0068813865 -0.001292957 0.0036542527 0.0278544 0.065287314 -0.013153854
0.015833031 0.01651005 0.06700987 0.00782939 -0.0158947 0.041325767 0.0076025464 0.05361599
0.059761275 0.046233732 0.021731598 -0.012911482 0.003323438 -0.00886448 0.005920126 0.052209325
0.045126382 0.009184707 0.032740172 -0.00870185 0.029351726 0.03977557 0.062337052 0.035650726
-0.014310963 0.016343802 0.028601972 0.034777634 -0.0027250354 0.020872882 0.00044965753 0.0058438666
0.03151704 0.058651436 0.037630517 0.033324637 0.047152653 -0.012184962 -0.005367979 0.06290994
0.022731395 0.004172807 -0.002058572 0.019689968 0.028380817 0.025479658 0.0008931101 0.01443832
0.064298324 0.05391741 0.007622365 -0.0036840148 -0.0019209317 -0.020539435 -0.032418426 -0.021181675
0.010769358 0.03833655 0.06294517 -0.010143001 0.007614169 0.02199159 -0.023856586 0.03874357
0.029273927 0.009135879 0.0017657705 0.015390073 0.026792621 0.004187599 -0.015243752 0.02326316
0.019045947 0.06422396 0.010942255 0.0129929455 0.040720373 0.023474129 0.007815246 0.0046478403
0.085467674 0.011991039 0.0030234081 0.0067644827 0.06930082 0.015262853 -0.024567796 -0.030273287
0.04035853 0.024833992 0.027792912 0.0057897344 0.030068465 -0.018381083 -0.0016347001 -0.018382113
0.007195432 0.03456737 -0.002511514 -0.004097719 -0.0025948233 0.008379743 0.029574785 0.041584697
-7.231331e-05 0.027632035 0.02668551 0.014148079 -0.027076658 0.03290046 0.022572996 0.014536561
-0.010469991 0.057488404 -0.009764114 0.02972332 0.03032653 -0.010178626 0.041453127 0.016726248
0.00736996 -0.00028762192 -0.009195527 0.005358877 0.026065601 0.008154217 0.023613816 0.034873113
00000000: 6af7 2bbc 923f 6a3c c763 083d cd91 973a
00000010: 1cb8 37bc 1edb 553d 4728 dc3c 9321 4e3d
00000020: 13c8 6d3d 6c9c b1bc e2a1 973c aa6f 013d
00000030: ab18 cf3c 161c 3e3c 22fb 113d 32d1 513c
00000040: 4629 5c3b 58d4 f33c f4fa 4f3d 6b04 6d3d
00000050: 91c2 a9bb a429 ce3c 02a3 b93b 51c8 6f3b
00000060: e61b 093d c97c 823c fc21 8d3a 96be 953c
00000070: f129 d73c 77fa 9c3a 2127 313d 1a98 b63c
00000080: 6f70 523b 8e96 823b 91b1 113d 977d 1c3d
00000090: 5817 a53c 83e6 c53b e202 333d 8896 1f3d
000000a0: eb0d 553d 395d bd3c 9187 103b eddc 133c
000000b0: 418d 883b 138d 9cbb e5bd 833b 02d0 443c
000000c0: 380a 633d 4ad6 503b 0b19 3b3d dfca 93bc
000000d0: 6cb1 2a3d fdd2 0e3d 4343 473d 7401 033d
000000e0: 2ca4 463d 0556 7d3c b993 ca3a ee9c dbba
000000f0: 8e05 463d ad3e 093c 7b90 b93b 2803 5a3c
00000100: 3d0f 24bc 5564 983c e227 c03a 17a5 8abc
00000110: 6498 263c 66a7 6a3d 51f2 7e3c 8b1c f33c
00000120: 8760 db3b 8aad d43c 5ee9 503d 9aaf 963b
00000130: c67a 4abc 871d 193c 4297 b03c 8018 223d
00000140: 2ed8 9c3c f1ed a43c 8396 e63c 367e 37bc
00000150: 1eee 9f3d 0d24 413d a588 243d 402e 483a
00000160: e213 9cbb 51a5 b23d 20c4 963d 0367 803c
00000170: fc1a 783d 3001 0b3d 4bd9 1f3d bcaa 573c
00000180: 96d8 0b3d 00e9 863c ad20 053d ce23 a23c
00000190: 14a8 18ba 25cc c53c 042c 3b3d a787 da3c
000001a0: 0164 1b3d e216 923c 28a0 303d e82e 2b3d
000001b0: 173f 6f3d 917b 063d 5c8f 4e3d ec38 833d
000001c0: f680 b93d 18e1 54bc 259b 6fba f4a0 5a3d
000001d0: ddc2 293d 7963 813c f030 b63b 47d6 393d
000001e0: 8807 ca3b 7d9e 633c 417d e1bb 7078 a9ba
000001f0: 307c 6f3b e92e e43c 5bb5 853d 4383 57bc
00000200: 46b4 813c 1640 873c 793c 893d d746 003c
00000210: 9a35 82bc 3545 293d c81e f93b 719c 5b3d
00000220: 3dc8 743d 955f 3d3d 7706 b23c ae8a 53bc
00000230: 0ace 593b 533c 11bc 9efd c13b 72d9 553d
00000240: 71d6 383d 747b 163c 8f1a 063d 3492 0ebc
00000250: 0873 f03c b5eb 223d 2355 7f3d 7f06 123d
00000260: 8878 6abc 70e3 853c af4e ea3c fe72 0e3d
00000270: 8296 32bb 9bfd aa3c 03c0 eb39 e87d bf3b
00000280: 0318 013d 7d3c 703d 7522 1a3d 6a7f 083d
00000290: 2423 413d 6fa3 47bc dfe5 afbb edd6 803d
000002a0: 3137 ba3c 0bbc 883b 1be9 06bb db4c a13c
000002b0: e37e e83c b7ba d03c 9b1f 6a3a b48e 6c3c
000002c0: d7ae 833d 81d8 5c3d 08c5 f93b 836f 71bb
000002d0: c6c7 fbba 5142 a8bc 2fc9 04bd 3185 adbc
000002e0: f671 303c c906 1d3d 66e9 803d d42e 26bc
000002f0: 4780 f93b b527 b43c e36e c3bc 94b1 1e3d
00000300: e0cf ef3c a7ae 153c 6d71 e73a a526 7c3c
00000310: 337c db3c 2038 893b eec0 79bc 6292 be3c
00000320: 3f06 9c3c da87 833d 2547 333c 5de0 543c
00000330: 68ca 263d d14c c03c 840b 003c e94c 983b
00000340: ad09 af3d 1076 443c 5f24 463b 98a8 dd3b
00000350: 97ed 8d3d 0c11 7a3c 6742 c9bc afff f7bc
00000360: fc4e 253d a870 cb3c f6ad e33c d0b7 bd3b
00000370: 2452 f63c ed93 96bc 6f43 d6ba 1696 96bc
00000380: a9c7 eb3b 8496 0d3d 3698 24bb 2946 86bb
00000390: e90d 2abb 314b 093c d246 f23c b754 2a3d
000003a0: eaa6 97b8 945c e23c 929b da3c 58cd 673c
000003b0: decf ddbc a2c2 063d 01eb b83c c22a 6e3c
000003c0: 538a 2bbc f678 6b3d aaf9 1fbc 527e f33c
000003d0: 586f f83c 40c4 26bc c1ca 293d 7c05 893c
000003e0: b57f f13b f6cb 96b9 d6a8 16bc 8599 af3b
000003f0: 8787 d53c 4499 053c c371 c13c 1cd7 0e3d

action_model._continuous_distribution.log_sigma f4 [1, 2]
0.0077447477 -0.013423592
00000000: a7c7 fd3b a0ee 5bbc

action_model._continuous_distribution.mu.weight f4 [2, 256]
0.0016538927 0.022123758 -0.0009424561 -0.015836025 0.022797657 -0.01361305 -0.0066780117 -0.0016707636
0.012812395 0.004602086 -0.055774473 0.008255811 0.014051867 -0.020617582 0.00041002678 0.0036685832
0.043884315 0.033901274 0.0069328155 0.026386725 -0.007942286 -0.034391966 -0.015319513 0.014244306
0.007936323 -0.0589545 -0.010214351 -0.014643606 0.003996576 -0.028257264 0.0032179987 -0.002466032
-0.022071645 -0.013536648 0.0012766347 0.0017812845 0.036791477 0.00946326 -0.028998647 0.021236317
-0.0191085 -0.022165162 -0.0002151551 0.041763466 -0.046747092 -0.025766624 0.005738569 0.011309492
-0.05421083 0.037445955 -0.033716038 0.016341614 0.010793867 0.050755084 0.03642441 0.02533872
0.056904227 -0.0154681755 -0.049518168 -0.020852186 0.008294784 -0.02590386 -0.03409536 0.06665491
-0.0037371782 0.011669033 0.029171878 0.011394378 -0.022025846 0.027883215 -0.012410756 0.023422899
0.034546565 0.038579155 0.04212455 -0.020455502 -0.014517193 0.017181702 -0.002752427 0.019467538
0.01409469 -0.02520264 0.051445555 0.006690367 -0.01194819 0.09633332 0.012422634 0.047312543
-0.043548618 -0.0073888195 -0.05056093 0.023884077 0.0019573537 0.046034724 -0.0049382215 0.023553459
-0.0016231205 -0.03235931 0.09068423 -0.032063127 -0.041472603 -0.005741277 -0.024224991 -0.058155794
-0.0024875796 0.029576667 -0.08451555 -0.03309229 -0.013144459 -0.0103904065 0.011377123 -0.022278665
-0.0023031877 0.025446786 0.021705607 0.020462623 0.051925026 0.049977016 -0.042449486 -0.017796023
0.02393887 0.026842903 -0.0048683216 -0.021571737 -0.013765503 0.009594625 0.021795074 0.010667783
0.03669001 -0.041436326 -0.016600179 0.02749897 0.0060386313 0.05174288 0.013436783 0.019976266
0.042661764 0.0089165205 -0.050637227 0.02564204 -0.03684905 -0.019452099 -0.022459062 -0.06020937
0.0012730549 -0.017940294 -0.017283784 -0.006788088 0.017335478 0.008493433 0.024792215 -0.025416916
0.009119433 0.019728374 0.0075244596 -0.06155994 0.0021317534 0.015268072 0.016862512 0.010839357
-0.0053284154 -0.030307481 0.012661196 -0.023459472 0.007242548 0.0032698864 -0.00034476488 -0.011749555
0.006330357 -0.009777521 -0.0065590777 -0.035544056 -0.0009587819 -0.064158164 0.014064937 0.03650652
0.0032341378 -0.021651838 -0.039132956 0.017741337 0.013488278 -0.006214869 0.0075192964 0.012841602
0.016784007 0.009897601 0.006382251 0.015079583 0.020641454 -0.035636652 0.019452306 -0.031076439
0.021625467 0.058971822 0.022035057 -0.021893457 -0.0028961056 0.022004714 -0.0031057121 -0.03852731
-0.0062567196 -0.016560292 -0.03564197 0.009663356 0.022849014 -0.021983987 0.018266188 0.039823372
0.016712314 0.03990287 -0.04121222 -0.005990717 -0.019774416 0.013096886 0.006165067 0.003100899
-0.006334568 -0.03358589 -0.015188443 0.024833398 0.031577326 -0.012544582 0.020841781 0.010821421
0.06489255 0.021834787 0.01760788 0.03587599 0.023402376 0.055651467 0.11407015 -0.0022165389
-0.012732982 0.01627285 0.01923406 -0.02575991 -0.005104966 -0.010256094 0.0016302827 -0.045053285
-0.0188377 -0.032501858 -0.0082549965 0.024605095 -0.008382109 0.023967795 -5.1795534e-05 -0.021266568
-0.019646429 0.028724773 -0.0015840767 0.039976418 0.008844711 0.023750577 -0.03404934 -0.0050222394
00000000: 6ec7 d83a e23c b53c 290f 77ba 8dba 81bc
00000010: 27c2 ba3c 4509 5fbc 39d3 dabb 86fd daba
00000020: 14eb 513c 18cd 963b c673 64bd 6243 073c
00000030: cd39 663c 34e6 a8bc ddf8 d639 9d6c 703b
00000040: 0ac0 333d 10dc 0a3d ac2c e33b f928 d83c
00000050: 5d20 02bc 97de 0cbd b2fe 7abc f360 693c
00000060: 5a07 023c 467a 71bd 185a 27bc bceb 6fbc
00000070: b6f5 823b c77b e7bc 0fe5 523b 279d 21bb
00000080: 98cf b4bc d1c8 5dbc c154 a73a fd79 e93a
00000090: a9b2 163d ca0b 1b3c 928e edbc c9f7 ad3c
000000a0: 6e89 9cbc b793 b5bc 429b 61b9 2b10 2b3d
000000b0: e179 3fbd 8714 d3bc 9b0a bc3b 734b 393c
000000c0: 2d0c 5ebd ee60 193d d419 0abd d9de 853c
000000d0: c2d8 303c 90e4 4f3d c331 153d 2693 cf3c
000000e0: 6814 693d 3b6e 7dbc 90d3 4abd 34d2 aabc
000000f0: d9e6 073c 5534 d4bc 94a7 0bbd 5f82 883d
00000100: 72eb 74bb 792f 3f3c ddf9 ee3c 7caf 3a3c
00000110: 8c6f b4bc 576b e43c 7c56 4bbc 61e1 bf3c
00000120: b380 0d3d 2d05 1e3d cb8a 2c3d 4c92 a7bc
00000130: 85d9 6dbc a4c0 8c3c 1062 34bb 637a 9f3c
00000140: 6aed 663c c475 cebc 93b8 523d de3a db3b
00000150: 57c2 43bc 674a c53d 4e88 4b3c ccca 413d
00000160: 0960 32bd e91d f2bb fa18 4fbd 8aa8 c33c
00000170: f246 003b e88e 3c3d ced0 a1bb 2ff3 c03c
00000180: e3be d4ba 328b 04bd a7b8 b93d a054 03bd
00000190: 2ddf 29bd 5221 bcbb 7d73 c6bc c534 6ebd
000001a0: a906 23bb c44a f23c 7d16 adbd c88b 07bd
000001b0: db5b 57bc 863c 2abc 1d67 3a3c bf81 b6bc
000001c0: 14f1 16bb c775 d03c f5cf b13c 3ba1 a73c
000001d0: 56af 543d b3b4 4c3d 83df 2dbd f7c8 91bc
000001e0: 731b c43c a6e5 db3c 7186 9fbb 36b7 b0bc
000001f0: b488 61bc c632 1d3c 958b b23c edc7 2e3c
00000200: 4448 163d 23b9 29bd 19fd 87bc 8545 e13c
00000210: b6df c53b 58f0 533d f425 5c3c 44a5 a33c
00000220: 1abe 2e3d 9916 123c fb68 4fbd 410f d23c
00000230: 08ef 16bd 025a 9fbc 11fc b7bc 1a9e 76bd
00000240: a2dc a63a 86f7 92bc b996 8dbc 9c6e debb
00000250: 2203 8e3c 0a28 0b3c 0b19 cb3c 2337 d0bc
00000260: ad69 153c 669d a13c be8f f63b 4726 7cbd
00000270: e3b4 0b3b ef26 7a3c 4023 8a3c 8f97 313c
00000280: fd99 aebb 6547 f8bc e870 4f3c 142e c0bc
00000290: e552 ed3b 974b 563b 8fc1 b4b9 3581 40bc
000002a0: e26e cf3b e531 20bc 88ed d6bb a596 11bd
000002b0: c456 7bba 5b65 83bd 9f70 663c dc87 153d
000002c0: d4f3 533b 325f b1bc e149 20bd 4856 913c
000002d0: f0fd 5c3c 1aa6 cbbb 6e64 f63b 9565 523c
000002e0: 9d7e 893c 8c29 223c 3422 d13b 5b10 773c
000002f0: 4418 a93c bdf7 11bd 715a 9f3c 0494 febc
00000300: e427 b13c 708c 713d dd82 b43c e859 b3bc
00000310: 97cc 3dbb 3b43 b43c 3489 4bbb d0ce 1dbd
00000320: 2b05 cdbb 73a9 87bc 50fd 11bd 0d53 1e3c
00000330: db2d bb3c c317 b4bc f9a2 953c d51d 233d
00000340: 43e8 883c 3171 233d 25ce 28bd c74d c4bb
00000350: f5fd a1bc 5294 563c 5504 ca3b 7438 4b3b
00000360: 3592 cfbb 5c91 09bd f2d8 78bc 696f cb3c
00000370: 3a57 013d ca87 4dbc 62bc aa3c 544c 313c
00000380: 63e6 843d dede b23c 673e 903c b4f2 123d
00000390: 57b6 bf3c cbf2 633d 9c9d e93d 5a43 11bb
000003a0: ff9d 50bc a44e 853c bf90 9d3c 7206 d3bc
000003b0: 8f47 a7bb 2d09 28bc 36af d53a cb89 38bd
000003c0: 8551 9abc ab20 05bd f73f 07bc a090 c93c
000003d0: 1d55 09bc 1c58 c43c 083f 59b8 3a37 aebc
000003e0: 8cf1 a0bc 3750 eb3c cba0 cfba 50be 233d
000003f0: 68e9 103c 9290 c23c 5277 0bbd 9991 a4bb

action_model._continuous_distribution.mu.bias f4 [2]
-0.0053012026 -0.02810185
00000000: b6b5 adbb da35 e6bc

action_model._discrete_distribution.branches.0.weight f4 [1, 256]
0.0056609833 -0.0052053067 -0.0029168108 -0.00034448667 -0.00042421624 -0.0037752246 0.0020607782 -0.008394324
0.0060347226 -0.0046292557 0.011135323 0.005981468 -0.005389487 0.0011799152 0.0039465916 0.0039706724
-0.0027224566 0.0026698012 -0.006397396 -0.006625671 0.00071766664 -0.0042270906 0.00049971306 0.005327647
0.0034204372 -0.007353555 0.0075174863 0.0047259284 -0.004059562 -0.01123736 0.0051915473 -0.0031845313
0.004036036 0.005115883 -0.0017840707 -0.0024981597 -0.0001564319 -0.0036329634 0.015786124 0.003765728
-0.0088264095 -0.005614863 0.00898589 -0.005712337 0.0016275361 0.0064546163 0.0063428083 -0.002230559
0.0016767116 -0.002866333 -0.0028436393 0.002868745 0.0010284724 1.6308295e-05 0.00058844005 -0.0006425209
-0.006197345 -0.008521209 -0.0018146752 0.0050317063 -0.0063601704 -0.009574666 -0.0019603295 0.0045773215
0.002350647 0.0044185934 -0.0090206815 -0.0031291489 -0.010761226 0.004912209 -0.0071741478 0.003969846
-0.004379551 -0.011829383 7.024888e-05 -0.0012214779 0.0011568184 0.0027897449 -0.007462331 0.0011313072
-0.0072372006 0.003593567 -0.0043977643 -0.0022241706 0.0038421694 -0.0027110286 -0.0025971967 -0.001322709
-0.0037065023 0.00222195 0.0013247324 -0.0037335944 0.0031256136 -0.00015133807 -0.008253949 0.002915424
0.012312137 -0.002409632 -0.008904328 0.005043726 0.0052342876 0.012212101 -0.0033837203 -0.0049651824
-0.0064701997 -0.008166437 -0.0036990752 -0.00094918144 0.00929491 0.01081353 -0.0034653384 -0.007707622
0.0056160707 0.009359322 -0.00999038 -0.0068290196 0.009405656 0.0036312626 -0.0004952957 -0.001220907
-0.009794196 -0.0023230473 0.009644982 -0.0015624888 0.0014951754 0.0029267909 -0.0044697397 0.0021114452
-0.006854512 0.009723335 -0.00881199 -0.00016117065 0.0018428762 -0.0052992683 -0.005617109 0.0035400563
-0.0052757966 -0.0123762665 -0.0051440746 -0.0030403296 0.003949375 -0.0020721983 0.0011341079 -0.0013907774
0.00514838 -0.004226589 -0.0006263093 0.0021418415 0.00020040401 0.008427899 0.0034529772 0.00024462814
-0.00058321765 0.006700021 -0.0055782506 0.000862272 -0.003747167 0.005684815 -0.0058344393 0.0008528824
0.009336385 -0.005322709 -0.00046530922 0.010809725 0.00040375488 0.00402062 0.0017901985 0.0034466789
-0.0050343126 0.0040252325 0.0014995941 0.009568537 -0.008037852 0.0063199587 0.000113993396 0.0038557702
-0.0015958765 -0.0070498483 0.002622719 -0.002272201 -0.0089977775 -0.004022855 0.006612301 0.0017395321
-5.0243627e-05 0.014322209 -0.00031065606 -0.0010247104 0.009914382 -0.007787826 -0.00025594133 0.0028727208
-0.0045585465 0.0023951107 0.0024477025 -0.014299867 -0.0011629754 0.004662703 -0.0049485345 -0.00940362
0.0030988667 0.0153563395 -0.0015595781 0.00039057937 0.005807118 -0.002622109 0.0008696122 -0.006856025
0.0056846202 0.011320559 -0.006506813 -9.397376e-05 0.0057049464 -0.0021767067 -0.0013537693 -0.0028841693
0.01573627 0.014757918 0.00024710468 0.0061077247 0.005784907 -0.004081002 0.0042404714 0.008883733
-0.003766447 -0.0039977687 0.0060741506 0.0048747025 -0.001992728 0.008305412 -0.01291602 -0.0031827956
0.0008120741 0.0010675553 0.008228218 0.0089524295 0.00019096128 -0.004886877 0.000517248 0.0008700538
-0.003093998 0.001800266 -0.007666245 0.00056921085 -0.011798315 0.0009537355 0.011686911 0.00071613747
0.000887687 0.0049915477 2.7107177e-05 0.004708281 0.009500842 7.5539276e-05 0.0008818442 0.0021298167
00000000: c57f b93b 4791 aabb f727 3fbb 389c b4b9
00000010: 5769 deb9 c269 77bb 1f0e 073b 5988 09bc
00000020: ecbe c53b 03b1 97bb ee70 363c 3100 c43b
00000030: 4b9a b0bb 62a7 9a3a 6952 813b 6a1c 823b
00000040: 3e6b 32bb d5f7 2e3b 3fa1 d1bb 281c d9bb
00000050: cb21 3c3a 6883 8abb 2dff 023a 8b93 ae3b
00000060: 6a29 603b 17f6 f0bb 3f55 f63b f6db 9a3b
00000070: 1306 85bb e71c 38bc db1d aa3b 92b3 50bb
00000080: b940 843b 23a3 a73b 7bd7 e9ba 2ab8 23bb
00000090: de07 24b9 0317 6ebb e751 813c 6fca 763b
000000a0: a59c 10bc e2fc b7bb 8e39 133c 8e2e bbbb
000000b0: 0d53 d53a 3f81 d33b 55d7 cf3b 922e 12bb
000000c0: 1bc5 db3a 16d9 3bbb 5a5c 3abb 8e01 3c3b
000000d0: cfcd 863a cccd 8837 8b41 1a3a d96e 28ba
000000e0: 1913 cbbb 8a9c 0bbc 65da edba 03e1 a43b
000000f0: fa68 d0bb 0fdf 1cbc df78 00bb 5bfd 953b
00000100: 500d 1a3b d9c9 903b 7bcb 13bc 6812 4dbb
00000110: da4f 30bc 99f6 a03b 1d15 ebbb 7b15 823b
00000120: 5682 8fbb 07d0 41bc 9552 9338 ff19 a0ba
00000130: 62a0 973a 27d4 363b 9286 f4bb 5f48 943a
00000140: 0a26 edbb 0d82 6b3b 1f1b 90bb 64c3 11bb
00000150: e8cc 7b3b 83ab 31bb bb35 2abb c05e adba
00000160: cae8 72bb 239e 113b a5a2 ad3a 52af 74bb
00000170: 18d7 4c3b 81b0 1eb9 923b 07bc b310 3f3b
00000180: d8b8 493c ebea 1dbb 75e3 11bc d745 a53b
00000190: 6384 ab3b 4415 483c 68c1 5dbb f8b2 a2bb
000001a0: f803 d4bb 85cc 05bc 2f6c 72bb 7dd2 78ba
000001b0: ae49 183c 3b2b 313c bb1a 63bb 3890 fcbb
000001c0: 0407 b83b d757 193c b1ae 23bc f8c5 dfbb
000001d0: 2e1a 1a3c 7afa 6d3b bbd6 01ba d706 a0ba
000001e0: d677 20bc 443e 18bb fd05 1e3c 6dcc ccba
000001f0: c3f9 c33a 67cf 3f3b e576 92bb 2c60 0a3b
00000200: d09b e0bb 9f4e 1f3c 2a60 10bc ebff 28b9
00000210: aa8c f13a 7ca5 adbb ba0f b8bb 4a00 683b
00000220: 97e0 acbb d3c5 4abc a08f a8bb 4440 47bb
00000230: c269 813b b8cd 07bb 59a6 943a bf4a b6ba
00000240: beb3 a83b 337f 8abb e82e 24ba 235e 0c3b
00000250: 8b23 5239 2c15 0a3c 584b 623b 6f41 8039
00000260: 13e3 18ba da8b db3b c2c9 b6bb 180a 623a
00000270: 0893 75bb af47 ba3b d32e bfbb f893 5f3a
00000280: a3f7 183c 1f6a aebb bff4 f3b9 461b 313c
00000290: 10af d339 68bf 833b 18a5 ea3a ade1 613b
000002a0: e0f6 a4bb 19e6 833b 078e c43a 5ac5 1c3c
000002b0: 32b1 03bc a817 cf3b bd0f ef38 17b1 7c3b
000002c0: bb2c d1ba 6a02 e7bb ece1 2b3b 35e9 14bb
000002d0: 6a6b 13bc 27d2 83bb 00ac d83b 0301 e43a
000002e0: afbc 52b8 b3a7 6a3c 8ddf a2b9 934f 86ba
000002f0: ef6f 223c 0531 ffbb dd2f 86b9 4244 3c3b
00000300: dc5f 95bb 4af7 1c3b a269 203b fd49 6abc
00000310: fb6e 98ba 96c9 983b 5127 a2bb a411 1abc
00000320: 5b16 4b3b 2899 7b3c c26a ccba adc6 cc39
00000330: a349 be3b b0d7 2bbb b0f6 633a 82a8 e0bb
00000340: 0d46 ba3b de79 393c 1b37 d5bb c713 c5b8
00000350: 8ff0 ba3b 14a7 0ebb f670 b1ba 5504 3dbb
00000360: 5ae9 803c 32cb 713c d48d 8139 4f23 c83b
00000370: 518f bd3b edb9 85bb a7f3 8a3b 148d 113c
00000380: 7fd6 76bb b7ff 82bb ab09 c73b f8bb 9f3b
00000390: 6e98 02bb 6c13 083c b79d 53bc 7396 50bb
000003a0: 5fe1 543a 36ed 8b3a a6cf 063c 36ad 123c
000003b0: c73c 4839 1822 a0bb ed97 073a 5214 643a
000003c0: acc4 4abb e7f6 eb3a 2035 fbbb 1837 153a
000003d0: b84d 41bc 1b04 7a3a 757a 3f3c 2cbb 3b3a
000003e0: abb3 683a 2390 a33b 3864 e337 ec47 9a3b
000003f0: 6ba9 1b3c d76a 9e38 902b 673a 6594 0b3b
