EcoSculptor/results/Final_1.2/Hunteranimal/Hunteranimal-519983.onnx (onnx, 58409 bytes, 6 tensors)

network_body._body_endoder.seq_layers.0.weight f4 [256, 47]
000000 59 f3 a4 3e 20 54 a8 bd fe 10 db 3c fa d7 3d bc
       0.3221691 -0.082191706 0.026741501 -0.011587137
000010 d4 ac 40 3e be 09 e5 bd 0d f0 05 be cb ee 16 be
       0.18815929 -0.11183499 -0.13079853 -0.1473953
000020 c0 32 76 3e 6d 4b ff bd ed 90 03 be 46 c1 ac 3c
       0.24042797 -0.12465558 -0.12848254 0.021088254
000030 0b 68 15 3e b0 5e af be d6 cf f4 3d 71 7c 97 3d
       0.1459047 -0.34251928 0.11953704 0.07396782
000040 fa 5d c8 3d 32 7d 01 3e e9 9f aa bd b6 a3 79 3e
       0.097835496 0.12645414 -0.08331282 0.24378857
000050 6c d0 7f be 4f fd b0 3d b3 75 5a be d9 dd a3 3e
       -0.2498185 0.08642065 -0.21333961 0.32005194
000060 20 24 50 3e d5 f1 fd 3c 59 70 41 be 16 aa e6 3c
       0.2032628 0.030999104 -0.18890513 0.028157275
000070 fb 28 6c 3e dc e8 ce 3b 03 5e a6 3d 28 f8 aa 3c
       0.23062508 0.00631438 0.081234 0.020870283
000080 b3 00 d5 bd 4a c4 5d ba 57 18 48 be 19 23 01 be
       -0.10400524 -0.00084597303 -0.19540535 -0.12611045
000090 f3 33 48 3e e7 51 bf 3d 44 7e a8 3d 75 b6 61 3d
       0.19551067 0.093417935 0.08227208 0.055105645
0000a0 b1 ac 67 3e 52 08 65 3e ec ab 51 3e 54 42 64 be
       0.2262447 0.22366455 0.20475739 -0.22290927
0000b0 81 60 89 3c 61 34 a9 bd 6e bd 90 bd 6f 45 49 be
       0.01676965 -0.082619436 -0.07067381 -0.19655393
0000c0 ba d0 01 3e 87 39 3d 3d 7f 09 1f 3d 37 a7 84 bd
       0.12677279 0.04619744 0.038827416 -0.06477206
0000d0 ff ca 66 3d c6 16 e3 bd 28 89 e5 3c a9 86 e8 bd
       0.056345936 -0.11088328 0.028019503 -0.113538094
0000e0 ba 26 27 3d 21 5c 4a 3e ad e2 a4 be 36 73 48 3e
       0.040808417 0.19761707 -0.3220419 0.195752
0000f0 81 44 24 3d 22 62 7d bd 92 df 75 3d 68 18 b8 be
       0.040104393 -0.061861165 0.060027666 -0.3595612
000100 9a df 5a bd 9b 35 27 3e 9d e1 99 be 56 75 ce 3d
       -0.0534359 0.16329043 -0.30054942 0.10080974
000110 6b 6e ad 3c 5f e9 18 be ab 75 70 be a2 7c 3c be
       0.021170815 -0.14932774 -0.23482387 -0.18406919
000120 94 2f 45 3e ca 17 2d 3c b4 b6 3e 3d 7b 4a 90 bd
       0.19256431 0.010564754 0.046560958 -0.07045456
000130 e8 46 f2 3d 70 95 a5 3d b5 26 05 3e ef de 30 be
       0.118299305 0.080851436 0.13003047 -0.17272542
000140 93 e3 9c 3d be 26 63 3c 33 17 3e bb e4 03 71 bb
       0.07660594 0.013864217 -0.0029005527 -0.0036776
000150 a0 1f c0 bc 21 9e 2f be 23 bf 42 be 63 d8 80 3d
       -0.02345258 -0.17150165 -0.19018225 0.062912725
000160 5f ea 58 be 6e c3 90 3d 65 c8 83 be 92 c0 1f 3e
       -0.21183155 0.07068525 -0.25738826 0.15600803
000170 dc 4e 91 be f9 ac 45 be 17 7c f3 bd 37 4c a0 bd
       -0.28380477 -0.19304265 -0.11888903 -0.07827037
000180 91 f2 45 be 87 36 3e 3e 1e 77 a4 bd e7 7a d7 bd
       -0.19330813 0.18575488 -0.08030532 -0.10521489
000190 03 22 81 be ea b8 18 3e 76 b8 55 be 32 8f a2 3d
       -0.2522126 0.14914289 -0.20871148 0.079374686
0001a0 68 0c 68 be c3 be 9d bd 6d a1 22 3e 7d 40 a7 ba
       -0.22660983 -0.077024005 0.15881892 -0.0012760308
0001b0 55 b1 43 bd d1 9c f7 bd 98 e1 b6 be 3b 5c 50 bc
       -0.04777654 -0.12090457 -0.3571899 -0.012717302
0001c0 e8 b6 eb bd 0f 4c 3b 3e ca df 1f be 25 5f 35 3e
       -0.11509496 0.18290733 -0.15612713 0.17712076
0001d0 87 cf 24 3d 42 fb 81 bc b3 9c b5 bd 14 78 da 3c
       0.040236976 -0.01586688 -0.08867779 0.026668586
0001e0 60 c2 17 be 8e eb d6 bd d1 21 99 be f7 58 49 be
       -0.14820242 -0.10494147 -0.29908612 -0.19662844
0001f0 89 af ce 3d e5 9a d5 bd 66 1e 22 be fc 49 11 3e
       0.100920744 -0.104299344 -0.15831909 0.14188379
000200 b7 95 39 bd 62 ac 74 3d 7b 2c b4 bc 63 cd f1 bc
       -0.045308795 0.05973471 -0.021993866 -0.029516881
000210 fd 5f 22 3e fc 02 79 3e dc c9 62 bd 10 ce 5d be
       0.15856929 0.24317545 -0.05536829 -0.21660638
000220 43 fe ae bc 36 8f fa bd b2 98 04 3e 25 02 37 3d
       -0.021361476 -0.122343466 0.12948874 0.04467978
000230 5b 4a 5f be 52 f7 4f 3e 7f 69 b2 be eb 40 2a bd
       -0.21805708 0.20309189 -0.34846112 -0.041565817
000240 12 87 2a 3e 2f 9b 24 3e d8 f8 4a 3e 0e 88 92 be
       0.16653088 0.16074823 0.19821489 -0.28619426
000250 36 07 8a bc f6 67 2a 3d 2b 5d 11 bd 28 9b 7c 3e
       -0.016849142 0.04160305 -0.035489243 0.24668562
000260 cd da 72 3e 7b a1 2b 3e b1 af eb 3d 4b bd 5b 3e
       0.23716278 0.16760819 0.1150812 0.21458928
000270 aa 9b ab 3d f8 17 af 3e e4 93 43 be 1b c6 36 3e
       0.083793 0.34197974 -0.19099385 0.17849009
000280 2a d3 2d be 0a 18 dc bd 64 52 0f be a0 8b dc bc
       -0.16975084 -0.107467726 -0.13996273 -0.026922047
000290 e1 1c 24 bd 5c 7e fe 3d d3 bb e6 bc d9 7f 9d bd
       -0.040066604 0.12426445 -0.028165733 -0.07690401
0002a0 36 a7 96 3e 10 47 aa 3e d2 a2 34 3e 23 f7 71 3d
       0.29424447 0.3325734 0.17640236 0.05907358
0002b0 97 b7 a0 3d d2 58 91 3e 4e 88 cd 3d a0 cb c7 3d
       0.07847517 0.28388077 0.10035764 0.09755635
0002c0 73 36 22 3d 70 7c 9a 3d e3 a7 88 3d a8 ce 7c 3e
       0.039602708 0.07543266 0.06672647 0.24688208
0002d0 72 4c 8b 3c c9 59 b7 3d 29 a0 83 3d 38 30 97 3d
       0.017004225 0.08952672 0.064270325 0.07382244
0002e0 1c 67 0f bd d8 11 29 3c bf 66 c8 bd 8a 26 63 bd
       -0.035010442 0.010319196 -0.09785222 -0.055456676
0002f0 1f fa bc 3d a9 64 97 be d6 f9 5d bd 2f 4a fc 3c
       0.09227394 -0.29568985 -0.05419334 0.030797092
000300 72 4d 30 3e 98 5e 01 3e ac aa c1 bd 49 6e 87 3e
       0.17217043 0.12633741 -0.09456381 0.26451328
000310 52 10 ad be b0 f6 a7 3d 05 13 1c 3e 8c 09 be 3d
       -0.33801514 0.08201349 0.1524163 0.09279165
000320 45 38 51 3e ff 92 2a 3e 23 df db bd 6f f2 a9 3d
       0.20431621 0.16657637 -0.10735919 0.08298194
000330 61 23 39 bd 93 1d ba bd cb 24 68 bd 71 89 23 bd
       -0.045199756 -0.09087672 -0.056675714 -0.039925996
000340 b1 49 56 3e 6f fe 44 3d 2a 07 b2 be 42 a9 16 3e
       0.20926549 0.04809421 -0.3477109 0.14713004
000350 14 cb e0 bd 92 3c 0b be ee 8a 87 3c 4d 36 6b be
       -0.10976234 -0.13597324 0.016545739 -0.22969933
000360 3c a8 25 3e 05 fe e9 3d be a7 4b 3e f4 33 fe 3d
       0.16177458 0.114254035 0.19888207 0.12412253
000370 12 57 d0 bd e9 a7 99 bc 94 a0 1e be 38 30 be 3d
       -0.10172857 -0.018756824 -0.15490943 0.09286541
000380 bd 8f b1 bd 36 e2 b1 bc b8 46 5c 3e 10 1c 2c be
       -0.08669994 -0.021714311 0.21511352 -0.1680758
000390 41 5d 66 be 8b 3d e3 3d 04 7f b1 bb 4d 2f 13 be
       -0.22496511 0.11095723 -0.005416753 -0.14373513
0003a0 86 e3 c7 3d 71 e6 1c 3e 6e 16 6c bc c7 af 70 be
       0.097601935 0.15322281 -0.0144096445 -0.23504554
0003b0 9c 0b e1 3d 7e 34 1d be 93 8f 01 3c 6d b0 ad bd
       0.109885424 -0.15352055 0.007907766 -0.08480916
0003c0 fa ce 30 be a8 73 14 be 33 cb 2f bd e0 44 2f 3c
       -0.17266455 -0.14497244 -0.042918395 0.010697573
0003d0 12 70 1c 3d 99 86 ed bd 31 f2 2e be f1 90 2e be
       0.038192816 -0.11597938 -0.17084576 -0.17047478
0003e0 29 19 0d be e6 dc 61 3d 5b 2a 29 be 76 8f a0 3c
       -0.13779129 0.055142306 -0.16520064 0.019599658
0003f0 87 44 4e 3e e2 90 21 3e 5e 62 96 3d 29 34 08 bd
       0.20143329 0.15777925 0.07342981 -0.03325287

network_body._body_endoder.seq_layers.0.bias f4 [256]
000000 04 0b 06 bc da 67 65 3c 49 ae 04 3d 63 d4 5a 3b
       -0.008181337 0.014001811 0.032392774 0.0033390753
000010 a3 a8 2d bc 2c e8 51 3d 7a 5d cb 3c b8 96 45 3d
       -0.010599288 0.051246807 0.024824847 0.04823944
000020 cb 02 69 3d 55 c6 b2 bc 5a c3 b2 3c b4 9c 03 3d
       0.05688743 -0.021823088 0.021821667 0.032131866
000030 81 2a d0 3c ca 90 35 3c b5 60 14 3d a9 5d 4d 3c
       0.025410892 0.011081884 0.03622504 0.012534537
000040 f6 b8 b7 3b 31 7e ef 3c dc 88 56 3d 04 03 77 3d
       0.005606766 0.029234977 0.052376613 0.06030561
000050 d4 f9 a5 bb bc 02 c8 3c c8 9a 0f 3c 9e 93 c1 3b
       -0.005065182 0.024415366 0.00876493 0.00590749
000060 ae fe 04 3d b8 5d 81 3c cd d6 25 3b 82 08 98 3c
       0.032469444 0.015791759 0.0025305033 0.018558744
000070 4f 00 cb 3c a7 e0 3a 3b 57 e8 28 3d d5 00 a4 3c
       0.02478042 0.002851525 0.0412372 0.020019928
000080 2a 66 c1 3b 62 df c0 3b 44 fa 0b 3d 62 a3 22 3d
       0.0059020715 0.0058860043 0.03417422 0.039706595
000090 e2 c9 9b 3c 1d 02 08 3c b8 1b 2d 3d 7e 4b 25 3d
       0.019017164 0.008301285 0.042262763 0.040355198
0000a0 3c 63 51 3d b0 9f b8 3c 78 cb 57 3b d8 3f 12 3c
       0.051120028 0.022537082 0.0032927673 0.008926354
0000b0 d1 a5 99 3b ed 83 41 bb 49 82 54 3b 33 1f 77 3c
       0.0046889563 -0.0029528097 0.0032426289 0.015083122
0000c0 bd 97 5d 3d d8 f7 c6 3a 14 6b 3d 3d 95 a8 96 bc
       0.054099787 0.0015180064 0.046244696 -0.018390933
0000d0 d5 2e 2a 3d fd b5 0a 3d a1 9b 4a 3d 0e a4 fe 3c
       0.04154857 0.033864964 0.049464826 0.031084087
0000e0 2d c4 41 3d d5 35 97 3c 9f f8 4d 3b 06 94 68 ba
       0.04730623 0.018458286 0.0031428707 -0.0008872155
0000f0 0a b6 42 3d f0 37 20 3c 88 96 c5 3b bb 53 64 3c
       0.047536887 0.009778962 0.0060299076 0.0139359785
000100 89 6f 0a bc 9f ee 92 3c 5d fe 94 3a 6b 16 86 bc
       -0.008449444 0.017936049 0.001136731 -0.016368112
000110 de 48 44 3c a4 6d 6c 3d de 8b 80 3c ec f1 f5 3c
       0.0119802635 0.05772175 0.015691694 0.030022584
000120 4d 65 b8 3b c1 f7 d5 3c 59 84 53 3d ca 6a f7 3b
       0.0056273104 0.026119115 0.05163989 0.007550572
000130 f1 af 25 bc e8 43 1a 3c 6b 5b ad 3c 67 bd 19 3d
       -0.0101127485 0.009415604 0.021161756 0.037534144
000140 ce 80 8e 3c 9e 55 b0 3c 8d b3 f7 3c c7 da 05 bc
       0.017395403 0.0215252 0.030236984 -0.008169836
000150 a7 67 9d 3d a8 84 44 3d f3 75 23 3d 2b b4 41 3b
       0.07685786 0.047978073 0.039907407 0.0029556851
000160 55 fd 54 bb 3f 94 b5 3d 80 bc 97 3d e6 cc 72 3c
       -0.003249963 0.08866166 0.074090004 0.014819359
000170 dd 82 7a 3d 06 61 15 3d 13 2d 2a 3d 2c 9e 60 3c
       0.061159957 0.036469482 0.041546892 0.013709586
000180 d7 60 03 3d cc c3 84 3c ae 0e 01 3d a4 47 a6 3c
       0.032074776 0.016206644 0.03150814 0.020297833
000190 8a 71 a9 ba da 12 c8 3c 1d d1 3f 3d 07 6e e6 3c
       -0.0012927514 0.024423052 0.046830285 0.028128637
0001a0 28 9c 1f 3d 42 3d 8b 3c 24 b7 36 3d b5 b1 26 3d
       0.03896728 0.016996983 0.04460825 0.04069682
0001b0 f7 d2 6a 3d a1 77 06 3d 20 7d 45 3d be 55 80 3d
       0.057330098 0.03282893 0.04821503 0.06266354
0001c0 0d 89 b9 3d 45 5e 59 bc 4a 12 3e ba cf e5 53 3d
       0.090593435 -0.0132671045 -0.000725065 0.051732834
0001d0 3d 1a 30 3d 7e 51 8a 3c fe 29 12 3c 65 c9 34 3d
       0.042993773 0.016884562 0.0089211445 0.044137377
0001e0 c3 9e d9 3b cf 82 6f 3c 4d 77 94 bb 15 5f 8f ba
       0.0066412403 0.01461859 -0.0045308233 -0.0010938371
0001f0 b2 02 d7 3b e5 70 d9 3c b0 07 89 3d 3e 35 53 bc
       0.0065616006 0.02654309 0.066909194 -0.012891112
000200 55 30 6d 3c c9 b7 85 3c 62 2d 88 3d 88 9b 08 3c
       0.014476855 0.016322987 0.06649281 0.008337863
000210 e6 fa 54 bc b4 1c 23 3d f2 0a f6 3b 55 44 65 3d
       -0.012999272 0.039822295 0.007508629 0.05597337
000220 9f be 7c 3d ab d0 36 3d e1 c0 d1 3c 78 92 4f bc
       0.061705228 0.044632595 0.025604667 -0.012669198
000230 a7 08 95 3b 91 84 18 bc d7 2e d1 3b 7c 93 51 3d
       0.0045481506 -0.00930895 0.0063837576 0.051166043
000240 11 89 33 3d 8a f2 21 3c 3e 43 0f 3d 1f ba c6 bb
       0.04383189 0.009884486 0.034976237 -0.006064668
000250 b5 af ea 3c 0e f5 1c 3d e0 08 84 3d e9 f2 10 3d
       0.028648237 0.03831964 0.06447005 0.035387907
000260 16 87 54 bc fe 63 91 3c ba bb de 3c 04 74 12 3d
       -0.01297166 0.017747875 0.027189124 0.035755172
000270 1d 17 2e bb 2c 0d 9b 3c 37 9b d1 3a a6 ea 9b 3b
       -0.002656407 0.01892718 0.0015991692 0.004758197
000280 a5 1d fb 3c 2f 46 6d 3d fe eb 14 3d 2e b0 00 3d
       0.030653784 0.05792826 0.036357872 0.031418018
000290 09 a5 40 3d e4 cc 29 bc b7 5d 93 bb 2c 74 80 3d
       0.04703239 -0.010363791 -0.0044972557 0.06272158
0002a0 71 55 c3 3c 8f 90 c1 3b 7e 19 a6 ba 50 dc 97 3c
       0.023844453 0.0059071253 -0.0012672392 0.01853767
0002b0 87 4b dd 3c a1 35 df 3c 8a da 85 ba 53 16 81 3c
       0.027013553 0.027247252 -0.0010212224 0.015757715
0002c0 50 b6 82 3d c2 22 59 3d 50 a2 1a 3c c6 3d 55 bb
       0.063824296 0.053011663 0.009438112 -0.003253804
0002d0 81 de 18 ba 44 f6 8c bc 01 5c 07 bd e8 25 a8 bc
       -0.00058314955 -0.017207272 -0.033046726 -0.020525888
0002e0 79 69 20 3c d6 43 14 3d e8 44 82 3d f4 8a 23 bc
       0.009790772 0.036197506 0.06360799 -0.0099818595
0002f0 7c 98 c3 3b 86 37 c0 3c 18 26 b7 bc 3d f4 1a 3d
       0.0059691053 0.023463976 -0.022357032 0.03783058
000300 e5 23 ed 3c db cf 2d 3c 0b 70 55 3b 6a 0e 98 3c
       0.02894778 0.010608639 0.0032568004 0.01856156
000310 22 54 ce 3c 2b 67 8e 3b ab 7d 58 bc b5 0f b2 3c
       0.025186602 0.0043457947 -0.013213555 0.021736005
000320 64 12 a7 3c 05 cb 80 3d fb 84 5b 3c 28 90 60 3c
       0.020394512 0.06288723 0.013398404 0.0137062445
000330 71 3e 25 3d a7 a5 ba 3c d5 5f 2e 3c dd 1b 99 3b
       0.040342752 0.022784067 0.010642965 0.004672511
000340 fb aa b1 3d b2 8e 57 3c 6b 8a c1 3b ff 30 26 3c
       0.0867519 0.01315658 0.0059063933 0.0101435175
000350 ce 03 8c 3d 11 f5 73 3c 83 73 c5 bc 48 05 02 bd
       0.06836663 0.014889971 -0.024102932 -0.031743318
000360 2d c8 1c 3d 26 d9 ca 3c 8a 21 df 3c fc db bb 3b
       0.03827684 0.024761748 0.027237672 0.0057330113
000370 38 af ee 3c 27 34 8b bc a5 89 10 bb 52 2c 8c bc
       0.029136285 -0.016992642 -0.0022054699 -0.017110977
000380 74 ec 11 3c 6f 03 07 3d 40 3b c7 b9 1d 67 61 bb
       0.0089064725 0.03296226 -0.00038000382 -0.0034393736
000390 5b 8b 34 ba ed 13 26 3c e4 ff fb 3c 4f 4f 2b 3d
       -0.00068872207 0.010136587 0.030761667 0.04182368
0003a0 1b 38 b7 3a c7 74 d4 3c 1f 82 d4 3c ab 65 81 3c
       0.0013978513 0.02593459 0.025940953 0.01579555
0003b0 dc e4 d6 bc a9 5a fe 3c f4 b8 ae 3c 69 7b 78 3c
       -0.026232176 0.03104909 0.021328427 0.015166142
0003c0 f5 3c d4 bb d3 53 67 3d bd c8 03 bc 48 0a fd 3c
       -0.006476993 0.056476425 -0.008043465 0.030888692
0003d0 00 0d f5 3c 1a a5 0a bc cf 12 23 3d 59 b5 9d 3c
       0.029913425 -0.008462215 0.03981286 0.019251512
0003e0 48 74 f6 3b b5 1b a0 3a 31 13 06 bc b1 f6 df 3b
       0.007521186 0.0012215289 -0.0081832865 0.006834828
0003f0 a9 23 d7 3c 46 a9 d7 3b f7 a8 ce 3c 8e a7 0a 3d
       0.026262121 0.0065814583 0.025227053 0.0338512

action_model._continuous_distribution.log_sigma f4 [1, 2]
000000 6d 0e 23 3c 77 a7 69 bc
       0.00995217 -0.014261118

action_model._continuous_distribution.mu.weight f4 [2, 256]
000000 9d d4 5f 3a be 05 b9 3c 5f 52 91 ba c0 c0 6d bc
       0.0008538457 0.022585746 -0.001108717 -0.014511287
000010 f3 e7 bd 3c 1c 7e 70 bc 61 11 f1 bb 83 55 95 ba
       0.023181891 -0.014678504 -0.007356808 -0.0011393282
000020 69 3a 47 3c 06 1e 55 3b 9c 01 65 bd ad 7a 07 3c
       0.012159922 0.0032519116 -0.055909738 0.008268994
000030 0f a7 57 3c 64 04 ac bc f7 87 46 38 15 a0 75 3b
       0.0131623885 -0.020998187 4.7333506e-05 0.003747945
000040 3d 0e 3c 3d 29 40 0a 3d 95 5a e3 3b ec 80 dd 3c
       0.045912016 0.033752594 0.0069382885 0.027039014
000050 c8 fb 0f bc e7 77 10 bd 03 d1 5a bc c2 9b 76 3c
       -0.008788057 -0.035270598 -0.013355496 0.015051784
000060 96 cb 07 3c 36 d9 74 bd ad 92 2e bc 73 ba 80 bc
       0.008288285 -0.05977746 -0.010655087 -0.015713906
000070 79 4d af 3b bf 97 f1 bc d6 6e a1 3b 95 60 17 bb
       0.0053498116 -0.029491303 0.0049265428 -0.002309834
000080 66 2b c2 bc 77 83 86 bc 01 e1 14 3b bf 93 13 3b
       -0.023702335 -0.01642011 0.002271712 0.0022518483
000090 34 f6 17 3d 19 1d 0f 3c 80 ea cf bc 47 44 b7 3c
       0.037100032 0.008734965 -0.025380373 0.022371424
0000a0 41 20 8f bc 6a 79 b7 bc 68 9a 88 b9 b1 c1 30 3d
       -0.017471435 -0.022396762 -0.00026054983 0.04315347
0000b0 6c 36 46 bd 09 15 dc bc 60 cb 9f 3b 7a 67 3f 3c
       -0.048391744 -0.0268655 0.004876539 0.011682386
0000c0 24 34 5b bd be 9f 14 3d 4b 9b 11 bd d2 c6 87 3c
       -0.053516522 0.036285155 -0.03554849 0.016574297
0000d0 72 8c 34 3c d7 d6 4b 3d 9d 3d 1a 3d ce 76 cb 3c
       0.011019813 0.049765434 0.037656415 0.024836924
0000e0 11 3e 66 3d 1d 4a 92 bc f8 9c 4d bd f1 59 b3 bc
       0.056211535 -0.017857606 -0.050198525 -0.021893473
0000f0 ad f2 06 3c 54 12 dc bc 6e d4 0c bd af 47 8a 3d
       0.008236569 -0.026864208 -0.034382276 0.06751954
000100 2b 1f 91 bb 81 28 47 3c 43 57 ea 3c 57 48 36 3c
       -0.0044287643 0.012155653 0.028606063 0.011125646
000110 3b 40 c5 bc 57 e3 e9 3c 7d f5 5b bc e6 54 bd 3c
       -0.024078479 0.028550787 -0.013425228 0.023111772
000120 4d bd 0a 3d 34 af 20 3d bb aa 2d 3d 58 4c aa bc
       0.033871938 0.039229587 0.04239915 -0.020788357
000130 a7 5d 72 bc f9 46 8d 3c e0 1c 60 bb 8a db 9d 3c
       -0.014792836 0.017245756 -0.0034196898 0.019269723
000140 dc 5b 70 3c ea d5 d8 bc 82 26 48 3d 2e 84 e4 3b
       0.0146703385 -0.02646919 0.04886485 0.006973765
000150 2f 2c 2e bc e5 8c c4 3d 13 61 56 3c 53 74 45 3d
       -0.010630651 0.09597186 0.013084668 0.04820664
000160 61 3e 37 bd 5a a7 e2 bb 45 f7 58 bd 81 1b bb 3c
       -0.044737224 -0.0069169225 -0.05297019 0.022840263
000170 9a 43 c7 3a 9d 92 39 3d 2d e6 9d bb 05 30 cc 3c
       0.0015202642 0.045305837 -0.004818699 0.024925241
000180 6d 47 51 bb 17 02 06 bd 7b 4a b2 3d 63 7d ff bc
       -0.0031933442 -0.032716837 0.08705612 -0.031187719
000190 99 68 1c bd 6d 5f b6 bb b1 5d cb bc 54 c2 74 bd
       -0.03818569 -0.005565575 -0.024824949 -0.05975564
0001a0 54 8b 37 bb 26 42 fa 3c b6 8c ae bd 40 49 ff bc
       -0.002800663 0.03054912 -0.08522932 -0.031162858
0001b0 80 a5 55 bc f6 2c 31 bc e6 be 3b 3c 1c 55 b7 bc
       -0.013039947 -0.010813942 0.011459088 -0.02237945
0001c0 19 d7 f0 ba e0 d2 d0 3c ff 69 b1 3c 45 92 ad 3c
       -0.0018374651 0.025491178 0.021656988 0.02118791
0001d0 21 8c 5a 3d b0 54 51 3d 50 7c 31 bd 31 99 91 bc
       0.053356294 0.051106155 -0.043331444 -0.017773243
0001e0 f3 a3 cf 3c d8 0b df 3c 30 dd c1 bb 4f d6 b1 bc
       0.025346732 0.027227327 -0.00591626 -0.021708636
0001f0 7f 58 6c bc c9 df 26 3c e8 00 bc 3c 4a 33 2f 3c
       -0.014425396 0.0101851905 0.02294965 0.010693381
000200 69 18 0e 3d f6 52 28 bd 55 91 88 bc 6d 81 e1 3c
       0.034691248 -0.041094743 -0.016670862 0.027527535
000210 b4 38 b5 3b d2 a0 50 3d 70 a5 57 3c 9f 0a a6 3c
       0.005530441 0.05093462 0.013162002 0.020268736
000220 d2 df 32 3d 92 5e 2c 3c 91 2b 58 bd 08 25 d9 3c
       0.043670483 0.010520594 -0.052775923 0.026506916
000230 f1 84 19 bd 66 9c a1 bc d8 20 be bc e9 d8 71 bd
       -0.0374803 -0.019727897 -0.02320902 -0.059044752
000240 6e 8d 11 3b 9f d9 96 bc f0 07 8b bc 56 0a f8 bb
       0.0022209543 -0.018414317 -0.016971558 -0.0075695915
000250 a0 c4 86 3c d0 0e 30 3c de 5e d3 3c c7 0a cb bc
       0.01645118 0.010745719 0.025802072 -0.024785412
000260 37 d9 12 3c 26 89 a3 3c d4 40 0b 3c c1 45 81 bd
       0.008962921 0.019962858 0.008499343 -0.063121326
000270 9c c1 6e 3a e1 93 80 3c aa 6d 8f 3c e3 08 28 3c
       0.00091078295 0.015695514 0.017508347 0.010256025
000280 32 00 bf bb b6 84 f0 bc 2d db 4f 3c d5 e6 bb bc
       -0.0058288807 -0.029360157 0.012686533 -0.022937218
000290 e3 ff 1c 3c e4 90 ef 3a c1 33 2c ba fa 8d 2e bc
       0.0095824925 0.0018277434 -0.0006568991 -0.010653967
0002a0 b5 72 dc 3b f9 fc 22 bc 09 24 e3 bb af 1f 11 bd
       0.0067275413 -0.009948009 -0.006931786 -0.035430606
0002b0 60 cf de ba 1e 93 85 bd d8 07 38 3c 9b 4e 19 3d
       -0.0016999058 -0.06522201 0.011232339 0.03742848
0002c0 a6 d9 15 3b e2 96 b5 bc b5 be 21 bd 54 40 93 3c
       0.0022865324 -0.022166673 -0.039488513 0.01797501
0002d0 5d a7 5c 3c e7 9e f8 bb 8e a3 e9 3b d2 1c 2f 3c
       0.013467637 -0.007587302 0.007130093 0.010688024
0002e0 65 98 93 3c 58 93 11 3c a7 b0 01 3c 79 09 6d 3c
       0.018017003 0.008885227 0.007915652 0.0144675905
0002f0 d6 c2 a0 3c 85 29 14 bd f6 47 a4 3c 5e 5d fb bc
       0.019624155 -0.03617241 0.020053845 -0.03068417
000300 5b 21 bc 3c 62 3c 7a 3d 12 1a b7 3c c8 38 bb bc
       0.022965124 0.06109274 0.022351298 -0.022854224
000310 5d 97 3b bb 23 d7 ba 3c 2a bc 56 bb 75 72 1d bd
       -0.0028624155 0.022807663 -0.0032765963 -0.038439233
000320 29 be d6 bb 69 ff 6d bc df 33 15 bd b0 2f 18 3c
       -0.0065534306 -0.014526227 -0.03642642 0.009288713
000330 16 81 c4 3c c2 16 c0 bc 2f c0 94 3c a7 09 25 3d
       0.023987334 -0.023448352 0.018158047 0.04029241
000340 5d 04 8a 3c 4a 0c 2b 3d 95 6a 30 bd 3a b7 08 bc
       0.016847784 0.041759767 -0.043070395 -0.008344466
000350 91 d4 9d bc 00 0a 59 3c 85 85 a3 3b 6d e3 2c 3b
       -0.019266399 0.013247013 0.004990282 0.0026380674
000360 33 be 81 bb ca c7 09 bd 01 e6 71 bc 27 1e cc 3c
       -0.003959441 -0.0336378 -0.01476431 0.024916722
000370 16 e1 fc 3c fc 12 52 bc fa 3e ab 3c 1f 41 32 3c
       0.030869048 -0.012821909 0.020904053 0.010879784
000380 8d 60 87 3d df dc b1 3c e0 0f 8a 3c 3a 9a 14 3d
       0.066102125 0.021711765 0.016853273 0.036279894
000390 b7 51 c8 3c e6 82 64 3d e0 e7 e7 3d 00 75 50 3b
       0.024453027 0.055788897 0.113235235 0.0031808019
0003a0 a5 fd 5b bc 36 21 80 3c af e6 a0 3c fd 0b dc bc
       -0.013427173 0.015640836 0.019641249 -0.026861185
0003b0 a2 db 87 bb 93 6a 27 bc c1 3f fa 3a 18 48 3e bd
       -0.0041460553 -0.01021828 0.0019092486 -0.046455473
0003c0 fd 26 b4 bc 6d 56 01 bd f8 2d 19 bc 03 4c ce 3c
       -0.021991247 -0.031576563 -0.009349339 0.02518273
0003d0 23 be 18 bc 1a c7 c7 3c b7 90 bb 38 ad f4 bd bc
       -0.009322676 0.024386931 8.94381e-05 -0.02318796
0003e0 21 d0 a5 bc f3 75 ed 3c 63 0a 07 bb de 93 1e 3d
       -0.020240845 0.028986907 -0.0020605556 0.038715236
0003f0 18 56 1f 3c 71 74 d0 3c 2a dd 13 bd 24 03 ad bb
       0.009725116 0.025446149 -0.03609959 -0.0052799154

action_model._continuous_distribution.mu.bias f4 [2]
000000 6c 8f ab bb 74 93 db bc
       -0.005235603 -0.02680371

action_model._discrete_distribution.branches.0.weight f4 [1, 256]
000000 c5 7f b9 3b 47 91 aa bb f7 27 3f bb 38 9c b4 b9
       0.0056609833 -0.0052053067 -0.0029168108 -0.00034448667
000010 57 69 de b9 c2 69 77 bb 1f 0e 07 3b 59 88 09 bc
       -0.00042421624 -0.0037752246 0.0020607782 -0.008394324
000020 ec be c5 3b 03 b1 97 bb ee 70 36 3c 31 00 c4 3b
       0.0060347226 -0.0046292557 0.011135323 0.005981468
000030 4b 9a b0 bb 62 a7 9a 3a 69 52 81 3b 6a 1c 82 3b
       -0.005389487 0.0011799152 0.0039465916 0.0039706724
000040 3e 6b 32 bb d5 f7 2e 3b 3f a1 d1 bb 28 1c d9 bb
       -0.0027224566 0.0026698012 -0.006397396 -0.006625671
000050 cb 21 3c 3a 68 83 8a bb 2d ff 02 3a 8b 93 ae 3b
       0.00071766664 -0.0042270906 0.00049971306 0.005327647
000060 6a 29 60 3b 17 f6 f0 bb 3f 55 f6 3b f6 db 9a 3b
       0.0034204372 -0.007353555 0.0075174863 0.0047259284
000070 13 06 85 bb e7 1c 38 bc db 1d aa 3b 92 b3 50 bb
       -0.004059562 -0.01123736 0.0051915473 -0.0031845313
000080 b9 40 84 3b 23 a3 a7 3b 7b d7 e9 ba 2a b8 23 bb
       0.004036036 0.005115883 -0.0017840707 -0.0024981597
000090 de 07 24 b9 03 17 6e bb e7 51 81 3c 6f ca 76 3b
       -0.0001564319 -0.0036329634 0.015786124 0.003765728
0000a0 a5 9c 10 bc e2 fc b7 bb 8e 39 13 3c 8e 2e bb bb
       -0.0088264095 -0.005614863 0.00898589 -0.005712337
0000b0 0d 53 d5 3a 3f 81 d3 3b 55 d7 cf 3b 92 2e 12 bb
       0.0016275361 0.0064546163 0.0063428083 -0.002230559
0000c0 1b c5 db 3a 16 d9 3b bb 5a 5c 3a bb 8e 01 3c 3b
       0.0016767116 -0.002866333 -0.0028436393 0.002868745
0000d0 cf cd 86 3a cc cd 88 37 8b 41 1a 3a d9 6e 28 ba
       0.0010284724 1.6308295e-05 0.00058844005 -0.0006425209
0000e0 19 13 cb bb 8a 9c 0b bc 65 da ed ba 03 e1 a4 3b
       -0.006197345 -0.008521209 -0.0018146752 0.0050317063
0000f0 fa 68 d0 bb 0f df 1c bc df 78 00 bb 5b fd 95 3b
       -0.0063601704 -0.009574666 -0.0019603295 0.0045773215
000100 50 0d 1a 3b d9 c9 90 3b 7b cb 13 bc 68 12 4d bb
       0.002350647 0.0044185934 -0.0090206815 -0.0031291489
000110 da 4f 30 bc 99 f6 a0 3b 1d 15 eb bb 7b 15 82 3b
       -0.010761226 0.004912209 -0.0071741478 0.003969846
000120 56 82 8f bb 07 d0 41 bc 95 52 93 38 ff 19 a0 ba
       -0.004379551 -0.011829383 7.024888e-05 -0.0012214779
000130 62 a0 97 3a 27 d4 36 3b 92 86 f4 bb 5f 48 94 3a
       0.0011568184 0.0027897449 -0.007462331 0.0011313072
000140 0a 26 ed bb 0d 82 6b 3b 1f 1b 90 bb 64 c3 11 bb
       -0.0072372006 0.003593567 -0.0043977643 -0.0022241706
000150 e8 cc 7b 3b 83 ab 31 bb bb 35 2a bb c0 5e ad ba
       0.0038421694 -0.0027110286 -0.0025971967 -0.001322709
000160 ca e8 72 bb 23 9e 11 3b a5 a2 ad 3a 52 af 74 bb
       -0.0037065023 0.00222195 0.0013247324 -0.0037335944
000170 18 d7 4c 3b 81 b0 1e b9 92 3b 07 bc b3 10 3f 3b
       0.0031256136 -0.00015133807 -0.008253949 0.002915424
000180 d8 b8 49 3c eb ea 1d bb 75 e3 11 bc d7 45 a5 3b
       0.012312137 -0.002409632 -0.008904328 0.005043726
000190 63 84 ab 3b 44 15 48 3c 68 c1 5d bb f8 b2 a2 bb
       0.0052342876 0.012212101 -0.0033837203 -0.0049651824
0001a0 f8 03 d4 bb 85 cc 05 bc 2f 6c 72 bb 7d d2 78 ba
       -0.0064701997 -0.008166437 -0.0036990752 -0.00094918144
0001b0 ae 49 18 3c 3b 2b 31 3c bb 1a 63 bb 38 90 fc bb
       0.00929491 0.01081353 -0.0034653384 -0.007707622
0001c0 04 07 b8 3b d7 57 19 3c b1 ae 23 bc f8 c5 df bb
       0.0056160707 0.009359322 -0.00999038 -0.0068290196
0001d0 2e 1a 1a 3c 7a fa 6d 3b bb d6 01 ba d7 06 a0 ba
       0.009405656 0.0036312626 -0.0004952957 -0.001220907
0001e0 d6 77 20 bc 44 3e 18 bb fd 05 1e 3c 6d cc cc ba
       -0.009794196 -0.0023230473 0.009644982 -0.0015624888
0001f0 c3 f9 c3 3a 67 cf 3f 3b e5 76 92 bb 2c 60 0a 3b
       0.0014951754 0.0029267909 -0.0044697397 0.0021114452
000200 d0 9b e0 bb 9f 4e 1f 3c 2a 60 10 bc eb ff 28 b9
       -0.006854512 0.009723335 -0.00881199 -0.00016117065
000210 aa 8c f1 3a 7c a5 ad bb ba 0f b8 bb 4a 00 68 3b
       0.0018428762 -0.0052992683 -0.005617109 0.0035400563
000220 97 e0 ac bb d3 c5 4a bc a0 8f a8 bb 44 40 47 bb
       -0.0052757966 -0.0123762665 -0.0051440746 -0.0030403296
000230 c2 69 81 3b b8 cd 07 bb 59 a6 94 3a bf 4a b6 ba
       0.003949375 -0.0020721983 0.0011341079 -0.0013907774
000240 be b3 a8 3b 33 7f 8a bb e8 2e 24 ba 23 5e 0c 3b
       0.00514838 -0.004226589 -0.0006263093 0.0021418415
000250 8b 23 52 39 2c 15 0a 3c 58 4b 62 3b 6f 41 80 39
       0.00020040401 0.008427899 0.0034529772 0.00024462814
000260 13 e3 18 ba da 8b db 3b c2 c9 b6 bb 18 0a 62 3a
       -0.00058321765 0.006700021 -0.0055782506 0.000862272
000270 08 93 75 bb af 47 ba 3b d3 2e bf bb f8 93 5f 3a
       -0.003747167 0.005684815 -0.0058344393 0.0008528824
000280 a3 f7 18 3c 1f 6a ae bb bf f4 f3 b9 46 1b 31 3c
       0.009336385 -0.005322709 -0.00046530922 0.010809725
000290 10 af d3 39 68 bf 83 3b 18 a5 ea 3a ad e1 61 3b
       0.00040375488 0.00402062 0.0017901985 0.0034466789
0002a0 e0 f6 a4 bb 19 e6 83 3b 07 8e c4 3a 5a c5 1c 3c
       -0.0050343126 0.0040252325 0.0014995941 0.009568537
0002b0 32 b1 03 bc a8 17 cf 3b bd 0f ef 38 17 b1 7c 3b
       -0.008037852 0.0063199587 0.000113993396 0.0038557702
0002c0 bb 2c d1 ba 6a 02 e7 bb ec e1 2b 3b 35 e9 14 bb
       -0.0015958765 -0.0070498483 0.002622719 -0.002272201
0002d0 6a 6b 13 bc 27 d2 83 bb 00 ac d8 3b 03 01 e4 3a
       -0.0089977775 -0.004022855 0.006612301 0.0017395321
0002e0 af bc 52 b8 b3 a7 6a 3c 8d df a2 b9 93 4f 86 ba
       -5.0243627e-05 0.014322209 -0.00031065606 -0.0010247104
0002f0 ef 6f 22 3c 05 31 ff bb dd 2f 86 b9 42 44 3c 3b
       0.009914382 -0.007787826 -0.00025594133 0.0028727208
000300 dc 5f 95 bb 4a f7 1c 3b a2 69 20 3b fd 49 6a bc
       -0.0045585465 0.0023951107 0.0024477025 -0.014299867
000310 fb 6e 98 ba 96 c9 98 3b 51 27 a2 bb a4 11 1a bc
       -0.0011629754 0.004662703 -0.0049485345 -0.00940362
000320 5b 16 4b 3b 28 99 7b 3c c2 6a cc ba ad c6 cc 39
       0.0030988667 0.0153563395 -0.0015595781 0.00039057937
000330 a3 49 be 3b b0 d7 2b bb b0 f6 63 3a 82 a8 e0 bb
       0.005807118 -0.002622109 0.0008696122 -0.006856025
000340 0d 46 ba 3b de 79 39 3c 1b 37 d5 bb c7 13 c5 b8
       0.0056846202 0.011320559 -0.006506813 -9.397376e-05
000350 8f f0 ba 3b 14 a7 0e bb f6 70 b1 ba 55 04 3d bb
       0.0057049464 -0.0021767067 -0.0013537693 -0.0028841693
000360 5a e9 80 3c 32 cb 71 3c d4 8d 81 39 4f 23 c8 3b
       0.01573627 0.014757918 0.00024710468 0.0061077247
000370 51 8f bd 3b ed b9 85 bb a7 f3 8a 3b 14 8d 11 3c
       0.005784907 -0.004081002 0.0042404714 0.008883733
000380 7f d6 76 bb b7 ff 82 bb ab 09 c7 3b f8 bb 9f 3b
       -0.003766447 -0.0039977687 0.0060741506 0.0048747025
000390 6e 98 02 bb 6c 13 08 3c b7 9d 53 bc 73 96 50 bb
       -0.001992728 0.008305412 -0.01291602 -0.0031827956
0003a0 5f e1 54 3a 36 ed 8b 3a a6 cf 06 3c 36 ad 12 3c
       0.0008120741 0.0010675553 0.008228218 0.0089524295
0003b0 c7 3c 48 39 18 22 a0 bb ed 97 07 3a 52 14 64 3a
       0.00019096128 -0.004886877 0.000517248 0.0008700538
0003c0 ac c4 4a bb e7 f6 eb 3a 20 35 fb bb 18 37 15 3a
       -0.003093998 0.001800266 -0.007666245 0.00056921085
0003d0 b8 4d 41 bc 1b 04 7a 3a 75 7a 3f 3c 2c bb 3b 3a
       -0.011798315 0.0009537355 0.011686911 0.00071613747
0003e0 ab b3 68 3a 23 90 a3 3b 38 64 e3 37 ec 47 9a 3b
       0.000887687 0.0049915477 2.7107177e-05 0.004708281
0003f0 6b a9 1b 3c d7 6a 9e 38 90 2b 67 3a 65 94 0b 3b
       0.009500842 7.5539276e-05 0.0008818442 0.0021298167
