EcoSculptor/Assets/Trainings/4.0/Alphahunteranimal.onnx (onnx, 487384 bytes, 8 tensors)

network_body._body_endoder.seq_layers.0.weight f4 [256, 208]
0	0xbc44516d	-0.011982304
1	0x3d45cb80	0.048289776
2	0xbdf7b856	-0.12095706
3	0xbdc30e5b	-0.095242225
4	0xbc295323	-0.010334763
5	0xbdef285c	-0.1167762
6	0x3e045b0a	0.12925354
7	0xbc40f0f3	-0.011776197
8	0x3e3fb8b3	0.18722801
9	0xbc940577	-0.018069012
10	0xbe0b7090	-0.13617158
11	0x3df946d4	0.121717125
12	0x3d129f88	0.035796672
13	0x3db7fce4	0.08983782
14	0x3e2ff978	0.17185009
15	0xbbfeb886	-0.0077734618
16	0xbc50ed32	-0.012751864
17	0xbb9121f1	-0.004429095
18	0x3bc0950b	0.0058771423
19	0x3d99f5b1	0.07517565
20	0xbd97ed2f	-0.07418286
21	0x3e0a0912	0.13480023
22	0x3beb7a6a	0.0071862238
23	0x3dc71913	0.097215794
24	0xbce2f0ad	-0.027702654
25	0xbd13629c	-0.035982713
26	0x3dd2d65b	0.10294791
27	0xbe1cb230	-0.15302348
28	0x3e00f206	0.12592325
29	0x3e44b50c	0.19209689
30	0xbc8ccf56	-0.01718871
31	0x3de30f55	0.11086909
32	0x3d7b9af4	0.06142707
33	0x3e0aa9b5	0.135413
34	0x3c98c28f	0.01864746
35	0xbe290a74	-0.16507894
36	0x3dcb1fca	0.09918173
37	0x3d52ad7d	0.051434983
38	0x3d03e136	0.0321972
39	0x3e51e4be	0.20497414
40	0xbdde609d	-0.10858271
41	0xbd64c743	-0.055854093
42	0x3d9685d7	0.07349747
43	0x3c4c4e21	0.012469799
44	0x3d22b639	0.039724562
45	0x3db6c8f1	0.08925045
46	0x3d8d1d95	0.06890408
47	0xbbd920d6	-0.006626229
48	0xbe103c12	-0.14085415
49	0xbb950a19	-0.004548323
50	0xbd6fb206	-0.058519386
51	0x3d9af279	0.07565779
52	0xbbf0a0a7	-0.00734337
53	0x3e049a6a	0.1294953
54	0x3cf07523	0.02935273
55	0xbc367919	-0.01113727
56	0xbd8c0b87	-0.06838136
57	0x3dad3afd	0.08458517
58	0xbbf001fb	-0.007324455
59	0x3df8c8dc	0.12147686
60	0x3da068ef	0.078325145
61	0x3d27c004	0.040954605
62	0xbd994c96	-0.07485311
63	0x3d7fc941	0.06244779
64	0x3d17fc2a	0.037105717
65	0xbd8269d4	-0.06367841
66	0x3bb6b3b9	0.005575624
67	0x3d543b48	0.051814348
68	0x3e0410b1	0.12896992
69	0x3cb910bd	0.02259099
70	0x3d62e9ae	0.055398636
71	0x3df80fab	0.121123634
72	0xbd52e66b	-0.051489275
73	0x3e239335	0.15974124
74	0xbd85d880	-0.06535435
75	0x3d70a374	0.05874963
76	0xbe32a7c0	-0.17446804
77	0x3d75b662	0.059988387
78	0xbd2110c9	-0.03932265
79	0xbae30250	-0.0017319415
80	0xbd1fb142	-0.038987406
81	0x3de9ec73	0.11422052
82	0xbd3ad596	-0.045613848
83	0xbdc04c13	-0.0938951
84	0xbd448ba4	-0.047984734
85	0x3c451ea1	0.012031228
86	0x3d1e0598	0.038579553
87	0xbc415f9f	-0.011802583
88	0x3c8d0ab8	0.017217025
89	0x3dfa6d07	0.122278266
90	0xbda7ec9d	-0.08199427
91	0x3c7ac942	0.015306773
92	0x3d60a741	0.054847006
93	0x3c25c82c	0.0101185255
94	0xbd5a0c90	-0.053234637
95	0x3d72c052	0.059265442
96	0x3d9461c1	0.072452076
97	0xbd35f430	-0.04442233
98	0xbb6be27d	-0.0035993152
99	0x3db7d60b	0.08976372
100	0xbd8f7221	-0.0700419
101	0xbc6f49b4	-0.014604975
102	0xbc5e01ce	-0.013550235
103	0x3dab4416	0.08362596
104	0x3d16505d	0.036697734
105	0x3cc27e7b	0.023741951
106	0xbcce637f	-0.025193928
107	0x3b743b1b	0.0037266675
108	0xbdc030b9	-0.09384293
109	0x3d8a617b	0.06756874
110	0xbd561d32	-0.052273937
111	0xbcf8fc21	-0.030393662
112	0xbd229bcb	-0.039699357
113	0xbd63d1fe	-0.055620186
114	0x3d7ee68b	0.06223158
115	0xbd1e6b9e	-0.03867685
116	0x3d012295	0.03152712
117	0x3d6953a5	0.056964535
118	0xbc873ffc	-0.016510002
119	0xbdb9725d	-0.09055016
120	0xbd8d5562	-0.06901051
121	0x3b034622	0.0020030816
122	0x3c3ea4a3	0.011635932
123	0x3c844530	0.016146272
124	0x3e057c78	0.13035762
125	0x3c74c924	0.014940534
126	0x3d3b5b10	0.04574114
127	0x3c22f31a	0.009945655
128	0x3dc66c4b	0.09688624
129	0x3bf5659b	0.007488919
130	0x3d48b512	0.049000807
131	0x3daa1887	0.083054595
132	0x3dfdd6b1	0.12394465
133	0xbca2f45c	-0.01989191
134	0xbd7a3e36	-0.061094485
135	0x3ca23425	0.019800255
136	0x3d3edeee	0.04659932
137	0xbd15e658	-0.036596626
138	0x3d17793f	0.036980864
139	0x3d767487	0.060169723
140	0xbd641453	-0.055683445
141	0x3dfd780c	0.12376413
142	0xbab3f6de	-0.0013730188
143	0x3ae94b5a	0.0017798946
144	0xbba6f040	-0.005094558
145	0xbd87b471	-0.06626213
146	0x3da29414	0.079384
147	0xbd0f03c3	-0.034915697
148	0xbd633edd	-0.055479873
149	0x3d807c86	0.06273751
150	0xbc1b38df	-0.009474008
151	0x3da892f0	0.08231151
152	0xbcd455d0	-0.025919825
153	0x3e187fde	0.14892527
154	0xbd7b0f67	-0.061293986
155	0xbdcf9a5f	-0.10136866
156	0xbb9438e0	-0.0045233816
157	0x3b81f265	0.0039656633
158	0xbd3a6b41	-0.04551244
159	0x3d5c788f	0.05382591
160	0x3ca28700	0.019839764
161	0x3c8bcc9e	0.017065343
162	0xbd5017a2	-0.050803788
163	0xbd0c73aa	-0.034289993
164	0x3c52170a	0.012822876
165	0xbd0f8fed	-0.035049368
166	0x3e25cf8e	0.16192457
167	0xbc8f0e22	-0.017462794
168	0xbcff5fa1	-0.03117353
169	0xbd1612e2	-0.0366391
170	0xbd8d1a04	-0.06889728
171	0xbd899bc9	-0.06719167
172	0xbd953236	-0.072849676
173	0xbde5ecab	-0.112267815
174	0x3cbcaaed	0.023030723
175	0xbaf1c86a	-0.0018446569
176	0xbe14288e	-0.14468595
177	0xbd850f8f	-0.06497108
178	0xbd91f367	-0.071265034
179	0x3d56aa4d	0.052408505
180	0x3c92ad07	0.017904771
181	0x3cb0329a	0.021508504
182	0x3cd0a787	0.025470508
183	0xbdc5f801	-0.096664436
184	0x3e454ca1	0.19267513
185	0x3dc1c3a1	0.094611414
186	0xbcd9cc99	-0.026586818
187	0xbc23c4b4	-0.009995628
188	0x3d9661c8	0.07342869
189	0xbb994af6	-0.0046781255
190	0x3df50a3d	0.119648434
191	0xbdeb0b8c	-0.11476812
192	0xbd96a19f	-0.073550455
193	0x3d11972f	0.03554457
194	0xbde235b4	-0.11045399
195	0x3ded95da	0.116008475
196	0xbd9b0a2a	-0.07570298
197	0x3ca05e5c	0.019576244
198	0xbd840b6b	-0.0644749
199	0xbc951c81	-0.018202068
200	0xbd3af4b4	-0.045643523
201	0x3d411f0d	0.047148753
202	0x3d5f72ca	0.05455283
203	0xbcc36c1c	-0.023855262
204	0x3c81c6ab	0.015841803
205	0xbd908b6f	-0.07057845
206	0x3ce0277b	0.027362576
207	0x3c20e62a	0.0098205
208	0x3e199185	0.14996918
209	0xbdcf01ab	-0.1010774
210	0xbd350a42	-0.044199236
211	0x3dc7b937	0.09752124
212	0x3e142e45	0.14470775
213	0x3e07372f	0.13204645
214	0xbd19e52e	-0.03757208
215	0x3d8aacc7	0.06771236
216	0xbb8bd7fd	-0.004267691
217	0x3c77242e	0.0150843095
218	0xbc1f8ebd	-0.009738621
219	0x3ca6d401	0.020364763
220	0xbdfa6c71	-0.12227715
221	0x3e05f7aa	0.13082758
222	0x3e284f08	0.16436398
223	0x3dc108d6	0.094255134
224	0xbcf6c18a	-0.030121583
225	0x3dfac0f8	0.12243837
226	0x3d31381c	0.0432664
227	0x3da717e3	0.08158853
228	0x3ddb5070	0.107087016
229	0x3e0502d6	0.12989363
230	0xbbac5bce	-0.0052599674
231	0x3bb5bacb	0.005545949
232	0xbca2b387	-0.019860996
233	0x3da675a0	0.08127904
234	0xbe199d63	-0.15001445
235	0xbce5d869	-0.028057294
236	0x3d59cc37	0.05317327
237	0xbe1554bb	-0.14583103
238	0xbd7663c6	-0.060153745
239	0x3c9a780c	0.018856071
240	0xbbf86087	-0.0075798663
241	0x3d99a415	0.07501999
242	0x3d839267	0.064244084
243	0xbde10553	-0.10987344
244	0xbca80828	-0.020511702
245	0xbcb04b0a	-0.021520156
246	0xbcd9277f	-0.026508091
247	0x3c8aac73	0.016927933
248	0x3d506c86	0.050884746
249	0x3dde8e71	0.10867012
250	0xbe4e8d25	-0.2017103
251	0x3d99a0a1	0.07501341
252	0x3da9d0e0	0.08291793
253	0xbc596996	-0.013269803
254	0xbc9b11a4	-0.01892931
255	0xbd3a8ef7	-0.0455465

network_body._body_endoder.seq_layers.0.bias f4 [256]
0	0x3b59e8e4	0.0033250386
1	0x3cb5a36c	0.022172652
2	0x3c3a845c	0.011384096
3	0xbb19829a	-0.0023423792
4	0xbc0a4878	-0.008440129
5	0x3ca8a0c0	0.020584464
6	0xbbfb763e	-0.0076740077
7	0xbc16f51a	-0.00921371
8	0x3bc45e41	0.0059926813
9	0x3c134660	0.008988947
10	0x3c30d868	0.010793783
11	0x3b46d70e	0.0030340585
12	0x3b337e93	0.0027388677
13	0x3c890d37	0.016729934
14	0xbcf6931d	-0.030099446
15	0x3c4f3ef5	0.0126492875
16	0x3c84429e	0.016145047
17	0xbb8d519c	-0.004312707
18	0x3c7aa805	0.015298848
19	0xbc4b84d5	-0.012421806
20	0x3c9d6ce7	0.019216968
21	0xbaccb0ce	-0.0015616657
22	0xbc5d01e0	-0.013489217
23	0x3b4435af	0.0029939224
24	0x3b552dbf	0.0032528487
25	0xbc27d371	-0.010243283
26	0xbba23883	-0.0049505844
27	0xbb633a82	-0.0034672325
28	0xbc4e70dd	-0.012600151
29	0x3c8b281f	0.016986905
30	0x3c9f7fa2	0.01947004
31	0x3c46f9c4	0.01214451
32	0x3b80821b	0.00392176
33	0x3c898182	0.016785387
34	0xbc57591d	-0.013143805
35	0xbc6ed536	-0.014577201
36	0x3c6c4ca7	0.014422572
37	0xbbf45353	-0.007456222
38	0x3c892ec1	0.016745927
39	0xbc48642c	-0.012230914
40	0x3b9b7749	0.0047444445
41	0x3c48c36e	0.012253625
42	0x3c0a88e6	0.008455491
43	0xbc1f5305	-0.009724383
44	0xbcad1cc9	-0.02113189
45	0x3b82f917	0.003996979
46	0xb96330a2	-0.00021666524
47	0xbc335e12	-0.010947721
48	0x3b6df048	0.003630655
49	0x3c71c610	0.014756694
50	0x3c2f6f00	0.010707617
51	0x3c90be47	0.017668856
52	0x3c484906	0.012224441
53	0x3ad178fb	0.001598149
54	0x3cca0623	0.02466113
55	0xbc23b6e0	-0.009992331
56	0xb934e007	-0.00017249594
57	0xbb9bc2d6	-0.004753451
58	0x3bd6e2a2	0.0065577785
59	0xbc0fe138	-0.008781724
60	0x3bc3b0e9	0.005972017
61	0x3c2728e0	0.010202616
62	0x3bf8c85d	0.0075922445
63	0xbc79c527	-0.015244759
64	0x3c9f2380	0.019426107
65	0xbc9403b0	-0.018068165
66	0xbbb9b4d5	-0.005667309
67	0xbb3a8c0c	-0.0028464822
68	0x3cbab610	0.022791892
69	0xbc70df89	-0.014701732
70	0x3c513441	0.012768806
71	0x3b7d1179	0.003861515
72	0xbbc357b7	-0.005961384
73	0x3c086468	0.00832472
74	0xbc4d100e	-0.012516035
75	0x3c5aadbe	0.013347087
76	0xbb961446	-0.0045800535
77	0xbc8ac38b	-0.016938945
78	0x3d02936c	0.031878874
79	0x3a89d9cb	0.0010517178
80	0x3b0bebb0	0.0021350197
81	0x3ce407b4	0.027835704
82	0x3c5e6f57	0.01357635
83	0x3bf15b94	0.0073656533
84	0x3b9b56d8	0.004740577
85	0xbcea73e5	-0.028619716
86	0x3c81f880	0.015865564
87	0xbbcc75d7	-0.0062396335
88	0x3bcc1205	0.006227734
89	0xb996bb5d	-0.00028749826
90	0x3c81595e	0.015789684
91	0x3c954eb1	0.018226
92	0xbb8e809c	-0.0043488275
93	0x3c64a8cc	0.01395626
94	0x3c51a719	0.012796187
95	0x3bdc6ac0	0.006726593
96	0xbba9ee66	-0.00518589
97	0xbb0bbef6	-0.0021323538
98	0xbb91bca7	-0.004447538
99	0x3be18092	0.006881782
100	0xbc760eda	-0.015018189
101	0xbc79c9dc	-0.015245881
102	0xbbd947ef	-0.0066308896
103	0xbbe5a329	-0.0070079756
104	0xbc96711c	-0.018364482
105	0x3c77b109	0.015117892
106	0x3b2e825c	0.0026627993
107	0x3c9c708a	0.019096632
108	0x3abc6595	0.0014373536
109	0xbc020aa6	-0.007937109
110	0x3a078efb	0.0005171147
111	0xbb095a70	-0.0020958446
112	0xbca054b8	-0.019571647
113	0x3bff7e7c	0.0077970605
114	0x3a6a0653	0.0008927334
115	0xbc605a8b	-0.013693462
116	0xbc787883	-0.015165451
117	0x3c2a37f0	0.010389313
118	0xbb87aeb4	-0.0041406993
119	0x3bc7ec2c	0.006101152
120	0xbbe6a048	-0.00703815
121	0x3aa60abf	0.0012667998
122	0xbac04291	-0.0014668276
123	0x3c4c4d4f	0.012469604
124	0x3c786e04	0.0151629485
125	0xbc5e34a6	-0.013562357
126	0x3cfd1762	0.030894939
127	0xbbb4c9f3	-0.0055172383
128	0xbc0cedd9	-0.008601629
129	0x3b66ac3e	0.003519788
130	0xbbffc5aa	-0.007805546
131	0x3c0e04a1	0.008668096
132	0x3ab83ee0	0.0014056824
133	0x3c4c4c79	0.012469404
134	0xbb3356f7	-0.0027365068
135	0x3be44943	0.0069667413
136	0x3cc3dbe0	0.023908556
137	0xbb529f82	-0.003213853
138	0x3c83fdc4	0.016112216
139	0x3bd44ed7	0.006479125
140	0x3d0c1340	0.034198046
141	0x3cc0f2ae	0.023553219
142	0x3ad03c6d	0.0015887149
143	0xbb068c62	-0.0020530452
144	0xbbe1a5bb	-0.0068862117
145	0xbca30933	-0.019901847
146	0xbb72fe53	-0.0037077859
147	0xbca73cc0	-0.02041471
148	0x3b8d42e6	0.0043109534
149	0x3b94af65	0.00453751
150	0xbc338224	-0.010956321
151	0x3bbd74f1	0.005781763
152	0x3c37515e	0.011188833
153	0xbb6494a0	-0.0034878626
154	0xbc73bcb0	-0.01487653
155	0x3bf57508	0.007490758
156	0x3c2eeb85	0.010676269
157	0xbb54f72d	-0.003249596
158	0xbb7980d0	-0.0038071163
159	0xbbc3db6e	-0.005977086
160	0xbb47c118	-0.0030480083
161	0xbb863515	-0.0040956833
162	0x3b7244e8	0.003696734
163	0xbc7bc202	-0.015366079
164	0x3c930ac2	0.017949466
165	0xbc2cc291	-0.010544435
166	0xbbd04ea7	-0.0063570323
167	0xba85d95c	-0.0010211873
168	0xba94f03a	-0.0011363097
169	0xbc119903	-0.0088865785
170	0xbc02e288	-0.00798858
171	0x3bfcef1f	0.007718935
172	0xbbc37b66	-0.005965638
173	0x3d17a6bb	0.03702424
174	0x3b46dea9	0.0030345118
175	0x3c8fc1d9	0.017548488
176	0xbbe904ca	-0.0071111666
177	0xbc76a1b5	-0.015053202
178	0xbbf9a457	-0.007618468
179	0xbc771c35	-0.015082409
180	0xbc8e033c	-0.017335527
181	0x3aee6f25	0.0018191083
182	0x3d03baff	0.032160755
183	0x3aa65cf5	0.0012692498
184	0x3c9bf956	0.019039791
185	0xba21a036	-0.0006165536
186	0x3b8c4b10	0.004281409
187	0x3b4dee0f	0.0031422412
188	0xbbfc4f48	-0.0076998807
189	0x3b5de0e2	0.0033855964
190	0xbc4c6225	-0.012474571
191	0xbc09dbe3	-0.0084142415
192	0xbbbb750e	-0.005720741
193	0x3aefc9ab	0.0018294355
194	0xba9681a2	-0.0011482725
195	0x3c804aa4	0.015660591
196	0x3ccd4800	0.025058746
197	0x3b76cbd0	0.0037658103
198	0xbc7e38dc	-0.015516486
199	0x3cb4bf37	0.022063835
200	0x3c8ab593	0.016932284
201	0xbd0bbdd2	-0.034116574
202	0xb93540a1	-0.00017285581
203	0xbc57c18f	-0.013168707
204	0xbcbb83ee	-0.022890057
205	0x3c09a583	0.0084012775
206	0x3c5c6b32	0.013453292
207	0x3b856eb4	0.0040720347
208	0x3c2387ea	0.009981135
209	0x3b697d60	0.0035627708
210	0xbc8feb1e	-0.017568167
211	0x3bedafb3	0.007253611
212	0xbadd0b80	-0.0016864389
213	0xbc57124b	-0.01312692
214	0x3d1111d5	0.035417397
215	0xbc29b5d4	-0.010358293
216	0x3c596c5b	0.013270463
217	0xbc72931b	-0.0148055805
218	0xbc946fe5	-0.018119762
219	0xbd01b4a9	-0.03166643
220	0xbbce72a6	-0.0063002883
221	0x3bef5bd8	0.00730465
222	0xbc84419e	-0.01614457
223	0xbcc91740	-0.02454722
224	0xbb19ba91	-0.002345715
225	0x3ac954cd	0.0015360356
226	0xbc293474	-0.010327447
227	0x3becfdb0	0.0072323903
228	0xbc04d87c	-0.0081082545
229	0x3c854ce4	0.016272016
230	0x3c28ade6	0.010295367
231	0xbc5b46f8	-0.0133836195
232	0x3cfa4ab4	0.0305532
233	0x3d029f91	0.031890456
234	0xbc981e2b	-0.018569073
235	0x3be465ed	0.0069701583
236	0x3c244d45	0.010028188
237	0x3cf40f50	0.029792458
238	0xbbb14983	-0.0054103746
239	0x3b5bca7f	0.0033537445
240	0xbafe42fb	-0.0019398624
241	0xbc65ce2c	-0.014026206
242	0xbc634a07	-0.01387263
243	0x3b064c41	0.0020492228
244	0x3c5537ad	0.013013762
245	0xbc8784ec	-0.016542874
246	0xbc785fe7	-0.015159584
247	0xbc5068c2	-0.012720289
248	0x3c0651fe	0.008198259
249	0xbc88cb4c	-0.016698502
250	0x3c27a551	0.010232286
251	0x3cab2f04	0.020896442
252	0x3cea62f6	0.028611641
253	0xbbcb639e	-0.0062069437
254	0x3c8367ce	0.016040709
255	0xbce40fbb	-0.027839532

network_body._body_endoder.seq_layers.2.weight f4 [256, 256]
0	0x3d9c8e4e	0.0764433
1	0x3d6a3f9a	0.05718956
2	0x3d06628a	0.032808818
3	0x3d55c6d2	0.052191563
4	0xbe1e494e	-0.15457651
5	0x3e15eaa5	0.14640291
6	0x3da72095	0.081605114
7	0x3d299f3e	0.04141163
8	0xbd10b88d	-0.03533225
9	0xbe191f6f	-0.14953397
10	0x3cca7063	0.024711793
11	0x3c8a6ff1	0.016899081
12	0xbc8d53b1	-0.017251821
13	0xbd3dc709	-0.046332393
14	0x3cf0da43	0.02940095
15	0x3d7f0961	0.062264804
16	0x3b3e4f9b	0.0029039148
17	0x3ca0ffd7	0.019653244
18	0x3ceff509	0.029291647
19	0x3cefcb27	0.029271675
20	0x3d91887f	0.07106113
21	0xbd3a8252	-0.04553444
22	0xbcfbc44d	-0.030733252
23	0xbdb9ce4d	-0.09072552
24	0x3c99be24	0.018767424
25	0xbd4d31b3	-0.050096225
26	0x3dd1a66c	0.102368206
27	0x3d97894b	0.073992334
28	0xbde908f2	-0.11378659
29	0x3b8bb3ea	0.004263391
30	0x3c86d494	0.016458787
31	0xbca002e3	-0.019532626
32	0x3d902a5d	0.0703933
33	0x3c8d4e57	0.01724927
34	0xbd328fba	-0.0435941
35	0x3dc63e4e	0.096798524
36	0xbdaf0e05	-0.08547596
37	0x3d448f78	0.047988385
38	0x3e0919d1	0.13388754
39	0x3d0b49c5	0.0340059
40	0xbd56a049	-0.052398954
41	0x3d907eed	0.07055459
42	0x3d3a512c	0.045487568
43	0x3e0dfee2	0.13866761
44	0x3ba291d7	0.004961233
45	0x3d1d139f	0.03834879
46	0xbd725ca6	-0.059170388
47	0xbd3b76d6	-0.045767628
48	0x3d10ed94	0.035382822
49	0xbdca9001	-0.09890748
50	0xbd537fd1	-0.051635567
51	0xbc8e3960	-0.017361343
52	0x3cbe615a	0.02323978
53	0x3da0c057	0.07849186
54	0xbce1c347	-0.027558936
55	0x3e0da52b	0.13832538
56	0x3d4b6129	0.049653206
57	0xbc879057	-0.016548319
58	0x3cc1dcf0	0.023664922
59	0xbc557e6c	-0.01303063
60	0xbc7e9dc8	-0.015540548
61	0x3ccf9431	0.025339218
62	0x3d9bde31	0.07610739
63	0x3d28f53a	0.04124949
64	0x3d7207dc	0.059089527
65	0xbd2eb901	-0.042656902
66	0xbdeaa3d2	-0.114570275
67	0xbd2f2a9c	-0.042765245
68	0xbd04cb1c	-0.032420263
69	0x3d61c010	0.055114806
70	0x3befb844	0.0073156673
71	0x3cb7240a	0.022356052
72	0x3db9a16f	0.09063994
73	0xbd8da76a	-0.06916697
74	0x3dce1232	0.10062064
75	0x3d99bf69	0.07507212
76	0x3ae4f5db	0.001746829
77	0x3e0e0f6b	0.13873069
78	0x3c5a8c0c	0.013339054
79	0xbcae6484	-0.021288164
80	0x3d06144c	0.0327342
81	0xbd53a64e	-0.051672272
82	0x3c8aeaa2	0.016957585
83	0xbdd982d9	-0.1062066
84	0x3e07a31b	0.13245814
85	0x3c741f8f	0.014900102
86	0x3cf06eb1	0.029349657
87	0x3d71ddd8	0.059049457
88	0x3cab6cc3	0.020925885
89	0x3dbf1276	0.09329693
90	0x3dec460d	0.115367986
91	0xbd8a91a1	-0.06766058
92	0x3d82fe96	0.06396215
93	0x3d839b42	0.064260975
94	0xbbba0601	-0.0056769853
95	0xbb31cc04	-0.002712966
96	0xbcdad48a	-0.026712675
97	0x3cd005bc	0.02539336
98	0x3e23530b	0.15949647
99	0xbd75de96	-0.060026728
100	0x3d8f9205	0.07010273
101	0x3c0190e4	0.00790808
102	0xbce1eab6	-0.02757774
103	0x3c216c11	0.009852425
104	0x3df6f212	0.1205789
105	0xbdc03916	-0.09385888
106	0xbca74053	-0.020416414
107	0xbdb039c0	-0.08604765
108	0x3d8080e0	0.06274581
109	0x3da9f55a	0.0829875
110	0xbc923b5d	-0.017850572
111	0x3b8eddec	0.0043599512
112	0x3cca6496	0.024706166
113	0xbe13383b	-0.14376919
114	0xbbe6db4d	-0.0070451857
115	0x3d5558e3	0.052086722
116	0x3ce30041	0.027710082
117	0xbdb80797	-0.08985823
118	0xbda6ff98	-0.081542194
119	0xbe02aa13	-0.1276019
120	0xbb3a102c	-0.0028390987
121	0xbbb441c2	-0.005501003
122	0xbdcc1217	-0.09964388
123	0xbd4583a3	-0.04822124
124	0x3e0c61d2	0.1370919
125	0x3e04fff5	0.12988265
126	0xbd3fa86f	-0.04679149
127	0x3d45b38a	0.048266925
128	0x3d7430f9	0.059617016
129	0xbdbb86f5	-0.091566004
130	0x3da84dd0	0.082179666
131	0x3bfe6ed9	0.007764679
132	0x3dd25ae9	0.10271246
133	0xbd7a1d73	-0.06106324
134	0x3a02faef	0.00049964985
135	0xbdee95c4	-0.11649659
136	0xbc96286e	-0.018329825
137	0x3cba9eb6	0.022780757
138	0xbcaa4aec	-0.020787679
139	0xbbd31623	-0.006441848
140	0x3dd3d174	0.103426844
141	0xbbe574ac	-0.0070024338
142	0xbd454062	-0.048157103
143	0x3d834caa	0.06411107
144	0xbd16378e	-0.036674075
145	0xbcb8787e	-0.022518393
146	0x3d0f27c9	0.03495005
147	0xbb6ff0bf	-0.0036612002
148	0x3d3fec46	0.046856187
149	0xbd44b7fe	-0.04802703
150	0x3b8be72e	0.004269502
151	0xbcf4d812	-0.029888187
152	0xbc9c098b	-0.01904752
153	0x3d3f6d2d	0.046734978
154	0x3d0accef	0.033886846
155	0x3da45277	0.080235414
156	0x3d429d36	0.04751321
157	0x3d8d6349	0.06903703
158	0x3e004a0e	0.1252825
159	0xbd5e4b08	-0.054270774
160	0x3c871471	0.01648924
161	0x3c81bd5a	0.01583736
162	0x3b58ea63	0.003309869
163	0x3b2a1592	0.0025952798
164	0xbd9bb174	-0.07602206
165	0xbcf9662a	-0.030444223
166	0x3c0dfecb	0.008666704
167	0xbdd57185	-0.10422043
168	0xbd468838	-0.048469752
169	0x3ae6e511	0.0017615875
170	0x3d11084e	0.03540831
171	0x3c59ffc9	0.013305613
172	0xbd5b9073	-0.053604554
173	0xbd11ea0d	-0.0356236
174	0xbc1f1752	-0.00971015
175	0x3dc1e7a0	0.09468007
176	0xbba2ef2c	-0.004972359
177	0x3d44d513	0.048054766
178	0xbd24564b	-0.040121358
179	0x3d49776a	0.049186148
180	0x3dbfe1f8	0.09369272
181	0x3da2b8b9	0.07945389
182	0x3d736462	0.059421904
183	0xbb497815	-0.003074174
184	0xbcfad9ef	-0.030621497
185	0xb91e0b1c	-0.00015072193
186	0x3d5cff30	0.053954303
187	0xbd500cf6	-0.05079361
188	0x3beefcd2	0.007293322
189	0x3cd58697	0.026065154
190	0xbdd79c37	-0.105278425
191	0x3d2050dd	0.039139617
192	0x3aa2e82f	0.0012428815
193	0x3c64bc23	0.013960871
194	0xbd9a425f	-0.075321905
195	0x3c31f472	0.010861503
196	0x3c94917e	0.018135782
197	0x3d6a41ac	0.057191536
198	0xbd8b3f03	-0.06799128
199	0x3c6b3b74	0.014357436
200	0x3d3db743	0.04631735
201	0xbd771e4d	-0.06033163
202	0xbc2209b0	-0.009890005
203	0x3e4d05d2	0.20021752
204	0x3e00df86	0.12585267
205	0x3d85bcda	0.06530161
206	0x3cb03ff0	0.021514863
207	0xbc7832af	-0.015148803
208	0x3de8823f	0.113529675
209	0x3ce4bed5	0.027923027
210	0x3db0707c	0.08615205
211	0xbcfb0c1a	-0.030645419
212	0xbae603f1	-0.0017548782
213	0xbd37d1ad	-0.044877697
214	0xbdd4955c	-0.103800505
215	0x3d309f47	0.04312065
216	0xbe3490cc	-0.1763336
217	0xbd3ea127	-0.046540406
218	0xbbffcb62	-0.0078062275
219	0xbd6f090e	-0.058358245
220	0xbe08d5d3	-0.13362817
221	0xbb4c6045	-0.003118531
222	0xbd841a81	-0.06450368
223	0x3c6c8a0e	0.014437212
224	0x3dd6d7ee	0.10490404
225	0x3d3005b3	0.042974185
226	0xbcf4ef49	-0.029899256
227	0xbcc5baac	-0.024136864
228	0xbacb4f9d	-0.0015511398
229	0x3d45c91a	0.04828749
230	0x3d938efa	0.07205005
231	0x3cf241e6	0.029572438
232	0x3c9f4196	0.019440453
233	0xbdd5b485	-0.10434822
234	0x3db03280	0.08603382
235	0x3d0190e3	0.031632315
236	0xbdbd9e68	-0.09258729
237	0xbcfa90f9	-0.030586706
238	0xbdc45b74	-0.09587756
239	0xbcd90c9a	-0.026495267
240	0xbc98ae12	-0.01863769
241	0x3db3f43c	0.087868184
242	0x3d2da5e1	0.042394523
243	0x3cefebf7	0.029287321
244	0xbba2e636	-0.004971291
245	0xbd787bad	-0.06066482
246	0xb9097983	-0.00013110605
247	0xbbeaa118	-0.007160317
248	0xbd82f6c1	-0.06394721
249	0x3d233eb1	0.03985471
250	0x3d911cd6	0.07085578
251	0xbbc4abfa	-0.0060019465
252	0x3d3eb97c	0.04656361
253	0x3d941783	0.07231047
254	0xbd966edd	-0.07345364
255	0x3ca9062f	0.020632831

network_body._body_endoder.seq_layers.2.bias f4 [256]
0	0xbbc648fc	-0.006051181
1	0xbb080c8b	-0.002075943
2	0x3b1dfaec	0.002410586
3	0x3b740b35	0.0037238125
4	0x3c63dab0	0.01390712
5	0xbb686b5b	-0.003546438
6	0x3ca1aad3	0.019734776
7	0xbc0c9f0a	-0.00858284
8	0xbbe8fdc9	-0.0071103317
9	0x3cf2b554	0.02962748
10	0xbadda2d3	-0.0016909487
11	0xbbc062f6	-0.005871172
12	0x3c8f8084	0.017517336
13	0x3cc638e3	0.024197048
14	0x3cfdb985	0.030972252
15	0xbc57b549	-0.01316578
16	0xbaffe28e	-0.0019522475
17	0x3c4aeacb	0.012385081
18	0x3b23d74f	0.002500016
19	0x3d09b8e8	0.033623606
20	0x3a8b3e7c	0.001062348
21	0x3cfca85f	0.030842004
22	0x3c84f2e2	0.016229097
23	0x3bb453c7	0.005503151
24	0xbb80da57	-0.003932278
25	0x3c329590	0.010899916
26	0x3c39ff2b	0.011352341
27	0xbbbc43fb	-0.0057454086
28	0x3c09e90c	0.008417379
29	0xba19653d	-0.00058515725
30	0x3c83eb30	0.016103357
31	0xbb4d2d4f	-0.0031307524
32	0xbb9f20dc	-0.004856212
33	0x3c6ac99e	0.014330296
34	0x3cb639ed	0.022244418
35	0x3baf3b97	0.00534768
36	0x3c980b2e	0.018560018
37	0x3b7fb10f	0.0039015447
38	0x3d146dc6	0.0362375
39	0x3c774a96	0.015093466
40	0x3acd8593	0.0015680067
41	0x3c216469	0.0098506
42	0xbc5a225a	-0.013313854
43	0x3c18b1a8	0.0093197
44	0x3a04c793	0.0005065139
45	0x3bded9fe	0.006800889
46	0x3b7d9ca9	0.0038698113
47	0x3c2c7cf2	0.010527836
48	0xbb5be3bd	-0.003355249
49	0x3c86a34f	0.016435293
50	0x3c3834aa	0.011243025
51	0x3c267676	0.010160079
52	0x3c775b1d	0.015097407
53	0xbc4a4301	-0.012345077
54	0x3d1c04f3	0.038090657
55	0x3d29cfbc	0.041457877
56	0x3cd6105c	0.026130848
57	0xbc6af0fb	-0.014339681
58	0x3c9cb1a1	0.019127669
59	0xbc0ca805	-0.008584981
60	0x3ceae291	0.028672488
61	0x3c2288cb	0.009920309
62	0x3c6d89ed	0.014498216
63	0x3c4679d5	0.012114008
64	0xbc16e551	-0.009209947
65	0x3bef9b21	0.007312194
66	0x3b366e62	0.002783679
67	0xbc421d4c	-0.011847805
68	0xbbf09d73	-0.007342988
69	0xbbec22b2	-0.0072062844
70	0x3c718cbf	0.014743029
71	0xbc1fba50	-0.00974901
72	0xbbcf4a67	-0.006326008
73	0xbb4a85e0	-0.003090255
74	0x3b8f0beb	0.0043654344
75	0xbb44dd19	-0.003003901
76	0x3c364225	0.0111241685
77	0x3d170da2	0.036878236
78	0xb94ac0be	-0.00019336023
79	0x3a7e8efc	0.00097106374
80	0x3bffcf5f	0.007806703
81	0x3c20f104	0.009823088
82	0xbc867c97	-0.016416831
83	0xbc4e05ec	-0.012574654
84	0xb93dbe06	-0.00018095234
85	0x3cca562d	0.024699295
86	0x3cc6649e	0.0242179
87	0x3c66e035	0.014091541
88	0x3a823429	0.0009933758
89	0x3c910eb9	0.017707216
90	0x3bbfd27e	0.00585395
91	0x3c679bce	0.014136268
92	0x3c1201b6	0.008911541
93	0x3ab9bf55	0.0014171401
94	0xba1bd54d	-0.0005944565
95	0x3ca4fd13	0.020140206
96	0x3ccc70d9	0.024956154
97	0x3ba51ebb	0.0050390637
98	0x3bc82106	0.0061074523
99	0x3a7ad4cc	0.00095684524
100	0x3bf8f678	0.0075977407
101	0x3cc6ffab	0.024291834
102	0xbc4289b1	-0.0118736485
103	0x3d0bf606	0.034170173
104	0x3bb03d61	0.0053784107
105	0xbb979963	-0.0046264394
106	0xbbba9658	-0.005694192
107	0x3cadf43b	0.021234622
108	0xbb5c3d8b	-0.0033606018
109	0x3d28d19d	0.041215528
110	0x3c8e110c	0.017342113
111	0xbb6e8e1a	-0.0036400617
112	0xbb4a70e3	-0.003089004
113	0xbc500310	-0.012696043
114	0xbc119d16	-0.00888755
115	0x3c0ed9e1	0.008718939
116	0xbbba6968	-0.005688835
117	0x3b52515e	0.0032091956
118	0x3ba5b76d	0.0050572664
119	0x3b575480	0.0032856762
120	0x3c3edcaa	0.01164929
121	0x39e560eb	0.00043750493
122	0x3d09dcf0	0.033657968
123	0x3cc5f7c4	0.024165995
124	0x3b422989	0.0029626808
125	0xbbb1a2a2	-0.0054209987
126	0x3cdaffc7	0.026733292
127	0x3cf7c2e5	0.0302443
128	0xb91ba16e	-0.00014842089
129	0x3b450bca	0.0030066841
130	0xbc05a150	-0.008156136
131	0x3c04be4d	0.008102012
132	0x3c50850e	0.012727035
133	0x3be5ce20	0.0070130974
134	0x3b97f866	0.0046377657
135	0x3c5df563	0.013547274
136	0x3c6a0aab	0.01428477
137	0xbb9979b2	-0.0046836967
138	0x3bea2752	0.0071458006
139	0x3b7443db	0.003727189
140	0xbb6df033	-0.00363065
141	0x3ce4908a	0.027900953
142	0x3b8559d3	0.004069546
143	0x3bf579ac	0.007491311
144	0x3bdac534	0.0066763405
145	0x3c1dddea	0.009635428
146	0x3c368e02	0.011142256
147	0xbbb003be	-0.00537154
148	0x3b28cdf6	0.0025757528
149	0x3b464eff	0.0030259488
150	0xbc04061a	-0.008058095
151	0xbc164dfe	-0.009173868
152	0x3afede34	0.0019444884
153	0x396a0ba7	0.0002232032
154	0x3c1dfc39	0.009642654
155	0xbc1cbb66	-0.009566164
156	0x3ba5376c	0.005042007
157	0x3cd9bdac	0.0265797
158	0x3c83f90c	0.016109966
159	0xba6b261a	-0.0008970216
160	0x3b7364aa	0.0037138858
161	0xbc01cee1	-0.007922859
162	0xbadd02bd	-0.0016861778
163	0x3a337f14	0.0006847244
164	0x3ce7258a	0.028216142
165	0x3af6c0ed	0.0018825807
166	0xbb736e5c	-0.0037144637
167	0x3b75180d	0.0037398369
168	0xb9697e13	-0.00022267578
169	0x3c675aa1	0.014120729
170	0x3c823582	0.015894655
171	0x3ba328d1	0.004979231
172	0x3aff37e6	0.0019471615
173	0x3b23be19	0.0024985133
174	0x3d005d71	0.031339113
175	0x3b7fbb00	0.0039021373
176	0x3c8e0352	0.017335568
177	0x3c59a0cb	0.013282965
178	0x3cf29776	0.029613238
179	0xb9c82f6a	-0.000381823
180	0xbb525be9	-0.003209824
181	0x3c8fb62c	0.017542921
182	0x3c5c487a	0.013445014
183	0x3c9b095b	0.01892536
184	0x3b6931bd	0.0035582625
185	0x3bce230f	0.0062908004
186	0x3c9ff73b	0.019527068
187	0x3bd7eef2	0.006589764
188	0x3d13521e	0.035966985
189	0xbb6a6e52	-0.0035771322
190	0x3bb38ef9	0.00547969
191	0x3c874b15	0.016515294
192	0xbb139f91	-0.002252553
193	0xbc0a9adb	-0.008459772
194	0x350f3ebd	5.336295e-07
195	0x3ab3f3e1	0.0013729298
196	0xbc37b933	-0.0112135885
197	0x3ce95fa6	0.028487992
198	0x3c2841a0	0.0102695525
199	0x3be3c89c	0.0069514047
200	0x3a27fedb	0.0006408521
201	0x3bf1db4d	0.007380879
202	0x3c1bef93	0.009517568
203	0x3c47be91	0.012191431
204	0x3c801e91	0.015639575
205	0xbc518128	-0.012787141
206	0x3cf03351	0.029321345
207	0xbc7a2c7b	-0.015269394
208	0x3cca6a33	0.024708843
209	0x3c564e3c	0.013080176
210	0xbb961e53	-0.0045812516
211	0xbbefdfc0	-0.0073203743
212	0x3c347900	0.011015177
213	0x3ac31ee8	0.001488653
214	0xbc7f79a6	-0.015592968
215	0xbb91d038	-0.0044498704
216	0x3ccadd46	0.024763715
217	0xbb86fb6d	-0.0041193278
218	0xbb83c660	-0.004021451
219	0xbb8cc460	-0.0042958707
220	0x3aaaa4f5	0.0013019132
221	0x3b056c2d	0.0020358667
222	0x3c8bd66e	0.017070021
223	0x3c4a88ff	0.012361764
224	0xbc1a051d	-0.009400633
225	0x3caf1413	0.021371877
226	0xbbfa49cb	-0.0076381913
227	0x3bbfa17c	0.005848108
228	0x3c8e19fa	0.017346371
229	0xba197a0a	-0.0005854672
230	0x3bd2f50e	0.006437904
231	0x3c337e4f	0.010955407
232	0x3b30b718	0.00269646
233	0x3c66d1a4	0.014088068
234	0x3c0633b9	0.008191043
235	0x3ad24322	0.0016041736
236	0x3bc68fcf	0.006059624
237	0x3bac6436	0.0052609695
238	0xbc18a6e4	-0.009317134
239	0x3aaab800	0.0013024807
240	0x3c8efa90	0.017453462
241	0x3d0acfff	0.033889767
242	0x3c2eb0bb	0.010662253
243	0x3c3896c7	0.011266417
244	0x3c86d813	0.016460454
245	0xba8d2ee0	-0.0010771416
246	0xb9ba5f59	-0.00035547724
247	0x3c59504a	0.013263771
248	0x3b49963b	0.003075971
249	0x3c8d781d	0.017269189
250	0x3c05cdce	0.008166743
251	0xbabe0760	-0.0014498048
252	0x3c679d90	0.014136687
253	0x3ca938db	0.020656994
254	0x3bc9470f	0.006142504
255	0xbbe29368	-0.006914545

action_model._continuous_distribution.log_sigma f4 [1, 2]
0	0xbdbb09d7	-0.09132736
1	0xbc72fbb5	-0.014830519

action_model._continuous_distribution.mu.weight f4 [2, 256]
0	0x3cbcadbd	0.023032064
1	0x3cb6be5c	0.022307567
2	0x3c8c302c	0.017112814
3	0x3d16bbdf	0.03680026
4	0x3d6504cc	0.055912778
5	0xbc714996	-0.014727017
6	0x3c0d60b6	0.008629015
7	0xbb5b3d8f	-0.003345344
8	0xbcb2ab96	-0.021810334
9	0xbc1517d3	-0.009099918
10	0x3c500228	0.012695827
11	0x3c07dac6	0.008291906
12	0xbc55dfab	-0.013053815
13	0xbcb1513f	-0.021645186
14	0xbd91d5f8	-0.071208894
15	0x3bf96226	0.007610577
16	0xbcb63d9e	-0.022246178
17	0xbc8f1258	-0.017464802
18	0xbd0dddfb	-0.034635525
19	0x3d0c2d6b	0.034223
20	0xbc948f6e	-0.018134799
21	0x3cf69679	0.030101048
22	0xbd108431	-0.035282318
23	0xbd07e6ab	-0.033178966
24	0x3b5ad3ef	0.0033390482
25	0xbd30bd09	-0.043149028
26	0x3d1ff686	0.039053462
27	0xbc9a0cd3	-0.018804943
28	0x3d537cce	0.051632695
29	0xbd03e349	-0.032199178
30	0xbce280da	-0.027649332
31	0x3d09ad5a	0.033612587
32	0xbc407878	-0.011747472
33	0xbc5ecfcb	-0.013599346
34	0xbc05320c	-0.008129608
35	0xbcc01a03	-0.023449903
36	0xbc9f7761	-0.019466104
37	0x3d22d160	0.039750457
38	0x3d7734d2	0.060353108
39	0xbd08f450	-0.03343612
40	0x3d493bba	0.049129225
41	0xbc7e851c	-0.015534665
42	0xbba59989	-0.005053703
43	0xbca86b06	-0.020558845
44	0xbd03e131	-0.03219718
45	0x3d21c9de	0.039499156
46	0xbce85f93	-0.028365886
47	0x3d12ad32	0.035809703
48	0x3cc47ba7	0.023984743
49	0xbd7bed01	-0.06150532
50	0xbd5069db	-0.0508822
51	0xbd5c28e4	-0.053749934
52	0xbd887fe0	-0.06665015
53	0x3c9c12be	0.019051906
54	0x3caf3eda	0.021392275
55	0x3c75ae07	0.014995105
56	0x3cf51106	0.029915344
57	0x3ad0d455	0.001593242
58	0xba95d8ce	-0.0011432411
59	0xbc0cfc85	-0.008605127
60	0xbc96a3ba	-0.018388618
61	0x3cda63c7	0.026658906
62	0x3d2d2641	0.04227281
63	0xbd3f90f3	-0.046769094
64	0x3be9491f	0.0071193124
65	0xbc08efb2	-0.008357929
66	0xbc871f8d	-0.016494537
67	0xba0f1366	-0.00054579077
68	0x3c688781	0.014192463
69	0xbc3c87c9	-0.011506983
70	0xbb0c4e7a	-0.002140908
71	0xbc52d49c	-0.012868073
72	0x3c8388d8	0.016056463
73	0x3c6a9f6d	0.014320237
74	0x3cca2390	0.02467516
75	0xbb8a823d	-0.0042269514
76	0x3d589556	0.052876793
77	0xbc1d15a0	-0.009587675
78	0x3cc7b339	0.024377452
79	0x3c2ad79e	0.010427384
80	0x3d5f377f	0.054496285
81	0x3cf50d4a	0.029913563
82	0xba15f94b	-0.00057210465
83	0xbad97f3f	-0.0016593708
84	0xbcc36a9c	-0.023854546
85	0x3bb94ee1	0.005655155
86	0x3c5ff856	0.013670048
87	0x3d1e39a3	0.038629185
88	0x3c3cc730	0.011522099
89	0x3d4c418c	0.049867198
90	0xbcdd3fe2	-0.027008
91	0x3b9115a4	0.0044276286
92	0xbcd30d37	-0.025763137
93	0xbd02722c	-0.031847164
94	0x3cb58cf7	0.022161944
95	0x3d59fa95	0.05321749
96	0xbc04966c	-0.008092504
97	0x3d30bb98	0.043147653
98	0x3cdccd71	0.02695343
99	0xbceda8eb	-0.02901121
100	0xbd00d92a	-0.031457104
101	0x3c9837bb	0.018581262
102	0x3c84a38b	0.016191265
103	0xbc4d8eb6	-0.012546232
104	0xbb2e6044	-0.0026607672
105	0xbcc12349	-0.023576396
106	0xbc3eee7e	-0.011653541
107	0x3b79095c	0.0037999963
108	0x3ca4c406	0.020113003
109	0xbcccdb90	-0.02500704
110	0x3d561c4d	0.052273083
111	0x3b057415	0.002036338
112	0x3ce47936	0.02788983
113	0x3ae7c44e	0.0017682405
114	0x3cbfe969	0.023426728
115	0x3d48f9da	0.049066402
116	0x3b2d9931	0.0026489014
117	0xbcb006fc	-0.021487705
118	0x3cf23f43	0.029571181
119	0x3cbfd789	0.023418205
120	0x3d5e647f	0.05429506
121	0x3ccb234a	0.0247971
122	0x3aaa0795	0.001297223
123	0x3d1002de	0.035158984
124	0x3cc9923f	0.024605868
125	0x39536d6a	0.00020163288
126	0x3b8e0ec7	0.0043352577
127	0x3d4ce07d	0.050018776
128	0x3baec157	0.0053331065
129	0xbb11e749	-0.00222631
130	0xbc776a40	-0.015101016
131	0xbd47ea1a	-0.04880724
132	0xbd108e1e	-0.035291784
133	0xbc10e959	-0.008844697
134	0xbd0e92d0	-0.03480798
135	0xbc9db39e	-0.019250687
136	0xbce41f30	-0.027846903
137	0x3d137903	0.036004078
138	0xbcaffe9f	-0.021483717
139	0x3cd51f15	0.026015798
140	0x3c903ff4	0.01760862
141	0x3c373937	0.011183075
142	0x3cf0b804	0.02938462
143	0xbd2e1500	-0.042500496
144	0x3c82a91a	0.015949775
145	0x3cefec8a	0.029287595
146	0xbd3f95cc	-0.046773717
147	0x3b8000e9	0.0039063585
148	0xbc64c2b1	-0.013962434
149	0x3ce68004	0.028137214
150	0xbba4cc8d	-0.005029267
151	0x3cbcb28f	0.023034362
152	0x3d0cb41b	0.03435145
153	0xbcc504ad	-0.024050081
154	0xbd0a615a	-0.033784248
155	0xb9382650	-0.0001756188
156	0x3cb5df52	0.022201214
157	0xbd56d4a1	-0.052448872
158	0xbcd151c6	-0.025551688
159	0xbbc34e58	-0.005960267
160	0x3cbcb451	0.0230352
161	0xbc18a768	-0.0093172565
162	0x3cc9edfd	0.024649614
163	0xbd00ac62	-0.031414397
164	0x3d048e22	0.03236211
165	0x3c433b15	0.011915942
166	0xbc77f68d	-0.015134466
167	0xbd3c1ebf	-0.04592776
168	0xbc302155	-0.0107501345
169	0xbd2618b3	-0.0405509
170	0xbd710341	-0.058840994
171	0x3d050764	0.03247775
172	0x3ced4a78	0.028966174
173	0xbca065dd	-0.019579822
174	0xbd178b80	-0.036998272
175	0x3cfb5a72	0.030682776
176	0xbd121e96	-0.0356737
177	0xbd01c908	-0.03168586
178	0x3d576aa3	0.05259193
179	0x3cffc1b3	0.031220293
180	0x3c39354a	0.011304209
181	0xbcc6b067	-0.024254037
182	0xbb175d42	-0.0023096357
183	0xbd84dc15	-0.0648729
184	0x3c3e5304	0.011616472
185	0xbc2fab3c	-0.010721978
186	0x3c862732	0.016376112
187	0x3b8dcdd5	0.0043275156
188	0x38bc9e56	8.994031e-05
189	0x3c9d65ae	0.019213524
190	0x3d3e66be	0.0464847
191	0xbca1f7e2	-0.01977152
192	0x3c4365b2	0.0119261015
193	0x3c8a3215	0.016869584
194	0xbcbc04ca	-0.022951502
195	0x3cadd963	0.021221822
196	0xbbcbc33e	-0.006218343
197	0x3d353162	0.04423655
198	0x3ce61af3	0.028089022
199	0xbd15ca22	-0.036569722
200	0x3bc3b13e	0.0059720566
201	0xbc8af14d	-0.016960764
202	0xbc821f13	-0.015883958
203	0xbd5453c9	-0.051837716
204	0x3b6cee8f	0.0036152934
205	0x3bf209cd	0.0073864223
206	0x3bbb3c7e	0.0057139983
207	0x3cab99eb	0.020947417
208	0xbc8d8a52	-0.01727787
209	0xbc4e90a5	-0.012607728
210	0x3b0362af	0.0020047834
211	0xbbe35e3f	-0.0069387252
212	0xbd1137ea	-0.035453714
213	0x3c7dd4fe	0.015492676
214	0xbb750bff	-0.0037391183
215	0xbbba97bc	-0.0056943577
216	0xbc9c520a	-0.019082088
217	0x3d17120b	0.03688244
218	0x3ceaeee9	0.028678374
219	0x3ccff96a	0.025387485
220	0x3d144d14	0.03620632
221	0x3c664c0c	0.014056217
222	0x3d0fa772	0.035071798
223	0x3d0e6aa3	0.034769665
224	0xbb82b4a7	-0.0039888206
225	0xbc46d67c	-0.012136098
226	0xbb9546fe	-0.004555582
227	0x3d3867e5	0.045020957
228	0x3a8910af	0.0010457243
229	0x3cfc8a6b	0.030827722
230	0xbce07d51	-0.027403506
231	0xbcd28020	-0.02569586
232	0x3d491d15	0.0491
233	0x3d01eb7d	0.03171872
234	0x3d67ee89	0.05662397
235	0xbce17d06	-0.027525436
236	0x3d0533c4	0.03252007
237	0xbd2e7a17	-0.042596903
238	0x3c47df74	0.0121992715
239	0x3d124da7	0.035718586
240	0x3c35d68e	0.011098517
241	0xbd0613de	-0.03273379
242	0x3c7062af	0.0146719655
243	0x3d329f36	0.043608867
244	0x3d2911e2	0.04127682
245	0x3c9f2eec	0.019431554
246	0x3c9c4d53	0.01907984
247	0x3d80ac0a	0.06282814
248	0x3d05d554	0.03267415
249	0xbd00d146	-0.03144958
250	0x3d0401d4	0.032228306
251	0x3d27c82b	0.04096238
252	0x3c9a56b8	0.018840179
253	0x3c1a2f69	0.0094107175
254	0xbc00939d	-0.007847694
255	0x3c146ea6	0.009059584

action_model._continuous_distribution.mu.bias f4 [2]
0	0xbb3da089	-0.0028934798
1	0x3c5aa9a9	0.013346114

action_model._discrete_distribution.branches.0.weight f4 [1, 256]
0	0x3b80f4aa	0.003935416
1	0x3b3535a5	0.0027650383
2	0xbba7bf20	-0.0051192194
3	0xbb2c888a	-0.00263265
4	0xb9ebca1a	-0.0004497327
5	0xbc46c63b	-0.012132223
6	0x3c7bb2da	0.015362466
7	0xbc1326be	-0.008981405
8	0xbc33f7a1	-0.010984332
9	0xbbe83cc5	-0.0070873224
10	0x3b4d17d7	0.0031294727
11	0x3b5df632	0.0033868668
12	0x3bb3b8b4	0.005484665
13	0x3b4c598c	0.0031181304
14	0xbbb9d77e	-0.0056714406
15	0xbc11f00b	-0.008907328
16	0xbbb764c8	-0.005596731
17	0x37ecfae0	2.8250215e-05
18	0xbc2137aa	-0.0098399315
19	0x3c1f3d87	0.009719259
20	0xbb4d517d	-0.0031329088
21	0xbaab849f	-0.0013085789
22	0x3a8c58db	0.0010707633
23	0xbc058522	-0.008149417
24	0xbc391f87	-0.011299021
25	0xbc31bea1	-0.010848672
26	0xbafec25d	-0.0019436587
27	0x3bb5af14	0.0055445526
28	0xbc25d733	-0.010122108
29	0xbb119ea3	-0.00222198
30	0x3a8ce05f	0.001074802
31	0xbb9062f5	-0.004406328
32	0x3c1b9116	0.00949504
33	0xba39a035	-0.00070810626
34	0xbc867c3d	-0.016416663
35	0xba9a5c01	-0.0011776687
36	0xbb512c80	-0.0031917393
37	0xb90c8e0f	-0.00013404361
38	0x3c645338	0.0139358565
39	0x3ad2a052	0.0016069508
40	0x3c284a21	0.01027158
41	0xbb96abba	-0.004598108
42	0x3c49f021	0.012325318
43	0xbb04b4be	-0.0020249332
44	0xbbaf2f57	-0.0053462195
45	0xbbca0fbb	-0.006166426
46	0xbc68a630	-0.014199778
47	0xbb694c60	-0.0035598502
48	0x3b93ba03	0.0045082583
49	0x3b137724	0.0022501433
50	0x3b95803f	0.0045624073
51	0x3b8b7451	0.0042558094
52	0x3c38b133	0.011272716
53	0x3baf534e	0.005350507
54	0xba1e53c2	-0.00060397026
55	0xbba0f89d	-0.0049124495
56	0x3b2242c3	0.0024759031
57	0xbc673e6a	-0.014114002
58	0x3aaa1277	0.0012975474
59	0xbb79c7a7	-0.0038113387
60	0xbbbd7b1c	-0.005782498
61	0x3b582e10	0.003298644
62	0x398ecd22	0.00027237186
63	0xbb667ed7	-0.0035170817
64	0x3ac9a6ac	0.0015384755
65	0x3c456187	0.012047178
66	0x3b9f4fd4	0.004861811
67	0xbb541a02	-0.0032364135
68	0xbb7fe9c7	-0.0039049254
69	0x3a0eed15	0.0005452198
70	0x39f29840	0.00046271272
71	0x3b8caa98	0.0042927973
72	0xbbcb0493	-0.0061956136
73	0x3a64eac8	0.0008732495
74	0x3bda6488	0.0066648163
75	0x3afbb9c0	0.0019205138
76	0xbbe96448	-0.00712255
77	0x3c3e794d	0.0116256
78	0x3b2d3bbc	0.002643331
79	0xbbbecfe3	-0.005823122
80	0x39fcf01a	0.00048244075
81	0x3ba04433	0.0048909425
82	0xbb124887	-0.0022321062
83	0x3bc5b7e8	0.006033886
84	0xba24f5dd	-0.000629274
85	0x3a408248	0.0007343632
86	0xbb9dad7c	-0.0048119407
87	0x3b577be0	0.0032880232
88	0xbacd897a	-0.001568123
89	0xbbbec889	-0.0058222455
90	0x3b1fcf67	0.0024385096
91	0xbbf71c03	-0.007541181
92	0x396b31a7	0.00022429843
93	0x3819add3	3.663993e-05
94	0x3c0f509e	0.008747248
95	0x3b8693f0	0.004106991
96	0x3b313a3b	0.0027042765
97	0x3c0b1e6b	0.008491139
98	0xbb89db7b	-0.0042070723
99	0x3bd8d32a	0.0066169696
100	0x3b91c968	0.0044490583
101	0x3c58b6f5	0.013227214
102	0x3c08ba92	0.008345263
103	0xbbebff80	-0.007202089
104	0xbc8a0963	-0.016850179
105	0x3b432702	0.002977789
106	0x3bd460f2	0.0064812833
107	0xbb790d2d	-0.0038002238
108	0xbb1fad6b	-0.002436484
109	0xbc75ff65	-0.015014504
110	0x3b20896b	0.002449597
111	0x3c08d49d	0.008351472
112	0x3b6676e7	0.0035166086
113	0xbba5ee72	-0.0050638253
114	0x3b646b68	0.0034854058
115	0x391f2e8e	0.00015180765
116	0x3b2619c9	0.002534496
117	0xba1f705f	-0.0006082113
118	0x3c0514d1	0.008122639
119	0x3c0ad5fd	0.00847387
120	0xbb1e59de	-0.0024162452
121	0xbb6e6dd2	-0.0036381376
122	0xbc28d406	-0.010304457
123	0x3b52a3eb	0.003214116
124	0xbb97680b	-0.004620557
125	0xb90a60b4	-0.0001319673
126	0xbc1804e7	-0.009278513
127	0x3c11d972	0.008901941
128	0xbbb358fe	-0.005473255
129	0xbb57f86a	-0.0032954463
130	0xbad48805	-0.0016214853
131	0xbc174e0b	-0.0092349155
132	0xbbc8d4b4	-0.006128872
133	0x3c0731db	0.008251633
134	0xbbdc1d6f	-0.006717376
135	0x3b4b4d18	0.0031021293
136	0xbbd28df5	-0.006425614
137	0x3bbeba6d	0.0058205635
138	0x3b6dc8d2	0.0036283028
139	0xbc037c0a	-0.008025179
140	0xbb2f2b78	-0.002672879
141	0x3b5c9253	0.0033656552
142	0x3b33ff8c	0.002746555
143	0xbb9c748d	-0.004774636
144	0x3b94d084	0.0045414586
145	0x3c2c2c1b	0.010508562
146	0x3c010cb5	0.007876565
147	0x3b0cf324	0.0021507228
148	0x3c7fdd65	0.015616749
149	0x3c530ddd	0.012881723
150	0x3bee8917	0.007279526
151	0x3c1faa99	0.0097452635
152	0x3aa9469d	0.0012914721
153	0x3b08dc1d	0.002088315
154	0xbbafd7e1	-0.005366311
155	0x3c1bfa7b	0.009520168
156	0xbc8477db	-0.016170433
157	0x3babd7fe	0.005244254
158	0x3b19a68b	0.0023445215
159	0x3b0615db	0.0020459804
160	0x3c3ba6e0	0.01145336
161	0x38b002ef	8.3928804e-05
162	0xbba1241f	-0.004917636
163	0x3bf11d08	0.007358197
164	0xbb0a0b27	-0.0021063776
165	0x3b3ee310	0.002912704
166	0x3b372910	0.002794806
167	0xbb431f1f	-0.0029773188
168	0x3ab3f5d1	0.0013729875
169	0x3ab6c7e1	0.0013945067
170	0x3be6a17d	0.007038294
171	0x3af9329d	0.0019012276
172	0x3b44a4b5	0.00300054
173	0x3bd2389d	0.0064154402
174	0xbb900269	-0.0043948186
175	0x3b9e018a	0.004821961
176	0xbbe1df27	-0.006893057
177	0x3beee723	0.0072907372
178	0xbba26e7b	-0.004957018
179	0xbc324c7e	-0.010882495
180	0x39c691c0	0.00037874095
181	0xbbbb1169	-0.0057088626
182	0xbbfdf537	-0.007750179
183	0x3bd492b3	0.0064872145
184	0x3b5b763b	0.003348722
185	0x3bbae9fd	0.005704163
186	0x3b5a625a	0.0033322782
187	0xbadf83fb	-0.0017052883
188	0x3b2a31d8	0.002596965
189	0x3b128db1	0.0022362287
190	0x3a796a58	0.00095144426
191	0xbba7cc33	-0.005120778
192	0x3b189aeb	0.0023285698
193	0xba7a6720	-0.000955211
194	0xbc4ec0a3	-0.01261917
195	0xbc23b9c7	-0.009993023
196	0xba1c9e9e	-0.00059745635
197	0x3bde6392	0.006786772
198	0xbad454e8	-0.001619962
199	0xbb16674c	-0.0022949753
200	0x3b544182	0.0032387679
201	0x3b7817a8	0.0037855897
202	0x3ba35bd8	0.004985314
203	0x3b9923fb	0.0046734787
204	0xbc2d8440	-0.010590613
205	0xbb74822d	-0.0037309036
206	0xbc245490	-0.010029927
207	0xbb837696	-0.0040119393
208	0x3be68fbf	0.007036179
209	0xbbe9d4f7	-0.007135983
210	0x3a06e2b5	0.00051454763
211	0xbc137f5f	-0.009002536
212	0xba9e9509	-0.0012098859
213	0xbbadd206	-0.0053045778
214	0x3bd0e813	0.0063753217
215	0x3c078c38	0.008273177
216	0x3aa91113	0.0012898765
217	0x3b96d71d	0.00460328
218	0x3bab438b	0.0052265576
219	0xbc9b6890	-0.018970758
220	0xbc840e8c	-0.016120218
221	0xbbdac360	-0.0066761225
222	0x3b1a51c6	0.0023547276
223	0xbaab20e3	-0.0013056066
224	0xb90849ee	-0.00012997512
225	0x3a1b9d07	0.00059361797
226	0x3bfa0925	0.0076304846
227	0xbb3f1ee4	-0.00291627
228	0xbb25835a	-0.0025255294
229	0x3be130bb	0.006872264
230	0xb9cc53aa	-0.00038972247
231	0x3b6fb46f	0.0036576053
232	0x3b3a8f9d	0.0028466948
233	0xbbce66f0	-0.006298892
234	0x3b542aef	0.0032374223
235	0xbbbc6b8f	-0.0057501267
236	0x3a99b49f	0.0011726803
237	0x3b0001f1	0.0019532407
238	0x3b532530	0.003221821
239	0x3c2f7ca9	0.010710874
240	0xbbaed649	-0.0053356034
241	0x3aab4f70	0.0013069939
242	0xbafe99ab	-0.0019424459
243	0x39fe51e7	0.00048507677
244	0xbbf51a77	-0.0074799615
245	0x3b0f7d6a	0.002189482
246	0x3c2fff2d	0.010741991
247	0x3b9b02b6	0.004730548
248	0x3c10fe4e	0.008849693
249	0x3c13b038	0.009014182
250	0xbbc42d39	-0.0059868363
251	0xbad9c4ea	-0.0016614471
252	0x3a173076	0.0005767414
253	0x3c271fab	0.010200421
254	0x3c77fc2f	0.015135809
255	0xbb871deb	-0.0041234395
