EcoSculptor/Assets/Trainings/4.0/Hunteranimal.onnx (onnx, 445400 bytes, 8 tensors)

network_body._body_endoder.seq_layers.0.weight f4 [256, 167]
00000000: 1449 ecbd ab34 f43d 9c6d e0bd 1c7a 963b
00000010: 7c25 7bbd 889e b33d 2ac3 0ebd 6870 133e
00000020: 2054 f5bd c68f f6bc 2a35 dbbd 576f ef3c
00000030: 5b6f 003d 93b6 d9bb 9a0b 93bd 6eb4 b23d
00000040: 174b cfbd e578 e63c daca 64bd f89a f5bd
00000050: 3e50 fdbc c4be 15bc d390 243d a138 49bb
00000060: 08a0 df3c 1e05 9b3d 83fd 6bbd 15c0 98bd
00000070: 0f27 a03d c5a5 98bd 08be f7ba b7ac 113e
00000080: dd97 17be 0ed8 ea3d 4912 3ebb aa2e e83d
00000090: 0474 b53d caab 943c 333e cdbc 8dc7 c1bd
000000a0: 8f77 dabd 4c16 953d f7e8 653d 4ee1 73bd
000000b0: 7e40 4ebb 72b5 c73d f8b4 243c 5471 15bd
000000c0: 2a97 233b 0a6f bc3d 25e1 a93b a2df ad3c
000000d0: dd84 a4ba 2cc0 143d bd39 35bc b680 4bbc
000000e0: 3aea e8bc bbe5 bc3d d6f2 d5bc 79de 043e
000000f0: 8458 7ebd 7e7a 74bd ff17 01be e405 973c
00000100: ceb7 3ebd 3421 61bd d070 fa3d 8f90 87bd
00000110: ffe0 233b f313 913d 5c53 48bc 8734 86bd
00000120: 6d26 f73c 3a00 bd3d 6105 4a3d a088 863d
00000130: 897e 0bbd ece7 5cbe 424e 4fbc b788 d03d
00000140: 2022 e8bd 4a67 cc3d c375 173c c462 03bc
00000150: 898c 813c ded5 31bd e67b 2bbd 2282 2cbc
00000160: 93a1 993c ac6f 393d 4035 003e c1d8 113d
00000170: cf4d 203e 4dad b4bc 935b 283e 7ffb fe3d
00000180: d50b cfbc 4ba9 b73c 09e0 873e fe4b afbb
00000190: a80d 55bb e5dc 91bd adc9 0ebe 0c0a 3c3c
000001a0: 829b de3c bbd2 ea3d 225c a03d 59dc f03c
000001b0: f9c0 1fbc 4197 d6bd e8e3 39bd 7a18 eabd
000001c0: 2ff4 8bbd efb4 ca3b 5be3 bcbc 8e10 ba3d
000001d0: 8019 febc 7fda 7c3d 5da4 8dbd 16fb c33d
000001e0: 24ac 1cbb dd63 fcbd 1389 043e a49e 853c
000001f0: d051 eabd b794 d73c 9403 a9bd e9aa 2dbe
00000200: 20d8 723d e98d c9bd 8ec6 5e3d ca32 dfbd
00000210: be37 07bd 307a 36bd bee0 ab3d 57f5 b9bd
00000220: 1230 8a3d 7e0c 023c cafd 9d3c f2a1 243d
00000230: 28e7 4bbc 8492 efbc cad2 ce3c aef2 04be
00000240: 5cfa 06bc 1694 96ba 994c 083d 5b02 fb3c
00000250: 1ca8 483a 7e72 c93d b5e5 543e fd95 83bd
00000260: 1148 25bd e144 153d 30ef c5bb f022 623d
00000270: b317 553d 480b dcbd 5402 bfbc 5cc3 843d
00000280: f1f1 7ebc 2aee 86bd 307a e4bd b88b 93bd
00000290: 3283 f33a ff86 b23d fa2f 98bd a90c fc3c
000002a0: dd49 aa3d 66d7 fb3b 9775 6a3d ca3b ccbd
000002b0: d270 2a3a 8b0f 593d 942a 75bd b5b4 e8bc
000002c0: 1857 0a3d 470a 2fbe 4c7c 41bd 2df0 8dbc
000002d0: e6e9 89b7 2ffe 12bb 8fbc 4fbd b3aa 793d
000002e0: 876b 113e 580e 373d f9c8 4d3d 6264 2f3e
000002f0: c6a4 09be 2ac4 a23d 9979 f9bd 9382 4cbc
00000300: d0e9 0f3d 2ae5 58bc d2f3 1d3d 6a42 f8bd
00000310: decc f4bd 7cb3 2abe 9c59 ea3d 99fa abbd
00000320: a6ed 273e 4fd6 c23d 93fa 813d 2487 a43d
00000330: 89c3 6abc adcd ea3d 763c d33d fb2a 84bd
00000340: e917 01bc ffca 63bd a3dd 3dbc bb7e 813d
00000350: 58b8 aabd e591 b53a d9c5 d0bc 3de5 153d
00000360: 9f0d 053e f577 ac3c bac2 cebd daeb abbd
00000370: 80ca b6bd 5429 cc3d 26eb 473d 55c8 8e3b
00000380: 0c0b aa3d a7de f53b a0e1 30bd 7c3a 433d
00000390: 4e17 babd 56e2 8c3d d704 f33d 876e 973c
000003a0: 1d1b edbc f14b 9dbd b3c2 e8bc c20a 1bbc
000003b0: a8ff be3d 7538 90bc d057 483c 618a 1fbd
000003c0: 9515 ac3d 46c8 473e b639 923c fab4 d1bc
000003d0: d9e3 40be 6d7b cf3c 958d f2bd 3039 9c3d
000003e0: 2ae2 663d b22d d43b 538b a33d ea51 e5bc
000003f0: 2a7c 3a3d 1bc4 49bc 72bd b73c b875 f93c
-0.11537376 0.11924108 -0.10958406 0.0045921933 -0.061315045 0.08770472 -0.03485409 0.14398348
-0.11978936 -0.030097853 -0.107034996 0.029227896 0.031356197 -0.006644079 -0.07179947 0.087258205
-0.10121744 0.028133819 -0.055857517 -0.119924486 -0.030922052 -0.00913972 0.040177178 -0.003070392
0.027297989 0.075693354 -0.057614814 -0.07458512 0.0781995 -0.07453493 -0.0018901238 0.14226042
-0.14804025 0.114669904 -0.0029002598 0.113370255 0.08860019 0.018148322 -0.025054073 -0.094618894
-0.10667335 0.072796434 0.056130376 -0.05954104 -0.0031471546 0.09751405 0.010052912 -0.03648503
0.0024961927 0.092008665 0.00518431 0.0212248 -0.0012551803 0.036316082 -0.011061129 -0.012420824
-0.028432 0.09223505 -0.02611677 0.12975492 -0.062096134 -0.05968713 -0.1260681 0.018435426
-0.04656201 -0.054963306 0.122285485 -0.06619369 0.0025005934 0.07083883 -0.012226906 -0.065529875
0.03016969 0.09228559 0.049321536 0.06569028 -0.03405622 -0.21572846 -0.012652935 0.10182326
-0.11334634 0.09980638 0.009244385 -0.008019153 0.015814083 -0.04341685 -0.041866206 -0.010529073
0.018753802 0.045272514 0.12520313 0.035607103 0.15654682 -0.022055293 0.16441183 0.12450313
-0.025274197 0.022419592 0.26538113 -0.005349635 -0.003250936 -0.071222104 -0.1394412 0.011477005
0.027173761 0.11465975 0.07830073 0.029401945 -0.009750598 -0.10478068 -0.045383364 -0.1143045
-0.06833684 0.0061861197 -0.02305763 0.09085189 -0.031018019 0.06173181 -0.069161154 0.09569375
-0.0023906315 -0.12323735 0.12942915 0.016310997 -0.11441386 0.02631603 -0.082526356 -0.16959728
0.059288144 -0.0984152 0.054388575 -0.10898359 -0.033012144 -0.04455012 0.083924755 -0.09079998
0.0674745 0.007937549 0.019286055 0.040193506 -0.012445249 -0.029244669 0.025246996 -0.129832
-0.008238401 -0.0011488225 0.033276174 0.030640772 0.0007654445 0.09836291 0.20790751 -0.06425092
-0.04035193 0.03644264 -0.0060404763 0.0552091 0.052024554 -0.10744339 -0.02331654 0.06482574
-0.015560613 -0.06588395 -0.11156118 -0.072043836 0.0018578528 0.08717155 -0.07431026 0.030767756
0.083148696 0.0076855896 0.05724105 -0.09972341 0.0006501797 0.05299334 -0.05985506 -0.02840648
0.033774465 -0.17093764 -0.04723768 -0.017326439 -1.644059e-05 -0.0022429337 -0.050716933 0.060953807
0.14201175 0.044691414 0.05024049 0.17128137 -0.13441762 0.079475716 -0.12181396 -0.012482303
0.03513509 -0.013238231 0.038562603 -0.121220425 -0.11953138 -0.1667003 0.11442873 -0.08397407
0.1639925 0.09513532 0.06346621 0.080335885 -0.014328846 0.11465011 0.103142664 -0.064535104
-0.007879236 -0.055613514 -0.011588487 0.06323 -0.08335942 0.0013852684 -0.025484966 0.03659557
0.12993477 0.021053294 -0.10095735 -0.083945945 -0.089253426 0.0996882 0.04880824 0.0043573775
0.08302888 0.007503349 -0.043183923 0.047663197 -0.09086476 0.06879108 0.118661575 0.01848532
-0.028943593 -0.076805 -0.028413152 -0.009463014 0.09326106 -0.017605046 0.012227967 -0.038950328
0.08402554 0.19509992 0.017849784 -0.025598992 -0.18836917 0.025327409 -0.11843411 0.07628095
0.05636803 0.006475174 0.07985558 -0.027993161 0.04552857 -0.012314822 0.022429202 0.03045164

network_body._body_endoder.seq_layers.0.bias f4 [256]
00000000: 4f64 b23a a93c 4fbb 12d0 e9bb 39c6 ee3c
00000010: 8506 0e3b 3611 dcba 284e 3f3c 2009 69bb
00000020: 903b 03bb 1c29 773c 5d66 3b3c 8899 82ba
00000030: 4d1b 253c 9d23 c23a 539e 56bc b5e7 2ebc
00000040: f126 903a ac97 bebc 6db7 51bc e61d c8bb
00000050: af4f 2cbc 3981 f2bb 2ab2 783c 0eba 3dbb
00000060: 1ccb a73c e614 c6bc 4e12 0bbc 088c 3abb
00000070: 8fb8 5c3c 4e42 a43c c6de 8f3c af7a 883c
00000080: dee5 2ebc 3cec 2cbb 9b52 c53b 9e5b 793c
00000090: fc5c 51ba eeaa a8bb 6182 e13b 9e50 a8bc
000000a0: 36e1 5bbb 2b9b 053c 85af a33c e3ce 923c
000000b0: 0cfb 193c dec8 e9bb 8441 c23b 60ff fc3b
000000c0: e27e 18bc bc5d e13b 73d3 8bbb ab1b 243d
000000d0: 125d f43c 9d37 243b 2670 23bc 2b97 7c3c
000000e0: fc06 f83b 99c8 c83b 17a6 c9b8 2113 203b
000000f0: 1fce ecba 87fc 5ebc 5872 b5bc 757d d4bb
00000100: bea9 5cbc 57df 9fbc fd2c 31bc 01d8 84bb
00000110: 6a91 d039 c695 763c add0 9f3c bbae df3c
00000120: 5d1a 5fbb 0a52 73bb 33bf 153b 1d39 cfba
00000130: 1316 943c 9950 243c 7412 e3bc 8e32 4d3a
00000140: 4829 ccba 82b9 bebb fa8c d8bb 8b22 ec3b
00000150: 2bf9 443a 484a da3b c1d1 963b ffc2 ff3c
00000160: 1f10 4dbc 4916 8c3b 4d17 c1bb 0d07 70bc
00000170: d0b6 a5bc e549 943c 8900 c3bb af1c 4ebc
00000180: b781 13bc 8b9f e73b ba87 233c dc04 17bc
00000190: 0515 b0bb e30a 2fbc feb8 71bc 1cb7 aabb
000001a0: d7b8 1abc 59f7 04bc c984 443c c13a 8bbc
000001b0: 2c50 7f3c 6b3b 38bb a0d3 f93b 5d4a a53c
000001c0: 1f34 e4bb 4557 9b3c b2e2 683c 0c16 76bb
000001d0: 28c7 d23b 0c03 c6bc 1d41 12bd ecd8 84bc
000001e0: 46f4 84bc 9aef 4abc bf65 45ba d399 0dbc
000001f0: 93ae a43c 6e9d 6f3c 1e38 9b3c 35d5 4a3c
00000200: 7a3b 773a 7b03 a2bb 65ba b53b 3edf 4fbc
00000210: f358 80b9 4c96 5cbc 2d6d 11bc 1c21 1c3c
00000220: 904d 703c 4423 10bc 93ac dabb fbfa 7bbc
00000230: 6062 77bc ecd7 e53c 9d25 743c cae7 203b
00000240: 5646 88bc 244d 60bb 4279 ab3c a4aa d0bb
00000250: 6ac7 63bc 37fd a03a 6620 cc3b a60a 1c3c
00000260: 4649 cbbb 598c 2b3c d544 f3bb f893 363c
00000270: f06c 80bc d80b a13c 149e 90bc 4447 06bc
00000280: 9c5e 563c 3cec 54bc 0c51 143c ad22 16bc
00000290: 58a2 33bc a201 323c 63c3 6b3c ba18 063b
000002a0: 1eaf 86bb 73b7 973b 8470 a2ba 9487 0fbc
000002b0: d925 963b 9b3a e93c 81ec 9a3c c28b 813b
000002c0: 0bde da3b 867d 263c dcee 103b 829c 1fbc
000002d0: d1a4 5bbc 2c6d 48bc 00fb a93c 416d 71bc
000002e0: 501f 023b 36cd ceba 7cfc 783c 7d26 4d3c
000002f0: a6f2 133d 40f4 363b c93e 813b 81bc 073c
00000300: 5ef2 303c cf94 abbc dd4f e33c f566 37bc
00000310: 308e c53c 8441 8abc 9a5d c43c 907a 873c
00000320: dff4 243c 3024 d5bc c5e5 203c 7471 813c
00000330: 27dc 6ebb 77a8 9f3c 0993 54bc 28f9 21bc
00000340: acb9 973b f99a 37bc 2661 d5b6 ef32 b2bc
00000350: 7da9 993c 523c ad3c 424b b5bc e00b 08bb
00000360: 91e3 983b 295a 013c 6cb0 80bc 9f8b a93c
00000370: 3018 93bb e7f5 a23b 37b1 14bc fa9a 48bb
00000380: 67f3 323c c785 a73b a0b0 9f3b a151 8c3b
00000390: 8d97 bcba 451f 05bc 483a 393b 92de 953c
000003a0: 8885 29bc 0ad7 2ebc 047e a23c 1d3f afbc
000003b0: 46c9 4abc 24b2 8eba 03df 5bbc a6cf 9d3c
000003c0: 2e27 243d e233 b0bc 82a2 1a3c de7f a3bb
000003d0: 2e6a 5d3c c72e 413c b8a9 1ebc 368d 1e3c
000003e0: a9d0 cc3c 810a ee3b d60e df3a dc90 6c3c
000003f0: 3a6f f8bb bdfd 2fbc ab29 8d3c f138 adbc
0.0013610217 -0.003162185 -0.0071353996 0.029147254 0.0021671366 -0.0016789797 0.011676349 -0.0035558417
-0.0020024516 0.015085485 0.0114379795 -0.0009963969 0.01007731 0.0014811639 -0.013099271 -0.01067536
0.0010997934 -0.023265682 -0.01280008 -0.00610708 -0.010517045 -0.0074006584 0.015179196 -0.0028950009
0.020482592 -0.024179887 -0.008488251 -0.0028464813 0.013471737 0.020051148 0.017562281 0.016660063
-0.010674922 -0.0026385924 0.00602181 0.015219597 -0.0007986573 -0.0051473295 0.0068819975 -0.020546254
-0.0033550984 0.008154671 0.019981155 0.017920917 0.009398233 -0.007134541 0.00592822 0.0077208728
-0.009307595 0.006877629 -0.00426715 0.04006545 0.029829536 0.0025057562 -0.009975469 0.015416901
0.007569192 0.0061274287 -9.6153635e-05 0.0024425464 -0.00180668 -0.013610012 -0.02214925 -0.006484682
-0.013468204 -0.019515676 -0.010813949 -0.00405407 0.00039781193 0.015050357 0.019508684 0.027304998
-0.0034042813 -0.0037127757 0.002284956 -0.0015809868 0.018076932 0.010028982 -0.02771876 0.00078276626
-0.0015576268 -0.005820454 -0.0066086026 0.0072062663 0.00075139356 0.006661687 0.0046026413 0.031220911
-0.012516051 0.0042751175 -0.0058926702 -0.014650119 -0.020228773 0.018101642 -0.0059509915 -0.012580081
-0.009003094 0.0070685796 0.00998109 -0.009217467 -0.0053735995 -0.010683748 -0.014753578 -0.0052098166
-0.009443483 -0.008115613 0.011994549 -0.01699579 0.015583079 -0.0028111588 0.0076241046 0.02017706
-0.006964221 0.018962512 0.014214205 -0.0037549762 0.0064324327 -0.024171375 -0.035706628 -0.016216718
-0.01622976 -0.012386227 -0.0007530115 -0.008642632 0.020102775 0.0146249365 0.018947657 0.012379934
0.0009431165 -0.0049442626 0.0055459016 -0.012687502 -0.00024480335 -0.013463568 -0.008876127 0.009529378
0.01466693 -0.0087974705 -0.0066734045 -0.015379663 -0.015099138 0.028057061 0.014901546 0.002455222
-0.016635101 -0.0034225667 0.020931844 -0.006367998 -0.0139025245 0.0012282495 0.006229448 0.009524023
-0.0062038032 0.010470473 -0.007423977 0.011143677 -0.015676945 0.019658968 -0.017653503 -0.008195702
0.01308408 -0.012995776 0.009052526 -0.009163541 -0.010963999 0.010864647 0.014389846 0.0020461516
-0.004110231 0.004630023 -0.0012393151 -0.008760352 0.0045821485 0.028470328 0.018911602 0.003953428
0.0066793016 0.010161763 0.0022115028 -0.009741904 -0.0134059945 -0.01223306 0.020749569 -0.014735521
0.001985509 -0.001577771 0.015196916 0.012521383 0.03612008 0.002791658 0.003944252 0.008284689
0.010799972 -0.02094498 0.027748043 -0.01119398 0.024115652 -0.016876943 0.023970414 0.016537935
0.010068147 -0.026018232 0.009820406 0.015801169 -0.003644714 0.01948951 -0.012974509 -0.009886064
0.004630288 -0.011206382 -6.3592042e-06 -0.021752803 0.018757576 0.021146927 -0.022130612 -0.0020759031
0.0046658 0.007895031 -0.015709125 0.02069646 -0.0044889674 0.0049731615 -0.009075454 -0.0030609951
0.010922289 0.005112383 0.0048733503 0.004282192 -0.0014388427 -0.008125131 0.0028263498 0.018294606
-0.010346778 -0.0106713865 0.01983548 -0.0213924 -0.012377089 -0.001088683 -0.013419869 0.019264054
0.040076427 -0.021509115 0.009438159 -0.004989608 0.013514085 0.011790938 -0.009684019 0.009677222
0.02500184 0.0072644358 0.0017017971 0.014438834 -0.0075816186 -0.010741648 0.017231783 -0.021145316

network_body._body_endoder.seq_layers.2.weight f4 [256, 256]
00000000: 73e1 1fbd 7cf9 05be 3a88 a3bd 3cd5 ac3d
00000010: 026f 3d3c b47b d73c 956f faba 47f3 09bb
00000020: c0bf c6bd 526a 4f3d 1c1f 263d a998 29bd
00000030: 23e5 623d 91cf bf3d df3a f3bb 432d 93bd
00000040: 9f5e 953d e73d d5bc 9e34 86bc eed4 23bd
00000050: 8ee4 f3bc c8ac 3c3d 7bb7 4abc 3e0e 0c3d
00000060: 1a0a 52bd 2203 85bd 70bc 883b 8bbb e53b
00000070: d2c5 a23d 73e4 bd3d 8758 88bc 1195 aabd
00000080: 1dd4 093b e785 30bc 029e 053d ddee c23d
00000090: c30e ec3b 2e13 0ebd 162c 98bd 5c86 87bd
000000a0: 28b6 e1bc 9c4a b53b 2132 013d 0dbc 493c
000000b0: b5ca 4ebc ad49 dcbc 6397 2dbd 7ed8 23be
000000c0: fadf 923d e004 9c3c 9151 a23d fed1 de3c
000000d0: 3811 c73c 1728 553d 9dc4 90bd f9fc 1e3b
000000e0: e589 2f3d 9d4f 843d f63f a5bd e6a3 5cbd
000000f0: dfb9 00bc bf67 a4bd a2b3 fe3c b657 513d
00000100: df78 86bd d24f 05bd 6bb5 903b 6c70 9cbc
00000110: f2f6 d4bc fd4d 583d ef08 6a3d ef24 db3d
00000120: 7899 6ebb 792b ecbd 5523 41be ab39 67bd
00000130: 44b6 ccbd b7ff 79bb 2eb3 853c d1d3 bc3c
00000140: 42d5 d13c fd56 583d dd9b 443d 668c f7bd
00000150: b63e 183e 60dc 153d 23d5 9ebd bdf4 143d
00000160: fa99 f3bb 673e cb3b 741b 863d 44db f3bd
00000170: a2f3 faba a9c9 833d 3202 cf3d 8ae2 28bc
00000180: cfb7 34be d127 8b3d a696 2e3c 51c0 11be
00000190: e0db 41bd f579 fe3c f5ac cabc 2929 bcbb
000001a0: ae2e 0abd 8bb7 92bc 79df 9cbd 7e0a 2a3d
000001b0: d320 86bd 07d2 62bd b124 0abc cee5 003d
000001c0: caea 99bb 34cd 913d ef53 36bc 5964 47bd
000001d0: 1011 30bc 1667 64bc 9df6 39bd 8eb8 e23c
000001e0: 04a9 b7bb d1bd a3bc c559 343c 276c babd
000001f0: f927 643d dd49 033e a479 23bd 2ed8 cd3d
00000200: 8203 37bd 2d1d 5abc 9fb4 a53d e436 aebd
00000210: d5e3 e9bb 0ed7 8e3d e355 6abd 780d 893d
00000220: 9b36 933d ddf0 12bd d139 853b 0cbe 77bc
00000230: 1e43 3cbd 341a 1a3e 6dd0 303d 0d39 9f3d
00000240: ed60 033c 4847 f73c cef0 8dbd eb19 72bd
00000250: 3b5e 4a3c e835 063d ed52 5f3d 6dae 023c
00000260: a6b8 e4bc 89c6 b13c 8505 2a3d c3be 48bc
00000270: fa02 14bd e043 ae3d c2ae a53d 79e9 953d
00000280: f21e 843c a41d 6b3d 6533 1ebd 9d65 f53d
00000290: 6536 7abc b69d d6bd 0968 abba ddef 233d
000002a0: 52ba 90bd 057b 25be 0f51 0abe b992 643b
000002b0: 7457 8cbb 1ab5 b7b9 a291 923d d1bc 5e3d
000002c0: f2b6 d2bd 25af 8cbd a8a4 95bd a2a9 fdbc
000002d0: 2119 a6bd a6a8 35bd d58a 043e ffa9 d2bd
000002e0: 5c97 84bd b245 1c3c 2903 99bc 79bf 8a3c
000002f0: 8bf1 dbbd 86dc 833c 7c2a 84bc d72a 3c3e
00000300: 9986 9fbd 4580 8fbd a53f 4e3c 344a a3bd
00000310: eb5d 78bd a8d4 77bd 955a 083e 161c 54bd
00000320: 2dd5 2b3d 280b 14bc 2f6a 113d 6841 4bbb
00000330: 5995 d8bb b840 b53d 9bbd 983a 9d0a ef3c
00000340: 9702 22bd 68ac 3f3b d555 193d 1538 923d
00000350: cbdc 923b 6579 3f3d f337 0abe b972 13bc
00000360: a618 4dbd bcbf 00bd 2dd1 a5bd 90c9 a0bd
00000370: 044b 753c 81ec b23d 6861 d53c 18ba e3bd
00000380: 6e05 813d 52cb 71bb c580 6cbd f67b 31bd
00000390: c0c7 333d a4a6 a13d 906c a8bd 7223 0f3d
000003a0: 08cf 8ebd 90e3 483d fc29 dc3d 5bae 04bd
000003b0: 6958 f9bc 85b1 483d 9250 19bc 8d21 6d3c
000003c0: fa65 793d aa86 f23d 781d a0bc 2706 a83d
000003d0: 43f4 70bd 61dc a03d 5d45 3dbd 95a4 89bb
000003e0: 5dfd d93c 80cc 93bd 7992 89bd 20b5 ca3d
000003f0: 22b1 093d 4269 c7bd e298 4e3d 46e9 90bd
-0.039033365 -0.13083452 -0.079849675 0.08439109 0.011562111 0.026304103 -0.001910674 -0.0021049546
-0.09704542 0.050638504 0.040557012 -0.041405354 0.055394303 0.09365762 -0.0074227895 -0.07186367
0.07293438 -0.026030494 -0.016382512 -0.039997987 -0.02977207 0.046063215 -0.012372847 0.03419327
-0.051279165 -0.06494738 0.004172854 0.0070108823 0.079478875 0.09272089 -0.016643776 -0.083292134
0.002103097 -0.010774112 0.03262139 0.09518216 0.007203908 -0.03468626 -0.07430284 -0.06617424
-0.02755268 0.005532576 0.031541947 0.012312901 -0.012621571 -0.0268906 -0.0423807 -0.16000554
0.071716264 0.019045293 0.07925714 0.027199741 0.024300203 0.052040186 -0.07068751 0.002425967
0.042856116 0.064604975 -0.0806884 -0.053867243 -0.007856815 -0.080276005 0.031091515 0.05110904
-0.06566023 -0.032546826 0.004416158 -0.019096576 -0.025996659 0.05280875 0.057137426 0.10700404
-0.0036407392 -0.11531729 -0.18861134 -0.05645148 -0.09995702 -0.0038146803 0.016320791 0.02305022
0.025614385 0.052817333 0.048000205 -0.12087326 0.14867672 0.03658712 -0.07755496 0.036366213
-0.007434127 0.0062025073 0.06548205 -0.11907056 -0.0019146095 0.06434948 0.101078406 -0.010307917
-0.17648242 0.06794704 0.010656035 -0.14233519 -0.04732883 0.031064013 -0.024740675 -0.0057422114
-0.033735923 -0.017909786 -0.076598115 0.041513912 -0.065492295 -0.05537608 -0.0084315995 0.03146916
-0.0046971785 0.071192175 -0.01112841 -0.048679683 -0.0107462555 -0.013940593 -0.045401204 0.027675893
-0.005604865 -0.019987972 0.011007731 -0.0910266 0.055702183 0.12821145 -0.039910927 0.10050999
-0.04468108 -0.01331262 0.08091091 -0.08506563 -0.0071377554 0.06974612 -0.057210814 0.06692022
0.071881495 -0.035874236 0.00406573 -0.015120994 -0.045962445 0.15049058 0.04316752 0.077745534
0.008018714 0.030185357 -0.069306955 -0.05910675 0.012351568 0.032766253 0.054522444 0.007976157
-0.027920078 0.021701114 0.04150917 -0.012252512 -0.03613565 0.0850904 0.08089973 0.07319922
0.016128037 0.057401314 -0.038623232 0.11982272 -0.015271758 -0.104793 -0.001307727 0.040023673
-0.07066788 -0.1616021 -0.13507484 0.0034877493 -0.004282886 -0.0003503941 0.071566835 0.054379288
-0.102888 -0.06869344 -0.07306796 -0.030964676 -0.08110262 -0.04435029 0.12943585 -0.102863304
-0.06474182 0.009538101 -0.018678265 0.016937004 -0.1073943 0.016096365 -0.01613354 0.18375717
-0.07789344 -0.07006887 0.012588416 -0.079731375 -0.060636442 -0.06050554 0.13315804 -0.051784597
0.041951347 -0.009035863 0.035501655 -0.0031014327 -0.0066096005 0.08850235 0.0011653187 0.029179865
-0.03955325 0.002924705 0.03743537 0.07139603 0.004481887 0.04674663 -0.13497905 -0.00899952
-0.050072335 -0.031432852 -0.08096538 -0.07850945 0.014971498 0.08736516 0.026047423 -0.11119479
0.06299864 -0.003689487 -0.05773999 -0.04333111 0.04389167 0.07893112 -0.08223832 0.034945913
-0.06973082 0.049045146 0.107501954 -0.03239284 -0.030437665 0.04899742 -0.009357588 0.014473331
0.060888268 0.118420914 -0.019545302 0.082042985 -0.058826696 0.07854534 -0.046208728 -0.004200528
0.02661007 -0.0721674 -0.067173906 0.09897828 0.033616193 -0.09736873 0.05043877 -0.070757434

network_body._body_endoder.seq_layers.2.bias f4 [256]
00000000: b262 0a3d 9f70 043c 795b 25bb 5178 8f3c
00000010: dda9 a33c c11b 853c edfc a4bb bbc7 103c
00000020: 33ee 05ba 439e cd3c 9c95 b03c 2aad dabb
00000030: 2e99 e93b cf69 93ba eb0e 00bb cca0 a2bb
00000040: 8bf7 733a 5774 af3c c90d 7b3c 945a b7bb
00000050: fe25 073b bc4d b63c 45be cf3c df9a 30bc
00000060: cf07 353c 2593 f2ba 3995 15bb 9892 0b3c
00000070: 6a96 8ebb 9577 303b aa53 f23b f64d 6a3b
00000080: 7d9d c23c 1843 f53b d76d e8bb 0c48 203c
00000090: f826 bc3b 9fbb 793c daa5 863c a025 663c
000000a0: bd90 1a3d 13c2 a13c deb0 b53a 6408 60bb
000000b0: 1561 a937 6fd7 ae3a 2452 15bb 2365 21bc
000000c0: e8d2 573c 033e dbba 9e4e 93bb 1d25 163d
000000d0: 8969 1b3c 70a4 223c 582b 97bc b260 593c
000000e0: 025d bd3c 0382 883c e80b 7cba dc42 413c
000000f0: 324f 103c 0d72 9f3c 7954 c7ba 2d74 5fbb
00000100: 79c0 d1bb 0c96 243b e2c6 193c 8647 6cba
00000110: 22fd 5c3c 6040 d43b 8d13 6d3c 389f 2c3c
00000120: 798f 88b9 7aac fe3c 8dea afbb 280d 4e3b
00000130: dec6 1c3b 68cf 6dbc 8684 973b 4847 323c
00000140: 9af3 edba b647 b43b 60d6 18bc ca86 a7bb
00000150: 603c 9539 a4c0 e33c 25af 103c 27f5 8939
00000160: 5d94 d33b 8cce 413b e397 a53c 5d9b 18bb
00000170: 487f 083c 6981 203c 1737 41bc cd52 8d39
00000180: 66c0 863a 63eb 583c 0027 0fbc 2288 13bc
00000190: 7889 bdb9 8918 cf3b cd2b 873c 15e7 0abc
000001a0: e89a b33c bee7 40ba 8fe0 903c 12ca 243c
000001b0: a392 2fbb 8db4 f2ba 6b95 b33c 105f 113c
000001c0: c034 2a3c 5e3b 333c e688 6c3b 638c 373c
000001d0: 74c3 8f3c 228d bbbb ee1f 833c 48a5 863c
000001e0: a841 f6bb 3f43 e13b dcf2 b3bb ad32 d33b
000001f0: ea50 e9bb de2a 35bb 838c c23c 89e7 083b
00000200: c2ae b9bb aa65 ea3b da2b a73b b562 0c3b
00000210: a8cd ed3b acc1 503b d51d 3c3c 2947 0bbc
00000220: 774d 0c3c 7382 873b d74e 0f3b afdf d93b
00000230: 4cb4 c43b 46df 03bc 8ee7 11bb 9159 df3b
00000240: 5a10 ba3a d54b 4fbb ed9a fc3b 8526 34bb
00000250: a2a9 1c3b 3674 3abc 2c59 13bc 5323 963c
00000260: 0a91 ba3c 673f 363d 5074 223c 3902 c23c
00000270: 21bc 463c fdee 023c 4176 033c f35f b6b9
00000280: 3087 cd3b ce63 d4bb 8300 b63c 3ed0 ab3c
00000290: cebe 40bb 65cc fab9 951b 513c c30f 983c
000002a0: a0c0 b23c b5cc d2bb c32a 143b 003b fa3a
000002b0: d624 223c ee90 523c dfe5 6f3c e895 d7bb
000002c0: 80b4 aa3c 2c4f 4fbc c191 c03a af14 1bbb
000002d0: beb9 bb3b 2d9a 9339 6383 d9bb 33f9 483b
000002e0: f096 dc3c b59b a83b 9084 393c 72b6 8f3a
000002f0: afc6 b93c a688 0c3b b2ba 6a3b 61a4 673c
00000300: 418b 313c 46f2 753b fd8f 553c bbcd 2a3b
00000310: 98ab a33c 056e e1b9 db89 483c 1b58 2ebc
00000320: 2d5d 093c ba7f 163c 01df 3739 b14f 97b9
00000330: 9add 5a3c 3b2e 863c 0f54 2bbb fffa a4ba
00000340: 5df0 4e3c 289d e73b 2b03 deba b359 513c
00000350: 013e 603c 53e7 29bc 8450 d03c 3eee 59bc
00000360: ffa9 6cbc a6de 86bc 8c0d a13c 8d94 773b
00000370: 32d5 3abc 3558 d4bc b7c0 263d b369 a0bb
00000380: c100 743c c8a0 473b ca69 473c 154c 633c
00000390: 6c13 9b3b 6fd3 26bb b518 803b a796 50bc
000003a0: d628 d63b 60bc c7bb 3a54 f13b 1d7e 8f3c
000003b0: bc13 533c cf28 0b3c 4fff 35bb 0ac1 813c
000003c0: 8a5c 213a 0805 433b e378 7d3b d656 edba
000003d0: 7662 e43b 1e21 8d3b 5e5b a63c 2653 883c
000003e0: b6af 173c 4eb9 0a3a 8ea4 213c d0f0 143c
000003f0: f9cb e23b 04f1 613c a2f5 1f3c 4a4e 3bbb
0.03378553 0.008083492 -0.0025231524 0.017513426 0.019978458 0.016248586 -0.005035034 0.008836682
-0.0005109042 0.02509988 0.021555714 -0.006673475 0.007128856 -0.0011246743 -0.0019540142 -0.004963016
0.0009306601 0.02141778 0.015323111 -0.0055955146 0.002062201 0.022253864 0.025359282 -0.010779112
0.011049225 -0.0018506987 -0.002282454 0.008518837 -0.004351427 0.0026926745 0.0073952274 0.0035752035
0.023756737 0.007484805 -0.007093172 0.009782802 0.00574195 0.015242486 0.016436506 0.014047056
0.03773569 0.019745862 0.0013861915 -0.0034184689 2.0191577e-05 0.0013339351 -0.0022784555 -0.009850773
0.013172843 -0.0016726855 -0.004495456 0.036656488 0.009485611 0.0099269 -0.018453285 0.013267683
0.023115639 0.016663557 -0.0009614811 0.011795726 0.008807944 0.019463563 -0.001520767 -0.0034096346
-0.0064011184 0.002511385 0.009385796 -0.00090133434 0.013488086 0.0064774007 0.014469993 0.010536008
-0.00026046837 0.031088103 -0.005368537 0.0031440947 0.0023922245 -0.014514782 0.0046239523 0.010881253
-0.0018154264 0.0055017127 -0.009328455 -0.0051125037 0.00028464478 0.02780182 0.00883082 0.0002631333
0.0064568953 0.0029572574 0.020214027 -0.0023285963 0.008331127 0.009796479 -0.01179292 0.00026955307
0.0010280728 0.013239714 -0.008737326 -0.009004625 -0.0003615131 0.0063200635 0.016500378 -0.008477946
0.021924451 -0.0007358751 0.017685203 0.010057943 -0.0026790283 -0.0018516943 0.021921834 0.008872762
0.010388553 0.010939447 0.003609234 0.011202904 0.017549254 -0.0057236115 0.016006436 0.016436234
-0.007515151 0.0068744714 -0.0054915976 0.00644525 -0.0071202414 -0.002764396 0.023748642 0.0020889959
-0.0056665847 0.0071532326 0.005101663 0.0021421139 0.007257182 0.0031853719 0.011481722 -0.008500853
0.008563391 0.004135424 0.002186706 0.0066489796 0.0060029384 -0.008048838 -0.0022263261 0.006816097
0.0014195547 -0.0031630893 0.0077088983 -0.002748878 0.002390482 -0.011380246 -0.008993428 0.01832739
0.022774238 0.04449406 0.009915426 0.0236827 0.012129814 0.00799155 0.008023799 -0.00034785233
0.006272219 -0.006481624 0.02221704 0.020973321 -0.0029410603 -0.00047836002 0.012762924 0.018562203
0.021820366 -0.0064330944 0.0022608496 0.001909107 0.009896478 0.012851937 0.014642208 -0.0065791495
0.020838022 -0.012653153 0.0014691876 -0.0023663451 0.0057289293 0.00028152895 -0.006637977 0.0030666112
0.026927441 0.005145515 0.011323109 0.0010964407 0.022677748 0.0021443754 0.0035816845 0.014138312
0.010836423 0.003752844 0.013034818 0.0026062566 0.019979283 -0.00042997315 0.012239899 -0.010641123
0.008384031 0.009185726 0.00017535315 -0.0002886034 0.013358498 0.016379466 -0.0026142632 -0.001258701
0.012630549 0.007068295 -0.00169382 0.012777734 0.013686658 -0.010370093 0.025429018 -0.01330143
-0.014444827 -0.016463589 0.01965978 0.0037777752 -0.011403369 -0.025920967 0.04071113 -0.004895413
0.014892758 0.0030460823 0.012171218 0.01387312 0.00473254 -0.0025455614 0.0039091953 -0.012731231
0.0065356297 -0.006095454 0.007364777 0.01751619 0.012883123 0.008493616 -0.0027770584 0.015839119
0.0006155452 0.0029757638 0.003867679 -0.0018107544 0.0069697453 0.0043069264 0.02030724 0.01664121
0.009258201 0.0005291895 0.009865893 0.009090617 0.006921288 0.013790373 0.009763153 -0.00285806

action_model._continuous_distribution.log_sigma f4 [1, 2]
00000000: 2bc1 e3bd 49a3 87bd
-0.11120828 -0.06622941

action_model._continuous_distribution.mu.weight f4 [2, 256]
00000000: dbb5 82bd dee3 893d 5a29 c93c ff5b dc3b
00000010: 4069 31bc 4749 033d 37f1 7b3a 164a e63b
00000020: 9767 a1bc edf2 5cbd 1be1 9dbd ded5 623c
00000030: c9d1 103c 1b4b f93c 0995 25bc e440 a03a
00000040: 52e7 013d ced7 d6bc 8d14 35bd 8e41 2fbc
00000050: 84bc a8bb 2abf 22bd b8e0 43bd 27e0 763c
00000060: 969e 593d ff8e c93c 160f b8bb a5b6 1bbd
00000070: 2cc0 063c b383 ee3c 0b2d 3e3d fd3a 5fbd
00000080: e1b5 d6bc b4e3 6f3d eb99 9c3c 6016 c8bc
00000090: 1af8 7bbc f7a4 f2bb f4b2 55bd fc9a b9bc
000000a0: 5553 20bd db5f 4b3d e2dc b2bc 3aed 523c
000000b0: ad2d 7a3c 8f09 bb3b 5c59 5839 560d d3bb
000000c0: ec68 60bd 764b 243c f9f2 f03b 2f4d 61bd
000000d0: aaf3 073d a6f1 f4bc 8a64 213c 1590 0d3c
000000e0: c865 72bd f0ab 9bbb 5ec5 a0bc fb36 fbbc
000000f0: 1368 493d e37a 6abd baf5 473d ea7d 163c
00000100: 42ef e73b ef5d a83c 1d84 1f3d 6b1e e9bb
00000110: 7fe7 473d e036 db3c a553 1bbd 6c92 a03b
00000120: ce08 c4bc 802f 46bd e68c ad3b 3e76 b7bc
00000130: 9760 c6bc cae7 35bb 4d50 a43c 571b 5e3b
00000140: 3bb7 de3b 6641 a3bc e506 f53b 67a0 ee3a
00000150: 7b6f fc3c f2ad 11bd 0f68 80bc 2880 cdbb
00000160: 1b5d 503d ce11 223b 9ed5 2ebd 84d3 a1bc
00000170: a0c3 15bd e5b5 303c 5804 713c 6025 4a3c
00000180: 2161 40bb e1f3 55bd 476c 213c ade3 493c
00000190: e831 31bc 2214 f13c f16b 38bd 6780 913a
000001a0: 8fc2 293d fef3 3bbb 57fc d3bc bf28 36bd
000001b0: 576f 41bc b8fc b53c 40e3 93bc 5061 8b3b
000001c0: ef22 0dbd 5255 36bd 8718 1ebc 0776 67bd
000001d0: 928b 333c 48fa 43bb 861a 73bd 0695 edbc
000001e0: c0c7 c73c 3243 07bd 617a 4d3b 4ca9 243d
000001f0: 2562 bb3c 2da6 8cbc f905 7abd 58de e63c
00000200: 0bed 8c3c e1ee f83c 777b 99bc 02ec 3b3c
00000210: 9ced ddbb a9aa f23a 8b4f 85bd 25b5 b3ba
00000220: c76b 303d e94c d5bb b49c 2d3d f5e2 143c
00000230: 4678 ce3c 7f0e b8bb 3ee4 443c 2211 173c
00000240: 00a8 b33c 334a 3e3c ea2f 943c 402d 0b3d
00000250: 4c06 d33c 469a 323c 9401 e43b d891 27bd
00000260: 8fab 3abd b440 dc3b 7f2d 2abd a16c eebc
00000270: 36ed 58bc 3725 0bbc 0ee2 d6bb ffb5 813b
00000280: 90f4 063d e18f 3abb 6247 15bd d3c3 d4bc
00000290: 2b40 df3c d2b7 37bc 55e8 233d 5faf a83c
000002a0: fa30 8cbc 7414 87bb d1e6 73bc 62d9 1ebc
000002b0: d178 863c ed81 043d f49b 19bd 28f6 4a3c
000002c0: b25d 93bc cf0f f33c 3e30 83bc e00e 1a3c
000002d0: 941d d6bc 3c79 b7bb 7647 f2ba 556a 383d
000002e0: 33a2 753c e017 053d 4238 5c3d cec5 e4bb
000002f0: ade3 493c 9630 633d 9f46 ba3c 0fc7 1cbd
00000300: 5c94 1e3d ed21 d13c 8e9f 31bd 5e8f 0d3d
00000310: 6832 a2bc 31db ad3c 9ae4 1c3d 7114 e9ba
00000320: 8956 5d3c 2ca7 d5bc f509 56bc d53d 5ebc
00000330: 804b 65bd 42b4 2abd 10ce 643c ea2b dd3c
00000340: 85d9 713d 1f2f 28bd 14b3 70bb 8983 f0bc
00000350: b6ff 79bc 5b32 ed3c dc29 80bd c385 993a
00000360: 22b4 d13b a991 80b9 d6c3 1ebd 44c4 4fbc
00000370: d389 313c 3996 e53b ba32 f73b 4368 c3ba
00000380: 187e d7bc be36 e2bc b0ba 8fbc 97e7 f0ba
00000390: c137 9bbb 9e0d 0c3d 3070 cf3c e617 e03b
000003a0: 3ede 47bc a854 5f3c 1c92 b0bb 0f4c 19bd
000003b0: 5b08 53bd 2089 00bd 7b61 513d 2c28 82bd
000003c0: e641 d93c c680 823c 123b b53c c147 98bb
000003d0: b24e 0abd 1be9 aabc 47b7 60bd c901 3fbd
000003e0: f183 3cbd 95a3 323d 5e2d 36bd 0d79 253d
000003f0: 8f7c eebc a6c0 bd3c cfad 063d cbcb e33c
-0.063823424 0.06732915 0.02455585 0.006724834 -0.010828316 0.032052305 0.0009610834 0.0070278747
-0.019702716 -0.05394261 -0.07708951 0.013844935 0.008839079 0.03043132 -0.0101063335 0.001222637
0.031714745 -0.02622595 -0.044209052 -0.010696782 -0.005149426 -0.03973309 -0.04782173 0.0150680905
0.053129755 0.024604319 -0.0056170328 -0.03801598 0.008224528 0.029115533 0.046429675 -0.054499615
-0.026209773 0.058566764 0.019116363 -0.024424732 -0.015378976 -0.0074049192 -0.052172616 -0.02265691
-0.03914197 0.04965196 -0.02183384 0.012873942 0.015269679 0.0057079266 0.00020632654 -0.0064407988
-0.05478756 0.010027757 0.0073531833 -0.05500525 0.03319136 -0.029900383 0.009850631 0.008640309
-0.059179097 -0.004750721 -0.019625362 -0.030665865 0.04917152 -0.0572461 0.048818327 0.009185294
0.0070780823 0.020552604 0.038944352 -0.007114222 0.048804756 0.026759565 -0.037921567 0.0049002673
-0.02392998 -0.048385143 0.0052963374 -0.02239525 -0.02421598 -0.0027756565 0.020057822 0.0033890808
0.006796745 -0.019928645 0.0074776285 0.0018205763 0.030814877 -0.035566278 -0.015674619 -0.006271381
0.050870042 0.002472985 -0.04268419 -0.019754179 -0.036563516 0.010785555 0.014710508 0.012338012
-0.0029354768 -0.052234534 0.0098524755 0.012322349 -0.010815121 0.029428545 -0.045024816 0.0011100889
0.04144531 -0.0028679366 -0.025877161 -0.044472452 -0.011806331 0.022215232 -0.018052697 0.004253544
-0.034457143 -0.04451496 -0.009649402 -0.056509044 0.010958569 -0.0029903818 -0.059351467 -0.029001724
0.02438724 -0.033023067 0.003135346 0.040200517 0.022873947 -0.017169083 -0.061040852 0.028182194
0.017202875 0.030387344 -0.01873563 0.011469843 -0.00677271 0.0018513995 -0.06509312 -0.0013710601
0.043071534 -0.0065094125 0.042385772 0.009087314 0.025203835 -0.0056169624 0.012017308 0.009220393
0.021930695 0.01161437 0.018089253 0.0339787 0.025759839 0.0109010395 0.006958196 -0.04091057
-0.045573767 0.0067215804 -0.041547295 -0.029104533 -0.013240149 -0.008492759 -0.0065577095 0.003958463
0.032948077 -0.0028467106 -0.03644503 -0.025972283 0.027252277 -0.01121326 0.04001649 0.020591436
-0.017113198 -0.0041223112 -0.014886574 -0.009695383 0.016415032 0.03235047 -0.037502244 0.01238779
-0.017989013 0.029670624 -0.016014215 0.009402961 -0.02613715 -0.005599169 -0.0018484432 0.04502328
0.014992285 0.032493472 0.05376459 -0.006981588 0.012322349 0.055466257 0.022738753 -0.038275775
0.038715705 0.025528872 -0.043365054 0.034560554 -0.019799426 0.021222683 0.03830395 -0.0017782581
0.013509401 -0.02608069 -0.013063897 -0.013564547 -0.055980206 -0.041675813 0.013965145 0.026998479
0.059045333 -0.041060563 -0.0036727833 -0.029359596 -0.01525872 0.028954675 -0.06257984 0.0011712838
0.0063996473 -0.00024522588 -0.038760982 -0.012681071 0.0108360825 0.0070064333 0.007543889 -0.0014908392
-0.026305243 -0.027613994 -0.017545074 -0.0018379566 -0.004736871 0.034192674 0.02532205 0.0068387864
-0.012198983 0.0136310235 -0.0053885113 -0.03742605 -0.05152164 -0.031380773 0.051118355 -0.063553184
0.02652068 0.015930545 0.022122893 -0.0046472256 -0.033766456 -0.020863106 -0.054862287 -0.04663256
-0.046024267 0.043613035 -0.04447686 0.040398646 -0.029112129 0.023163151 0.0328806 0.027807137

action_model._continuous_distribution.mu.bias f4 [2]
00000000: ca7d 8cbb 8687 da3b
-0.004287456 0.0066689877

action_model._discrete_distribution.branches.0.weight f4 [1, 256]
00000000: b3d0 4b3c 2b20 213b af37 c5bb bd24 003c
00000010: e85b 7dbb e8df 963b cf4a 18bc 9506 0b3c
00000020: a3fe 90ba d5a3 7839 88fd 7c3b 5878 543b
00000030: 27a5 913b d3a0 0e3c 430f 093c 80bb 5c3c
00000040: 7230 9b3b 3088 febb 8dc7 4bbb 6f40 eebb
00000050: b32d 36bb da56 f3bb 5a90 6dbb d2d1 4d3c
00000060: b44e 3cbc 6f35 ceb9 6b8d c53b a0c3 89bb
00000070: 403a b73b 8ffb 103c de49 b0bc 70ce 543b
00000080: b774 473c 9b36 02bb 832d 483a 756e c1bb
00000090: b7a3 c93b c3d5 6e3b d769 d53b 12c3 5fba
000000a0: 57a9 063c 5fd3 733b 10ca 723b 774f 07bc
000000b0: 1184 bd3b 33be 25bc 9d0c 57bb 0a68 4fba
000000c0: 04fb 0f3c 5349 e0bb 130e 4cbb c845 43bc
000000d0: 9be7 10ba f0b8 4d3c 7894 593b 8d50 16ba
000000e0: 6b1f 94ba bb8a 1c3c eb42 a13b da66 d7bb
000000f0: 8d49 41bc 33b0 28b9 abd7 123b 0e83 3dbc
00000100: bd21 edbb 2d31 51bb 9de5 a43b 7a1b 6b3a
00000110: f9d4 143b 9fa1 273c 5552 89bb f627 99bb
00000120: b5f1 633c 8bca bfbb 737b 773c ccf0 b53a
00000130: 4e36 42bc 75a2 843b 48b7 50bb d268 fa3b
00000140: a880 933b cbc1 85bb ecdf c63b 7ab8 a03b
00000150: 8ead be3b d3d8 0dbc f499 083c 411b abba
00000160: 0b89 e2b8 1704 d239 6fa4 2cbc 002e e23b
00000170: 81b2 1bbc b3e2 4c3c 2353 59ba cbcc ee3b
00000180: 55e6 bebb faab af3b 40b8 f93b 9a68 64bb
00000190: a2ec 653c ce8d 28b6 5ae2 49bc 05f7 86bb
000001a0: 16cc 133b c027 a0bb 801c 0d3b 50a7 5abb
000001b0: 0dc6 e5bb d268 17bc de75 9f39 6f98 a33b
000001c0: 6fb8 b7bb 576a 74bb d7c8 b6bb b20f 13bb
000001d0: 67cb 54bc bfa9 9c3b 93a9 d33b a66f 1b3b
000001e0: 3bbd 8cbb 0f69 2cbb 6c12 c3bb 63e7 c539
000001f0: 7570 093b 794a 0ebc 4b4e 7f3a 0faf a83b
00000200: 642a 3d3b 7fbf 5f3b 087a e63b 941c 243b
00000210: e899 1f3a b4b2 46bb b32a 413b 8eb5 4b3c
00000220: 4f39 33bc c3e7 ed3b d1ba 94bb 38f3 e3bb
00000230: b06a 06bc 73f6 b4ba f1a6 9fbb 6855 be39
00000240: 2bb7 993a c4d5 ae3b b923 2a3b 8877 5b3c
00000250: c300 693b 420d 6b3b 0d9f 60bc 38d4 8dbb
00000260: 9efc ab3a d767 733b 8fa1 433a f31f 903b
00000270: fd64 973b 55c8 70b9 4657 33bb 0b08 ea3b
00000280: 48eb 063b 431c c4ba f87c d7bb f05d 653b
00000290: c468 b53b edab 5cbb b796 74bb 08a8 a13b
000002a0: 2282 433b 2769 deba e2da d2ba 43a4 33ba
000002b0: 04cc cc3b 0810 323c a63c 923a 377b 023b
000002c0: a77e 98bb b7ff e7bb 6805 ce3b c962 b03b
000002d0: 466b 17bb 4156 8d3b 9dbf 4dba 47aa f2bb
000002e0: 9a7d 843b 33d1 14bb 2066 6bba ffb3 73ba
000002f0: 84aa ac3b bbd9 a83b b73f a43b b3f3 563b
00000300: bbbd 583b 8711 393c e3a7 e5ba 0705 683b
00000310: 1a49 c63a c684 8bba b208 67bb 2104 99bb
00000320: 29d2 86ba 67cd 043b 6563 e13b e752 293b
00000330: a58d 50ba aaac 1f38 d6c5 a03b a7f9 45bc
00000340: c0fb f9bb 6fb1 f939 6b52 0dbc 4a79 b9bb
00000350: 5f80 e63b 0b5e 5d3c 833b 873b 6979 acbb
00000360: 44a0 183b 4d89 4e3c 688a 033c dee5 0f3c
00000370: 88a4 6fbb b5a6 fcbb 44cc 853b 4250 dc3b
00000380: 1f9b 64bb 620a b03b 62f5 853a a872 51b8
00000390: 456e 4dbb 1877 3e3b d98d 153c a1a4 8a3b
000003a0: cfe5 b4bb c5c9 993b 1eb7 03bc 975c 0cbc
000003b0: 63dd 153c af5d 1dbb 351a 853a 62d3 f03b
000003c0: 4b50 a43b 0005 b13a 15da 51bb 2818 74bb
000003d0: ce1e 9bbb b169 c33b b990 0c3b 21bb 0d3b
000003e0: dbe0 de3b 5acb abba ecaa cb3a a2ac 02bc
000003f0: aa27 123b d381 ad3b 7d2b 27b9 9043 57bb
0.0124398945 0.0024585824 -0.006018601 0.007821259 -0.0038659517 0.0046043284 -0.0092951795 0.008485456
-0.0011062216 0.00023712155 0.0038603265 0.0032420363 0.0044447365 0.008705336 0.008365455 0.013472438
0.0047359997 -0.0077676997 -0.0031094283 -0.0072708647 -0.0027798235 -0.007426125 -0.003624937 0.012562232
-0.011493374 -0.00039331193 0.006028821 -0.0042042285 0.0055916607 0.008849039 -0.021519598 0.003247168
0.012173823 -0.0019868973 0.00076361763 -0.00590306 0.0061535495 0.003644333 0.0065128612 -0.00085358426
0.008219085 0.0037204844 0.0037046708 -0.008258692 0.005783566 -0.010116148 -0.0032813915 -0.00079119264
0.008787874 -0.0068446784 -0.0031136319 -0.011918493 -0.0005527676 0.0125563 0.0033200067 -0.0005734049
-0.0011300867 0.00955456 0.0049213073 -0.00657354 -0.011797321 -0.00016087368 0.002240638 -0.01156689
-0.007236688 -0.003192018 0.005032255 0.0008968633 0.002270995 0.010231405 -0.004190723 -0.004673953
0.013912608 -0.0058530024 0.015105116 0.0013880967 -0.011853768 0.0040476867 -0.0031847525 0.00764189
0.004501421 -0.00408194 0.006069174 0.004904804 0.005819029 -0.008657652 0.008337487 -0.0013054387
-0.00010802046 0.00040057368 -0.010537251 0.0069024563 -0.009503008 0.012505221 -0.00082902814 0.007287597
-0.0058257976 0.0053610774 0.0076208413 -0.0034852386 0.014033468 -2.5116492e-06 -0.012322033 -0.0041188025
0.0022552065 -0.004887551 0.002153188 -0.0033363886 -0.007012135 -0.0092413 0.0003041466 0.0049925367
-0.005606703 -0.0037294829 -0.005578141 -0.0022439775 -0.012987948 0.0047809775 0.006459424 0.002371767
-0.004295019 -0.0026307737 -0.005953124 0.00037747165 0.002097157 -0.008684748 0.00097391446 0.0051478217
0.0028864378 0.003414124 0.00703359 0.0025041448 0.00060883025 -0.0030318918 0.0029474914 0.012433423
-0.010938956 0.007260294 -0.004538872 -0.006956484 -0.008204147 -0.0013806358 -0.004872196 0.00036303257
0.0011727562 0.0053355414 0.0025961234 0.013395198 0.0035553433 0.0035866057 -0.013709796 -0.004328277
0.001312155 0.003714075 0.0007462734 0.00439834 0.004620193 -0.00022962813 -0.0027365251 0.007142072
0.0020587016 -0.0014962036 -0.0065761767 0.0034998618 0.0055361707 -0.0033671812 -0.0037321278 0.004933361
0.0029832204 -0.0016968594 -0.0016086961 -0.0006852785 0.0062499065 0.01086808 0.0011156991 0.0019909868
-0.00465377 -0.007080044 0.0062872656 0.00538287 -0.0023104711 0.004313261 -0.0007848682 -0.0074055525
0.004043293 -0.00227077 -0.00089797564 -0.0009296536 0.0052693505 0.0051529086 0.005012478 0.0032799065
0.0033072073 0.011295683 -0.0017521348 0.0035403387 0.0015127987 -0.0010644428 -0.0035252986 -0.0046696817
-0.0010286021 0.002026403 0.006878304 0.0025836767 -0.0007955677 3.806936e-05 0.0049063964 -0.012083448
-0.007628888 0.0004762518 -0.008625607 -0.0056602107 0.007034346 0.013511191 0.0041269674 -0.0052634967
0.0023288885 0.012605977 0.008028604 0.008782832 -0.0036566574 -0.0077103027 0.0040831883 0.0067234347
-0.0034882498 0.0053723315 0.0010220225 -4.9936265e-05 -0.0031346243 0.0029062685 0.009128057 0.004231051
-0.0055205594 0.0046932423 -0.008039264 -0.008566997 0.009147021 -0.0024012139 0.0010154905 0.0073494175
0.0050144545 0.0013505518 -0.0032020856 -0.0037245844 -0.004733897 0.005963527 0.0021448566 0.002162643
0.006801707 -0.0013106868 0.001553861 -0.007975729 0.0022301474 0.0052950173 -0.00015942562 -0.0032846667
