EcoSculptor/Assets/Trainings/4.0/Preyanimal.onnx (onnx, 487384 bytes, 8 tensors)

network_body._body_endoder.seq_layers.0.weight f4 [256, 208]
0	0xbd8cb0e8	-0.0686968
1	0x3d36a80f	0.044593867
2	0xbda2570f	-0.07926761
3	0x3da3de6c	0.08001408
4	0x3dca5b3b	0.09880682
5	0xbd1a567c	-0.037680134
6	0x3ca19667	0.019725038
7	0xbde64b6f	-0.112448566
8	0xbdb8d769	-0.09025461
9	0xbdd3597e	-0.10319804
10	0xbdb5cea4	-0.08877304
11	0x3d9d0e53	0.07668748
12	0x3bc844f7	0.006111737
13	0xbce2146c	-0.027597629
14	0x3d2cd39c	0.042193994
15	0x3c9cd8e3	0.019146388
16	0xbd5555d0	-0.05208379
17	0x3e092d21	0.13396122
18	0xbd6b6a64	-0.05747451
19	0x3d50719a	0.05088959
20	0xbe2b7988	-0.16745579
21	0x3db1da58	0.08684224
22	0x3c1fc7c5	0.009752219
23	0x3dea16ca	0.11430128
24	0x3c988cd1	0.018621834
25	0x3d708fca	0.058730878
26	0x3d1b3a24	0.037897244
27	0x3cca14c6	0.024668109
28	0xbb98b53b	-0.004660276
29	0x3c985bd5	0.018598476
30	0xbe3f9340	-0.18708515
31	0xbd8e6630	-0.069530845
32	0xbe143b62	-0.14475778
33	0xbcd750e9	-0.026283698
34	0x3da49f8c	0.08038244
35	0x3cef5117	0.029213471
36	0xbda151b4	-0.07876912
37	0x3e914eb6	0.28380364
38	0xbc9cd831	-0.019146057
39	0xbdd21943	-0.102587245
40	0xbdbe3cd3	-0.09288945
41	0xbc8b9881	-0.017040493
42	0x3bcfbd99	0.0063397405
43	0xbd26c14a	-0.04071168
44	0xbde81d4f	-0.11333715
45	0x3da26369	0.07929117
46	0xbb9987de	-0.004685386
47	0xbc5e5be6	-0.013571715
48	0xbc812d5a	-0.015768696
49	0xbbdecbb4	-0.0067991856
50	0xbbfb5914	-0.007670531
51	0x3db7972d	0.08964381
52	0xbd6822ed	-0.056673933
53	0x3e0cacab	0.13737743
54	0x3cbab07e	0.022789236
55	0x3dce7898	0.10081595
56	0xbd590df4	-0.052991822
57	0x3d5ec814	0.054390028
58	0xbdc815e9	-0.09769804
59	0x3d302902	0.043007858
60	0xbe134807	-0.14382945
61	0x3c203470	0.009778127
62	0x3c89c177	0.016815884
63	0x3c13b97c	0.009016391
64	0x3e19ddb0	0.15025973
65	0x3de7dc0c	0.113212675
66	0xbda9f5f3	-0.08298864
67	0x3e48fe33	0.1962822
68	0xbca30dc3	-0.019904023
69	0xbd5b9f2c	-0.053618595
70	0xbdfb9fc0	-0.12286329
71	0x3de0d0ac	0.10977301
72	0x3cc38f31	0.02387199
73	0xbd0e51a9	-0.034745846
74	0xbb2a7413	-0.0026009127
75	0xbd0251b8	-0.031816214
76	0xbd43f0a7	-0.047836926
77	0xbc3c056c	-0.011475902
78	0x3bc21201	0.0059225564
79	0xbb87985f	-0.004138037
80	0xbdcdaf7b	-0.10043236
81	0xbd1e0131	-0.038575355
82	0xbc1b98cb	-0.009496878
83	0x3d681ea6	0.056669854
84	0xbd22c745	-0.03974082
85	0xbca5e99d	-0.020252997
86	0x3d967284	0.07346061
87	0x3dc18a8c	0.09450254
88	0xbd839ab9	-0.064259954
89	0xbc463d2f	-0.012099548
90	0x3d494bec	0.04914467
91	0x3d1ff2f8	0.039050072
92	0x3de65834	0.11247292
93	0x3d921e4f	0.07134687
94	0x3e220a42	0.15824226
95	0x3ded9a0d	0.116016485
96	0xbcbc4dbd	-0.022986287
97	0x3d3b04bc	0.045658812
98	0x3cbf6606	0.023364078
99	0x3d2c3da7	0.042050984
100	0xbd7e2b64	-0.0620531
101	0x3dd8a89b	0.10579034
102	0xbca91ab2	-0.020642612
103	0xbc20a3c3	-0.009804669
104	0x3d3dc33f	0.04632878
105	0xbdbe6c52	-0.09298004
106	0xbd1b2ba1	-0.037883405
107	0x3e2958c0	0.16537762
108	0xbe0ba274	-0.1363619
109	0x3cf64952	0.030064259
110	0x3decfc47	0.115715556
111	0x3d0defe1	0.034652594
112	0xbcea3a2b	-0.02859219
113	0x3da9ae29	0.082851715
114	0xbcafd658	-0.021464512
115	0xbdad41c6	-0.08459811
116	0xbdda1285	-0.106480636
117	0x3dd86b2f	0.10567319
118	0xbdfdaf10	-0.12386906
119	0x3c35e04d	0.011100841
120	0xbc14b17e	-0.009075521
121	0x3daec4e0	0.08533645
122	0xbcf34270	-0.029694766
123	0xbc076958	-0.008264862
124	0x3e087875	0.133272
125	0x3ad6ca5f	0.0016387216
126	0xbd8b03ce	-0.06787835
127	0xbd3dba58	-0.04632029
128	0x3a877eba	0.001033745
129	0x3d76b2c4	0.060229078
130	0xbdc88da3	-0.0979264
131	0xbd151a54	-0.03640206
132	0x3c938efc	0.018012516
133	0xbd41720b	-0.0472279
134	0xbd1cd496	-0.038288675
135	0x3dde40ef	0.10852229
136	0x3d65957d	0.056050766
137	0x3e0702be	0.1318464
138	0x3d825fad	0.06365905
139	0x3daf555d	0.08561204
140	0x3d1b15ea	0.037862696
141	0xbd3f0dfd	-0.0466442
142	0xbd45a728	-0.048255116
143	0x3de866d9	0.11347742
144	0xbd4e711e	-0.050400846
145	0x3c59bcb3	0.013289618
146	0xbd8f1f4c	-0.06988391
147	0xbdaceb7e	-0.08443354
148	0x3d850f6e	0.064970836
149	0xbcac0dc6	-0.021002661
150	0xbc89791a	-0.016781379
151	0x3d9468b8	0.07246536
152	0x3d37f729	0.044913445
153	0x3db6fa2a	0.08934434
154	0xbd8fee65	-0.07027892
155	0x3d090ac6	0.03345754
156	0xbbd9a2f8	-0.006641742
157	0x3b103316	0.0022003106
158	0x3d3b093f	0.045663115
159	0xbd58b416	-0.05290612
160	0xbe0fc4ac	-0.14039868
161	0xbd3ab417	-0.045581903
162	0xbddd7b56	-0.1081454
163	0xbbdca76c	-0.0067338254
164	0xba00c568	-0.00049122283
165	0xbd25b18e	-0.040452532
166	0xbcce3ccf	-0.02517548
167	0xbd97b2fe	-0.07407187
168	0xbcc59eef	-0.024123637
169	0x3b37b900	0.0028033853
170	0x3c455c6e	0.012045963
171	0xbcf7f0e6	-0.030266237
172	0xbd08235d	-0.03323685
173	0xbcab5276	-0.020913344
174	0x3ddfbf8a	0.10925205
175	0xbd8cb939	-0.06871266
176	0xbc1f6ab9	-0.0097300345
177	0xbc0eee13	-0.0087237535
178	0xbd9d1553	-0.07670083
179	0x3d73037a	0.059329487
180	0xbe12cb46	-0.14335355
181	0x3c11a2f6	0.008888951
182	0xbcbea237	-0.02327071
183	0xbb29bf42	-0.0025901352
184	0xbd46400c	-0.048400924
185	0x3c5d8ea2	0.013522776
186	0x3dd86588	0.105662405
187	0x3d5d9120	0.05409348
188	0xbd645711	-0.055747095
189	0x3d7fa529	0.06241337
190	0x3d0390f2	0.032120652
191	0x3d372ea4	0.044722214
192	0xbd3b6e1b	-0.0457593
193	0xbdc9543c	-0.098305196
194	0xbb18046d	-0.0023195997
195	0x3d224f90	0.039626658
196	0xbd732b37	-0.059367385
197	0xbd4a5c68	-0.04940453
198	0xbd3fbaaf	-0.046808895
199	0x3df48e31	0.11941183
200	0x3c814c88	0.015783563
201	0x3db0b365	0.08627967
202	0x3d975097	0.07388418
203	0xbdd173a7	-0.10227137
204	0x3c9b7710	0.018977672
205	0x3bd13f4b	0.006385719
206	0x3de84e2e	0.113430366
207	0xbcad2ad5	-0.021138588
208	0x3e18c02e	0.1491706
209	0x3e149a43	0.14511971
210	0xbde957fa	-0.11393733
211	0xbd000598	-0.031255335
212	0xbd60c9d5	-0.054879982
213	0x3d8e72f9	0.06955523
214	0xbc474472	-0.012162315
215	0xbdf8d332	-0.12149657
216	0xbd5f4056	-0.054504715
217	0xbd0f1bef	-0.03493875
218	0xbdb6a31d	-0.0891783
219	0xbd80a1a8	-0.062808335
220	0xbc811c9a	-0.015760709
221	0xbda3491d	-0.079729296
222	0xbe1fc699	-0.15603103
223	0xbda3b0f2	-0.07992734
224	0x3d5100db	0.051026206
225	0xbab0f6fd	-0.0013501343
226	0xbdc97cfd	-0.09838293
227	0xbdc75658	-0.09733266
228	0x3d28ba86	0.041193508
229	0x3d45638c	0.04819064
230	0x3d0452d4	0.032305554
231	0xbce626f5	-0.028094748
232	0x3c922473	0.017839646
233	0x3d180836	0.037117206
234	0xbd4bd0e2	-0.049759753
235	0xbdb3124c	-0.08743724
236	0x3d50657a	0.050878026
237	0xbd2d3424	-0.042286053
238	0xbd8b3e60	-0.067990065
239	0xbd0fe16c	-0.03512709
240	0xbc11b39b	-0.008892919
241	0x3d6460b5	0.05575629
242	0xbe09ccdc	-0.13457054
243	0xbd530b73	-0.05152459
244	0x3aa17e52	0.0012320972
245	0xbd693c95	-0.05694254
246	0xbdc2c78b	-0.09510716
247	0xbc6b8cdb	-0.014376844
248	0x3de6159c	0.112345904
249	0x3cd22824	0.025653906
250	0xbd852ae4	-0.06502321
251	0x3b821efb	0.0039709783
252	0xbc24b753	-0.0100534735
253	0xbd44cef6	-0.048048936
254	0x3cb07b26	0.021543097
255	0x39ce8aa0	0.00039394666

network_body._body_endoder.seq_layers.0.bias f4 [256]
0	0x3b8b70d5	0.004255394
1	0xbc81118f	-0.015755443
2	0xbc701e5f	-0.0146556785
3	0x3bb06cb2	0.0053840512
4	0x3b56ef06	0.0032796278
5	0x3bd2442c	0.006416818
6	0xbbe94faf	-0.0071200947
7	0x3b668496	0.0035174242
8	0x3c2777f6	0.010221472
9	0xbc5bfc13	-0.013426798
10	0xbc006ad9	-0.0078379745
11	0xbcba923c	-0.022774808
12	0xbb9e33ab	-0.0048279366
13	0x3bdfec6f	0.006833605
14	0xbbbe51ca	-0.00580809
15	0xbc9c6750	-0.019092232
16	0x3cb5994e	0.022167828
17	0xbb3da918	-0.00289399
18	0x3bbdf36d	0.005796841
19	0xbbeda81e	-0.007252707
20	0xbc94544d	-0.018106604
21	0xbc4eca85	-0.012621527
22	0x3bbbab0e	0.0057271784
23	0xbc2946a0	-0.01033178
24	0x3c4c5469	0.012471297
25	0xbc623ce1	-0.01380846
26	0x3c88ad5a	0.016684223
27	0x3b82873f	0.0039834077
28	0xbb97dc47	-0.0046344134
29	0xbb12f1d9	-0.0022421984
30	0xbafd6a73	-0.0019334093
31	0x3c477ab9	0.012175255
32	0x3c5306f6	0.012880078
33	0xbb5c7231	-0.00336374
34	0x3c7b3a8d	0.015333784
35	0x3ce1cd10	0.027563602
36	0x3c92357e	0.017847773
37	0x38e3d0a1	0.00010863064
38	0xb942710a	-0.00018543392
39	0x3aa07eee	0.0012244859
40	0x3cff64b6	0.031175952
41	0xbbda3243	-0.0066588237
42	0xbc23f1d7	-0.01000639
43	0x3b6924e2	0.0035574962
44	0xbc3c2b16	-0.011484882
45	0xbb53d84e	-0.0032324973
46	0x3c5148ce	0.012773706
47	0x3babded0	0.005245067
48	0xbb82ff06	-0.0039976863
49	0x3c2f744c	0.01070888
50	0xbac0fb45	-0.0014723322
51	0x3cb95a2b	0.022626003
52	0x3c41dfed	0.011833173
53	0xbc3ca3bd	-0.011513648
54	0x3c2a879b	0.010408307
55	0xbab48b53	-0.0013774432
56	0x3cfc33df	0.030786453
57	0xbc139034	-0.009006549
58	0xbc2eb349	-0.010662862
59	0x3c107f6a	0.00881944
60	0xb996bb51	-0.0002874979
61	0x3c23f0e4	0.010006163
62	0x3cd8c1de	0.02645963
63	0x3b783145	0.0037871164
64	0x3c8fd767	0.017558767
65	0x3c528dc4	0.012851182
66	0x3c4ef257	0.0126310205
67	0x3c3b67db	0.011438335
68	0xbc6d0aed	-0.014467937
69	0xbc77ed26	-0.015132224
70	0x3c4b1c53	0.01239689
71	0x3a6ef7b4	0.000911589
72	0xbc837174	-0.01604531
73	0x3c016b18	0.007899068
74	0xbafc216a	-0.0019236032
75	0x3c4c6974	0.012476314
76	0x3bc6ad9b	0.006063176
77	0x3bb2de43	0.0054586246
78	0xbb647105	-0.0034857404
79	0xbb57d183	-0.0032931275
80	0x3c16284c	0.009164881
81	0xbb95ec5e	-0.0045752963
82	0xbb36d50e	-0.0027897987
83	0xbb309c45	-0.0026948613
84	0xbc2481e1	-0.010040731
85	0xbbc95c12	-0.006145009
86	0x3c860794	0.016361035
87	0x3bbe0181	0.005798519
88	0xbcba630e	-0.022752311
89	0xbc1f0ce9	-0.009707668
90	0x3bc2d2a0	0.0059455186
91	0x3c63113d	0.01385909
92	0xbba6290f	-0.0050708125
93	0xbb70210f	-0.0036640798
94	0x3ca5f158	0.020256683
95	0xb8700dd9	-5.7233356e-05
96	0xbc2f6777	-0.01070582
97	0xbcabc148	-0.020966187
98	0xbbed210e	-0.0072366064
99	0xbb200eed	-0.002442296
100	0x3b6379fc	0.003471016
101	0x3ba3946b	0.004992058
102	0x3aa88cbc	0.0012859325
103	0xbbc5ce53	-0.0060365587
104	0x3b8ee92f	0.0043612937
105	0x3bece68f	0.007229633
106	0x3b412859	0.0029473512
107	0x3ba9d046	0.005182299
108	0x3c90a387	0.0176561
109	0x3bbae0bf	0.0057030614
110	0x3bb8d7f8	0.00564098
111	0x3c4e44a1	0.012589605
112	0xbc709e77	-0.014686218
113	0x3c2d0233	0.010559606
114	0x3a7b97c4	0.0009597505
115	0xbbd8e924	-0.0066195894
116	0xbc19e589	-0.009393104
117	0xbb9800a5	-0.0046387487
118	0x39da6bb4	0.00041660445
119	0x3b9dd725	0.004816907
120	0x3c10c6e2	0.00883648
121	0xbcac5f87	-0.021041645
122	0x3cbea9a9	0.02327426
123	0x3be60656	0.0070197983
124	0xbcbcde67	-0.023055268
125	0xba8ab54b	-0.0010582594
126	0xbc953e2c	-0.018218122
127	0x380ff894	3.4325363e-05
128	0xbcaffc9e	-0.021482762
129	0x3b26e056	0.0025463304
130	0x3ce54db8	0.02799116
131	0x3c323705	0.0108773755
132	0x3c59b44d	0.013287616
133	0x3cf8903b	0.030342212
134	0xbaf5092d	-0.0018694751
135	0x3b2be8db	0.0026231322
136	0xbc39d45e	-0.011342136
137	0x3c433e77	0.011916748
138	0x3c7c333d	0.0153930755
139	0xbc79ba54	-0.015242178
140	0x3c0e635c	0.008690681
141	0x3c2f6d14	0.010707159
142	0x3cc6c0e1	0.024261894
143	0x3b2aa548	0.0026038457
144	0x3bc94d54	0.0061432514
145	0xbc14d170	-0.009083137
146	0x3c813310	0.015771419
147	0xbbe98408	-0.007126335
148	0xbb03adaf	-0.0020092537
149	0x3b140234	0.002258432
150	0x3c5d41ab	0.013504426
151	0x3c833ff9	0.016021715
152	0x3a8ec526	0.0010892495
153	0xbaeb5749	-0.001795509
154	0x3b425bb7	0.0029656717
155	0xbc04385d	-0.008070079
156	0x3a316abd	0.00067679194
157	0xbbd50870	-0.00650125
158	0x3c797c94	0.015227456
159	0xbc1b438d	-0.009476555
160	0x3bece5b0	0.0072295293
161	0x3c9568d6	0.018238466
162	0xbb9822d8	-0.0046428256
163	0x3c831248	0.015999928
164	0x3cac3b03	0.021024233
165	0x3c9fa397	0.019487185
166	0xbbdbf57f	-0.006712615
167	0xbbc30cbe	-0.0059524467
168	0x3c7133f0	0.0147218555
169	0xbc19d55f	-0.009389251
170	0x3c0c8e82	0.008578898
171	0x3a7542a1	0.0009355937
172	0x3b025445	0.0019886654
173	0xbc80b878	-0.015712962
174	0x3b140dc8	0.0022591222
175	0xbc0a272c	-0.008432191
176	0xbc2d4dd9	-0.010577642
177	0x3b052162	0.0020314087
178	0x3c6f8b62	0.014620634
179	0xbc835add	-0.016034538
180	0xbc17cdd9	-0.0092653865
181	0x3b0e6456	0.0021727285
182	0x3b432c64	0.0029781098
183	0x3c610c2b	0.013735811
184	0x3cbbd29d	0.022927577
185	0x3c1fc052	0.009750443
186	0x3ab36a4f	0.0013688299
187	0x3b8959fe	0.004191636
188	0x3ba41889	0.0050078076
189	0xbbedd6d6	-0.0072582765
190	0xbbc2ee97	-0.0059488523
191	0xbc875966	-0.01652212
192	0x3b3ba1bc	0.0028630337
193	0x3c884466	0.016634177
194	0xbc3bf8a7	-0.011472858
195	0xbbc56fab	-0.0060252747
196	0x3a98c415	0.0011655117
197	0x3b2f9533	0.002679181
198	0xbbdd8541	-0.00676027
199	0x3c30d6c5	0.010793393
200	0xbb7986e2	-0.0038074781
201	0xbae07859	-0.001712571
202	0x3c28edab	0.010310571
203	0x3c26d17d	0.010181782
204	0x3b3b99b9	0.0028625561
205	0xbb819b89	-0.003955309
206	0x39ed3196	0.00045241107
207	0xbb92b73c	-0.0044774096
208	0xbc0c36b6	-0.008557966
209	0x3bed2cd1	0.0072380085
210	0x3b7bc439	0.0038416518
211	0x3bfaa271	0.007648759
212	0x3c3eb294	0.011639256
213	0xbbb8b99a	-0.00563736
214	0x3a1e46e2	0.0006037784
215	0xbca32b5e	-0.01991814
216	0x3a873cb3	0.0010317772
217	0x3d02b48d	0.031910468
218	0xbbadee62	-0.0053079585
219	0x3aadb57c	0.0013252939
220	0xbc6fc379	-0.014634007
221	0x3b113efe	0.002216279
222	0xbc677a6f	-0.014128312
223	0x3cb7f71a	0.022456694
224	0xbbc1879e	-0.0059060594
225	0xbb30fb47	-0.0027005242
226	0x3b2369cc	0.0024934886
227	0xbc5e922a	-0.013584653
228	0xbb45d654	-0.0030187564
229	0x3acc5942	0.0015590566
230	0xbc0b7e2e	-0.00851397
231	0x3c7089aa	0.014681259
232	0xbb3c101a	-0.002869612
233	0x3cb3b4a6	0.021936726
234	0x3c19e116	0.009392044
235	0x3be40006	0.0069580106
236	0x3c8c70ca	0.017143626
237	0xba348987	-0.0006886948
238	0xbbc09b46	-0.005877885
239	0x3b982eb8	0.004644241
240	0x3c2efedb	0.0106808795
241	0xbb700ff0	-0.0036630593
242	0xbb45d7d9	-0.003018847
243	0xbbd060fa	-0.0063592168
244	0x3a17c4f0	0.0005789539
245	0xbc7eab1c	-0.015543725
246	0x3bf3a4e2	0.007435427
247	0x3c80b62f	0.015711872
248	0xbb28b558	-0.0025742855
249	0x3ca76b1a	0.020436812
250	0x3c09e576	0.008416524
251	0xbbc60936	-0.0060435785
252	0x3c75ba0e	0.014997972
253	0x3cc892eb	0.024484118
254	0x39628a03	0.00021604453
255	0xbb6e6fc1	-0.0036382528

network_body._body_endoder.seq_layers.2.weight f4 [256, 256]
0	0x3d155339	0.03645632
1	0x3d7c750c	0.061635062
2	0xbd99d472	-0.07511224
3	0xbcf12dc9	-0.029440777
4	0xbe04136b	-0.12898032
5	0x3dbf322f	0.09335744
6	0xbd12d6e8	-0.03584948
7	0xbd0f1e32	-0.034940906
8	0xbd10196e	-0.0351805
9	0x3d5e2bc9	0.054240976
10	0x3d06dbd6	0.032924496
11	0xbd0fbca1	-0.035092
12	0xbd009f33	-0.031401824
13	0x3cb16e02	0.021658901
14	0x3e504762	0.2033973
15	0xbcfb4852	-0.030674133
16	0x3de7f403	0.113258384
17	0xbd24040b	-0.04004292
18	0xbd5ea6c8	-0.054358274
19	0x3d066fbb	0.0328214
20	0x3d897e7f	0.0671358
21	0x3d4be119	0.049775217
22	0xbab7cba4	-0.0014022482
23	0xbc344d20	-0.011004716
24	0xbde37a90	-0.11107361
25	0x3cc2f648	0.023799077
26	0x3d1a30f3	0.037644338
27	0x3bd8da0b	0.0066177896
28	0x3b415e6c	0.0029505743
29	0x3d88f8f6	0.066881105
30	0xbca18da7	-0.019720865
31	0xbd1e210c	-0.038605735
32	0x3c6b9f0e	0.014381183
33	0xbdb5a1dd	-0.088687636
34	0x3dd42773	0.10359087
35	0xbd24212d	-0.0400707
36	0x39bcde4c	0.00036023778
37	0xbbb8c418	-0.0056386106
38	0xbd9f1578	-0.07767767
39	0xbbf7c896	-0.0075617535
40	0x3da55d6e	0.08074461
41	0x3dd06f13	0.10177436
42	0x3da1934b	0.07889422
43	0x3d609edd	0.054839004
44	0x3d81474d	0.06312428
45	0x3c7639fa	0.015028471
46	0x3d794a65	0.060861964
47	0x3c7c1bea	0.015387515
48	0xbcc62965	-0.02418966
49	0x3db060a3	0.08612182
50	0x3d8347ae	0.06410156
51	0x3d3b2ac0	0.045695066
52	0x3ce61577	0.028086407
53	0xbd711521	-0.05885804
54	0xbdebef0c	-0.11520204
55	0xbd231e29	-0.039823685
56	0xbdab0c82	-0.08351995
57	0x3d89dcb4	0.06731549
58	0xbe1bc973	-0.15213566
59	0xbd6c57b3	-0.057700824
60	0xbddd07d0	-0.10792506
61	0xbd40b281	-0.047045235
62	0xbcc37571	-0.023859711
63	0x3cefd4fc	0.029276364
64	0xbd243ed6	-0.040098988
65	0x3d0d0987	0.034432914
66	0x3e063c85	0.13109024
67	0x3ba26104	0.004955413
68	0x3d5ba89b	0.05362759
69	0xbd11003d	-0.035400618
70	0x3cddadf4	0.027060486
71	0xbdb32087	-0.087464385
72	0xbd616356	-0.055026375
73	0xbcf1f4d4	-0.029535688
74	0x3db1683f	0.086624615
75	0xbdbb8f49	-0.09158189
76	0xbbccd0ad	-0.006250462
77	0x3d27bdd2	0.04095251
78	0x3c56472f	0.013078495
79	0xbe2bbcdd	-0.16771264
80	0xbd9d667a	-0.076855615
81	0x3ccc5c14	0.02494625
82	0xbc30fab5	-0.010801961
83	0x3d078a8e	0.03309112
84	0xbe071c26	-0.13194332
85	0xbd87257a	-0.06598945
86	0xba77da8b	-0.00094548677
87	0x3b452df3	0.0030087202
88	0x3d87d864	0.0663307
89	0xbd71b8a7	-0.05901399
90	0xbcb4f423	-0.02208907
91	0xbd21cbaf	-0.03950089
92	0xbdc17992	-0.09447016
93	0xbca71fe0	-0.020400941
94	0x3d0473b1	0.032336894
95	0x3c6f3973	0.014601099
96	0xba8ae842	-0.0010597783
97	0xbdada357	-0.0847842
98	0x3da9de37	0.08294337
99	0xbdfccb63	-0.123434804
100	0xbd90b1e1	-0.07065178
101	0x3db1af30	0.086759925
102	0x3d174e71	0.036940042
103	0x3d1fe107	0.039032962
104	0xbd846138	-0.064638555
105	0x3d2f34a5	0.042774815
106	0x3d3ffe18	0.046873182
107	0x3d594ebd	0.053053606
108	0x3ccba151	0.024857195
109	0x3c3d9eec	0.011573534
110	0xbd578143	-0.052613508
111	0xbe170f19	-0.14751853
112	0xbd29fbfe	-0.041500084
113	0x3d106739	0.03525469
114	0x3e364f6d	0.17803736
115	0xbd46ad98	-0.048505396
116	0x3ceb65ec	0.028735124
117	0xbd85de36	-0.06536524
118	0xbd2073ec	-0.03917305
119	0x3d2f538c	0.042804286
120	0x3d11f37a	0.035632588
121	0x3d809c14	0.062797695
122	0x3d006571	0.031346742
123	0xbda8a5b8	-0.08234733
124	0xb9bd75c6	-0.00036136637
125	0x3d185a1d	0.037195314
126	0xbd46237e	-0.04837369
127	0x3d1db681	0.038504127
128	0xbc94b65a	-0.018153358
129	0x3d938969	0.07203943
130	0xbcdea608	-0.02717878
131	0x3cba9490	0.022775918
132	0x3d3036b4	0.04302092
133	0x3bcf5114	0.006326804
134	0x3d0760b9	0.033051226
135	0x3a75fa0b	0.00093832676
136	0x3cacdd8d	0.021101737
137	0x3da42420	0.08014703
138	0xbdca956e	-0.09891783
139	0xbcb44e21	-0.022009911
140	0xbd6c852b	-0.057744186
141	0x3b25716e	0.0025244611
142	0xbcc64a62	-0.02420539
143	0x3d001781	0.031272415
144	0x3dff95f8	0.12479776
145	0xbd39315f	-0.0452131
146	0xbc853eee	-0.016265359
147	0x3d560182	0.05224753
148	0x3d35437c	0.04425381
149	0xbc865eee	-0.016402688
150	0xbd05ad33	-0.03263588
151	0xbdfb85e4	-0.12281397
152	0xbd39df56	-0.045379005
153	0xbcfb6e81	-0.03069234
154	0xbd4634e1	-0.048390273
155	0xbdc2c539	-0.095102735
156	0xbd73d713	-0.059531283
157	0x3d0da38a	0.03457979
158	0x3cb9f163	0.02269811
159	0xbd9844a6	-0.07434969
160	0xbcbfb220	-0.023400366
161	0xbdde936c	-0.10867962
162	0x3cd8cab1	0.026463838
163	0xbdb0dcac	-0.0863584
164	0x3b83f712	0.004027256
165	0xbc056495	-0.008141656
166	0x3ce6fb6b	0.028196057
167	0xbd897859	-0.067124076
168	0xbe00742e	-0.12544319
169	0x3d02fa2b	0.03197686
170	0xbd06de1b	-0.03292666
171	0xbd8cc894	-0.06874195
172	0xbd44e0d5	-0.04806598
173	0xbcda0be5	-0.026617
174	0x3d3864bd	0.045017947
175	0x3da62325	0.08112172
176	0xbd626494	-0.0552717
177	0x3be2cb49	0.006921206
178	0x3dd85fbf	0.10565137
179	0xbd84b70c	-0.06480226
180	0xbc887bf0	-0.01666066
181	0x3a12db30	0.00056021195
182	0xbc926dc0	-0.017874599
183	0x3de84a9c	0.113423556
184	0x3d2714ea	0.04079143
185	0x3d8c0917	0.06837671
186	0xbd84a0d6	-0.064759895
187	0x3d935116	0.071932
188	0xbdc61b2c	-0.096731514
189	0x3d074927	0.033028748
190	0xbd2b381e	-0.041801564
191	0xbd361944	-0.04445769
192	0xbe020998	-0.12698972
193	0x3df41e57	0.11919849
194	0x3c1203a5	0.008912002
195	0x3d9a048a	0.07520397
196	0x3db4fbbb	0.08837076
197	0xbd455696	-0.048178278
198	0x3c2d1f72	0.010566579
199	0x3d71b3df	0.05900943
200	0x3c20d4bd	0.009816346
201	0xbd7d41ce	-0.061830334
202	0x3bb14f1c	0.005411042
203	0x3adf1eeb	0.0017022764
204	0xbc4c6669	-0.012475588
205	0x3c0b1c06	0.008490568
206	0xbdfd1914	-0.12358299
207	0xbdb8e1fd	-0.09027479
208	0xbd8fa941	-0.070147045
209	0x3d88f9f6	0.06688301
210	0x3d8babe5	0.06819896
211	0xbd542795	-0.05179556
212	0xbdae3a19	-0.08507175
213	0xbdfa0ba0	-0.122092485
214	0xbd50a93c	-0.050942644
215	0x3d9265fe	0.0714836
216	0xbb7ab4bf	-0.0038254706
217	0x3d037eeb	0.03210346
218	0xbcf1a624	-0.029498167
219	0x3cb11314	0.021615542
220	0x3e052699	0.13003005
221	0x3d86bea5	0.06579331
222	0xb987c99b	-0.00025899414
223	0x3dc100ea	0.094240025
224	0xbd472b43	-0.048625242
225	0x3ddd150e	0.107950315
226	0xbc818004	-0.015808113
227	0xbdcd46d9	-0.10023279
228	0x3d56059e	0.05225145
229	0x3d75d8c4	0.060021177
230	0x3c3e8950	0.011629418
231	0xbc23aac4	-0.009989444
232	0x3d32943e	0.043598406
233	0xbd870c94	-0.06594196
234	0x3c22ead3	0.009943682
235	0x3d285ed9	0.04110608
236	0x3ccc7ff8	0.024963364
237	0xbdfeee57	-0.124478035
238	0xbc188482	-0.009308936
239	0x3cc9ecee	0.02464911
240	0xbc5d6dc4	-0.01351494
241	0xbd3b5b9f	-0.045741674
242	0xbcab2b57	-0.02089469
243	0x3dbba70c	0.09162721
244	0x3ca94ebd	0.020667428
245	0x3dd3ec39	0.1034779
246	0x3bbec8da	0.005822283
247	0x3da022e9	0.078191586
248	0xbd124e5a	-0.035719253
249	0xbd731069	-0.05934182
250	0xbc99754a	-0.018732686
251	0xbcc5ee64	-0.024161525
252	0xbbbcdfa5	-0.005763965
253	0xbd6a4afe	-0.057200424
254	0xbdb42d62	-0.087977186
255	0xbc535e0a	-0.012900839

network_body._body_endoder.seq_layers.2.bias f4 [256]
0	0xba277b43	-0.0006388912
1	0x3c93bcb7	0.018034322
2	0x3beb17f5	0.0071744868
3	0x3c1d6c2d	0.009608311
4	0xbb90b86a	-0.004416515
5	0x3b44b443	0.003001467
6	0x3b57a1d8	0.0032902863
7	0x3a5668d2	0.00081790716
8	0x3c1177d7	0.00887867
9	0xb9c21f1c	-0.00037025742
10	0xb91f6377	-0.00015200475
11	0xbc0d7111	-0.008632914
12	0x3c12549c	0.008931305
13	0xbb9d0fdf	-0.0047931517
14	0x3a995988	0.0011699656
15	0x3cc6654d	0.024218226
16	0xbb45576a	-0.0030111917
17	0x3c41b337	0.011822513
18	0xbb9da225	-0.004810589
19	0xbc142c39	-0.009043747
20	0xb9425f25	-0.00018536726
21	0x3c71f02f	0.014766737
22	0x3bdc0220	0.0067141205
23	0xba64ec2a	-0.0008732701
24	0x3c75cd19	0.015002512
25	0x3b8ceed6	0.0043009324
26	0x3cf633a4	0.030053921
27	0xbb93494d	-0.004494822
28	0x3c35de84	0.011100415
29	0xbb0007ed	-0.0019535974
30	0xbab6e9de	-0.0013955196
31	0xbc561756	-0.013067087
32	0x3bc487ac	0.0059976187
33	0x3c8c86e5	0.017154166
34	0x3b357393	0.0027687296
35	0x3c20bb6c	0.00981031
36	0x3c248d46	0.010043448
37	0x3b9acee4	0.0047243703
38	0x3b333569	0.0027345067
39	0x3c35c69f	0.011094718
40	0xbb06cb4f	-0.0020567959
41	0xbb98743d	-0.0046525286
42	0x3ba26595	0.004955957
43	0x3bac86bb	0.0052650846
44	0x3bf32e62	0.0074213007
45	0x3ad6ce9a	0.0016388476
46	0x3ab98467	0.0014153839
47	0xbb0675fa	-0.0020517097
48	0x3c62294a	0.013803789
49	0x3c1b7874	0.0094891675
50	0x3ac4be44	0.0015010317
51	0xbc06bb33	-0.008223343
52	0x3bab052e	0.0052191233
53	0x3c2df6af	0.010617896
54	0xbbd47fd2	-0.006484964
55	0xbb888e99	-0.0041673896
56	0x3c84e382	0.016221765
57	0x3adf6665	0.0017044066
58	0x3c53b52a	0.012921611
59	0x3c99cd47	0.018774642
60	0x3c463480	0.012097478
61	0x3bb53480	0.00552994
62	0x3bed7500	0.0072466135
63	0x3bc56dfc	0.006025074
64	0x3b9c65e7	0.00477289
65	0x3c03556b	0.008015971
66	0x3c68de42	0.014213147
67	0x3c001589	0.007817634
68	0x3c9c645f	0.01909083
69	0x3c2fde0b	0.0107340915
70	0xbc99cbbc	-0.018773906
71	0x3af9a6c7	0.0019046896
72	0xbb6527c8	-0.0034966338
73	0xbbba325a	-0.005682272
74	0x3b9aa511	0.0047193845
75	0xbba4c61e	-0.0050285
76	0x3b1d8822	0.002403744
77	0x3bf00760	0.007325098
78	0x3b202a36	0.0024439222
79	0x3bcb4abc	0.0062039774
80	0x3cbaf19c	0.022820286
81	0x3c23ea2a	0.0100045595
82	0x3b055e0d	0.0020350248
83	0xbc075de1	-0.008262129
84	0xbc154c0e	-0.009112371
85	0x3b870061	0.004119918
86	0x3c7de7f1	0.015497194
87	0x39e443cf	0.0004353807
88	0x3c89394d	0.016750956
89	0x3c579457	0.013157926
90	0x3bee46a4	0.0072716046
91	0xbb96e6fe	-0.004605173
92	0x3b6399da	0.0034729154
93	0xbc074246	-0.008255547
94	0xbb243843	-0.0025057949
95	0xbbe5a344	-0.007007988
96	0x3bdca92c	0.006734034
97	0x3bcb801b	0.0062103397
98	0x3c69dcf2	0.014273869
99	0x3c427f5e	0.011871187
100	0xbb077747	-0.002067046
101	0xbae2388e	-0.0017259286
102	0xbc77c9d0	-0.015123799
103	0x3c4a5297	0.0123487925
104	0x3c815761	0.015788736
105	0xbb96c5cf	-0.0046012173
106	0x3c57cca4	0.013171349
107	0x3c499a1e	0.012304811
108	0xbaae3395	-0.0013290519
109	0x3ca70cc2	0.020391826
110	0x3c81eac2	0.015859012
111	0x3b57908b	0.003289255
112	0x3b0e41d1	0.002170671
113	0x3bad920c	0.005296951
114	0x3a6d692a	0.0009056503
115	0x3c0f7138	0.008755021
116	0x3bafe1bf	0.005367487
117	0xbc1b0a1b	-0.009462859
118	0x3ae849b7	0.0017722164
119	0xbbe18794	-0.0068826173
120	0x3c95b7fd	0.018276209
121	0x3c2b9964	0.010473583
122	0x3c8841ab	0.016632875
123	0x3b90d836	0.0044203056
124	0xba55df30	-0.00081585627
125	0x3c14129d	0.009037641
126	0x3c7d84c8	0.015473552
127	0x3c82c067	0.015960885
128	0xbbf97bc6	-0.007613632
129	0x3a25981a	0.00063169154
130	0xbb971029	-0.0046100807
131	0x3c5850df	0.013202875
132	0x3b6b767b	0.0035928774
133	0x3c59759f	0.013272672
134	0xbacbcf91	-0.001554953
135	0xbb447879	-0.0029979034
136	0x3c5f7b0d	0.013640177
137	0xbc83b5b9	-0.016077863
138	0x39283f2d	0.00016045263
139	0x3bc72a96	0.0060780747
140	0x3c34be27	0.011031664
141	0xbb684851	-0.0035443495
142	0x3c35ebf1	0.011103616
143	0xbbc0be22	-0.0058820406
144	0x3ca3f503	0.020014292
145	0x3b6ae611	0.0035842697
146	0xba6ef4ee	-0.0009115477
147	0xbc6fb28c	-0.014629971
148	0x3bbf9fb5	0.005847896
149	0xbb166bcc	-0.0022952436
150	0x3bf06bcd	0.0073370696
151	0xbbab6787	-0.0052308473
152	0xbbba3b09	-0.005683307
153	0x3c9a95e3	0.0188703
154	0x3b9aacdf	0.004720315
155	0xb98178f9	-0.0002469493
156	0xbb8ea821	-0.0043535386
157	0x3b5933ae	0.0033142376
158	0xbb9a953d	-0.0047174976
159	0xbb5794d2	-0.00328951
160	0x3a670d36	0.0008813919
161	0x3c2d4df3	0.010577667
162	0xbbc406f2	-0.0059822733
163	0x3b932e0d	0.0044915737
164	0x372b0abc	1.0194894e-05
165	0xba9c49fb	-0.0011923903
166	0x3c42b2ff	0.011883496
167	0x3c616089	0.013755926
168	0x3c99fbfb	0.018796911
169	0x3c4bf48e	0.012448443
170	0x3c80da87	0.015729202
171	0x3c27237b	0.01020133
172	0x3c75fd9d	0.015014079
173	0x3c29aa10	0.0103554875
174	0xbc072ea1	-0.008250863
175	0xb82e09a9	-4.149383e-05
176	0xbbc02eab	-0.0058649383
177	0x3c2f9e2d	0.010718864
178	0xbc55cbe4	-0.0130491
179	0x3c9e4b8c	0.019323133
180	0xbbb7cd98	-0.0056092255
181	0xbc90bea2	-0.017669026
182	0x3c5349b9	0.012895995
183	0x3b77a181	0.0037785473
184	0x3bb21c83	0.005435528
185	0x3ba6bd86	0.005088511
186	0x3c109f24	0.008827005
187	0xbba38bca	-0.0049910294
188	0x3be796ec	0.007067552
189	0x3c9b2476	0.018938284
190	0x3c8766fa	0.016528595
191	0xbbea44de	-0.007149323
192	0x3c4c147a	0.012456054
193	0xbb68b2d1	-0.0035506974
194	0x3b6621fc	0.003511547
195	0x3b18dc78	0.002332477
196	0x3c087a19	0.008329892
197	0x3c8356d4	0.016032614
198	0x3b570812	0.0032811207
199	0xbb71fcfb	-0.003692447
200	0xbbced036	-0.006311442
201	0xbbf26bf5	-0.0073981234
202	0x3c386960	0.011255592
203	0x3c24521b	0.010029341
204	0x3cb24e3f	0.021765826
205	0x3ca40893	0.02002362
206	0x3c9d26e0	0.019183576
207	0xbb31734b	-0.0027076777
208	0xba552f3b	-0.0008132343
209	0xbbee04f4	-0.007263774
210	0x3b5df6ba	0.0033868984
211	0x3b46c519	0.0030329882
212	0x3c50efe3	0.012752506
213	0xbbb02eb3	-0.0053766607
214	0x3c077838	0.0082684085
215	0xbc2330b0	-0.0099603385
216	0x3c9f0fdc	0.019416742
217	0x3aeffd6f	0.0018309782
218	0x3c8b18ec	0.016979657
219	0xbb5d2ef4	-0.003374991
220	0x3bd4147a	0.0064721676
221	0xbb0b6c3a	-0.0021274225
222	0x3b8f9910	0.00438226
223	0x3b23cc8b	0.0024993743
224	0x3c675f97	0.0141219115
225	0x3c19e237	0.009392313
226	0x3b3d89fa	0.0028921352
227	0x3c8b2215	0.016984025
228	0xbba1e5db	-0.004940731
229	0x3ca22f53	0.019797957
230	0x3ca671c4	0.02031792
231	0x3c84c051	0.016204985
232	0x3afd3d59	0.0019320651
233	0x3bf1b9a9	0.0073768687
234	0x3a8e59ec	0.0010860539
235	0x3b752f3c	0.0037412187
236	0x3afb50b1	0.0019173828
237	0x3bff2886	0.007786813
238	0x3c90f101	0.017693045
239	0x3bc595b5	0.0060298094
240	0x3d030ce4	0.031994715
241	0xbb814763	-0.0039452775
242	0x3c272eb6	0.010204008
243	0x3bb490a9	0.005510409
244	0x3a3b02aa	0.0007133881
245	0x3bcc5050	0.00623516
246	0xbb1cf733	-0.0023951053
247	0x3a4c0d08	0.0007783924
248	0x3c110a41	0.008852542
249	0xbbab36f3	-0.0052250563
250	0x3b71043e	0.003677621
251	0xba2cb4d6	-0.0006588226
252	0xbb490985	-0.003067584
253	0x3c9c5ebe	0.019088145
254	0x3c1ece29	0.009692707
255	0x3c423544	0.01185352

action_model._continuous_distribution.log_sigma f4 [1, 2]
0	0xbe0b51dd	-0.13605447
1	0xbe0884a4	-0.13331848

action_model._continuous_distribution.mu.weight f4 [2, 256]
0	0x3ceb88ed	0.028751815
1	0xbd54ccee	-0.05195325
2	0x3bb610a0	0.005556181
3	0xbcbffe77	-0.023436768
4	0xbc11dce2	-0.00890276
5	0x3ce7e13b	0.02830564
6	0x3cd2542c	0.025674902
7	0xbceb1d94	-0.028700627
8	0x3d1962f3	0.03744788
9	0x3bd6c2b2	0.006553971
10	0xbc50dce2	-0.012747975
11	0xbac42504	-0.0014964645
12	0xbca31f78	-0.019912466
13	0x3c949d04	0.018141277
14	0x3d1ad6a9	0.037802372
15	0xbd7911bf	-0.06080794
16	0xbc7701e1	-0.015076132
17	0xbcc8fef5	-0.024535635
18	0x3c109aa0	0.008825928
19	0x3c6297e5	0.01383016
20	0x3d2f01b2	0.042726226
21	0xbd188dfc	-0.03724478
22	0xbc6558b3	-0.013998198
23	0xbcabe88e	-0.020984914
24	0xbcf4acd0	-0.02986756
25	0xbce169f4	-0.027516343
26	0xbc957b13	-0.018247163
27	0xbc1f2883	-0.009714249
28	0xbce5aa69	-0.02803536
29	0x3cadc3d9	0.021211552
30	0xba9fe9e1	-0.0012200439
31	0x3b0a4913	0.0021100685
32	0x3bb136c6	0.005408141
33	0xbd227aad	-0.039667774
34	0x3d3eed0d	0.046612788
35	0x3d588100	0.0528574
36	0xbcc96348	-0.024583474
37	0xbc6abfd1	-0.014327959
38	0x3d39ddef	0.045377668
39	0xbcb99e40	-0.022658467
40	0x3cd3794c	0.025814675
41	0x3c2f43e2	0.010697337
42	0x3ce786af	0.028262464
43	0x3c91821b	0.017762234
44	0x3d907ffd	0.07055662
45	0x3d443375	0.047900636
46	0xbc89221e	-0.016739901
47	0x3d2b93cf	0.041889008
48	0xbd023193	-0.03178556
49	0xbbfcb115	-0.0077115395
50	0xbade2f3f	-0.0016951336
51	0x3cae0ba6	0.021245789
52	0x3d0c54f4	0.034260705
53	0xbcb5dcfa	-0.022200096
54	0x3c296b72	0.010340558
55	0xbc20de93	-0.009818691
56	0xbd411fca	-0.047149457
57	0xbca0312a	-0.019554693
58	0xbc97e71f	-0.018542824
59	0x3b8b2ca2	0.004247264
60	0xbc89e460	-0.01683253
61	0xbc885a94	-0.016644754
62	0x3d1fcb10	0.039012015
63	0xbd6c000e	-0.05761724
64	0xbcdf2324	-0.027238436
65	0xbc593db9	-0.013259345
66	0xbc56a177	-0.01310002
67	0x3d2a6574	0.04160066
68	0xbd2ae348	-0.04172066
69	0xbbaf43ea	-0.005348672
70	0x3a47959c	0.0007613541
71	0xbc32862f	-0.01089625
72	0x3c9d723d	0.019219512
73	0xbc382fc1	-0.011241854
74	0x3d356449	0.044285093
75	0xb9cdfdf5	-0.0003928986
76	0xbcc77c69	-0.024351316
77	0xbc436498	-0.011925839
78	0xbd03c8df	-0.032173987
79	0xbd1042d7	-0.035219993
80	0xbc8099cd	-0.015698338
81	0xbc6e1ddf	-0.014533489
82	0x3c095d97	0.00838413
83	0x3c7f2c90	0.015574589
84	0x3b503d14	0.0031774687
85	0x3ba8ae59	0.005147737
86	0x3cac501f	0.021034298
87	0xbc597d52	-0.013274508
88	0xbd2f2813	-0.042762827
89	0xbcfddb62	-0.030988399
90	0xbcb2282e	-0.021747675
91	0xbc2d68e0	-0.010584086
92	0x3d07f36a	0.033191122
93	0x3cad205f	0.0211336
94	0x3c143167	0.009044982
95	0x3be2da1b	0.006922973
96	0xbc0043be	-0.007828651
97	0x3d489bdd	0.048976768
98	0xbcbe68d9	-0.023243355
99	0xbca0bf62	-0.019622508
100	0xbc8430af	-0.016136495
101	0x3cae9995	0.021313468
102	0x3b776caa	0.0037753978
103	0x3d453fd1	0.048156563
104	0xbd33cb1d	-0.043894876
105	0x3c9d9e8e	0.019240644
106	0xbce38d37	-0.027777297
107	0xbcfff148	-0.031242982
108	0x3c834516	0.016024154
109	0xbaf69881	-0.001881376
110	0xbcf3fd97	-0.029784007
111	0x3d104ff3	0.035232496
112	0x3cb6ecd5	0.022329727
113	0xbd29db69	-0.04146901
114	0xbc1d7c93	-0.00961222
115	0x3d7514fa	0.059834458
116	0x3cf9f978	0.030514464
117	0x3c1fc0c6	0.009750551
118	0x3c78ba16	0.015181085
119	0x3ca24fb7	0.019813402
120	0xbd1dcb2b	-0.038523834
121	0x3c855321	0.01627499
122	0xbd20b2cb	-0.03923301
123	0x3d3b6273	0.045748185
124	0xbc7685bc	-0.015046533
125	0x3c63f508	0.0139134005
126	0x3d35e42c	0.044407055
127	0x3cc2480e	0.023715999
128	0xbbe94476	-0.007118757
129	0xbcf43019	-0.029808091
130	0x3c72be5f	0.014815896
131	0xbd318145	-0.04333617
132	0x3d133901	0.035943035
133	0xbd1f5ec8	-0.03890875
134	0x3cfae544	0.0306269
135	0x3c729e4f	0.0148082515
136	0x3d62eb1f	0.05540001
137	0xbacf5f62	-0.0015821273
138	0x3d2ad1a3	0.04170383
139	0x3d455628	0.048177868
140	0x3d69dbc0	0.057094336
141	0xbc1395ef	-0.009007915
142	0x3d0b1ad2	0.033961125
143	0x3d106385	0.03525116
144	0xbd034b9a	-0.03205452
145	0xbd043114	-0.032273367
146	0x3c47d66a	0.012197116
147	0x3ad5e460	0.0016318671
148	0x3b2974dc	0.0025857007
149	0xbb6374cf	-0.0034707075
150	0x3d394f7b	0.045241814
151	0x3d0964e7	0.033543494
152	0xbb279a01	-0.0025573971
153	0xbd60eaa6	-0.05491128
154	0xbc3ac788	-0.011400111
155	0xbbd7f5a1	-0.0065905605
156	0x3d0e4ead	0.034743
157	0xbc904370	-0.017610282
158	0xba7d3780	-0.0009659454
159	0x3d423db5	0.04742213
160	0x3d181c2d	0.037136246
161	0xbca15694	-0.019694604
162	0x3c30612d	0.010765356
163	0x3d51d568	0.05122891
164	0x3d31d005	0.043411274
165	0x3d13222d	0.035921264
166	0xbd07d40b	-0.033161204
167	0xbc235484	-0.009968881
168	0xbd3b5f2b	-0.045745056
169	0xbce803d0	-0.02832213
170	0xbd249b2c	-0.040187046
171	0xbd369cdf	-0.044583198
172	0xbc3a61f2	-0.011375891
173	0x3d439be4	0.04775609
174	0x3c92dde4	0.017928071
175	0x3cb1b520	0.021692812
176	0x3b264754	0.0025372105
177	0x3c139d87	0.009009725
178	0x3c185a08	0.009298809
179	0x3bbe921b	0.005815757
180	0x3c54d1e8	0.012989499
181	0x3c1e4339	0.009659582
182	0xbd326bf3	-0.04355998
183	0xbc7a13ef	-0.015263542
184	0x3d4e9af1	0.050440732
185	0xbcb2a814	-0.021808662
186	0x3d481934	0.04885216
187	0x3c6ca026	0.014442479
188	0xbccbdf3d	-0.024886722
189	0xbd4b39d2	-0.04961569
190	0x3d13cbdb	0.036083084
191	0xbb280b62	-0.002564155
192	0xbd71080a	-0.058845557
193	0x3be9a11b	0.007129801
194	0xbc9604c2	-0.018312816
195	0x3d021feb	0.03176872
196	0xbb4f271a	-0.0031609
197	0x3d04cc3c	0.032421336
198	0xbcc3c5dc	-0.023898058
199	0xbc0687e2	-0.008211108
200	0x3c15b4c9	0.009137341
201	0x3c6f021e	0.014587907
202	0x3d447df9	0.0479717
203	0xbb1c7ef7	-0.0023879388
204	0xbd17a9db	-0.03702722
205	0x3b1e51d2	0.0024157655
206	0x3d4bdd41	0.04977155
207	0xbc025a02	-0.00795603
208	0x3cbe964b	0.023265025
209	0x3c84c2d7	0.016206188
210	0xbba4f8ca	-0.005034541
211	0x3d18f0fb	0.037339192
212	0xbd087657	-0.033315983
213	0xbc8dc190	-0.017304212
214	0x3d59c92f	0.05317038
215	0x3a0d2dc0	0.00053855404
216	0x3d84810d	0.06469927
217	0xbb955f79	-0.0045585004
218	0x3cc152fd	0.023599142
219	0xbc515b22	-0.012778075
220	0xbd03f2a7	-0.032213833
221	0xbca59572	-0.020212863
222	0x3d299231	0.041399185
223	0x3d18b5cf	0.03728276
224	0x3afa711c	0.0019107196
225	0xba36cdcb	-0.00069734146
226	0xbb968181	-0.004593075
227	0xbcf2c0ad	-0.02963289
228	0x3ca1268d	0.019671703
229	0xbd0da4b3	-0.034580898
230	0x3ced39c9	0.028958218
231	0xbcd7ac22	-0.026327197
232	0x3cf6550a	0.030069847
233	0x3d7417b3	0.059592914
234	0xbba73e83	-0.0051038875
235	0xbd152cae	-0.036419563
236	0x3d14c43a	0.03631995
237	0x3ce7c1a0	0.02829057
238	0xbc7d87b0	-0.015474245
239	0x3d3c98a6	0.046044014
240	0xbd588561	-0.052861575
241	0x3c12029e	0.008911757
242	0xbc29a7d0	-0.010354951
243	0xbc4eb24d	-0.012615752
244	0xbba5a64c	-0.0050552245
245	0x3ca2886e	0.019840445
246	0x3cd34b65	0.025792787
247	0x3cf008ad	0.029301012
248	0xbcaef437	-0.021356685
249	0x3a789546	0.00094826927
250	0xbcd1a2ad	-0.025590265
251	0x3c97479d	0.018466765
252	0x3d1cb042	0.03825403
253	0xbd553a19	-0.05205736
254	0x3cca0179	0.024658905
255	0x3cdc76de	0.026912149

action_model._continuous_distribution.mu.bias f4 [2]
0	0xbbb27041	-0.0054455106
1	0x3c0da9ee	0.008646471

action_model._discrete_distribution.branches.0.weight f4 [1, 256]
0	0xbb8a43fb	-0.0042195297
1	0xbc03ac8a	-0.008036742
2	0x3b91899b	0.0044414527
3	0x39d9187a	0.00041407702
4	0xbb95bc47	-0.0045695635
5	0xbb132abd	-0.0022455894
6	0xbbd5b757	-0.0065221
7	0x3c3a0334	0.011353303
8	0x3bc9866d	0.006150058
9	0x3a891adb	0.0010460274
10	0xbb9346e2	-0.004494534
11	0x3bd14d82	0.0063874135
12	0x3c1e69ea	0.009668807
13	0xb9f8ebc2	-0.000474779
14	0x3b7f994b	0.0039001282
15	0xbc2253ac	-0.009907644
16	0x3b5dccbb	0.0033843953
17	0x3c403a23	0.011732611
18	0xbbf3d95b	-0.0074416823
19	0x3998f0f7	0.00029171232
20	0xbb19d414	-0.0023472356
21	0x39b464ec	0.00034407468
22	0xba8894f5	-0.0010420369
23	0x37e5a038	2.7373535e-05
24	0x3c2317ea	0.009954432
25	0xba1d4c93	-0.0006000485
26	0xbc0c2f1e	-0.0085561555
27	0xbb2b6874	-0.0026154788
28	0xba3dde40	-0.00072428957
29	0x3b338fb7	0.0027398893
30	0xb95332e5	-0.00020141488
31	0xbc370530	-0.01117067
32	0x3c318493	0.010834831
33	0x3c105089	0.008808264
34	0xba4a3f1e	-0.00077150937
35	0x3bef7872	0.0073080594
36	0x3ac0e7af	0.0014717485
37	0xbb10686b	-0.0022034894
38	0x3bb06826	0.005383509
39	0xbbceb037	-0.0063076275
40	0xbaa254c9	-0.0012384887
41	0x3b91a575	0.004444773
42	0xbc80e191	-0.015732558
43	0x3b06015c	0.0020447588
44	0x39a56f46	0.00031554158
45	0xbb822f0e	-0.0039728945
46	0x3b95e5b2	0.004574501
47	0xbb9fccca	-0.0048767077
48	0x38969f52	7.182233e-05
49	0x3ba60522	0.00506653
50	0x3bd4ee48	0.006498132
51	0x3b1293bd	0.002236589
52	0xbad66bad	-0.0016358994
53	0xbbcd96fa	-0.0062741013
54	0xbc5c3db2	-0.013442444
55	0x3949c8f4	0.00019243715
56	0x3bd8866b	0.0066078207
57	0xbc1189ed	-0.008882982
58	0x3aaafab5	0.0013044687
59	0x3b6b3ea7	0.0035895498
60	0xbad43275	-0.0016189354
61	0x3bfa1375	0.007631714
62	0xbb94a411	-0.00453616
63	0x3b0a9e2d	0.002115141
64	0xbb1d2bd4	-0.0023982422
65	0xb93cae7f	-0.00017994082
66	0xbabf2da2	-0.0014585743
67	0xbb630ca5	-0.0034644988
68	0x3a969d9b	0.0011491062
69	0x3ad5b6e0	0.0016305111
70	0xbc41ae2e	-0.011821313
71	0xbafe1d2a	-0.0019387354
72	0xbbb073d6	-0.0053849025
73	0xbb36482c	-0.0027814014
74	0xbb06232b	-0.002046774
75	0x3b262db8	0.002535684
76	0x3b22fb47	0.0024869011
77	0xbb6bb110	-0.0035963692
78	0xbc159003	-0.009128573
79	0xbc292d04	-0.010325674
80	0x3b2e2988	0.0026575048
81	0xbb8e77c7	-0.0043477747
82	0xbbbeac91	-0.0058189114
83	0x3c16098b	0.009157549
84	0x3be667d0	0.0070314184
85	0x3bd49cc7	0.006488416
86	0xbc492cb7	-0.012278727
87	0xb88f6813	-6.838157e-05
88	0xbc045033	-0.008075762
89	0xbc3a22f2	-0.011360871
90	0x3c12f075	0.008968462
91	0xbc135ffb	-0.0089950515
92	0xbb2c422b	-0.0026284556
93	0xbc01c8a6	-0.0079213735
94	0xbbfc02aa	-0.0076907473
95	0x3b971e83	0.0046117916
96	0x3ae22b58	0.0017255349
97	0x3b0aad56	0.0021160445
98	0x3c21241d	0.00983527
99	0xbc3b0f5e	-0.011417238
100	0xbbc73c47	-0.0060801837
101	0x3b0c02a9	0.002136389
102	0xbb44e95c	-0.003004632
103	0x3b33792b	0.0027385454
104	0x3a5fead5	0.00085417676
105	0xbbd1a358	-0.006397646
106	0x3b40356c	0.0029328717
107	0x3b82a197	0.003986548
108	0xbb80f49f	-0.003935411
109	0xbbd6cef7	-0.006555434
110	0x3a7b3698	0.0009583025
111	0x3b65fa7b	0.0035091925
112	0xbb5dc97f	-0.0033842025
113	0xba66b903	-0.00088013726
114	0xbc0152bf	-0.007893263
115	0xba3825d2	-0.00070246786
116	0x379d67bb	1.8764162e-05
117	0x3a8a37f5	0.0010545241
118	0x3b7746fd	0.0037731521
119	0xbc87e5e9	-0.016589122
120	0x3b71be4b	0.0036887105
121	0xbb436de0	-0.002982013
122	0xbbd6792f	-0.006545208
123	0xbaa9439e	-0.0012913828
124	0x3be70c68	0.0070510395
125	0x3aa8d1bb	0.0012879887
126	0x3ae1fcf0	0.0017241519
127	0xba29e523	-0.00064809824
128	0xbbe329f8	-0.0069324933
129	0xbb90e1d4	-0.004421452
130	0x3b969da7	0.0045964303
131	0xbb1af13f	-0.002364233
132	0xbacda160	-0.0015688352
133	0x3b009067	0.001961732
134	0xbc662852	-0.014047699
135	0x3b6b961f	0.0035947633
136	0x3c2d9587	0.010594732
137	0xbb8cbe93	-0.004295179
138	0xbb71a483	-0.0036871738
139	0xbb263672	-0.0025362042
140	0xbb430c53	-0.0029761984
141	0x3bd09cba	0.0063663395
142	0xbb18c915	-0.0023313214
143	0xbbb175eb	-0.0054156682
144	0xba1c139b	-0.0005953849
145	0x3bc363bb	0.0059628165
146	0x3b2e5b40	0.0026604682
147	0x3b185e98	0.0023249742
148	0xbb0e3822	-0.0021700938
149	0xbb7ba297	-0.0038396472
150	0x3a763727	0.00093923736
151	0xbac506bb	-0.0015031913
152	0x3b7ecf65	0.003888094
153	0x3c437242	0.011929097
154	0x3b82f87c	0.003996907
155	0x3bf39c72	0.007434421
156	0xbbfb6c1f	-0.007672801
157	0xba098a30	-0.0005246727
158	0xb8a1a900	-7.708557e-05
159	0x3aca9c0f	0.0015457886
160	0x3bbfbebe	0.0058515957
161	0xbbbb4915	-0.005715499
162	0xbb935fb6	-0.0044974936
163	0xbb812cbb	-0.0039421
164	0xbabb8264	-0.0014305827
165	0x3b29bc5e	0.002589963
166	0xbb9ef9b7	-0.0048515457
167	0x3ba1c062	0.004936264
168	0x3c0f57b0	0.008748934
169	0x3c89e7a4	0.016834088
170	0xbc30a869	-0.01078234
171	0xba9a665d	-0.0011779774
172	0xbba284c9	-0.004959677
173	0x3c3d7382	0.011563184
174	0xbc62a677	-0.013833634
175	0x3a5aa4aa	0.0008340577
176	0x3a96dd39	0.0011510021
177	0xbb88f420	-0.0041794926
178	0xbbbd305f	-0.0057735885
179	0x3b77c07f	0.0037803946
180	0xb9a4aa09	-0.00031407204
181	0x3ac7f553	0.0015255607
182	0xbc79ffdd	-0.0152587565
183	0x3ba3e352	0.005001464
184	0xbc0df35b	-0.0086639775
185	0x3b2a4825	0.0025982943
186	0xbb3a072c	-0.0028385622
187	0x3c09f78f	0.008420839
188	0x3b0bfc74	0.002136019
189	0x3c106989	0.008814224
190	0x3b7f845b	0.0038988802
191	0xbbdf4f48	-0.006814871
192	0x3bab86ba	0.0052345665
193	0xbb545112	-0.0032396954
194	0x37b11107	2.1107973e-05
195	0xb9ca3536	-0.00038568088
196	0xb9890416	-0.0002613372
197	0x39e8e298	0.00044419314
198	0xba73a0b0	-0.00092936587
199	0x3bb4d5e6	0.0055186627
200	0x3b2939a4	0.002582171
201	0x3b12c78f	0.0022396778
202	0xbc2b21e7	-0.010445095
203	0xbbba87f5	-0.005692477
204	0xbbba400b	-0.005683904
205	0xbae2ccaa	-0.0017303426
206	0xbb07f115	-0.0020743061
207	0xbc3f7cd8	-0.01168748
208	0xbbf782c0	-0.0075534284
209	0x3c1ada04	0.009451393
210	0xbc0036d5	-0.007825573
211	0x3bcdb7aa	0.006277998
212	0x3b37b2c9	0.0028030148
213	0x3abc84bb	0.0014382818
214	0x3b16aa93	0.0022989854
215	0xbad8bdbf	-0.0016536041
216	0x3bf2fafb	0.007415173
217	0xbbd64f6a	-0.0065402286
218	0xbc3665cf	-0.0111326715
219	0x3b4c3325	0.0031158414
220	0x3add324d	0.0016875953
221	0xbb6d17b7	-0.0036177465
222	0x3a70daaf	0.000918786
223	0x3c50338a	0.0127076
224	0xbbcfdb37	-0.006343271
225	0x3bde8c2b	0.0067916117
226	0xbb98814d	-0.0046540857
227	0x3b849fb6	0.0040473593
228	0xbb749d22	-0.0037325104
229	0x3b1273db	0.0022346887
230	0x3a020048	0.00049591484
231	0xbbb2ae9d	-0.0054529444
232	0x3a5edd7b	0.0008501631
233	0x3b261dbc	0.0025347313
234	0xbc68c1ca	-0.014206359
235	0xbb81e9fb	-0.00396466
236	0x3b5c63d5	0.003362884
237	0x3bff42aa	0.0077899294
238	0x3bf3d9d3	0.007441738
239	0x3c38162d	0.011235756
240	0xbc348301	-0.011017562
241	0xbbef91c0	-0.007311076
242	0xbc15f14b	-0.009151767
243	0x3b63c3e2	0.0034754206
244	0x3aef00a5	0.0018234445
245	0x3af1c4ca	0.0018445489
246	0xbc1175b2	-0.008878158
247	0x3acf7b02	0.0015829506
248	0xba949e6f	-0.0011338721
249	0x3c444c8b	0.01198114
250	0xbb9320df	-0.0044900025
251	0x3c0f830f	0.008759274
252	0x3bf0e050	0.007350959
253	0xbc3e8808	-0.011629112
254	0xbc596ccd	-0.013270569
255	0x3c075aa5	0.008261357
