EcoSculptor/results/Final_1.3/Preyanimal.onnx (onnx, 140329 bytes, 6 tensors)

network_body._body_endoder.seq_layers.0.weight f4 [256, 127]
000000 16 0b f1 bd ab 84 7c 3d e2 3a 05 bd 26 1a ed bd
       -0.117696926 0.06164996 -0.03252686 -0.11577253
000010 a2 6f 8b bd d6 e2 4e bd ae 75 1b 3d d4 a1 15 be
       -0.06808402 -0.050509296 0.037954025 -0.14612514
000020 e9 75 c3 3d 70 28 f3 bd 59 b4 0d 3e ca cd 5a bd
       0.09543974 -0.11872947 0.13838328 -0.053418912
000030 d6 84 2a 3d ed 78 fb bd b8 48 95 3d bc 67 21 3c
       0.04163059 -0.12278924 0.072892606 0.009851392
000040 6e 2c 4d bc d5 8d b4 3d 4a 2f 0f be ef a9 9c bd
       -0.0125228 0.08816115 -0.13982883 -0.076496
000050 77 2f 91 bd ff 1d 07 3e 49 d5 8b bc 55 2c 97 3d
       -0.07089131 0.13195036 -0.017069476 0.073815025
000060 14 92 c0 bb 2f e8 c0 bd 4c c1 b4 bd 4f f1 62 3b
       -0.005876789 -0.094192855 -0.08825931 0.0034628694
000070 cc de 03 3e ce 2d 51 3d 46 ba 10 be b5 f3 aa bd
       0.12877959 0.051069073 -0.14133558 -0.08347265
000080 35 9c 22 3d a1 6e 3a 3d 33 1d 93 bd ef 37 cc bd
       0.039699752 0.04551566 -0.07183304 -0.09971606
000090 16 b4 c3 bd 65 3b 80 bd dd 84 cc bd 0a 1a 6a 3d
       -0.09555833 -0.062613286 -0.09986279 0.05715374
0000a0 f1 f6 14 3e 9d 4c f1 3b 19 ff 18 bb 27 e2 97 bd
       0.14547326 0.0073638693 -0.002334541 -0.07416182
0000b0 ae 82 36 bd a7 e3 e4 bc 72 af e9 bc 69 5a 7c bd
       -0.04455822 -0.027940584 -0.028526042 -0.06160966
0000c0 21 78 ca bc d7 62 06 be 0d 44 c6 3d 1e 59 b3 bd
       -0.024715485 -0.13123642 0.096809484 -0.08757232
0000d0 23 4d 2c bd 0d 63 95 3d b0 d8 0b bd b0 8c d5 3d
       -0.04206575 0.07294283 -0.034142196 0.10427225
0000e0 92 5c 8a bc fb c4 66 bc 33 d7 9c 3d 1c 13 2a be
       -0.016889844 -0.01408505 0.076582335 -0.16608852
0000f0 0c 47 10 3d d0 c3 43 3d 6e 12 53 3e f8 6e 0d 3c
       0.035224006 0.047794163 0.20612499 0.008632414
000100 7e 93 12 3e 50 31 01 3c 0e dc 92 bd 44 03 26 3e
       0.14314076 0.007885292 -0.07170878 0.16212183
000110 8f 03 a6 bd 41 9e 5e bd 75 44 09 3e 8e 89 86 bd
       -0.081061475 -0.05435014 0.1340502 -0.06569205
000120 9a 69 6e bb 4b dd cd 3c 30 c6 c1 3d c2 a4 d9 bd
       -0.0036378861 0.025129935 0.094616294 -0.10627128
000130 3d 63 4c bd f8 19 35 bd 7f 90 2e 3c 39 ad 0a 3e
       -0.04989933 -0.04421422 0.010654568 0.13542642
000140 e1 9a 1b 3e 3e 90 19 3d 66 58 23 be 4f e0 f8 bd
       0.151958 0.037491076 -0.1595169 -0.121521585
000150 52 bb 22 bd 2a a1 90 bd 23 21 36 be ad 1a 82 3e
       -0.039729424 -0.070619896 -0.17786078 0.25410977
000160 eb 38 82 3d 65 7b e3 bd 6d 1b 2e 3d b4 3a 07 be
       0.063585125 -0.1110752 0.042506624 -0.13205987
000170 32 b3 a9 bd f3 13 29 be 85 00 18 be 95 24 0f 3d
       -0.08286132 -0.16511516 -0.14843948 0.034946997
000180 2e 5d a5 3d 7b 7c 1b 3e ff 0d 62 3b 45 4e 9d bd
       0.08074413 0.15184204 0.0034493206 -0.07680944
000190 23 44 22 3e b5 05 83 bd 8d 61 4e 3d f5 e6 c1 bd
       0.15846305 -0.06397573 0.050386 -0.0946788
0001a0 90 87 b2 bd 31 af 1f 3d 10 0c 0e 3d 1b 19 52 bd
       -0.08717263 0.038985435 0.034679472 -0.051293474
0001b0 dd aa 49 bd 07 26 69 be df 0e c2 bc 12 4d 39 3e
       -0.049235214 -0.22768413 -0.023688732 0.18095806
0001c0 91 20 8d 3d 3e 5d 46 3d 81 9b 03 bd 91 9c b1 bb
       0.06890977 0.048428766 -0.032130722 -0.0054202755
0001d0 3b 09 8c bd 29 67 97 be f2 89 ff 3c 13 2a ed bd
       -0.06837698 -0.29570892 0.031193707 -0.11580291
0001e0 9e 8e 0e be 0b c3 2f be ea ad 35 3b 58 70 df bd
       -0.13921592 -0.17164247 0.002772207 -0.109101
0001f0 2e b8 f1 3c 7d 44 0c bd 05 10 11 be db cb 67 3d
       0.029506769 -0.034245003 -0.14166267 0.056590896
000200 98 d6 88 b9 d5 5a 97 bc ae 6e 7b 3e d2 bb 51 3e
       -0.00026099826 -0.01847593 0.2455394 0.20481804
000210 22 30 ae bd fd c5 c2 3c 4c 21 85 bd bf c4 3b bc
       -0.08505274 0.023776049 -0.065004915 -0.011460482
000220 11 f1 06 3d e6 df 10 3b b9 a4 13 3e 90 35 15 be
       0.032944743 0.002210611 0.14418305 -0.14571214
000230 20 fd a2 3d 75 9f 61 bd 55 64 02 be 34 41 73 3c
       0.07958436 -0.05508371 -0.12733586 0.014847089
000240 be df a2 3c 72 9f 72 3d 68 3f 10 3e d8 b6 5e bc
       0.01988208 0.05923409 0.14086688 -0.013593398
000250 1a 89 0c be 0f 85 be 3d 03 2d 20 3e a3 50 03 bd
       -0.13724175 0.09302723 0.1564217 -0.032059323
000260 bb af e9 3d 8d 60 0a 3e fe e2 36 bd 0a a1 1a 3e
       0.11410471 0.13513394 -0.04465007 0.15100494
000270 0e b4 69 3d 49 1b e6 3b 4e 02 24 be 6c 0d b1 3d
       0.05705648 0.0070222956 -0.16016504 0.08645138
000280 b2 c7 29 3e f0 95 19 3d bb de 84 3c 32 3a f0 3d
       0.16580084 0.037496507 0.016219487 0.1172985
000290 10 d7 5b 3e e0 01 ec 3c ee 52 14 3d ba 28 b3 3c
       0.21468759 0.028809488 0.0362119 0.021870006
0002a0 6d 6b a8 3d c9 50 bf 3c c1 6b 21 3e 76 e6 5c 3e
       0.08223615 0.023353951 0.15763761 0.21572289
0002b0 e2 4d a5 bd d2 24 45 bd a9 52 88 be eb ed 25 bc
       -0.080714956 -0.048130818 -0.26625565 -0.010127525
0002c0 83 3f 96 bd 7d da 14 bd c6 60 84 bb da 40 4d 3d
       -0.07336333 -0.03634118 -0.0040398566 0.050110675
0002d0 d9 e7 00 be 2e d9 e7 3b db 6a 9f 3d b2 4e a6 3d
       -0.12588443 0.0070754504 0.07784053 0.08120479
0002e0 64 26 28 3d c6 28 bd 3d 0e 1e 99 bc e1 92 89 3d
       0.041052237 0.092362925 -0.018691089 0.06717468
0002f0 55 1d fd bd b2 f4 e3 bc b4 4f d8 bd 21 cf a1 bd
       -0.1235911 -0.02782664 -0.10562077 -0.07900835
000300 b3 27 ae 3d 02 2b 13 3c 1b 05 8c 3d 00 ab 25 be
       0.08503666 0.008982422 0.06836911 -0.16178513
000310 a0 89 fb 3d 9f 87 23 be 34 cd b3 bd 43 42 3f 3e
       0.12282109 -0.15969704 -0.08779374 0.1867762
000320 21 02 61 39 ba f3 0c 3d b2 a7 0f 3d 78 59 54 bb
       0.00021458465 0.034412123 0.035072036 -0.003240196
000330 1b 72 65 bd 76 c8 07 3c ce a7 a5 bd 78 cf 93 bd
       -0.056017023 0.00828754 -0.08088647 -0.07217306
000340 f0 30 7e be fb a4 f2 3c a9 2d 49 3e 1c 0c c8 3d
       -0.24823356 0.029619684 0.19646324 0.09767935
000350 52 dd 80 3d b0 f1 58 be 12 7e 8f be 15 ed eb bd
       0.062922135 -0.21185946 -0.28025872 -0.11519829
000360 f9 a3 ee 3c 16 98 be ba 5a dc 74 3e ab 7d 31 3c
       0.029130923 -0.0014541175 0.23912182 0.010833184
000370 3a 48 86 bd 65 8a b4 bd 55 53 9d 3c 06 bb 53 be
       -0.06556745 -0.08815459 0.019204775 -0.20676813
000380 17 ce 74 3c 3b 7d 68 3d a1 90 67 3d e7 fb b0 3c
       0.014941714 0.056760054 0.056534413 0.021604491
000390 d5 aa 37 be e9 e5 fe 3d c4 5b 7a bd 7a 88 a7 3d
       -0.17936261 0.12446196 -0.06112267 0.08180328
0003a0 34 91 84 bd 3f 39 91 3d 60 05 38 3e 6e 1a 73 3e
       -0.06473008 0.07090997 0.179708 0.23740551
0003b0 92 dc 31 bd 4c d3 04 3e 1f 36 3c be 91 a9 55 bc
       -0.043423243 0.12971228 -0.1838002 -0.013040916
0003c0 18 06 2c 3e 5a 87 1b 3d e2 82 64 3d b3 55 3a 3b
       0.167992 0.03797088 0.055788882 0.0028432428
0003d0 24 db dc bc 64 89 a5 bd b5 12 ba 3d 45 aa ce 3c
       -0.026959963 -0.08082846 0.09085599 0.025227675
0003e0 8b 72 b9 3d 4e c0 91 3d a1 78 14 be d0 e2 89 3d
       0.090550505 0.07116757 -0.14499141 0.06732714
0003f0 18 85 ed 3c 8b 8f 2b bd 33 6a 86 bd 86 b6 af bc
       0.028994128 -0.04188494 -0.06563225 -0.021449339

network_body._body_endoder.seq_layers.0.bias f4 [256]
000000 65 09 ce bc 5d 3a ab 3c 7b 75 7f 3c df 5c 59 3c
       -0.025150964 0.020901853 0.015591974 0.013266771
000010 3c b6 25 bc 1d bc 98 3c 90 39 08 3d 03 50 93 3c
       -0.010114249 0.018644387 0.03325802 0.017982488
000020 25 3b ed ba a0 c6 ca bb 5f 5a 88 3c 75 a7 97 3c
       -0.0018099291 -0.0061882287 0.016644655 0.018512467
000030 72 bf 27 3c c4 74 c2 bc 49 35 bb 3c 65 6c 4c 3c
       0.010238515 -0.023737319 0.022852557 0.012477015
000040 af bf 9c 3c 5e c5 91 3c e8 a2 8a 3c b0 bb b4 bc
       0.01913437 0.017794307 0.016923383 -0.022062153
000050 b9 86 32 3c 02 eb 1b 3d 5f dc cc 3c 4a 09 11 3d
       0.010896378 0.038065918 0.025007425 0.03540925
000060 72 67 6e 3c c5 fe 57 bc 5f 29 2f bc ef ef 4f 3c
       0.0145510305 -0.0131833 -0.010691016 0.012691482
000070 3b 87 cd 3a 2a f3 31 bb ff 8b 29 3c b6 5d 51 3c
       0.0015680561 -0.0027152994 0.010348319 0.01277869
000080 b4 3e ef 3c 58 1f 4c ba 03 a5 20 3d fd 0d 63 3c
       0.029204704 -0.0007786653 0.039219867 0.013858316
000090 fa 93 28 3c 3a 85 3f 3d a5 4f 28 3d f7 e1 d9 3c
       0.010289187 0.046757914 0.04109158 0.026597006
0000a0 4d d9 f4 3c e1 cc 6c 3c af 30 94 3c f6 79 8f 3a
       0.029888773 0.014453144 0.01808962 0.0010946381
0000b0 aa 84 16 3d 7f 08 88 3c 3f 24 50 3d 2f 18 ca 3c
       0.036747612 0.016605614 0.050815817 0.024669735
0000c0 f5 04 b9 3c c7 32 88 3c 0e d6 17 bb f9 ee 44 3d
       0.022585372 0.016625775 -0.0023168358 0.048079465
0000d0 40 6b 87 3c 83 41 fd 3c 48 86 d4 3c cd 20 9a 3c
       0.016530633 0.030915027 0.025942937 0.018814469
0000e0 62 08 62 3b 8e 09 08 3d bc ed 58 3c 19 58 33 3a
       0.003448986 0.033212237 0.013240274 0.00068414357
0000f0 dc 4f 91 3c f3 0e 16 3d 52 f3 a6 3b 3d cb cd 3b
       0.017738275 0.03663535 0.005094924 0.0062803314
000100 d8 64 40 bc 76 2f fb 3a 59 59 59 3c 8c 18 39 bc
       -0.011742793 0.0019163925 0.013265931 -0.011297356
000110 64 99 cb bc 32 97 e9 bb a0 9f b6 3c 11 2a 6b bb
       -0.024853416 -0.0071286196 0.022292912 -0.0035883228
000120 9b ea 00 3d 41 26 3c b9 70 cd 2a 3c 33 1d b8 3c
       0.031473737 -0.00017943328 0.010424957 0.02247486
000130 42 d8 25 3d 0b 98 7a bb 10 82 65 3d f3 1b 7a bc
       0.040489443 -0.0038237597 0.05603224 -0.015265453
000140 ba 67 89 3c 67 0d 69 3d ec e4 f9 bb 1b e9 a0 bc
       0.016773093 0.056897547 -0.0076261666 -0.019642403
000150 4a 14 a5 3c b9 f8 f8 3c e2 59 a9 3c 6e 1b 19 bc
       0.020151276 0.030392038 0.020672742 -0.009344919
000160 e0 5c 2b 3d cf ae 23 3d 84 1f 03 3d 42 ba 8d 3b
       0.04183662 0.039961632 0.032012478 0.004325182
000170 a0 33 5f 3c 21 70 fb 3b bb 07 8d bc e4 69 ad 3c
       0.013623148 0.007673279 -0.0172156 0.021168657
000180 f8 e4 40 3c 7f 91 9a 3c 04 15 2a 3d 33 85 52 3c
       0.01177334 0.018868206 0.04152395 0.01284914
000190 94 b9 9a 3c 63 4b 05 3d 8b 40 1d 3c 30 fa aa 3c
       0.018887319 0.032542598 0.009597908 0.020871252
0001a0 98 f1 23 3d 25 ab e4 3b 72 a4 0c 3c 4b b0 ff 39
       0.040025324 0.00697841 0.008584129 0.0004876874
0001b0 be d2 09 3d aa dd d1 ba 14 c6 2a 3d ba cc 91 3c
       0.033648245 -0.0016011496 0.04169281 0.017797817
0001c0 51 2e 6f bc a2 68 55 3b 6c 03 0f bc 49 67 eb 3b
       -0.014598445 0.0032563587 -0.008728843 0.0071839434
0001d0 0f bc 39 3d 9f 4e 4c 3c b6 a9 25 3c 82 0b 59 3c
       0.045345362 0.012469917 0.010111263 0.013247373
0001e0 ef a5 fc 3c b0 74 c5 bb 69 51 01 3d 55 9a 9d bb
       0.030840842 -0.006025873 0.03157178 -0.0048096576
0001f0 f9 26 53 3b a3 c4 ef 3c 59 63 77 bb 44 99 1f 3b
       0.0032219274 0.029268568 -0.0037748425 0.0024352828
000200 68 9c 91 3c 79 dd 0d 3b ec 66 bb 3c a8 36 83 3c
       0.017774776 0.00216469 0.022876225 0.016017273
000210 3f 76 30 3c 57 a4 67 3c 20 56 f1 3c 7b d6 b6 bb
       0.01077038 0.014138303 0.029460013 -0.0055797673
000220 b4 4b a3 3c 79 2f f1 3c 7c 4b 61 bc 09 f9 8e 3c
       0.019933559 0.029441582 -0.013750907 0.017452734
000230 43 77 79 3c 63 74 d8 3c ec 32 09 3d 30 d0 ed 3c
       0.015226188 0.026422685 0.03349583 0.029029936
000240 a3 fd f6 3c 00 53 1a 3d 5d b3 08 3c 05 c8 40 3c
       0.03015024 0.03767681 0.008343545 0.011766438
000250 77 43 b1 3c b8 39 81 3b 08 5c f6 3b 98 a6 49 bb
       0.021638615 0.003943648 0.007518295 -0.0030769464
000260 0b 58 35 3d 7e f4 20 3b cd 1e ac 3c 42 f9 3b 3c
       0.044273417 0.0024559791 0.02101078 0.011473002
000270 a5 16 7b 3c 40 50 a1 3b b5 9e b8 3c b6 cd 9e 3b
       0.015325223 0.0049228966 0.022536615 0.0048463
000280 66 d7 c0 3c d3 48 07 3c 23 79 16 3c 16 85 17 3c
       0.02354021 0.008257109 0.009184155 0.009248039
000290 a6 73 07 b8 38 b3 14 3d 5f ae 47 3d 9c c0 d7 3c
       -3.2294214e-05 0.03630373 0.048750278 0.02633696
0002a0 82 9a 6a bb 6a e4 4f 3c a1 50 88 bb d9 c9 f5 3c
       -0.003579766 0.0126887355 -0.0041600023 0.030003475
0002b0 2e f5 c7 3c f2 c0 54 3c 07 8c 59 3c 5f 68 b1 3c
       0.024408903 0.012985455 0.013278014 0.021656213
0002c0 83 eb 96 3c 9e 64 62 3c f3 7f b2 3c 6c fa 5a 3c
       0.018422848 0.013817934 0.021789527 0.013365369
0002d0 60 e8 b7 3b c3 5f bc 3c 7f e8 2c 3d 60 b1 ef 3c
       0.005612418 0.022994881 0.042213913 0.029259384
0002e0 b0 bd 20 bc ef c6 15 3c dd dc 0e 3d fd 45 95 3c
       -0.00981085 0.009141668 0.0348786 0.01822185
0002f0 67 ba f2 bc aa 73 90 bb 16 66 df bb 3d 60 d3 3c
       -0.0296299 -0.0044083195 -0.0068175895 0.025802726
000300 b4 13 57 bb 76 26 f0 3c ce 35 31 3d 6b 1a 8d 3b
       -0.003281814 0.029315215 0.043264203 0.004306128
000310 74 bd bc 3a 5f 0a 94 3c 21 70 f7 3b 7a fa 9e 3c
       0.0014399723 0.018071352 0.0075512086 0.019406546
000320 ef 2b c7 bc 7f c0 fd ba de 5c 27 3c f6 11 cc 3c
       -0.024312941 -0.0019359736 0.010215012 0.024910908
000330 fb 4c 0c 3c bb d8 b5 3b 99 7b 93 3d 2a 6c 0e 3c
       0.008563275 0.005549518 0.07201309 0.0086927805
000340 54 70 35 3d 5d b7 26 bc e1 a5 69 bb 40 be 1d 3d
       0.044296578 -0.010175553 -0.003565185 0.038511515
000350 1b bf 75 3c 20 ab 5f bc 69 ab ee 3c 91 e7 9b 3c
       0.014999176 -0.013651639 0.02913447 0.019031318
000360 03 6e b2 3c 98 8a 2b 3d 22 4e 9b 3c 67 9f 92 3c
       0.021780973 0.04188022 0.018958155 0.017898275
000370 c8 47 7f bc d3 bc 10 3b 47 0f 15 bc 9a 79 56 3d
       -0.015581079 0.0022085204 -0.009097881 0.052362062
000380 23 f6 af 3c 89 90 84 3b 86 6b a5 3c c9 fc 82 3b
       0.021479672 0.0040455502 0.020192873 0.0039974195
000390 06 c6 95 3c bb 07 e3 3c 8c da e6 3c b1 1c e4 3c
       0.018282901 0.027713647 0.028180383 0.027845712
0003a0 d7 fe 13 3c 84 25 90 3b 96 d7 e4 bb 5b cb 8d 3c
       0.0090329265 0.0043990035 -0.0069837077 0.017308882
0003b0 a5 09 7b 3c 80 77 fb 3c 4e 18 f2 bc 89 8d 9a 3c
       0.015322124 0.03069663 -0.029552605 0.018866317
0003c0 ee b2 c6 3c ee b8 61 3c 98 7c dd 3b 4d 66 ef 3c
       0.024255242 0.013777001 0.0067592375 0.029223586
0003d0 80 2d 8e 3c 6b 9e 38 3c f7 77 2f bb c8 47 c3 3c
       0.01735568 0.011268239 -0.0026774385 0.023837939
0003e0 01 56 a5 3c 67 e8 bf 3c 53 0c ea bc 5d 74 9f 3b
       0.020182611 0.023426248 -0.02857033 0.0048661665
0003f0 bf 12 d1 3c 3c 2a eb bb c1 da 9d bb e5 1b 51 3c
       0.025521634 -0.0071766656 -0.0048173373 0.012762998

action_model._continuous_distribution.log_sigma f4 [1, 2]
000000 a3 33 3b be e7 d6 0d be
       -0.18281417 -0.1385151

action_model._continuous_distribution.mu.weight f4 [2, 256]
000000 84 a7 73 3c 94 24 92 bd 65 37 e3 b7 53 55 9c 3c
       0.014871482 -0.07135883 -2.7086304e-05 0.019083655
000010 e7 f2 ac bc b1 8c 1f 3d 9c 6d 08 3d d2 e5 49 bd
       -0.021111919 0.038952533 0.033307657 -0.04929144
000020 a4 ef 84 3d ad 4a c8 bc 83 46 46 bd 90 7e 90 3d
       0.0649102 -0.02444967 -0.04840709 0.0705539
000030 30 ed 43 bd 28 f3 5a bc 7d 36 c1 bb d0 d1 08 bd
       -0.04783362 -0.013363637 -0.005896388 -0.033403218
000040 89 02 b4 3d dc fd 34 3d 03 07 01 3d 66 52 78 bb
       0.08789546 0.04418741 0.031500828 -0.003789091
000050 5b ab 1c 3d 3a a7 4b 3d 49 a5 30 bd a0 bb 63 bd
       0.038249355 0.049720027 -0.04312638 -0.055598855
000060 4d a0 1a bc c9 4f 3c 3c ce a2 d6 bc f1 e5 14 bd
       -0.009437633 0.011493632 -0.026200678 -0.0363521
000070 e8 6c 0b bd df 98 44 3d c6 3e 0c bd 0d 4b e2 bc
       -0.034039408 0.04799735 -0.034239553 -0.027623678
000080 9b 59 7a bd 48 ea 06 3d 6f cd 45 bd 9e 51 1d 3b
       -0.06112061 0.03293827 -0.04829162 0.0024004946
000090 2b 01 7e b9 eb e3 b2 3d 8a 1b c3 3d 22 16 a6 bd
       -0.00024223763 0.08734878 0.09526737 -0.0810969
0000a0 a4 70 66 3d c0 3b 11 bd e7 2c 31 bd 54 94 94 3c
       0.056259766 -0.035457373 -0.043255713 0.018137135
0000b0 93 56 aa 3d 32 79 67 bd 91 be 93 3d b0 c8 c1 3b
       0.08317294 -0.056512065 0.07214082 0.0059138164
0000c0 ed 7a 7e bc 8e c1 11 3d 50 ff 91 3c 6d 02 a8 3d
       -0.0155322375 0.03558498 0.017821938 0.08203588
0000d0 a0 21 22 3d 8b c6 75 3d 7d 1d 22 3d 38 6f 8e bd
       0.03958285 0.0600038 0.039578903 -0.06954807
0000e0 74 6e aa 3c 50 0a 76 3d fa 86 cd bc 05 ff 31 3c
       0.020804621 0.06006843 -0.025088776 0.010864024
0000f0 aa 32 e3 3c 21 59 66 3d 9a 06 a1 bc 09 96 5a bd
       0.02773412 0.056237344 -0.019656468 -0.05336574
000100 49 2c e1 3c 15 6b c7 3b fe 35 22 bd 2a 1a 1e bd
       0.027486937 0.006085763 -0.039602272 -0.03859917
000110 7b fb e7 bb 53 f7 19 3c 87 c0 3f bd 63 1e df bc
       -0.0070795394 0.009397346 -0.046814468 -0.02723617
000120 2e 97 93 3d f7 45 c3 ba c2 d3 47 bd ed 69 0d 3d
       0.072065696 -0.001489817 -0.048785932 0.034524847
000130 9b 19 a1 bd 47 1f 87 3c 08 e0 00 be ec df 5c 3c
       -0.07866212 0.016494406 -0.12585461 0.0134811215
000140 36 c1 17 3d 50 cc dc 3c f3 34 02 bd 20 08 0f 3d
       0.037049495 0.026952893 -0.031788778 0.034919858
000150 48 d2 31 bd cc 60 a4 3d 3a 3a 40 bd bd b4 91 bb
       -0.04341343 0.08026275 -0.04693053 -0.0044465945
000160 2d 15 e5 3d 37 79 7d 3d 58 f9 5f bc 9d 9e 15 bc
       0.111856796 0.061883178 -0.013670288 -0.009132055
000170 93 76 70 bd 41 2e 9c 3c 7b 02 2b 3c 2a 0a 43 3d
       -0.05870683 0.019065024 0.010437603 0.047617115
000180 84 0c 12 bd 8e ff 34 bd 7c b9 88 bd 9e a6 2c 3c
       -0.035656467 -0.04418903 -0.06676003 0.0105377715
000190 b2 fe 0c 3b 83 18 d7 bd cd 95 2b bd 7b 53 e0 3b
       0.0021514115 -0.10502722 -0.041890908 0.006845889
0001a0 58 35 38 3d 41 93 8b bc 62 dd 73 bc 56 e8 0f bd
       0.044972748 -0.01703799 -0.014884325 -0.035133682
0001b0 02 5b 6e 3d b8 2b ef 3b a0 7f 3f 3d 49 69 fd ba
       0.05819226 0.007298913 0.046752572 -0.0019333746
0001c0 ba 0d e4 bb 0d 9a d2 bb d7 10 6f bc 3d 74 c3 bc
       -0.006959644 -0.0064270557 -0.014591417 -0.023859138
0001d0 9b 6f 11 bd 3d 62 8a bd a4 e1 db 3b 88 7a e7 3c
       -0.035506826 -0.06757019 0.006710248 0.02825667
0001e0 e5 ae 83 bd df 75 f5 bc 34 27 a2 3d 27 b4 76 bb
       -0.06429843 -0.029963432 0.07917634 -0.0037644
0001f0 79 49 e5 3c fc 32 09 bd bc a7 05 3c e0 2f a4 3c
       0.027989136 -0.033495888 0.008157667 0.02004236
000200 6d 40 23 3d 4f 3c 7c 3c 14 a0 16 3d 9a 73 81 3b
       0.039856363 0.015395238 0.036773756 0.0039505484
000210 9d 8b 21 3d a0 2b 9a 3c 0b dc 5e 3d 9f 36 8e bc
       0.039439786 0.01881963 0.054409068 -0.01736003
000220 a8 fc 4d bd cd 69 2b bc 2b 25 f6 3a 08 c9 d2 3c
       -0.05028978 -0.010462237 0.0018779387 0.025730625
000230 ea cc 6f 3c 80 51 ba 3d f3 d5 bf bc b5 21 71 3c
       0.014636258 0.09097576 -0.023417449 0.014717509
000240 b5 a0 02 3d 18 39 e4 bc 15 ec 03 3c 2e 8f 99 3c
       0.031891543 -0.027859256 0.008051892 0.018745031
000250 89 3a 99 bc f9 95 ca bc b5 83 34 bd 23 c2 f3 bb
       -0.01870467 -0.024729716 -0.044070918 -0.0074389144
000260 6a b0 07 3e b9 e2 10 3c 9d d4 35 bc e2 b7 b5 3c
       0.1325089 0.008843117 -0.011098054 0.022182409
000270 08 5d c2 bc c1 42 1d 3a 03 da 5b bd 32 c5 ac bc
       -0.023726001 0.0005999022 -0.05367471 -0.021090124
000280 9b f6 50 3d 60 48 11 3c 07 fc 94 bc ed 39 be 3c
       0.05101643 0.008867353 -0.018186582 0.02322098
000290 46 d5 bd 3b bb 2d 6c 3d b2 7e 78 3d cb eb 2d 3d
       0.0057932464 0.0576608 0.0606677 0.042461198
0002a0 d5 b4 6c bc f9 eb 42 3c 65 e6 f1 bc ee 3f a0 3d
       -0.014447411 0.011897081 -0.029528806 0.078246936
0002b0 e5 e4 11 3c e8 db de 3c 83 6a 57 3d 05 f0 ab bd
       0.00890467 0.027204469 0.052591812 -0.083953895
0002c0 16 8f c5 bc 33 71 08 bd de 49 18 3d 9f 2a 86 bc
       -0.02411608 -0.03331108 0.03717982 -0.016377745
0002d0 dd 0c 4d bd 69 65 6f bd 3d 59 7e 3d fc 87 6e 3d
       -0.050061096 -0.05844632 0.062096823 0.058235154
0002e0 60 c0 52 bc da 34 14 bd ca 2d 38 bd bc 38 27 3d
       -0.012863249 -0.036183216 -0.044965543 0.04082559
0002f0 91 e5 1d bc d8 46 90 bc 27 0c 43 bc 10 71 9b 3d
       -0.009637252 -0.017611906 -0.011904753 0.07589924
000300 cd 6e 6a bd 11 e6 03 bd 86 ca c0 bd 86 70 91 bd
       -0.057234574 -0.03220183 -0.09413628 -0.0710154
000310 ee 2f f4 bc e4 09 ba 3a 72 d9 50 bd d3 9b 86 3c
       -0.02980801 0.0014193621 -0.050988622 0.016431725
000320 48 ec 60 bc 76 83 8d 3b e3 b3 48 bd 77 4a ee bb
       -0.013728209 0.00431865 -0.04899968 -0.0072720605
000330 b6 98 6d 3c 2c 22 1b bd cb 90 22 3e eb 61 fa 3c
       0.014501741 -0.037874386 0.15875547 0.030564269
000340 05 21 b3 3d f7 81 61 3c 8a 75 91 bb 74 4c dc 3d
       0.08746532 0.013763896 -0.0044390606 0.1075677
000350 53 7f 80 3c d7 61 0f 3c d1 fc 98 3d 71 b7 18 3c
       0.015685713 0.008751354 0.07470096 0.00932108
000360 fa c2 e9 3c d3 e4 9c 3d b3 83 e4 3c d0 cd 5d bd
       0.028535355 0.07660832 0.02789483 -0.054151356
000370 e0 34 1e bc c7 76 14 bd 2b dc a1 bb 00 e8 e0 bd
       -0.009656161 -0.036246087 -0.004939576 -0.109817505
000380 83 4b 75 3d 31 37 89 bb 1f bd 3e bd 47 9a 39 bd
       0.059886467 -0.0041874875 -0.04656708 -0.045313146
000390 83 ec b2 bd e8 f2 5c 3d 14 94 56 3d 96 10 49 bd
       -0.08736517 0.05394259 0.052387312 -0.049088083
0003a0 d3 1d 00 bd 75 64 cb 3c e0 1c 4b bd e8 12 30 3c
       -0.031278443 0.024828175 -0.049588084 0.010746695
0003b0 b0 01 92 3b b5 b5 6a bc e4 5a b5 3b b2 df 94 bc
       0.0044557676 -0.014325549 0.0055345166 -0.018173072
0003c0 7e b2 1e 3d 31 ad 0a bd 61 bd 32 bd e0 15 ea 3c
       0.038744442 -0.033856574 -0.043637637 0.028574884
0003d0 c6 f4 34 bd fc 48 5f bd aa 36 f5 bb 06 20 17 3d
       -0.044178747 -0.054512963 -0.007483323 0.036895774
0003e0 cd 84 a8 bd 14 5d 08 bd f1 2f ba 3c bb 37 1a bd
       -0.08228455 -0.03329189 0.022727938 -0.037650805
0003f0 0a 09 10 bd 13 a7 8c bc d1 35 8e bb b0 11 58 3c
       -0.03516487 -0.017169511 -0.0043399115 0.013187811

action_model._continuous_distribution.mu.bias f4 [2]
000000 56 1f 0a 3a dc d0 de ba
       0.00052689516 -0.0016999501

action_model._discrete_distribution.branches.0.weight f4 [1, 256]
000000 c2 af 79 3b 77 3b 0a 3c 27 ce 9d 3b 15 61 1f 3c
       0.0038099145 0.008437029 0.004815835 0.009727736
000010 40 b9 e9 3b 1b 4f e9 3a fa 21 5d ba 8e c2 2a 3b
       0.007132679 0.0017800065 -0.0008435544 0.0026055905
000020 05 e0 aa 39 82 f0 a8 3b 43 bd e1 3b 75 e6 54 3b
       0.00032591834 0.005155624 0.006889017 0.0032485996
000030 6e 61 31 bb c2 76 cd bb fa ef ca ba e3 18 64 bb
       -0.002706613 -0.0062702606 -0.0015482896 -0.0034804873
000040 c3 92 4a 3b b6 22 3d 3a d7 42 b1 bb 30 3d 0c 3c
       0.003091023 0.000721495 -0.0054095793 0.00855951
000050 61 29 17 bc b4 11 12 bb 45 97 86 3b 7f aa 91 ba
       -0.009226174 -0.0022288384 0.004107388 -0.0011113434
000060 ce c9 9b bb 2a 1b 05 bb c2 92 6c 3a a0 34 d8 3b
       -0.0047542816 -0.002031038 0.0009024554 0.0065980703
000070 d2 e8 d8 3b 03 89 09 3c 3a 65 62 3c d0 12 19 bb
       0.006619551 0.008394483 0.01381808 -0.002335716
000080 bb 68 4e 3a b3 aa 52 bc 28 43 f5 bb c8 15 6c 3c
       0.00078738824 -0.012858081 -0.0074848123 0.01440949
000090 bb c1 9d 3b fb 7a b6 3b 1c 8b b1 bb 9f db c7 3a
       0.0048143542 0.0055688596 -0.0054181945 0.0015247947
0000a0 b1 fc 99 bb e3 28 0c bb 6d be 25 3b f5 e7 86 3a
       -0.0046993126 -0.0021386675 0.0025290505 0.0010292517
0000b0 96 02 4c 3b 9a 0a a2 ba 69 60 a5 bb 17 11 5e 3b
       0.003112947 -0.0012362779 -0.0050468934 0.0033884698
0000c0 4f a6 8b 3b 60 08 99 b9 f8 f1 aa 3b f3 55 31 ba
       0.004261769 -0.00029188674 0.005216833 -0.00067648216
0000d0 63 5c ce ba 47 de c1 3a d7 63 82 3b 73 9d a3 3b
       -0.0015744086 0.0014790975 0.003979187 0.0049931346
0000e0 9a 77 7f 3b 08 86 c1 3a 68 10 e4 bb 55 48 f1 bb
       0.00389812 0.0014764676 -0.0069599636 -0.007363359
0000f0 f3 83 92 ba 8d f1 82 3b 73 cc 5f bb 6e cf 81 3b
       -0.001117824 0.0039960803 -0.003414896 0.003961495
000100 c5 55 65 bc 90 50 a3 3b 3e 49 91 ba 0f d6 46 3b
       -0.0139975 0.004983969 -0.001108445 0.0030339991
000110 a8 a9 31 3c 53 73 6a 3a 85 35 0f 3b 8a 47 ac bb
       0.010843672 0.0008943576 0.0021851968 -0.0052575516
000120 07 1a 20 3c 5c e7 c1 35 1b 23 94 bb da 36 13 bb
       0.00977183 1.4446955e-06 -0.0045207865 -0.0022463114
000130 cc 95 bb 3b ef 8d 9d 3b 1f 3e 60 bc 33 67 91 3b
       0.0057246443 0.0048081796 -0.013686686 0.004437351
000140 fb 37 1d bc 45 e3 7e 3b cf 67 10 bb a0 2b 39 bc
       -0.009595866 0.0038892787 -0.002203453 -0.011301905
000150 72 49 d6 3a db 62 cb 3b d7 a6 60 3b bf b9 af 3b
       0.0016348793 0.006206853 0.0034279132 0.005362719
000160 b1 5b 1d 3c 3f 95 af bb 0a fe 59 3b d3 e8 56 bb
       0.0096043805 -0.0053583677 0.0033262991 -0.0032792583
000170 4d 6f 92 3b 43 91 fb bb a3 be 05 3c a7 a4 0f 3c
       0.0044688345 -0.0076772287 0.008163127 0.0087672835
000180 4a 0a f3 3a ab 71 29 3c 72 a6 63 3b d3 dc 11 3c
       0.0018542495 0.010342042 0.003473666 0.008902746
000190 9d 3a f8 bb 03 fd cb 3b 35 4c 51 3b c2 06 21 3a
       -0.0075753466 0.0062252297 0.0031936292 0.00061426696
0001a0 a5 26 69 bc 2f f3 90 bb 72 5a d0 bb f7 69 28 bc
       -0.014230405 -0.004423521 -0.006358438 -0.01027917
0001b0 b6 0d 23 bc af 84 29 bc 6a 64 61 bb d9 3c 91 3b
       -0.009951999 -0.010346576 -0.0034392127 0.0044323024
0001c0 a9 6f 95 bb ae b9 28 3a 28 31 2e ba 7f 55 80 bc
       -0.00456043 0.000643636 -0.0006644898 -0.015665768
0001d0 d3 f7 aa bb 23 cf 82 3b 27 ba c9 bb df 6c 7f bb
       -0.005217531 0.003991978 -0.0061562243 -0.0038974804
0001e0 88 54 ce 3b db 75 68 bc 47 00 eb 3a d3 28 ca 3a
       0.006296698 -0.014188255 0.001792916 0.0015423544
0001f0 f3 0d 24 bc 35 53 82 bb cc c1 46 b9 7a ed 3f bb
       -0.010013091 -0.003977204 -0.00018954946 -0.0029285834
000200 b2 a8 14 bc 66 b4 ab bb 81 0d 9b b9 97 74 80 bc
       -0.009073423 -0.005240011 -0.00029573965 -0.015680594
000210 0f 79 a8 3b d2 e9 68 3c 6b 54 59 ba e2 05 9c ba
       0.0051413844 0.014215903 -0.00082904723 -0.0011903609
000220 46 bf 30 bb 3f 4d 5a 3a 8a 73 d6 3b 07 f5 6f 3b
       -0.0026969477 0.00083275506 0.006544535 0.0036614554
000230 cd ac ec 3b 2d bf 68 bb 66 f9 22 3a 2a 35 e0 b8
       0.007222748 -0.003551434 0.0006216973 -0.00010691055
000240 a9 d5 23 bb 33 2d f8 ba d8 4d 4e bb 4d fc 78 3b
       -0.0024999178 -0.0018934369 -0.0031479504 0.003799218
000250 3b 9c d8 3a 7b 6c e1 bb cd 83 00 3b b1 dc 07 b9
       0.0016526052 -0.006879387 0.001960981 -0.00012956817
000260 c7 30 a7 bb 00 ae fb 3b 91 e2 26 bc 9f eb 7f bb
       -0.0051022503 0.0076806545 -0.010185854 -0.0039050353
000270 b8 f5 22 3c d7 40 4e bb fe cc 96 bc bb 46 c0 3b
       0.009946279 -0.0031471753 -0.018408295 0.0058678067
000280 83 11 ba bb bb 2b f6 bb 0d dd 59 3c 18 ca 96 bb
       -0.005678357 -0.0075125373 0.0132973315 -0.004601728
000290 21 85 43 bc 6b 5e 5a 3b 1b dc fa 3a 4d dc bc bb
       -0.011933596 0.0033320438 0.0019139083 -0.0057635666
0002a0 1f 99 b7 3b ad 36 2b bc c4 ad b5 37 49 bd 88 3b
       0.0056029703 -0.010450047 2.1657797e-05 0.004172955
0002b0 94 16 99 bb 38 60 77 3a 5e a1 26 3c 1f 99 06 bc
       -0.004671881 0.000943664 0.010170309 -0.008215218
0002c0 e7 45 27 bb f1 57 82 bb b5 6e 54 bb a8 dd e0 bb
       -0.0025523843 -0.0039777686 -0.003241462 -0.006862361
0002d0 e5 f4 9b bb 37 04 3b bc e9 75 ca 39 0a 09 6a 3b
       -0.0047594183 -0.011414579 0.00038616292 0.0035710954
0002e0 87 12 32 bc 85 c2 35 3b 05 eb 05 3b 5f 0a 20 bc
       -0.010868675 0.002773435 0.0020434272 -0.009768098
0002f0 15 d4 28 3b c3 be 6d 3a 62 66 1b 3b 3b 99 92 bb
       0.0025761176 0.0009069258 0.0023712148 -0.004473833
000300 78 d7 cd 3b ba 4b 2e 3c 36 7c 82 bb 13 7c 3c 3b
       0.0062817894 0.010638172 -0.0039820923 0.0028760477
000310 b9 3f 16 bc a0 73 e7 bb 3b 25 a9 b9 fc 73 8d 3b
       -0.009170466 -0.007063344 -0.0003226193 0.004316805
000320 6a 5c c7 b9 66 72 bc 3b d7 1d 23 3b d1 3c b7 bb
       -0.00038025092 0.005750942 0.0024889612 -0.0055919667
000330 06 9b 0e bc b7 60 cc 3a 7b fb 4a bb 9b c6 70 bb
       -0.008703953 0.0015592788 -0.0030972648 -0.0036739472
000340 eb b2 fa b9 ae 89 16 bc 6a d4 00 bb 90 f9 a0 bb
       -0.0004781702 -0.009188099 -0.0019657859 -0.0049125627
000350 70 a7 33 3c 45 d0 36 3b 0d 9a 29 3b 62 9c ce ba
       0.010965213 0.0027895134 0.0025879175 -0.0015763158
000360 0e ac 85 3a 17 dd 1d bb 93 49 11 bc 7a 9c 86 3b
       0.0010198371 -0.0024088079 -0.008867639 0.004108009
000370 49 4a 0e 3b 8a 0c c6 b9 bf 2e 79 bc 25 2a 73 bb
       0.0021711758 -0.00037774845 -0.015208899 -0.0037103978
000380 8f 19 12 3b f7 76 7d 3c f6 1c 04 3c 82 c4 03 bc
       0.0022293066 0.015470258 0.008063545 -0.008042457
000390 3a 10 c2 3a 40 98 d9 3b 1f 79 52 bb c8 b0 50 bb
       0.0014805861 0.006640464 -0.003211565 -0.003184365
0003a0 d9 64 2e 3b 67 0e 95 bb c5 8d 7c bb bf 3e 1a bc
       0.0026610403 -0.004548836 -0.003853665 -0.009414374
0003b0 99 53 11 bb 0a e9 eb 3b 20 f4 2d bb 21 8b b2 3b
       -0.0022175072 0.0071994113 -0.0026543215 0.0054487144
0003c0 e5 48 99 37 26 cb 99 bb 4e 3e 00 bc 5a 55 e5 bb
       1.8272965e-05 -0.0046934066 -0.007827355 -0.0069987
0003d0 da ca 7b 3a c2 74 66 bb 0d fa 21 3a 9b 8c 07 bc
       0.00096051174 -0.0035164808 0.0006178923 -0.008273269
0003e0 42 28 0f 3b 63 29 45 3b c3 e5 be 3b 43 29 08 3b
       0.0021844064 0.0030084483 0.0058257296 0.0020776547
0003f0 a5 e8 5a bb 08 0b d3 bb a5 3a 02 3b 90 30 02 3c
       -0.0033402827 -0.006440524 0.001987138 0.0079461485
