EcoSculptor/results/Final_1.3/Hunteranimal/Hunteranimal-499979.pt (torch, 324753 bytes, 27 tensors)

network_body._body_endoder.seq_layers.0.weight f4 [256, 47]
00000000: 94a3 3bbe fba7 89bd 8ed9 6d3d d90d 25be
00000010: 6abe 06bd af77 b9bd 1c84 59bd 1c47 5d3d
00000020: b864 a2bd 2b3a 643e 9c58 3abb 475a 813e
00000030: 46b7 87bc 8f9a 15bd f718 6f3e 33c1 fe3d
00000040: 569b 97be b9f3 6cbe 51c7 e7bd c35b 863e
00000050: 38ab 1cbe 70c2 393e 19b5 413e 8e43 5e3e
00000060: a08f 3cbe 707b ddbc f2db 09be 514e a1be
00000070: 85bf d33c bce0 c53a 1fd5 623e 4e7b a53c
00000080: 2a83 dfbe fc42 27be 31ee e8bd a79e d03c
00000090: 41a7 e83e 7687 5a3c 0e1b 70bd 6ba3 58bd
000000a0: 159b b7be c103 ff3c da2f 87bb ce5b f33d
000000b0: eb06 af3c 21f5 5cbd 82da 58bd b434 9abe
000000c0: 847a 1f3e 2ba8 403e cc83 ad3d b609 77be
000000d0: a59e 413e 24a4 7dbd e372 e93d e5ae 43be
000000e0: 2b90 93bd a1b9 93bd e684 24be e103 7f3d
000000f0: 2023 6dbc 0977 fe3b d8b9 00be 32cd 0e3e
00000100: a64a 5c3e e642 e9bd 4cd0 3f3d 1e53 a7bc
00000110: edd2 113d 3f49 3cbe bbca 883c 57cb f5bd
00000120: df0f 6d3d 8258 90bd d038 b23d 83d5 83be
00000130: cdd5 8cbe 8fcb a73e f45f 88bd e03c 06be
00000140: a258 4ebe 7af0 78be 8089 ea3d 8445 bdbe
00000150: 4b32 903e f30c 62bd 4144 cfbd ac27 0d3e
00000160: e02d a03d 4c22 3fbd 1038 4f3e b0f8 9ebd
00000170: cfe5 4ebc af19 1fbe e730 cdbd 9b4a 80bd
00000180: b9b2 f53d 0d8e 833e 4fc6 2abd f0d2 8d3e
00000190: 47d5 0e3d db22 a6bd ada5 30be cae8 b23d
000001a0: 131c 5fbd 401d c2bd 98ce 05bd a3c2 163e
000001b0: 5dfa 3ebe 59c9 8c3d ecd2 c5bd 32cd a93d
000001c0: 5f15 6fbd cb02 b7bb 2285 973e 5332 b6be
000001d0: c38b 20be 9d60 72be 5a6f a1bd ac7b e83d
000001e0: a5af 1bbe 1fd6 a6bd 33bc a83e 0388 853d
000001f0: 5e50 873d 843c 443e 887c edbd b3fb aa3b
00000200: 7f8c 15be ff11 13be e79b 0abd c0f1 6ebd
00000210: 0d32 55be d8c1 aa3d 0e08 08be 8eb8 b13d
00000220: d914 00be 2088 50bc b805 23be 8d9d 09bd
00000230: 38e4 913d 1185 ae3d 88ee f33d 0635 d53d
00000240: ef85 bebd cde8 9abc 5ab0 603d 4767 df3d
00000250: e350 2f3e 81e7 c5be 8f1e a5bd 8d19 ee3d
00000260: 9732 fcba f32c f63c d911 783e 0359 4bbd
00000270: f2ce 1ebe a72c 32bd 869e 0abe c168 213e
00000280: 3e84 33be 0b59 cb3d 5eb1 26bd a2a4 82bd
00000290: d081 5a3d eb5d ec3d a3f7 e03d 5488 00bd
000002a0: 904b 73be e924 553d e8f1 3bbd 3ac6 63be
000002b0: 36a7 93bd c39e ad3d e010 813d 6545 a53d
000002c0: 1a00 6bbe d988 653d c4e3 babd 5e8d 02be
000002d0: 8acc 5d3c da5b 8abe b386 73bd 3cc4 85be
000002e0: 0253 74bd 3a1e 363e 6961 7c3e 337b 80bd
000002f0: dfaa 1f3d 9fdf 54bd 2602 a33c 0c1a 8c3c
00000300: cc31 7cbd ae9c 89bb 150f 833e afe0 29be
00000310: 3327 04be d9fe b1bd b6dd b13d 6015 c03d
00000320: c167 66bd ae86 ce3d 6a19 bcbc 8144 9d3d
00000330: 66ea ee3d 26df 60be 7b3d 503d f4f7 99be
00000340: b4b5 143e 64d0 d9ba 8f35 25be 3bde 2bbe
00000350: 25b5 11be 3f45 dd3d 2a67 a13b 1403 fdbc
00000360: 1d9a 8b3c 6548 b23c b4f5 aebc 0065 603d
00000370: d231 c0bc 8f81 1c3e 8155 0fbe ffaa 92be
00000380: 0499 babd 98c1 233d f479 973d a6e3 77be
00000390: 5b0e 0f3d a99b 4cbe 5692 aabe 01ad 6ebe
000003a0: 6c77 1dbe 809d cf3c ad5b 85be 3e92 6ebe
000003b0: 6b52 8d3e cdd5 34be 1931 b33d b0f7 cabe
000003c0: b00c 8dbe b469 22be 83b4 2abe f59d babd
000003d0: 0c80 533b 4844 753e ad60 49bd 0705 c53d
000003e0: ffc2 6bbe 75ea fe3c 538b 6cbd 6232 4d3d
000003f0: 62fa ee3d a27d 963a 51e5 6d3d 1e3c 92bd
-0.18324119 -0.06721493 0.058068804 -0.16118564 -0.032896437 -0.09056031 -0.053104505 0.054022893
-0.07929367 0.22287814 -0.0028434163 0.2526419 -0.016566884 -0.03652435 0.23349367 0.124391936
-0.296107 -0.23139848 -0.113173135 0.26241884 -0.1529969 0.18140578 0.1891674 0.21705458
-0.18414164 -0.027036399 -0.13462809 -0.31505063 0.02584816 0.0015096883 0.22151612 0.020200398
-0.43654758 -0.16334146 -0.113735564 0.025466276 0.45440105 0.0133379605 -0.05861955 -0.052890223
-0.35860506 0.03112972 -0.0041255774 0.11882745 0.021365603 -0.05394471 -0.05294276 -0.30118334
0.1557408 0.18814151 0.08472404 -0.24124798 0.18908174 -0.061924115 0.11398866 -0.19109686
-0.07205232 -0.0721314 -0.16066322 0.06225956 -0.0144737065 0.007765655 -0.12570894 0.13945463
0.21512851 -0.11389713 0.046829507 -0.020425376 0.035601545 -0.18387316 0.016698232 -0.120016746
0.057876464 -0.070481315 0.087022424 -0.25748834 -0.27506867 0.3277249 -0.066589266 -0.1310916
-0.20150998 -0.24310485 0.11452007 -0.369671 0.2816337 -0.05518813 -0.1012044 0.13784665
0.0782125 -0.046663567 0.2023623 -0.07762277 -0.012628033 -0.15537141 -0.10019093 -0.0626423
0.11996979 0.25694314 -0.041693028 0.27699995 0.034871366 -0.08112117 -0.172507 0.08735807
-0.054470133 -0.09478235 -0.032667726 0.14722686 -0.18650194 0.068743415 -0.09659371 0.08291091
-0.05836999 -0.0055850497 0.2959376 -0.3558527 -0.15678315 -0.23669668 -0.07882567 0.113517135
-0.15203722 -0.08146309 0.32956085 0.06520083 0.06607126 0.1916371 -0.11596018 0.005217993
-0.14604376 -0.14362334 -0.033840086 -0.05833602 -0.20819874 0.08337754 -0.13284323 0.08677779
-0.12507953 -0.012727767 -0.1592015 -0.033597518 0.071236074 0.08521474 0.119107306 0.10410504
-0.093028896 -0.018909836 0.054855682 0.109083705 0.171207 -0.38653186 -0.08062469 0.11625967
-0.0019241151 0.03005073 0.24225558 -0.049645435 -0.15508631 -0.043499615 -0.13537034 0.15762617
-0.17530915 0.09929093 -0.040696494 -0.063790575 0.053346455 0.11541351 0.10984733 -0.031380013
-0.23759294 0.052037153 -0.045884997 -0.22243586 -0.07209627 0.08477547 0.06302047 0.080698766
-0.22949257 0.05603871 -0.09125474 -0.1274924 0.013537535 -0.27023202 -0.05945463 -0.26126277
-0.059649475 0.17784968 0.24646534 -0.062734984 0.038981315 -0.051971074 0.019898485 0.017102264
-0.061570928 -0.004199586 0.25597444 -0.16589616 -0.12905578 -0.086911865 0.08684866 0.09379077
-0.05625129 0.10084282 -0.022961337 0.07679082 0.11665802 -0.21960124 0.050839882 -0.30071986
0.14522439 -0.0016617891 -0.16133712 -0.16783993 -0.14229257 0.10804223 0.004925628 -0.030885257
0.01704126 0.021763036 -0.021357395 0.05478382 -0.023461256 0.15283798 -0.13997461 -0.28646085
-0.09111217 0.039979547 0.073963076 -0.24207935 0.0349258 -0.19981255 -0.3331477 -0.23308183
-0.15377587 0.025343657 -0.26046506 -0.23297974 0.27601942 -0.17659684 0.08749599 -0.39642096
-0.27548742 -0.15860635 -0.16670422 -0.09112159 0.0032272367 0.23951828 -0.049164463 0.096200995
-0.23023604 0.031117657 -0.057750057 0.050096877 0.116688505 0.0011481533 0.05808002 -0.07140373

network_body._body_endoder.seq_layers.0.bias f4 [256]
00000000: 9557 7f3d 7159 543d 9dfd 3b3d 3b38 3a3d
00000010: 02a3 83bb fc4e 153d 0f97 5c3d fbc8 303d
00000020: 89aa 563d 2171 b63b 0788 473d 819f 1f3c
00000030: ce24 38bb 5531 0f3d 4320 103d 1d48 e2bc
00000040: 55ea 7b3d 48b9 533d 9244 613c 73bf a33c
00000050: c475 6d3d 5bc6 4a3d df00 cfbb 5f79 0f3c
00000060: 247c 3f3d 276e 0f3d 9d47 0c3d e785 0bbc
00000070: 83e7 b93c 608b 2dbc d7cc 0c3d 5f5f 9f3d
00000080: c50d 323c 77fb 4a3d dc0e 803d bb15 37bb
00000090: fefc 473c eddb 66bc 4ffd ad3c 87cf 9c3b
000000a0: 547e 963d f2c1 4a3d b226 c3bb 6945 673d
000000b0: 6c4b c73c ebfa e83c 9ffd fbb9 1f4d 443d
000000c0: db65 a8b8 bd1f 04bd c3e4 2f3b acbc 75bc
000000d0: 2b6b 263c df62 293d ff9a 77bb 9ea7 dabb
000000e0: 2379 b0bc 569d 09bc 729e d93d 8cc1 8e3d
000000f0: 5e94 4abc 7f45 c63c 490e 0f3d 6d80 e93c
00000100: 1793 abbb 4278 563d 7809 643b 59b4 863b
00000110: e3bf b7bc 88c8 353a 9364 6a3d 8e09 c13c
00000120: 1316 413c 6b35 313d e887 ef3c 2313 873c
00000130: 944b cebc 7d92 74bc 368b 2a3d c917 2c3d
00000140: c84d 51bb 9af4 e73c e425 d63c 9f7f a3bb
00000150: df6b 94bb 033a 1b3d 11d7 d03c 538d 9f3d
00000160: 859d f2bc 6627 203d e44a e23c 2b1b 333d
00000170: 7da2 a13c cb0f 2d3c 82c2 0a3d e786 f63c
00000180: d0d4 1b3d ca89 133d 8f33 6f3c 3a9a f33b
00000190: 48ba 1dbd 4a69 31bb ba8b a03c aa80 bb3c
000001a0: 4673 863d 8af3 b7bb 723c 133d 4258 b63c
000001b0: 91e4 babc e6b2 283d b101 223d 618d 473d
000001c0: c27b 51bc a1d8 073d 9284 813d e155 813d
000001d0: a89b 1b3c 82b0 0d3d fd52 e53c b733 b4bc
000001e0: 15a3 b83c 56e9 af3c 789b 093d 1c7e c8bb
000001f0: e228 573d f15a 87bc 42b3 5e3a 846c eb3a
00000200: 676c 2f3d 8474 8d3d 5e48 043d c850 1c3d
00000210: b171 aebb 8e94 8b3d e4a2 4c3d c569 463c
00000220: 16cf 973d 7203 b2bb a99f 873a ec60 a33c
00000230: 6fe9 0f3d 6695 473c 169a abbb f08f 473d
00000240: 5f16 233b 24f7 8ebc 204f 933d f1b2 873d
00000250: 00cf f1bb 1e07 0b3c 329e 243d 35b6 073d
00000260: c51a 8d3a a1b2 7b39 819c 6f3d d77c a5b9
00000270: 0ac1 943d 5af4 81bc 5cd2 523d 94b3 2bbc
00000280: 789e 633c 6024 3a3d 4811 f93c e10a d53c
00000290: be88 9b3a 0d38 813d 4741 6b3d bc06 57bc
000002a0: bb70 c73b 8349 403d 07c1 4f3d 04d8 12ba
000002b0: bd67 acbc 3393 913c 0c83 18bc f4ba aebc
000002c0: 8eb4 343c 4aae 5e3c ed1d 9b3d ed83 383d
000002d0: b110 a5bb 0ee2 253d 97e8 243d 2de6 2e3d
000002e0: 90dd a63d f115 dfbc c8ce 803d 7509 503d
000002f0: 0b65 cbbc 4c2a 653b 163a a63d e233 07bd
00000300: cc6b 173d 5770 a73c cc1d e3bb 5c87 8d3d
00000310: 84d7 483d 7260 46b9 bc56 533d 85a4 913c
00000320: fb9e c63b 940e 563d be9d 363d 4613 203d
00000330: 05be d8bc a4cf 503d 66f0 483d 1869 37ba
00000340: ad52 88bc ee76 8a3d 0345 56bb 3661 31bc
00000350: b3d0 0b3d d8ba e9bc 5a67 903c 2b2e 7b3d
00000360: c39e 4c3d 76d5 313d 40f4 9d3b 4fc4 bb3d
00000370: 2632 32bb b38b 1b3d cdb7 873d 382d bebc
00000380: 5cb6 553c 3950 6a3a f59a bcbb 97a9 2e3d
00000390: 94c5 1d3d 671a 96bc 97c2 6b3d 7a02 90bc
000003a0: ac40 963c 04c2 f2bc 3e0f 503c 0296 f53c
000003b0: 7a9a 8ebb c6dd adbc 0e75 4dbc 5f9e 0c3d
000003c0: 2a95 7abc 3b4c a9bc 6b12 583d d16d d23c
000003d0: f70f 743c 6780 5e3c 51a7 73bc 9494 b73c
000003e0: 540d 98bc f1bf b3bc a11f 593d 25c8 283d
000003f0: 6ca0 a4bc 4295 053d 0d84 db3c 4f14 d83c
0.062339384 0.05184311 0.04589616 0.04546378 -0.004017235 0.03645228 0.053855 0.04316042
0.05240873 0.0055676852 0.04871371 0.009742619 -0.002809811 0.034959156 0.035187017 -0.027622277
0.061502773 0.05169037 0.013749259 0.019988751 0.05797364 0.049505573 -0.0063172425 0.0087569645
0.04674925 0.03501716 0.034247983 -0.0085158115 0.022693401 -0.010592312 0.034375038 0.077818625
0.010867541 0.04955622 0.06252834 -0.0027936536 0.012206314 -0.01409052 0.021238951 0.0047854814
0.07348314 0.049501367 -0.0059555406 0.05646268 0.024327956 0.02843996 -0.00048063413 0.04792511
-8.029836e-05 -0.03225683 0.0026839233 -0.014998596 0.010157387 0.041354056 -0.0037781594 -0.0066728136
-0.021542137 -0.008399328 0.10625924 0.0697051 -0.012364475 0.02420306 0.034925733 0.028503621
-0.0052360403 0.05236078 0.0034795683 0.0041108546 -0.022430366 0.00069344835 0.05722482 0.023564126
0.011785048 0.043263834 0.02923961 0.016488617 -0.025182523 -0.014927504 0.04163667 0.04201487
-0.003193723 0.028314877 0.026141115 -0.004989579 -0.004529461 0.03789712 0.025493177 0.07790627
-0.029616127 0.039100073 0.027623601 0.04372708 0.0197308 0.010562847 0.033876903 0.030093623
0.03804475 0.036020078 0.014599695 0.0074341567 -0.03850773 -0.0027070814 0.019597877 0.0228885
0.065649554 -0.005613749 0.035946317 0.022258881 -0.022814067 0.041186236 0.039552394 0.048718814
-0.012785854 0.033165578 0.06324114 0.06315208 0.009497561 0.03459216 0.027993673 -0.021997316
0.022538701 0.021473568 0.033595532 -0.006118549 0.052529223 -0.016522856 0.00084953394 0.0017961417
0.04282799 0.06906989 0.032295577 0.038162977 -0.0053236117 0.06815444 0.049960032 0.012110178
0.074125454 -0.0054325396 0.0010347265 0.019943677 0.03513473 0.012181615 -0.0052368743 0.048721254
0.002488516 -0.01745183 0.07192826 0.06625927 -0.0073794127 0.008485584 0.04018993 0.03313275
0.0010765424 0.0002400377 0.058498863 -0.00031564265 0.07263382 -0.015863586 0.051470146 -0.0104798265
0.013892762 0.045444846 0.030403748 0.026006164 0.0011866314 0.06309519 0.0574353 -0.013124164
0.0060864366 0.046945106 0.050721195 -0.0005601647 -0.02104556 0.017770385 -0.009308588 -0.02132938
0.011029376 0.013591358 0.07574067 0.04504769 -0.00503739 0.040498786 0.040260877 0.04269998
0.081477284 -0.027232142 0.062894404 0.05079027 -0.024828454 0.0034967838 0.08116548 -0.033008464
0.036968037 0.02043931 -0.0069310423 0.069105834 0.049033657 -0.0001891868 0.05159639 0.017778644
0.0060614324 0.052259997 0.04458403 0.03908088 -0.026457796 0.05097927 0.049057387 -0.0006996556
-0.016640985 0.06760965 -0.0032694943 -0.0108264 0.034134578 -0.028531477 0.017627407 0.061323326
0.049956094 0.043416463 0.0048203766 0.09168302 -0.0027190535 0.037975024 0.06626854 -0.023214921
0.013043966 0.00089383457 -0.005755777 0.042642202 0.038518503 -0.018323136 0.057558622 -0.017579306
0.018341385 -0.02963353 0.0126989465 0.029978756 -0.004351911 -0.021223914 -0.012540115 0.034330722
-0.015294353 -0.020666232 0.05275194 0.02568713 0.014896384 0.013580418 -0.014871434 0.022409715
-0.018561043 -0.02194211 0.05300868 0.041206498 -0.020096026 0.032613046 0.026796365 0.026376871

action_model._continuous_distribution.log_sigma f4 [1, 2]
00000000: 5a3c e3bc 19e2 10bc
-0.027738739 -0.008842968

action_model._continuous_distribution.mu.weight f4 [2, 256]
00000000: 3506 b73d 79bf bbbc ee01 cd3c 77cb cf3c
00000010: ef34 8439 9093 3cbc fa41 673c ee79 94bc
00000020: 820c e9bb 80fc c03c 3cb8 a13d ec94 90ba
00000030: 61a1 adbc 6d35 2f3c 5bfc a2bd 6740 74bb
00000040: 3940 e0ba 6986 8a3c f2e3 59bd 1023 803c
00000050: bd6a d6bc e80d 19bb e820 d53c 3f67 afbc
00000060: ee40 babb 3ae9 88bb 990b e43a 57df 91bc
00000070: b2a8 5abd b4cd d3bc b9d0 bd3c c7f6 30bd
00000080: ce1d 9dbc 55e1 813c 7390 23bd e62e 533d
00000090: 837e 50bd 4890 9f3c e68a 843b 1a25 aebc
000000a0: 3622 abbc df5d 883d 42f1 333c f46e 5b3c
000000b0: 15d3 cb3c eff2 8cba ec8f dabc 2344 34bd
000000c0: 06c9 803d 032d b2ba 0e2a c43c e604 f8bb
000000d0: a4a4 3dbd 4ed6 5ebb 044a 343d 828f bb3c
000000e0: dc66 a03b 5580 1d3d 6fe6 103d 039b 5e3b
000000f0: f834 d6bc 9876 12bc 5a56 8ebc 199e db3c
00000100: 4b3d b0bc 25f3 da3c 83af 933d e6a8 f23c
00000110: c9d2 363b 464d 1b3d c1a3 9fbc 31ba 893d
00000120: aeb7 da3c c758 d53a 2067 773b 8f7e d83c
00000130: 8ae0 10bc 0ba7 20bc 010b 183d 7d56 003d
00000140: 3586 9f3c bf68 263d eab2 0e3c 1cae 95bc
00000150: d4e3 3d3c 966b 84bd 9800 85ba b086 473d
00000160: 788e d3bb c39b 883c 13c8 4ebc 890f 283d
00000170: 4cf2 58bc ffde 123d 314f 2fbc e206 2fbd
00000180: 56a6 403c d820 6fbd 6b84 e93c 0686 2a3d
00000190: b29d 053c ce78 1bbc 5dd6 3ebd 4cca 9cbb
000001a0: 2167 893c 5ca2 103d 2444 12bd ad74 80bc
000001b0: 36b0 073c 1604 5ebc ef9e ff3c 10b0 4439
000001c0: 3e0c f13c 1191 603c cb05 f8bd 6c1d 0cbd
000001d0: 6dbe 1dbc ad74 173d 8aa2 c1bc c182 893c
000001e0: b0b2 bcbb 6b6c 2bbd a49c 03bd a606 b4bc
000001f0: e4ed 86bb 7c77 74bc e1fa 043d e98b 62bc
00000200: 640b 7b3b ddf9 6cbd cdef 7fbc dc7a e5bc
00000210: 531c 5bbb de41 543c d4ca 19bd 17ae db3c
00000220: 8504 bebc 6c32 66bb 175a c63b 92f8 703c
00000230: 617e 71bc 6fb9 d03c 60d3 053b a3d9 41bc
00000240: f8f3 3a3c 9554 c43b 7b51 a3bc 6a87 75bd
00000250: d57e 903c ab84 073d d963 6fbb 5c48 ecbc
00000260: 280e d23c 716d 6abc cb76 a63b 9787 00bd
00000270: 32a0 823b 46b6 48bc ed47 4ebd da41 edba
00000280: 57dc 05bd e94a 85bc e04e 333d 915c 6f3a
00000290: 5c65 6ebd 4994 643d 6886 233c 469c 293d
000002a0: 4916 30bd 041c c139 eda8 f93a dad6 b8bc
000002b0: 0019 963c 3499 1f3c 5b1d 233d ee71 4e3c
000002c0: ad22 adbc ffc3 a23d b3b0 48bd f391 013e
000002d0: fd2a da3c c407 633b 9ffe bc3c a11d a53b
000002e0: a281 0ebd a4c0 f8b9 c1a9 8ebc 5b83 d6bc
000002f0: bf9a 743c 9865 39bc 6c20 d73c 1f26 6aba
00000300: fc2c 65bc 1f58 60bc 9c43 6e3a 29b2 fcbc
00000310: 26d6 813a e169 4fbb 9dee d9bc 70f7 1ebd
00000320: 1ae1 583d 7916 16bd 377a 073b 2b83 54bd
00000330: c372 d83b 5d4c 16be 55f4 ed3c 539f f43c
00000340: d2b0 9fbc 2e56 d6bc 2f95 063d e1ac 9fbc
00000350: f9ff 503c 02c0 06bc 8713 28bc ebcd ea3b
00000360: 4982 52bd 1840 c63c fce6 10bd 30bd 463d
00000370: aab0 6bbc 05f7 2b3c e4c8 84bc dbb9 823c
00000380: a0d1 763d 5eb5 4e3d 2a10 5ebc a22c 8f3c
00000390: a3cc aebc 0ec0 c2bc fa71 73bb 0d98 dc3c
000003a0: 3aec 973c 0494 953b 7d9a c7bc bd34 3bbb
000003b0: 76db 72bc 4bdf 8c3c 6bd8 4b3c 9c9c 50bc
000003c0: a7db 413c e22b 743c 8f66 b33c f77c 553d
000003d0: 5b07 22bd 9e0d e23c be9c b33c 748a 37bc
000003e0: dabb d93b ce59 8bbc affc 6b3c d774 4bbc
000003f0: dace 0c3d e46d 8abd e39d 173c c11f 66bb
0.08936731 -0.02291845 0.025025334 0.025365574 0.0002521644 -0.011509791 0.014114851 -0.018124547
-0.0071120868 0.023557901 0.07896468 -0.001103071 -0.021195116 0.01069389 -0.07958289 -0.0037269832
-0.0017108984 0.016909795 -0.0531959 0.01564172 -0.026173944 -0.0023354236 0.026016667 -0.021411536
-0.0056840098 -0.0041781934 0.0017398476 -0.017806692 -0.053383537 -0.025854923 0.023170816 -0.043204095
-0.019179251 0.015854517 -0.03993268 0.051558398 -0.0509019 0.019477978 0.0040448783 -0.021257926
-0.020890336 0.066585295 0.010982813 0.0133931525 0.024880925 -0.0010753552 -0.026679955 -0.044010293
0.06288342 -0.0013593737 0.023945834 -0.0075689433 -0.04629959 -0.0034002247 0.0440159 0.022895578
0.0048950743 0.038452465 0.03537601 0.0033966906 -0.026148304 -0.008939408 -0.01737516 0.026808785
-0.021513602 0.026727268 0.072112106 0.029621553 0.0027896634 0.03791549 -0.019487264 0.06724966
0.026698913 0.0016277068 0.0037750676 0.026427535 -0.008842597 -0.009805451 0.03711987 0.03133248
0.019473175 0.040627237 0.008709649 -0.018271498 0.011589963 -0.06465833 -0.0010147272 0.048712432
-0.0064561926 0.016675835 -0.012620944 0.04103044 -0.013241362 0.035857197 -0.010700033 -0.042731173
0.011758408 -0.05838093 0.028505525 0.04163172 0.008155273 -0.009489251 -0.04659115 -0.004784858
0.016772809 0.035311088 -0.035709515 -0.015680635 0.008281758 -0.013550779 0.031203715 0.00018757605
0.029424783 0.0137064615 -0.1211048 -0.034207746 -0.009627921 0.036976505 -0.023637075 0.016785981
-0.005758606 -0.041851442 -0.032131806 -0.021975826 -0.0041177142 -0.014921065 0.03246582 -0.0138273025
0.003830635 -0.057855476 -0.015621138 -0.028012685 -0.003343363 0.012955157 -0.037546948 0.026816411
-0.023195514 -0.0035125269 0.00605322 0.014707701 -0.014739604 0.025479047 0.0020420179 -0.011831674
0.011410706 0.0059915283 -0.019936314 -0.059943594 0.017638603 0.033085506 -0.003652802 -0.028843097
0.025641516 -0.014308319 0.005080079 -0.03137931 0.003986382 -0.012250489 -0.050361563 -0.001810129
-0.032680836 -0.016271072 0.043776393 0.000913092 -0.058202133 0.05580548 0.009980775 0.0414088
-0.042990003 0.00036832702 0.0019047536 -0.022563387 0.018322468 0.009741116 0.039822917 0.012600405
-0.021134699 0.079475395 -0.04899664 0.12653331 0.026631827 0.003464208 0.023070632 0.0050389324
-0.034791596 -0.00047445775 -0.01741493 -0.026185682 0.0149294725 -0.011315726 0.026260577 -0.0008932072
-0.013987776 -0.013692885 0.0009089054 -0.030846672 0.000990574 -0.0031648802 -0.026603037 -0.038810194
0.05294905 -0.036642525 0.002067221 -0.051882904 0.0066054775 -0.14677568 0.02904717 0.029861128
-0.019493494 -0.02616414 0.032857116 -0.019491615 0.012756341 -0.008224489 -0.010258562 0.0071656606
-0.05139378 0.024200484 -0.035376534 0.048520267 -0.014385382 0.010495906 -0.016209073 0.015957763
0.060258508 0.050465934 -0.0135536585 0.017477337 -0.021337813 -0.02377322 -0.0037146793 0.026927972
0.018545259 0.004564764 -0.024365658 -0.002856537 -0.014822831 0.017196318 0.012441735 -0.012732651
0.011832154 0.014903041 0.02189949 0.05212113 -0.039557796 0.027594384 0.021925326 -0.011202443
0.006644708 -0.017010596 0.014403506 -0.0124179935 0.034376957 -0.06759241 0.009253952 -0.0035114142

action_model._continuous_distribution.mu.bias f4 [2]
00000000: a8d8 35bc 515c 16bd
-0.011099018 -0.036709134

action_model._discrete_distribution.branches.0.weight f4 [1, 256]
00000000: 3729 8cba 1014 b8b9 2fff 5cbc 6bab 963b
00000010: 9b10 1bbb c39c 693b 0168 88bb 1379 f3ba
00000020: 3d86 2e3c 17df 0a3c ba02 b73b 8090 dd3b
00000030: 54c8 11bc 62c0 b53b c4b6 84bb 2978 ad39
00000040: 0353 27bc a04a 77bb 2847 6abb f223 f9bb
00000050: e8f7 6fbb d58a 253b 2071 36bb da6b 503c
00000060: 7341 4bba d0c8 bb3b 1b27 69bb e71f 35ba
00000070: d373 9dbb a699 30bb efda 56bc cd54 763b
00000080: 0d8d 763b aa00 3c3c 831f 1c3b b03e 993a
00000090: 3227 82bb 251d bfbb 4fb9 05bc 2abd f53a
000000a0: d2be ff3b 65c9 343b ef75 eebb 5414 14bb
000000b0: 6051 7cbb e764 c6bb 6fe8 843a e9ba 263a
000000c0: c090 7b38 0758 86bb 9459 35bc a5f9 f23b
000000d0: e676 1ebc 15e2 cd3b b868 9d39 6bf2 dabb
000000e0: 3be5 303b 623e 0c39 b404 c3bb b454 1a3c
000000f0: 2538 0d3b 43e6 c13b 6f3d cfbb 4b88 82bb
00000100: 9cc0 ba3b 1b16 1fbc d8bf 05bc 6731 4f3b
00000110: 2bd5 f5ba 9b4c 68ba e99a 03bc a0f8 d5bb
00000120: 4b50 1a3b a04b 903b dc94 4cbc 4ef7 2d3c
00000130: 4a93 dab9 9887 76bb 3848 8cbb 7f9f 31bc
00000140: 9735 143b 67f3 f338 b36a 41b9 f69b bd3b
00000150: add4 f03a b77f d73a 550d 51ba d7aa f0bb
00000160: 92d4 7cba 037e b6bb f6f2 853a a24a 9a3b
00000170: 95c8 e73a 3bdb b0ba 63be c03b 3a7f 503b
00000180: c257 293b ff44 7ebb 7927 05bb fea0 c83b
00000190: 911e 49bb 576b 013b 5bcf 58bc 0ee2 9f3b
000001a0: 672b 013c 5a46 f2ba 1835 523b 0b10 dcb9
000001b0: 9bda 64bb 3f29 bb3a b969 99b9 cf41 343a
000001c0: ad8b c0bb cb7b 153c 9db2 d3bb 30fb b93b
000001d0: 889b 5db9 2346 43bc 1ad2 66b9 e5df d4bb
000001e0: 6190 22bb ca42 34bb 9c5f 8d3b 98a8 413c
000001f0: 2bc9 7cbb 8769 07ba ab66 733c f86e 04bc
00000200: 204d 543c 78ef 6c3c 814d 1d3b 8fd2 113c
00000210: bf87 83bb 7666 9ebb 3206 31bb 5bdc be3a
00000220: c94a 873a bd9e a3bb 6ff9 feba a092 31bc
00000230: 5f60 49ba b043 12bb bfbf 1b3b faaa da3b
00000240: d790 143c d762 02bc 4fed 11bb 331c 9dbb
00000250: 8950 0a3c 2084 e9bb 2ab3 80bb 4a43 d3ba
00000260: 87ee da3b bff0 1d3c 4861 ec3b 533c d8bb
00000270: 8fe3 033a d92f 0d3c d2a1 f5bb 1a8a 973a
00000280: 9f91 443b 2a60 76ba 8c31 933b a7ea bcbb
00000290: c4ba c2bb b62e 183b 15e1 0e3c 7040 f7bb
000002a0: 29d2 9f3b 980d a1bb f32f 083c 7b31 7abb
000002b0: 7b63 6bbb e27d 69bb 37c9 5cbc f850 6fbb
000002c0: 574c 4bbb d367 013c 4770 8e3b 9423 91bb
000002d0: 2fff 6dbb fa12 c43b c35c bfbb a7e5 dcbb
000002e0: 97fb 8d3b bb1d d03b 2a92 7a3b 1547 3a3b
000002f0: 5b31 143c 8045 09bb fdd7 2d3b 78aa 99bb
00000300: 3cc3 a33b 2a1a 9abb f720 0fbb cbee 2c3b
00000310: 2b76 9c3b f31c fbbb 6c7b 0ebb 8342 da3b
00000320: 673b 71b7 8046 723a 5752 dd3b 131e b63b
00000330: 00f6 073c 6b11 3fbb 0515 c73b 521f ba3b
00000340: 383a 163c 77a3 1d3c 576a b53b 6fd7 cd3b
00000350: f33e 293b c717 8a3b ccd0 c83b 88c2 1b3b
00000360: d01e f7ba fdc6 4abb 3f84 39bc c05a 3f3a
00000370: 6033 103c af1e 87ba ad59 90bb 3751 053c
00000380: 5797 93bb 70d2 f83b c3c9 3abb c39b 0239
00000390: 1a0e f739 dd37 dabb ff6d a43a 5bb9 04bc
000003a0: 1faa 95ba 3b22 bcbb 99b9 9b3b bdae e0bb
000003b0: 1d4d 583b e177 963b 779b c3bb d5bf 50bb
000003c0: 0f7c 6a3c 5de5 d33a 9b9e f03b c3bc 3cbc
000003d0: 81ba 0a3b dfec 35bc a75a 1eb9 6c13 193c
000003e0: 34f0 b7bb b71a 9d3b 8692 39b8 6b74 bfba
000003f0: 976b 1bbc 66bb a1b9 d664 3abb 408f 34bb
-0.0010693435 -0.00035110163 -0.013488575 0.0045980713 -0.002366102 0.0035646416 -0.004162789 -0.0018575512
0.010652122 0.00847604 0.005585042 0.0067616105 -0.00889786 0.0055466155 -0.0040501077 0.00033086658
-0.010212663 -0.003773369 -0.003574798 -0.007603162 -0.003661627 0.0025259752 -0.0027838424 0.012721026
-0.0007753588 0.005730726 -0.0035576287 -0.0006909356 -0.004805067 -0.002694705 -0.013113721 0.0037587166
0.0037620694 0.011474768 0.0023822493 0.0011691656 -0.0039719576 -0.0058323317 -0.008161857 0.0018748392
0.00780473 0.002758586 -0.0072772424 -0.0022595124 -0.0038500652 -0.006054509 0.0010140071 0.0006360249
5.9977872e-05 -0.004099849 -0.01106872 0.007415014 -0.009671902 0.0062830546 0.00030023395 -0.0066817305
0.00269921 0.0001337468 -0.0059514884 0.009419609 0.0021548357 0.005917342 -0.006324462 -0.0039835325
0.0056992304 -0.00970986 -0.008163415 0.003161514 -0.0018755546 -0.0008861513 -0.008032539 -0.0065298826
0.0023546393 0.0044035465 -0.012486663 0.010618044 -0.0004168994 -0.0037617441 -0.00428107 -0.0108412495
0.002261495 0.0001163248 -0.00018445663 0.0057864143 0.0018373929 0.001644126 -0.0007974704 -0.0073445844
-0.00096447126 -0.005569221 0.0010219503 0.004708604 0.001768368 -0.001349307 0.005882071 0.0031814114
0.0025839661 -0.003879845 -0.0020317717 0.0061227074 -0.0030688385 0.0019747817 -0.013233031 0.0048792427
0.007883883 -0.0018484101 0.0032075103 -0.00041973623 -0.0034920338 0.001427926 -0.00029261204 0.00068762613
-0.0058760257 0.009123753 -0.0064605013 0.005675696 -0.00021134142 -0.011918577 -0.00022012778 -0.006496417
-0.0024805295 -0.002750563 0.004314376 0.011819981 -0.0038572054 -0.0005165566 0.014856021 -0.008083098
0.012957841 0.014461391 0.0024002495 0.008900299 -0.004013985 -0.0048339916 -0.002701175 0.0014561521
0.001032197 -0.0049932883 -0.0019452999 -0.010838181 -0.0007681902 -0.0022318177 0.0023765413 0.006673214
0.009067736 -0.007958136 -0.002226669 -0.0047946214 0.008442053 -0.007126346 -0.003927608 -0.0016118076
0.0066812667 0.009639918 0.0072137453 -0.006598988 0.0005031162 0.008617365 -0.007496097 0.0011561543
0.0029994023 -0.0009398485 0.0044919904 -0.0057652774 -0.0059426744 0.0023221201 0.008720656 -0.0075455233
0.004877348 -0.0049149506 0.008312213 -0.0038176465 -0.003591745 -0.003562801 -0.013475708 -0.0036516767
-0.0031020844 0.007898289 0.0043468806 -0.00442929 -0.0036315431 0.0059837075 -0.0058399155 -0.006741244
0.0043329704 0.0063512004 0.0038234093 0.0028423716 0.00904497 -0.0020945966 0.0026526444 -0.004689511
0.004997639 -0.004702826 -0.0021839717 0.002638745 0.004774829 -0.007663363 -0.0021741046 0.006660761
-1.437855e-05 0.00092420727 0.0067542004 0.0055577843 0.008298397 -0.002915467 0.006075504 0.005680003
0.009169154 0.009621493 0.0055363583 0.006281785 0.0025824874 0.0042142603 0.006128406 0.0023767073
-0.0018853787 -0.003094136 -0.011323034 0.00072995946 0.008801311 -0.0010308827 -0.0044052214 0.008137039
-0.004504125 0.0075934455 -0.0028501607 0.00012455792 0.00047122018 -0.0066594915 0.0012544988 -0.008100833
-0.0011418498 -0.0057413853 0.0047523496 -0.006856768 0.0033004947 0.0045919274 -0.0059694606 -0.0031852622
0.014311804 0.0016166378 0.007343126 -0.011519614 0.0021168294 -0.011103838 -0.00015101825 0.009343009
-0.0056133512 0.0047944444 -4.4243898e-05 -0.0014606839 -0.009486101 -0.00030847936 -0.002844145 -0.0027551204

exp_avg f4 [256, 47]
00000000: 06be 2737 40ab 5538 160b 15b9 3e5d aab8
00000010: c162 3e37 1496 1939 b0a2 c9b7 b05b 21b8
00000020: 842c bf37 d080 d4b6 3cce 6f37 90f0 c436
00000030: 1454 0db7 8970 0c39 7ca5 56b8 1c11 2b38
00000040: 16ea ee37 e428 8138 71ba c2b8 88cb 30b7
00000050: 0c66 b638 d0ce 4d38 4b9b 6038 2090 f6b6
00000060: 4c8d fc37 548b 3b38 0684 5f39 e855 1239
00000070: 228e ef38 604b 7238 5811 d9b8 a5fc c8b8
00000080: 4acc 2937 c13c 1938 2c04 cf37 6972 cd38
00000090: cece 9338 1926 9838 f0e7 5d36 722b 95b8
000000a0: 1b9a 0037 de6d df38 52ac 4838 846a 2539
000000b0: c5b7 293a 0e5d c3ae aeb4 57b9 7674 3237
000000c0: 1822 2bb6 2024 1db8 2023 e1b6 5457 4436
000000d0: 064c 03b8 66b7 49b8 fec3 72b8 c5bb c937
000000e0: 68b8 6736 5064 4eb8 40c0 a4b7 84ee b236
000000f0: 37b1 90b8 cace 6f37 8f23 c5b7 7e8a 0fb7
00000100: c65c 7437 7314 03b8 001e a036 b670 d0b7
00000110: a90f 37b7 185a a037 8ca5 2137 f3ff 1ab7
00000120: b08e 79b6 dea9 9eb6 f44f b537 1518 f0b7
00000130: b5c8 e2b7 2a69 8e37 d4df 0e38 c4db f7b6
00000140: b128 bab7 f4d9 1f38 ae26 1f38 c254 99b7
00000150: bcce b1b7 673f 4438 f2b5 2f38 88fe 3d36
00000160: c933 85b7 c5cb 5638 d25c 1f38 59dd 2838
00000170: b7f5 d42f 46c4 1c3a b5e6 9fb6 acd3 91b7
00000180: dd45 97b7 1012 ddb7 9876 ab36 1a4d d2b6
00000190: 6454 4bb8 c89b 3cb8 4c48 1f36 6cc2 c7b7
000001a0: 52b1 ab37 bef3 deb6 10dd ad36 2a79 a0b7
000001b0: cbca d1b7 1619 eab7 74dd 8f36 58bc 1536
000001c0: 434a a0b7 c0e3 04b7 1a19 af37 1acb 85b7
000001d0: 0d5b e336 aa56 acb7 2ade 7f35 a604 7336
000001e0: b39b cd37 7ee8 4e37 5220 dc37 7cea f7b7
000001f0: 4444 4836 b227 e8b7 70c9 9934 9e13 1b37
00000200: 861e 2937 617c 2c37 fab2 9437 6ed3 cfb7
00000210: 9092 e8b4 b12d 15b8 75b4 9036 4816 e036
00000220: 92da 1a37 6cce 0e37 021b 2638 3af6 0cae
00000230: 6c0d 7438 a5b3 ab35 8a52 af37 409d 0f35
00000240: c6d4 9837 f36f 42b7 8e6c 3638 75d4 0e38
00000250: f834 2238 869d c736 1ca5 bc36 00e1 f436
00000260: dcd1 b237 af28 3036 2807 fe37 f180 ab37
00000270: 853f 1b38 683a 0735 fc13 b837 23c4 c3b7
00000280: f220 8537 98c6 8537 407f 5a35 d63b d537
00000290: 2877 5437 19e6 c936 76d5 a737 b1a2 c337
000002a0: 3e9c 3d38 f26c 5637 e602 6937 c2f6 beb7
000002b0: 6cd8 f9b6 da25 3d36 9659 1537 3583 1137
000002c0: d81a 2f38 a5e9 1337 82cc b637 f378 9337
000002d0: 26d8 1937 424e 49b6 7e7c 0938 a544 8c37
000002e0: 4f84 5f38 5768 f839 0d8a 98ae 6052 cc39
000002f0: efe0 d735 7065 02b6 e0c6 3eb7 6384 ffb6
00000300: 480d db35 1c5c 22b6 75d0 d3b6 a128 43b7
00000310: 9c9b 7e36 9b12 69b6 8f6b 15b7 2b26 05b7
00000320: a4bc 80b5 38d5 73b6 708a ffb6 0156 d8b6
00000330: 5c6d 2c36 2011 a1b5 d01e abb6 0b80 90b6
00000340: 7625 4db5 1810 1436 8cd1 81b6 90fa 54b6
00000350: 9ec0 fc34 edcf cbb5 8f74 f136 da8e 1336
00000360: 34b2 2835 12e9 c7b5 07e8 73b6 fa4f 43b5
00000370: 3a92 ce35 8aea 85b6 86bb 8536 2e6a 6a36
00000380: a08e 7834 6f72 c035 58a7 0536 0061 1732
00000390: 0b77 e735 f0d2 7d34 4c14 fb35 340f 7e36
000003a0: c5e7 8738 7caa 322e 2219 0f38 9124 0f37
000003b0: b04c df35 287f 7cb7 00d1 1334 98dd 4635
000003c0: 2aa6 23b7 6a92 85b7 5287 b2b7 f5ef 5937
000003d0: 7225 ee36 3228 dcb7 8c7a d0b6 f6d4 1436
000003e0: f040 fab7 c817 cc35 3ade 35b7 48f5 56b5
000003f0: a20e 0b37 91ff a4b7 f0e0 c8b5 7e44 28b7
9.998219e-06 5.0942646e-05 -0.00014213877 -8.1235994e-05 1.1347875e-05 0.00014647125 -2.4036824e-05 -3.8470782e-05
2.2789704e-05 -6.333088e-06 1.4293528e-05 5.8692603e-06 -8.423831e-06 0.00013393363 -5.1175695e-05 4.078551e-05
2.8480816e-05 6.158816e-05 -9.285368e-05 -1.0537806e-05 8.697444e-05 4.9068418e-05 5.355039e-05 -7.3481497e-06
3.0106537e-05 4.4714034e-05 0.0002131612 0.00013955648 0.000114228824 5.7767495e-05 -0.00010350597 -9.583802e-05
1.012075e-05 3.6534624e-05 2.4678266e-05 9.796472e-05 7.0480266e-05 7.255021e-05 3.3066572e-06 -7.112966e-05
7.665275e-06 0.00010653933 4.78442e-05 0.00015775306 0.0006474222 -8.884103e-11 -0.00020571306 1.0636742e-05
-2.550083e-06 -3.746536e-05 -6.7096116e-06 2.9257108e-06 -3.1303636e-05 -4.8092938e-05 -5.7879828e-05 2.4048504e-05
3.452902e-06 -4.920765e-05 -1.9639847e-05 5.3325803e-06 -6.899464e-05 1.4293657e-05 -2.3500788e-05 -8.555709e-06
1.4565134e-05 -3.125188e-05 4.771864e-06 -2.4848017e-05 -1.0911296e-05 1.911544e-05 9.634892e-06 -9.238708e-06
-3.7186946e-06 -4.728542e-06 2.1614112e-05 -2.8621444e-05 -2.7034761e-05 1.697669e-05 3.4063894e-05 -7.3867577e-06
-2.2191876e-05 3.811154e-05 3.7944577e-05 -1.827849e-05 -2.1196312e-05 4.678909e-05 4.18927e-05 2.8311351e-06
-1.587895e-05 5.121135e-05 3.7995e-05 4.0260467e-05 3.8737166e-10 0.0005980175 -4.765427e-06 -1.7383914e-05
-1.8033135e-05 -2.6353664e-05 5.1100033e-06 -6.2674635e-06 -4.8477566e-05 -4.4967775e-05 2.3734929e-06 -2.3813183e-05
2.046736e-05 -6.644491e-06 5.181537e-06 -1.9129908e-05 -2.5009174e-05 -2.7906655e-05 4.2875126e-06 2.231236e-06
-1.9108067e-05 -7.92084e-06 2.0873314e-05 -1.5949412e-05 6.775727e-06 -2.0544354e-05 9.5318194e-07 3.6212527e-06
2.4510407e-05 1.2332688e-05 2.6241094e-05 -2.9553885e-05 2.9842058e-06 -2.767504e-05 2.8645036e-07 9.243287e-06
1.0080292e-05 1.0280958e-05 1.7726317e-05 -2.4774778e-05 -4.3320006e-07 -3.556692e-05 4.3125424e-06 6.678314e-06
9.230005e-06 8.511921e-06 3.9602637e-05 -3.2051008e-11 5.8186633e-05 1.2792776e-06 2.0900061e-05 5.350048e-07
1.8218892e-05 -1.1589366e-05 4.349328e-05 3.4053304e-05 3.867314e-05 5.9490003e-06 5.622058e-06 7.29796e-06
2.1316977e-05 2.6249725e-06 3.0282492e-05 2.0444832e-05 3.7014037e-05 5.037641e-07 2.1943815e-05 -2.3337145e-05
1.5870177e-05 1.5947313e-05 8.13965e-07 2.5419442e-05 1.2663928e-05 6.0170537e-06 2.0007352e-05 2.332157e-05
4.5206623e-05 1.278076e-05 1.3888557e-05 -2.276467e-05 -7.445973e-06 2.8185227e-06 8.90195e-06 8.6732225e-06
4.174825e-05 8.816282e-06 2.1791322e-05 1.7580087e-05 9.169837e-06 -2.9996886e-06 3.2779288e-05 1.6721266e-05
5.3290565e-05 0.00047379985 -6.9366825e-11 0.00038971286 1.6084213e-06 -1.9430554e-06 -1.1371187e-05 -7.615004e-06
1.6320637e-06 -2.4193496e-06 -6.3125576e-06 -1.1632365e-05 3.7939526e-06 -3.4730535e-06 -8.906135e-06 -7.936304e-06
-9.591645e-07 -3.6333931e-06 -7.6157085e-06 -6.447314e-06 2.5693653e-06 -1.2000419e-06 -5.099784e-06 -4.3064406e-06
-7.6422964e-07 2.2063086e-06 -3.868894e-06 -3.1736308e-06 4.7078805e-07 -1.5185193e-06 7.195929e-06 2.1987858e-06
6.2844197e-07 -1.4894488e-06 -3.634488e-06 -7.275954e-07 1.5390754e-06 -3.991013e-06 3.9855395e-06 3.4930522e-06
2.3148687e-07 1.4338419e-06 1.9915951e-06 8.811412e-09 1.7245487e-06 2.36392e-07 1.8706864e-06 3.7857799e-06
6.480472e-05 4.0623935e-11 3.4117264e-05 8.531978e-06 1.6637114e-06 -1.5049976e-05 1.3766476e-07 7.408321e-07
-9.754245e-06 -1.5923015e-05 -2.1282267e-05 1.2990077e-05 7.097312e-06 -2.6244761e-05 -6.2131494e-06 2.2177678e-06
-2.9832561e-05 1.5206106e-06 -1.0840182e-05 -8.0078144e-07 8.288453e-06 -1.966933e-05 -1.4966627e-06 -1.0029527e-05

exp_avg_sq f4 [256, 47]
00000000: d48d b332 f427 6533 2c43 c433 ff89 2834
00000010: 4710 cb32 a97d 5b33 5301 bb33 d6f2 2634
00000020: 4e86 9d32 edb4 6533 abcb c833 4e48 2734
00000030: b200 bc32 f898 4133 662b e833 1280 3a34
00000040: d472 6e32 ee69 5c33 b0c5 b333 e94b 2434
00000050: 5835 a632 15d3 4433 c04c e233 fc95 3234
00000060: af09 4332 20f7 6033 220d 9f33 5315 1934
00000070: add2 ba32 381a 2733 f9a0 cb33 8508 2034
00000080: cb20 dd31 15fd 4e33 351e b233 b356 2134
00000090: a534 c732 d77c 3d33 cc9d 9f33 d11e 0e34
000000a0: b176 e131 787f 4b33 c38f c133 5abe 2434
000000b0: 41ef bb37 4543 6e23 1a91 c137 6652 a331
000000c0: db59 8532 8ea5 9332 f94e 0e33 86ee bc31
000000d0: 5197 7432 ccdc 8132 7731 0133 0039 bc31
000000e0: 7f39 8032 a8af 8232 8389 0833 098e e731
000000f0: 7007 5532 18be 6732 8c33 e932 7227 cd31
00000100: 31ed 9032 4f1f 7532 131f 0a33 d56c e631
00000110: fa0a 5d32 b391 5e32 4e4b df32 e262 8b31
00000120: 16ee 8232 5899 9232 d7ea 1033 bd1d 9331
00000130: afdb 6332 1857 8532 673a ea32 6d8a 6231
00000140: fb7b 7832 a56a 8c32 c276 0c33 f5c4 7e31
00000150: e6b5 6732 b541 8d32 f742 f332 4612 6031
00000160: 84a6 6332 cb4f 8532 be5f 0933 5726 4f36
00000170: c6ea 1922 56a0 c536 5861 8830 4415 9531
00000180: 2ba1 c631 409f 2d32 ec8f b630 2b86 9131
00000190: 4ff0 a331 de87 1e32 e51a 8730 9749 8e31
000001a0: b2ae b331 576c 1932 d5db dd30 a83c 8431
000001b0: f085 8931 72dd 1032 fe2b 8530 f758 8e31
000001c0: 0292 8631 d70c 0632 4868 1631 06c8 5631
000001d0: 408b 7d31 fd8d fa31 c8c1 6e30 0302 8131
000001e0: f422 8031 f518 0432 aad2 f530 ddb5 5531
000001f0: f895 a731 ed19 0732 58b7 6c30 63e1 7d31
00000200: 8aa5 8b31 7761 0932 f2b4 a730 8102 3631
00000210: d2a3 9831 2d22 0a32 50ab 4e30 7a95 5a31
00000220: edeb 7331 4e23 fa31 a77f 8d35 64ed 6c21
00000230: 18ce 9c35 a0b8 4531 26fd d531 cd80 e031
00000240: 1716 5132 dbde 2631 5587 da31 599a e131
00000250: 1fc1 5032 ef8c 2c31 94ce d031 4cc4 ef31
00000260: b3b9 5032 900b 4431 1dec c731 25c6 c731
00000270: bb44 4432 3bdb 1a31 a11d da31 bfbd d931
00000280: f549 4e32 18e8 3331 3904 c831 ac1e aa31
00000290: 4631 3132 1cc2 0931 2eed e731 fc01 a631
000002a0: 76c6 3832 e34d 1a31 79eb c631 cd38 aa31
000002b0: bcd9 2f32 82ce d730 b5b9 d631 912e c931
000002c0: 85be 4232 f479 ec30 7abb d431 664c ba31
000002d0: 2bed 3a32 e271 b030 bdd0 e231 898c b831
000002e0: f6e2 4332 24a1 5136 0662 c621 bf2e 3636
000002f0: 3cc4 e02e 8374 632f 318b 7f2f 763e f82f
00000300: 3fe9 f12e 7b77 4b2f 26e8 832f 132a ef2f
00000310: bf36 ed2e df18 612f 4a8f 862f 0b84 f52f
00000320: e35b ff2e a16b 362f 0665 642f 6d64 e62f
00000330: a251 dc2e 93bf 872f a914 6b2f 9d09 f02f
00000340: 652d f62e d83e 4c2f e612 3a2f db64 d12f
00000350: 0c3d 8c2e 7247 822f 6863 862f 07c4 f32f
00000360: e05d b52e 420c 5d2f 253f 732f 43fb e92f
00000370: f300 902e 21a8 7e2f 3190 622f 78f7 de2f
00000380: 109b 9c2e b227 562f 0412 812f 44af f72f
00000390: ed78 922e c2d6 4f2f eb68 342f bbe8 d52f
000003a0: e63c 3233 7c5b 351f 70a8 c233 0bf6 9130
000003b0: b726 4131 ddb7 5031 be75 d431 573a ae30
000003c0: 0442 2931 6c2b 4a31 278e c231 c626 9a30
000003d0: 6a53 4231 1252 5f31 283f d631 525e be30
000003e0: 6243 1131 b9e7 4431 6b6e b931 58d4 ab30
000003f0: 69c1 5131 07dd 5131 6465 d831 49d7 b730
2.0902839e-08 5.3354555e-08 9.13918e-08 1.5696422e-07 2.3639712e-08 5.1104198e-08 8.708107e-08 1.5548298e-07
1.833828e-08 5.348277e-08 9.350273e-08 1.5579391e-07 2.1886397e-08 4.507544e-08 1.0811236e-07 1.7369192e-07
1.3879532e-08 5.1319084e-08 8.371296e-08 1.5301306e-07 1.9349201e-08 4.5826784e-08 1.0537906e-07 1.6632106e-07
1.1352696e-08 5.2378823e-08 7.406403e-08 1.4256993e-07 2.1749054e-08 3.8906563e-08 9.482205e-08 1.490426e-07
6.4356747e-09 4.819329e-08 8.2942655e-08 1.5025834e-07 2.3190589e-08 4.4118533e-08 7.4327176e-08 1.3235992e-07
6.5618555e-09 4.7380553e-08 9.013413e-08 1.534294e-07 2.2403548e-05 1.2916251e-17 2.3074961e-05 4.753292e-09
1.55241e-08 1.7188338e-08 3.3133777e-08 5.498637e-09 1.4237075e-08 1.5117983e-08 3.008014e-08 5.4780003e-09
1.4927307e-08 1.5213871e-08 3.1790034e-08 6.7391324e-09 1.2399923e-08 1.3489192e-08 2.714821e-08 5.9707697e-09
1.6871669e-08 1.4267996e-08 3.215889e-08 6.7062538e-09 1.2866389e-08 1.2955229e-08 2.5994861e-08 4.056674e-09
1.524226e-08 1.706637e-08 3.37412e-08 4.281644e-09 1.3263089e-08 1.5522843e-08 2.7267744e-08 3.2966014e-09
1.446369e-08 1.6346641e-08 3.27043e-08 3.7073822e-09 1.3487329e-08 1.644444e-08 2.8319375e-08 3.2606677e-09
1.3251e-08 1.5519523e-08 3.1984875e-08 3.086772e-06 2.0859655e-18 5.889723e-06 9.922969e-10 4.3388884e-09
5.780881e-09 1.0106135e-08 1.3283148e-09 4.2353085e-09 4.7712443e-09 9.227703e-09 9.830187e-10 4.14111e-09
5.229446e-09 8.930406e-09 1.6142346e-09 3.8486014e-09 4.0024517e-09 8.432254e-09 9.689527e-10 4.142858e-09
3.9165124e-09 7.802746e-09 2.188715e-09 3.1254799e-09 3.68955e-09 7.2921e-09 8.6859275e-10 3.754623e-09
3.729264e-09 7.689086e-09 1.788597e-09 3.1098957e-09 4.877389e-09 7.863929e-09 8.6116847e-10 3.6944463e-09
4.064252e-09 7.9966105e-09 1.2202277e-09 2.648591e-09 4.4424064e-09 8.040428e-09 7.5185813e-10 3.1808143e-09
3.5495262e-09 7.2799713e-09 1.054247e-06 8.0274094e-19 1.1682887e-06 2.877222e-09 6.2278955e-09 6.533901e-09
1.2170424e-08 2.4282858e-09 6.3600205e-09 6.565909e-09 1.2151104e-08 2.5109406e-09 6.077082e-09 6.978132e-09
1.2149417e-08 2.8528326e-09 5.8185052e-09 5.8141887e-09 1.1424329e-08 2.2534568e-09 6.3480035e-09 6.337103e-09
1.2007594e-08 2.6179858e-09 5.821246e-09 4.951138e-09 1.03139595e-08 2.0046462e-09 6.749949e-09 4.8314615e-09
1.0755334e-08 2.2454223e-09 5.7893286e-09 4.9541087e-09 1.0235848e-08 1.5702002e-09 6.249332e-09 5.855164e-09
1.1335605e-08 1.7205921e-09 6.1913257e-09 5.421998e-09 1.0880551e-08 1.2838053e-09 6.6011965e-09 5.371082e-09
1.1402099e-08 3.1237223e-06 1.3442948e-18 2.7147323e-06 1.0221199e-10 2.0686923e-10 2.3241566e-10 4.5155318e-10
1.1000844e-10 1.850519e-10 2.3993713e-10 4.3503742e-10 1.0787237e-10 2.0472467e-10 2.447627e-10 4.4659063e-10
1.161238e-10 1.6591041e-10 2.077237e-10 4.1908113e-10 1.00189426e-10 2.469248e-10 2.1380465e-10 4.3662576e-10
1.11948485e-10 1.8576019e-10 1.6923316e-10 3.808854e-10 6.377307e-11 2.3697627e-10 2.444509e-10 4.4340728e-10
8.2476026e-11 2.0104188e-10 2.2123155e-10 4.2560985e-10 6.5485305e-11 2.3160897e-10 2.0605807e-10 4.0557402e-10
7.121603e-11 1.9477289e-10 2.3477764e-10 4.5053572e-10 6.660792e-11 1.8902838e-10 1.6408179e-10 3.890984e-10
4.149924e-08 3.8403915e-20 9.0644676e-08 1.0620068e-09 2.8107203e-09 3.0372498e-09 6.183398e-09 1.2676747e-09
2.4630262e-09 2.9419551e-09 5.662304e-09 1.1215995e-09 2.827813e-09 3.2497423e-09 6.2353998e-09 1.3851127e-09
2.113858e-09 2.8653473e-09 5.3967617e-09 1.2502239e-09 3.0523444e-09 3.0539142e-09 6.297954e-09 1.337619e-09

exp_avg f4 [256]
00000000: 2076 e7b7 e3ab a0b7 b447 40b8 8313 c637
00000010: 058c 19b7 f074 f4b5 4e9b 02b8 4c9a 8038
00000020: b665 7337 004b 44b5 d018 8eb7 0098 fcb5
00000030: 70f0 6fb8 e45b 4b37 487b 64b7 70ca ecb6
00000040: b882 ce37 14f9 4137 f605 86b8 12dd cbb7
00000050: a7f7 ea37 cc90 ed37 30a1 8236 1865 9536
00000060: 09e8 4cb7 10f9 4337 6040 d4b5 222b 5b37
00000070: 26c4 2bb8 da38 e637 016a fd37 3819 d8b6
00000080: bfd9 a7b7 43b0 1138 af39 a138 8a30 13b8
00000090: b6a8 a0b7 4a95 4e38 581b 4437 777f 0938
000000a0: d663 0938 009e fa34 0f8e 0eb9 b88d 4837
000000b0: 4050 06b6 f693 d037 1ead a8b7 b0e6 cbb6
000000c0: 2057 0236 4257 3a38 44f4 1337 027c 4fb8
000000d0: 24cf d0b8 622b 7437 fa3c 69b8 70e4 59b6
000000e0: 34de 62b7 0074 0fb6 a4d1 12b8 4e16 e637
000000f0: d67a e9b8 1e20 d6b6 3c16 6b37 b092 7837
00000100: 9817 9937 2090 5238 064a f538 c039 4bb5
00000110: d56f 0bb8 6c92 5a38 42f1 d537 60f9 68b7
00000120: 2c96 6d38 3e8e 99b7 f2c6 5d37 c617 02b8
00000130: e083 c2b4 4f56 13b8 ba76 93b7 2056 4b37
00000140: 40c2 beb6 a854 e236 f2b0 7637 e02a eb36
00000150: 1c48 f338 86fc 17b8 d4d0 7e37 40d5 54b8
00000160: 131e 10b8 70a8 0538 07b1 0138 3850 8138
00000170: ae95 a9b7 0ff2 1738 51e8 a337 9806 b737
00000180: 48d5 e936 80c4 65b5 9261 01b8 4090 b8b5
00000190: c08c 7fb6 1c94 c7b7 aa54 8bb7 2600 a4b7
000001a0: f4ad 93b8 b425 0db8 201b 9d36 f2ae 98b6
000001b0: 58dd 7336 c844 34b6 c018 edb7 f8d2 c7b6
000001c0: 450f 19b8 603c d535 8091 70b8 aa21 ea37
000001d0: d915 beb8 cc6d 06b7 fa2c 25b7 00c3 d8b6
000001e0: e73e 07b7 3ca3 63b7 9522 1838 60a2 df36
000001f0: 3858 4d38 dcad 21b7 c0eb 6cb7 c04c d434
00000200: 4619 cf37 7021 3f38 482c 02b8 f0a9 6fb8
00000210: faa4 c336 40ee c935 9636 e7b8 ca2d 9bb7
00000220: e860 28b7 5f52 3937 7c13 1d36 7acf aab7
00000230: 00ca d633 d8e1 1138 6e0a 71b7 8879 fa36
00000240: 6076 bf35 b8aa f137 804a 3938 3e26 1838
00000250: 9906 1238 862b c0b7 000f ffb7 f0ba 41b8
00000260: 47ab 0c38 f20d 2d38 6d23 bc37 3ce0 6ab7
00000270: 6d83 5f37 6c27 4cb8 7aab b537 40dd 90b7
00000280: 2edb d8b7 107a 88b7 d0a4 6536 efd1 2938
00000290: b8d6 b9b7 f0fa 2fb7 a41a b736 9e46 a9b7
000002a0: f8d2 f337 a80b 3838 387b ff37 34c8 2137
000002b0: a82d 2438 cb16 c4b7 c0e6 b7b7 a1b8 a4b7
000002c0: 8467 9337 f444 07b8 952d 5238 2838 5038
000002d0: 20c7 5937 a06a 64b6 3c94 4038 737e 9db7
000002e0: 8589 e638 2051 43b6 ce10 6f38 0088 3438
000002f0: 9634 df37 9038 8136 eb9b 8638 6ddb 1db8
00000300: c602 79b8 941d e136 52d4 06b7 109c 91b8
00000310: c961 25b7 5c07 ea36 0f65 0538 4cc9 f2b7
00000320: 58c8 0fb8 0413 2338 eeb8 7a36 2420 8c37
00000330: da1e 19b8 a8aa 9638 66ee b5b7 afc9 11b8
00000340: f0f5 8435 919d 5eb8 ffa0 6838 30bd bdb6
00000350: 1af0 c9b6 1b80 0e37 2358 fab7 5db8 d635
00000360: a08c 3eb7 2010 1237 00af ceb5 08e6 d837
00000370: 63e8 a0b8 a855 6437 7630 b737 3cea 25b7
00000380: 84af e4b7 119e abb8 72cb fe37 4011 7935
00000390: ad40 5338 501b 48b7 6c39 2138 58cd a1b7
000003a0: fb0c 6137 03d8 82b7 f0b9 ecb7 3b55 ac36
000003b0: ea84 1137 707f 8737 a5e9 92b7 2e22 40b8
000003c0: c00c 37b7 3cf8 dfb7 7c6d 4a38 9ad3 8738
000003d0: 349f 5337 c441 5337 6434 18b7 881a 78b7
000003e0: ec35 0537 3b50 18b8 6534 bd37 f17c 4138
000003f0: a0f2 4c36 525a 96b8 5631 9237 686b 5e36
-2.7592352e-05 -1.9153527e-05 -4.5843146e-05 2.3612525e-05 -9.1521115e-06 -1.821345e-06 -3.1139054e-05 6.132256e-05
1.450761e-05 -7.312483e-07 -1.6939273e-05 -1.8819701e-06 -5.7205965e-05 1.2121138e-05 -1.3618563e-05 -7.056915e-06
2.4617984e-05 1.15616895e-05 -6.390728e-05 -2.430243e-05 2.8010296e-05 2.8320028e-05 3.8930666e-06 4.452315e-06
-1.2213372e-05 1.1680895e-05 -1.5813966e-06 1.306346e-05 -4.0952254e-05 2.744461e-05 3.0209312e-05 -6.4402375e-06
-2.0009347e-05 3.473485e-05 7.687823e-05 -3.5092737e-05 -1.9152048e-05 4.9253264e-05 1.1688877e-05 3.2782056e-05
3.2756325e-05 4.668109e-07 -0.00013595096 1.1953925e-05 -2.0014268e-06 2.4864432e-05 -2.0107775e-05 -6.076727e-06
1.9422223e-06 4.442712e-05 8.818755e-06 -4.9468137e-05 -9.956796e-05 1.4553634e-05 -5.5608318e-05 -3.2468488e-06
-1.3522385e-05 -2.1376181e-06 -3.5004356e-05 2.7428523e-05 -0.00011133186 -6.381436e-06 1.4012268e-05 1.4816105e-05
1.8250008e-05 5.020213e-05 0.00011696298 -7.570743e-07 -3.3244334e-05 5.2111616e-05 2.5503923e-05 -1.388634e-05
5.664506e-05 -1.8305258e-05 1.3218947e-05 -3.1016556e-05 -3.6231268e-07 -3.5127912e-05 -1.7579052e-05 1.2119795e-05
-5.685055e-06 6.74518e-06 1.4703941e-05 7.008537e-06 0.00011600574 -3.6236386e-05 1.5188201e-05 -5.0743343e-05
-3.4360284e-05 3.186654e-05 3.0920866e-05 6.166141e-05 -2.021607e-05 3.622664e-05 1.9539295e-05 2.181837e-05
6.9687703e-06 -8.5595093e-07 -3.0846866e-05 -1.3751051e-06 -3.8079888e-06 -2.3791617e-05 -1.6609516e-05 -1.9550393e-05
-7.0419075e-05 -3.3652133e-05 4.6821224e-06 -4.5503193e-06 3.633866e-06 -2.6862126e-06 -2.8264127e-05 -5.955222e-06
-3.6492263e-05 1.5887308e-06 -5.7355966e-05 2.791065e-05 -9.0639754e-05 -8.0125865e-06 -9.845238e-06 -6.4600026e-06
-8.061273e-06 -1.356826e-05 3.627183e-05 6.664821e-06 4.895797e-05 -9.636828e-06 -1.4121586e-05 3.954392e-07
2.4688092e-05 4.556909e-05 -3.1035655e-05 -5.7140307e-05 5.8306587e-06 1.5045007e-06 -0.00011025106 -1.8498762e-05
-1.0036143e-05 1.1046038e-05 2.3406164e-06 -2.0362193e-05 1.0001895e-07 3.4781027e-05 -1.4367148e-05 7.4647287e-06
1.4265061e-06 2.8808936e-05 4.417682e-05 3.627524e-05 3.4815257e-05 -2.290845e-05 -3.0405354e-05 -4.6188885e-05
3.3538116e-05 4.12594e-05 2.2427843e-05 -1.39996955e-05 1.3322436e-05 -4.8674105e-05 2.1656731e-05 -1.7269165e-05
-2.585127e-05 -1.6269303e-05 3.4219593e-06 4.0488256e-05 -2.2153705e-05 -1.0489239e-05 5.4569264e-06 -2.0179254e-05
2.9066097e-05 4.3879874e-05 3.0455747e-05 9.642961e-06 3.9143168e-05 -2.3375635e-05 -2.1922751e-05 -1.9636298e-05
1.7571969e-05 -3.2250726e-05 5.0110353e-05 4.9643364e-05 1.298057e-05 -3.4036711e-06 4.591442e-05 -1.8774741e-05
0.0001099287 -2.9104485e-06 5.699769e-05 4.3042004e-05 2.6608159e-05 3.8510843e-06 6.41866e-05 -3.7636073e-05
-5.936881e-05 6.708966e-06 -8.036457e-06 -6.943208e-05 -9.857534e-06 6.9746e-06 3.180379e-05 -2.8942384e-05
-3.428044e-05 3.8879938e-05 3.7360546e-06 1.6704267e-05 -3.6506775e-05 7.1843446e-05 -2.1687894e-05 -3.4758526e-05
9.906344e-07 -5.307567e-05 5.546305e-05 -5.6546633e-06 -6.0182183e-06 8.493686e-06 -2.9843364e-05 1.5997899e-06
-1.1357624e-05 8.7060325e-06 -1.5399128e-06 2.5856323e-05 -7.67268e-05 1.3609802e-05 2.1837866e-05 -9.889303e-06
-2.7261449e-05 -8.1833576e-05 3.0373896e-05 9.278483e-07 5.0366554e-05 -1.1927288e-05 3.843887e-05 -1.9288316e-05
1.3414067e-05 -1.5597796e-05 -2.8219976e-05 5.1359216e-06 8.67362e-06 1.6152597e-05 -1.7513355e-05 -4.58082e-05
-1.0910619e-05 -2.6699265e-05 4.826252e-05 6.4767155e-05 1.2613647e-05 1.2591892e-05 -9.072104e-06 -1.4788129e-05
7.939972e-06 -3.6314344e-05 2.2554954e-05 4.6131147e-05 3.0539595e-06 -7.169381e-05 1.742753e-05 3.3143097e-06
