EcoSculptor/results/Final_1.3/Hunteranimal/Hunteranimal-2000166.onnx (onnx, 58409 bytes, 6 tensors)

network_body._body_endoder.seq_layers.0.weight f4 [256, 47]
000000 d2 75 20 be 46 97 95 bd 50 29 60 3d fb 32 2c be
       -0.15669945 -0.07304244 0.0547269 -0.16816323
000010 48 80 52 bc e9 6e b5 bd 88 cf 78 bd e1 bc 4c 3d
       -0.012847967 -0.08859045 -0.060744792 0.049984816
000020 c8 49 9e bd c8 3d 56 3e 83 6d 03 bc a3 27 73 3e
       -0.077289164 0.20922005 -0.008021715 0.23745589
000030 89 ad dc 3c d6 8e a2 bc 62 1f 72 3e e2 1d 04 3e
       0.026938217 -0.0198435 0.23644784 0.12902024
000040 93 21 b7 be b6 68 76 be 0f ac fa bd 76 66 7a 3e
       -0.35767803 -0.24063382 -0.12239849 0.24453148
000050 7e 95 ec bd 60 5e 45 3e 46 d5 3d 3e df de 64 3e
       -0.11551951 0.19274282 0.18538389 0.22350644
000060 a2 75 85 be 6c 92 12 bd 79 b7 15 be 08 1d ac be
       -0.2606631 -0.03578417 -0.1462077 -0.336159
000070 df 9d 81 3d 33 bf 59 3c c6 32 60 3e ec 83 0b 3d
       0.0632894 0.013290214 0.21894369 0.034061357
000080 bd 80 fd be f4 2e 40 be 22 95 df bd 8a ee 1e 3c
       -0.49512282 -0.18767911 -0.10917117 0.009700427
000090 78 63 00 3f 94 fe dc 3c 56 43 74 bd 56 5d 1c bd
       0.5015178 0.026976861 -0.05963453 -0.03817495
0000a0 23 ec d8 be 31 f3 dd 3b 2b 5e 81 ba 2a 29 df 3d
       -0.42367658 0.0067733754 -0.0009869983 0.10896523
0000b0 3b 26 9c 3c 76 b1 89 bd d6 7d 65 bd 62 9f bb be
       0.019061198 -0.06723301 -0.05602821 -0.36645037
0000c0 43 79 37 3e 00 5e 2c 3e 5a 94 75 3d 19 ab 97 be
       0.17917351 0.16832733 0.059955932 -0.29622725
0000d0 35 34 4c 3e c9 75 84 bd 7e 9a b6 3d a3 39 83 be
       0.1994179 -0.06467778 0.08916186 -0.2562991
0000e0 f0 1b 6f bd 76 ab b6 bd e6 60 38 be 92 c5 16 3b
       -0.058376253 -0.08919422 -0.18005714 0.0023005945
0000f0 71 fc aa bc 80 48 15 3c 42 a7 1b be 4a 06 97 3d
       -0.020872327 0.009111524 -0.15200523 0.073742464
000100 24 da 72 3e 84 ec f9 bd 7d 2b 1b 3d 8b d8 a6 bd
       0.23716027 -0.12203315 0.03788327 -0.08146771
000110 6e 0d 03 3d 62 b6 47 be dd 06 0b bc 0b 7d 17 be
       0.03199523 -0.19503167 -0.008485523 -0.14793794
000120 17 1d 7b 3d fc 05 17 bd e8 da b3 3d 09 5f ab be
       0.06130704 -0.03687094 0.087819874 -0.33470944
000130 e2 27 90 be f8 51 a9 3e 89 03 a2 bd 6b 2f 1c be
       -0.28155428 0.3307035 -0.079108305 -0.15252464
000140 96 30 41 be b9 60 6a be 48 6d f6 3d 59 63 df be
       -0.1886619 -0.2288846 0.120325625 -0.43630484
000150 cf 89 8a 3e 08 6b 27 bd 03 ee d9 bd d3 21 1d 3e
       0.27058265 -0.040873557 -0.106411 0.15344934
000160 d4 08 a2 3d 21 1b 1a bd 75 95 56 3e 39 f5 98 bd
       0.0791184 -0.03762353 0.20955451 -0.074686475
000170 b6 45 64 bc 2d 45 1e be 17 f1 cf bd 49 27 8b bd
       -0.013932636 -0.15456076 -0.10153406 -0.067946024
000180 76 45 fe 3d 96 58 84 3e e3 65 03 bd f5 d3 91 3e
       0.12415592 0.25848836 -0.03207959 0.28482023
000190 da e9 e6 3c 36 3b a7 bd b9 14 32 be d5 08 8b 3d
       0.028187681 -0.081655905 -0.17390718 0.06788794
0001a0 5d 91 7c bd fd 83 d8 bd 26 4f b4 bb d4 bd 25 3e
       -0.061662067 -0.1057205 -0.0055025993 0.16185695
0001b0 a6 42 24 be 51 ab ad 3d 8f 3d fe bd 03 c5 92 3d
       -0.1604105 0.08479942 -0.12414085 0.07166483
0001c0 c2 c9 55 bd e0 e9 83 bc b6 74 a5 3e a0 06 b1 be
       -0.052194364 -0.016102731 0.32315606 -0.34575367
0001d0 ed 9d 1b be 59 1b 61 be cf 0b f0 bd 36 35 ce 3d
       -0.15196963 -0.21983089 -0.11721002 0.10068743
0001e0 c7 73 2a be 71 4f be bd 2b 37 b5 3e dd 7b c0 3d
       -0.16645728 -0.09292496 0.35393652 0.09398625
0001f0 98 b4 64 3d 6d 49 57 3e 82 10 2a be 11 29 eb bc
       0.05583629 0.21024103 -0.1660786 -0.028706105
000200 44 db 10 be 52 f6 1b be 80 5b 1e bc 4c 43 e4 bc
       -0.14146143 -0.15230682 -0.00966537 -0.02786412
000210 3d 1a 51 be 20 b4 dc 3d 64 30 36 be c6 a7 6a 3d
       -0.20420165 0.107765436 -0.17791897 0.057288907
000220 80 15 f4 bd fa eb 92 bc 8c b0 1a be cf ea 0a bd
       -0.11918163 -0.017934788 -0.1510641 -0.033915337
000230 24 42 89 3d 13 f9 b5 3d d2 bb eb 3d b3 bd c7 3d
       0.067020684 0.08885398 0.11510433 0.09752979
000240 1b a5 d6 bd 90 78 e3 bc ea 46 43 3d c1 1a d9 3d
       -0.1048071 -0.02776745 0.04767505 0.10600806
000250 de 7a 23 3e 07 03 d2 be 41 ae b5 bd 4a e7 de 3d
       0.15964839 -0.41017935 -0.08871127 0.10883959
000260 54 08 94 bc e2 86 15 3d 8c 1b 76 3e 95 fa 82 bd
       -0.018070377 0.036505587 0.24033946 -0.06395451
000270 76 6a 2f be a4 5f df bd 7c d1 0c be ba 5a 19 3e
       -0.17130455 -0.10906914 -0.13751787 0.14976016
000280 5a e6 40 be cd 69 da 3d 9a bd 41 bd 39 10 88 bd
       -0.18837872 0.10664711 -0.04729996 -0.06643719
000290 29 05 2c 3d 5e 07 63 3d 68 d8 d2 3d 18 a0 87 bc
       0.04199711 0.055426948 0.102951825 -0.01655583
0002a0 84 d2 80 be a0 77 68 3d 8c c4 81 bd 25 a3 5f be
       -0.2516061 0.05675471 -0.063363165 -0.21839578
0002b0 d8 00 99 bd e9 bf 0c 3d 94 0a 72 3d cb b7 b7 3d
       -0.07470864 0.034362707 0.05909212 0.089706026
0002c0 ef 5c 76 be 7d 06 96 3d d7 42 d0 bd 72 4e 05 be
       -0.24058889 0.07325456 -0.10168999 -0.13018206
0002d0 fc 6c 48 3c 44 a2 a3 be 2f 71 97 bd a1 67 86 be
       0.012233015 -0.31959736 -0.07394635 -0.26250938
0002e0 bf 67 94 bd f1 f4 30 3e 3b af 77 3e a3 7d 83 bd
       -0.072463505 0.17280938 0.24187939 -0.06420448
0002f0 4a 33 9a 3c aa 12 64 bd da f8 56 bc 7a db c3 bc
       0.018823285 -0.055681862 -0.013120854 -0.023908366
000300 ce 49 97 bd 60 8c 34 bc 07 14 6f 3e 8c b4 4d be
       -0.07387124 -0.011019796 0.23347484 -0.20088404
000310 4f 02 30 be 91 8c c2 bd 0e e5 93 3d 0f 23 5f 3d
       -0.1718838 -0.09499467 0.07221423 0.054476794
000320 6e f3 98 bd b0 f8 c6 3d ec 50 8c bc b4 68 5c 3d
       -0.074683055 0.09715402 -0.01712843 0.05381079
000330 49 8c f1 3c 38 51 59 be 1b f3 19 3d 4e 22 a8 be
       0.029485838 -0.21222389 0.03758536 -0.32838672
000340 48 68 01 3e 5b 9d 07 bc ec 6c 25 be ef 20 40 be
       0.12637436 -0.008277263 -0.16154832 -0.18762563
000350 6e 8f 53 be fa 58 d2 3d 11 3f 9a 3c b5 a1 45 bd
       -0.20660183 0.10270877 0.0188289 -0.04824992
000360 ef 00 52 bc 25 26 f7 3c 3e 13 af bc 79 4a 61 3d
       -0.012817605 0.030169556 -0.02137148 0.055002663
000370 60 f7 9e bd ee 6f 14 3e df f1 07 be 61 a8 98 be
       -0.07762027 0.14495823 -0.1327586 -0.29815963
000380 b3 c0 de bd 27 f7 26 3d a5 76 ad 3d 9d 84 74 be
       -0.10876598 0.040763047 0.08469895 -0.23878713
000390 8c 2f 32 39 53 a7 5e be 39 9a a3 be 3b e1 6f be
       0.00016993115 -0.21743517 -0.319536 -0.23425762
0003a0 c2 e0 1b be 82 d7 c6 3c f9 e5 83 be 9a f6 93 be
       -0.15222457 0.024272684 -0.25761393 -0.2889908
0003b0 66 a8 98 3e 89 61 53 be b2 3d 5f 3d ef 06 e4 be
       0.29815978 -0.20642675 0.054502197 -0.4453654
0003c0 92 33 88 be 15 eb 28 be dc 43 4a be b8 21 1c be
       -0.26601845 -0.16495927 -0.19752449 -0.15247238
0003d0 c0 bb 71 3c b3 8b 5c 3e 04 d9 99 bd a4 3a 17 3d
       0.014754236 0.21537666 -0.075120956 0.03692116
0003e0 b6 d6 74 be 97 71 fb 3c 6e 1a b4 bd 72 f9 3a bc
       -0.2391003 0.030693812 -0.087941036 -0.011412011
0003f0 00 28 0e 3e 69 3e 6a bc 26 94 30 3d af 18 05 be
       0.13882446 -0.014297106 0.043110035 -0.12997697

network_body._body_endoder.seq_layers.0.bias f4 [256]
000000 50 32 a5 3d a0 0d 85 3d ab ba 8c 3d 03 dd 52 3d
       0.08066237 0.064967394 0.068715416 0.051480304
000010 4f 8f 1e 3c c8 45 3a 3d 51 4d 6e 3d 11 0e 19 3d
       0.009677722 0.045476705 0.058179203 0.03736693
000020 7a 69 70 3d 03 49 bf 3c f8 0e 8f 3d 5a ad 53 3c
       0.05869434 0.023350244 0.06985277 0.012919748
000030 63 67 cb 38 45 71 08 3d a1 1f 00 3d 0d 4a fc bc
       9.6990516e-05 0.033311147 0.031280164 -0.030797029
000040 4d 9c 9c 3d 6f ae 8d 3d 70 1d 55 3c 7e 43 0c 3d
       0.076469995 0.06918036 0.013007507 0.034244053
000050 75 04 af 3d 51 64 7d 3d 8a f6 a7 3b c1 a1 bf 3c
       0.08545772 0.061863247 0.0051258253 0.02339256
000060 81 af 60 3d 01 40 0a 3d 80 1f 24 3d 95 3b 15 bc
       0.054854874 0.033752445 0.040069103 -0.009108444
000070 1b 43 cd 3c d0 9c d2 bb 0b 75 1b 3d a2 ba cb 3d
       0.025056412 -0.006427385 0.037953418 0.09947707
000080 8e d4 32 3c 06 59 a2 3d 74 0e 87 3d 8b ea 91 ba
       0.010914935 0.07927136 0.065945536 -0.0011132521
000090 44 3f 78 3c aa b7 f4 bc 57 f8 e2 3c a7 bc 01 ba
       0.015151802 -0.029872734 0.027706308 -0.0004949071
0000a0 a9 86 b4 3d e0 33 89 3d c6 52 58 ba 00 68 9b 3d
       0.08814747 0.066993475 -0.00082520803 0.07588196
0000b0 39 ec 53 3d 87 ef 0f 3d 7f 36 2d bb 09 ec 89 3d
       0.05173895 0.03514054 -0.0026430187 0.06734473
0000c0 53 61 04 3c 8e 05 33 bd 85 67 08 39 c9 e2 e3 bb
       0.0080798445 -0.04370647 0.00013008535 -0.006954525
0000d0 a6 ed ba 3c 7a 6f 57 3d 9d 39 23 3c 04 51 aa 3b
       0.022818398 0.052596547 0.009962467 0.005197646
0000e0 70 95 98 bc 11 28 80 bc 42 20 18 3e 46 1c c0 3d
       -0.018625945 -0.015644105 0.14856055 0.09380393
0000f0 d5 c3 32 bc 7d ab 1b 3d b1 2c fe 3c 2e 56 33 3d
       -0.010910948 0.03800534 0.03102717 0.04378336
000100 ef 7e e4 38 2e ea 77 3d e1 28 0a 3c af 57 c9 3c
       0.000108955304 0.060526066 0.008432598 0.024577944
000110 c3 08 ae bc cf 31 af 3b ef 45 bb 3d 98 a1 21 3d
       -0.021244412 0.005346514 0.09144198 0.03946075
000120 b6 a1 6d 3b ba d2 4b 3d 2d c0 34 3d 80 e4 23 3d
       0.0036259717 0.04976151 0.044128586 0.040012836
000130 25 24 fa bc b4 b0 9e bb c6 43 5c 3d f5 5d 6a 3d
       -0.030534813 -0.004842842 0.05377557 0.05721851
000140 9b c3 a9 b8 fa 04 67 3d be 16 11 3d a4 fb 48 bc
       -8.094982e-05 0.05640123 0.03542208 -0.012267027
000150 ff b7 f9 bb 58 6c 65 3d af f2 04 3d 67 2c db 3d
       -0.007620811 0.056011528 0.032458004 0.107018284
000160 56 d7 c2 bc 76 6c 42 3d 1f 93 b4 3c 03 12 35 3d
       -0.02378432 0.047466718 0.022042809 0.04420663
000170 58 08 13 3d 6a a2 7f 3b aa db 03 3d 58 c1 1d 3d
       0.03589663 0.0039006718 0.03219191 0.038514465
000180 8c 8f 41 3d 2f fb 32 3d b2 91 14 3d 7b 16 df 3b
       0.047256038 0.04369658 0.03627176 0.0068081
000190 91 81 27 bd e0 a0 94 3b 10 f9 80 3c 9d 4b 2a 3d
       -0.04089505 0.0045357794 0.015743762 0.041576017
0001a0 f2 c7 d7 3d af 0c 29 3c 23 63 49 3d e3 45 e9 3c
       0.105361834 0.010317965 0.04916681 0.028475707
0001b0 88 96 00 bd 72 9e 80 3d ee b3 61 3d 24 f6 4e 3d
       -0.031393558 0.06280221 0.055103235 0.050527707
0001c0 a7 ce 92 3a 1d ee 12 3d 6e 06 a6 3d c9 fd 87 3d
       0.0011200503 0.035871614 0.08106695 0.066402026
0001d0 55 60 85 3b e9 a3 35 3d 54 d5 28 3d 36 f2 d6 bc
       0.0040703216 0.04434577 0.04121907 -0.026238542
0001e0 b1 97 f1 3c 16 f6 d9 3c 5f 78 2a 3d a8 0c 4c bc
       0.029491277 0.0266066 0.0416187 -0.012454189
0001f0 31 5c 6d 3d cb b8 c1 bc 13 64 69 3c 46 11 91 bb
       0.05794925 -0.023647686 0.014245051 -0.004427108
000200 c1 fb 5a 3d a1 7a a6 3d 9b ce 4c 3d 35 1f 5c 3d
       0.053462747 0.08128858 0.05000172 0.0537407
000210 a7 a7 1d bb 04 8a a4 3d b6 e3 81 3d 18 3d 8f 3c
       -0.0024056227 0.08034137 0.063422605 0.017485186
000220 0d 5f e0 3d 30 0c 69 3c af ba 83 bb 08 65 3b 3d
       0.109556295 0.014224097 -0.004020057 0.045750648
000230 75 42 43 3d 69 1c 43 3c 04 ca c2 39 cc ea 7d 3d
       0.0476708 0.011908629 0.00037153077 0.061991498
000240 da 45 8c 3c e1 6d b8 bc 93 03 b0 3d 1b 56 bb 3d
       0.017123152 -0.022513332 0.08594432 0.09147283
000250 c1 b0 99 bc 33 c8 ac 3c 26 5a 62 3d 7c da 47 3d
       -0.01876104 0.021091556 0.055261753 0.048792347
000260 1a 9d 48 3b a2 6d 6f bb 15 3f 95 3d de c8 8d bb
       0.0030611218 -0.0036533852 0.072874226 -0.0043269238
000270 c5 a0 b1 3d 38 a2 8f bc 5e 8a 87 3d 86 0d 98 bc
       0.086732425 -0.017533407 0.06618188 -0.018561136
000280 88 87 af 3c 1e 0d 63 3d 5f b1 76 3d ac 5f d1 3c
       0.021426931 0.05543243 0.060227748 0.025558315
000290 b3 2e 83 3b 57 49 af 3d 52 10 84 3d f2 ba 5b 3b
       0.0040033697 0.0855891 0.06448425 0.0033528176
0002a0 f9 3d 71 3b 0f d4 66 3d 70 03 6a 3d cb db b2 bb
       0.003681062 0.05635458 0.057132185 -0.0054583303
0002b0 08 20 c4 bc 6f c0 13 3d cd a0 f0 ba 99 23 c6 bc
       -0.023941055 0.03607219 -0.0018358469 -0.024186896
0002c0 01 a9 2b 3c 9d a9 a3 3c 70 17 d6 3d b6 5e 7a 3d
       0.010477305 0.019978339 0.10453689 0.06112548
0002d0 e5 95 3f 3c 80 9c 4e 3d 9b a7 2f 3d 85 4d 6d 3d
       0.0116934525 0.05044222 0.04288445 0.057935257
0002e0 d8 59 b3 3d fb 1b ff bc f4 a1 77 3d 9b 46 45 3d
       0.08757371 -0.031141272 0.060457185 0.048163038
0002f0 69 c3 ff bc 09 3d 9d bb 6f d5 cf 3d 55 bb 0a bd
       -0.031221109 -0.0047985357 0.10148131 -0.03387006
000300 fd 22 5b 3d 98 fa 18 3d b2 e6 9d bb e9 c2 a4 3d
       0.053500164 0.03734836 -0.004818761 0.08044989
000310 16 19 8b 3d dd 52 b8 3b c4 88 77 3d ef 9b cc 3c
       0.06791894 0.0056251124 0.060433164 0.024976699
000320 8b 08 bd 3c 7b 24 53 3d 20 40 66 3d fa 0b 5f 3d
       0.023075363 0.051548462 0.056213498 0.05445478
000330 07 96 de bc 84 7a 7f 3d 05 fb 84 3d 49 70 8d 3c
       -0.027171148 0.0623727 0.06493191 0.017265456
000340 cc 1e 89 bc 40 d7 b1 3d 9c 9e fa bb a1 a2 44 bc
       -0.016738318 0.08683634 -0.0076483022 -0.012001664
000350 67 98 57 3d d5 ba 28 bd a0 9d ec 3c 77 30 ad 3d
       0.052635577 -0.041193802 0.028883755 0.084565096
000360 2f 5b 82 3d 75 ce 73 3d ec e2 33 3c d0 b0 09 3e
       0.06365048 0.059523065 0.010979395 0.13446355
000370 e4 da c1 3b 82 3b 58 3d e6 a0 c0 3d 70 a7 da bc
       0.0059159864 0.052791126 0.09405689 -0.026691169
000380 aa 5e 24 3d f5 e5 71 3c cb 19 c6 bc 66 80 9d 3d
       0.04012934 0.014764299 -0.02418222 0.07690506
000390 b5 57 1e 3d 3f c7 6e bc 89 96 81 3d 59 a7 e5 bb
       0.038657863 -0.014573871 0.063275404 -0.007008475
0003a0 10 89 bc 3c 0b 08 cd bc d5 25 95 3c b5 00 14 3d
       0.023014575 -0.02502825 0.018206516 0.036133487
0003b0 1d 94 25 bc 52 26 00 bd b0 b3 e8 bb c7 24 1d 3d
       -0.010106114 -0.031286545 -0.0071014985 0.03836515
0003c0 f9 c6 0d 3c 50 87 5c bc 80 d6 8a 3d b3 61 e0 3c
       0.008653396 -0.013459995 0.06779194 0.027390337
0003d0 ba b7 48 3c f3 00 f4 3c b2 a1 72 bc 52 ff e4 3c
       0.012250835 0.029785609 -0.014809059 0.027953777
0003e0 15 60 a1 bc d9 c0 92 bc c0 c8 8c 3d 9b 84 12 3d
       -0.019699136 -0.017914223 0.068742275 0.035770994
0003f0 4f 97 83 bc b0 6b 2f 3d 0c eb 45 3d 3b d1 ef 3c
       -0.01606336 0.04282731 0.04831986 0.029274574

action_model._continuous_distribution.log_sigma f4 [1, 2]
000000 cd 2d db bd d4 25 b1 bc
       -0.10702095 -0.021624483

action_model._continuous_distribution.mu.weight f4 [2, 256]
000000 71 82 e8 3d 76 96 0b bd cf 96 c6 3c f3 96 fa 3c
       0.11353005 -0.034079038 0.024241833 0.030589556
000010 ff ad a2 3b 51 89 8a bc ed e0 99 3c 85 0b 82 bc
       0.0049645896 -0.01691118 0.01878401 -0.015874634
000020 48 0d 6f bb b5 37 11 3d fa 00 cd 3d 13 79 a5 36
       -0.0036476422 0.035453517 0.10009952 4.931478e-06
000030 84 d9 cc bc 89 ab 55 3c 97 80 af bd 18 f1 31 bb
       -0.025006063 0.013041385 -0.085694484 -0.002715176
000040 8d 33 97 bb 8e 16 c4 3c 4d 01 7d bd 2a 5c b1 3c
       -0.0046142996 0.023936536 -0.06176882 0.021650393
000050 9c 9e 82 bd 22 cd 3e bc f6 69 1e 3d ca c7 17 bd
       -0.063779086 -0.011645587 0.03867527 -0.037055768
000060 3d f2 50 bb 89 67 26 bb d3 be cf 3b de bd 65 bc
       -0.0031882667 -0.0025391302 0.0063398867 -0.014022319
000070 e9 29 7e bd c1 26 af bc bf 90 da 3c 83 3a 8c bd
       -0.062051687 -0.021380784 0.026680348 -0.06847098
000080 db 18 4f bc bb 19 40 3c 4a 96 36 bd 11 27 8a 3d
       -0.012640203 0.011724885 -0.04457692 0.067457326
000090 b8 e3 7a bd 8c c2 07 3d 6c 60 9e 3c b9 22 bc bc
       -0.061252326 0.03314452 0.019333087 -0.022965776
0000a0 2f dc 79 bc 44 7b ba 3d a4 c7 25 3d c6 70 53 3c
       -0.01525025 0.09105542 0.040473595 0.012905305
0000b0 a7 67 01 3d ec f3 01 38 08 22 e5 bc 7d e5 68 bd
       0.03159299 3.0983167e-05 -0.027970329 -0.056859482
0000c0 9c ec b0 3d e0 8a 85 b9 24 8b 03 3d ef a5 ce bb
       0.0863888 -0.00025471207 0.032115117 -0.006306402
0000d0 9a 26 62 bd 7c da b6 3b 0b dc 6f 3d 62 95 0a 3d
       -0.055212595 0.0055802446 0.05855946 0.03383387
0000e0 ea 32 41 3c 72 c0 63 3d 9a ed 30 3d 44 3f e7 3a
       0.011791924 0.055603452 0.043195345 0.0017642756
0000f0 83 dc e6 bc ec 71 4e bc a6 e8 96 bc 85 b9 0c 3d
       -0.02818132 -0.012600403 -0.018421482 0.034356613
000100 58 75 06 bd ea ea 01 3d 08 bc a5 3d 08 00 57 3d
       -0.03282675 0.031718172 0.08092505 0.052490264
000110 60 09 49 3c 03 eb 50 3d 70 97 2d bd c3 ab b5 3d
       0.012270302 0.051005375 -0.04238075 0.088706516
000120 df 01 04 3d 33 12 e3 ba 53 5e 83 3b c9 78 0d 3d
       0.032228347 -0.0017324149 0.004009047 0.034539018
000130 c8 fa 78 bc 16 4a 75 bb 2c e8 15 3d 85 64 0b 3d
       -0.01519651 -0.0037428192 0.03659837 0.03403141
000140 3b 89 15 3d 67 9c 4d 3d 9e e6 58 3c 4b ff 6c bc
       0.036507826 0.050197985 0.013238577 -0.014465163
000150 1d 29 07 3d 33 31 b2 bd b1 a9 cd bb 1f b7 82 3d
       0.032998193 -0.0870079 -0.0062763323 0.06382584
000160 3d 21 06 bc cd d1 5a 3c 84 14 93 bc 1b f2 45 3d
       -0.008186636 0.0133556845 -0.017954119 0.048326593
000170 e5 98 a1 bc be e2 1d 3d 5a 3e 1a bb ee 6c 69 bd
       -0.019726226 0.038546316 -0.00235357 -0.05698865
000180 a2 44 96 3c 68 bf 92 bd 47 65 d9 3c 41 3d 6d 3d
       0.018343274 -0.07165414 0.02653755 0.057919744
000190 ef 75 2b 3a 74 7f fb bb 39 d6 4b bd 14 16 b7 39
       0.0006540706 -0.0076751057 -0.049764846 0.0003492093
0001a0 86 d5 93 3c 14 2f a3 3d 53 66 5b bd 44 2c 0d bc
       0.018046152 0.07967964 -0.05356438 -0.008616511
0001b0 44 b7 2f 3c 43 e2 b9 bc 0e 14 02 3d 02 ba 39 3c
       0.010724846 -0.022690898 0.031757407 0.011335852
0001c0 7b 15 13 3d 4c f7 c0 3c 50 6f 18 be 25 f2 5c bd
       0.035909157 0.02355542 -0.14886212 -0.053941865
0001d0 ad 92 b7 bb 1c 83 30 3d 57 98 0d bd 5c ff a3 3c
       -0.005602202 0.043093786 -0.03456911 0.020019226
0001e0 12 67 08 bc 76 65 28 bd 21 8d 3f bd 78 33 b5 bc
       -0.008325355 -0.041112386 -0.04676545 -0.022119269
0001f0 e9 06 40 bb 90 cb c6 bc 0b 03 21 3d ac 38 61 bc
       -0.0029300994 -0.024266988 0.039309543 -0.013746422
000200 c1 78 b8 bb c8 e8 93 bd 29 ae 97 bc 9b c0 07 bd
       -0.0056296294 -0.07222134 -0.018515663 -0.033142667
000210 a4 4f 73 bc 28 5d b6 3c 4c 49 46 bd 4b d5 fd 3c
       -0.014850531 0.022261217 -0.048409745 0.030985495
000220 5e 05 20 bd 92 2e 4f bc ef 51 51 3c b8 40 a4 3c
       -0.03906762 -0.012645381 0.012775882 0.020050392
000230 42 f2 88 bc c7 cc ea 3c 0c 24 52 3c ce 51 c3 bc
       -0.01671708 0.028662099 0.012825977 -0.023842718
000240 ae 10 71 3c 70 75 6e 3c 91 8b 80 bc aa c6 ec bd
       0.014713449 0.0145543665 -0.01569155 -0.1156133
000250 ab 01 e7 3c 06 61 25 3d 66 cf da bb 0a b0 03 bd
       0.028199038 0.040375732 -0.006677556 -0.032150306
000260 7a ea d6 3c f6 94 3b bb e2 b5 4c 3c bf c8 0b bd
       0.026234854 -0.0028622723 0.012494536 -0.034126993
000270 9d 9f 30 3b 3a 92 21 bc cf 2b 64 bd 37 21 09 3b
       0.0026950606 -0.009861523 -0.05570584 0.0020924339
000280 a6 06 23 bd b3 04 8c bc bb 1c 40 3d 09 a6 a2 3b
       -0.039801262 -0.017092085 0.0469024 0.0049636406
000290 a5 f7 92 bd 61 7e a1 3d 9c 1e 89 3c 63 f6 77 3d
       -0.07176141 0.07885433 0.016738228 0.060537707
0002a0 f2 60 1a bd f3 83 2a 3b 32 12 15 3c df 5f aa bc
       -0.03769011 0.002601859 0.009098576 -0.020797668
0002b0 66 37 2c 3d 99 d9 f8 3b a4 66 63 3d 6f e4 af 3c
       0.04204502 0.007594299 0.055517808 0.02147123
0002c0 d2 68 b8 bc 4f 1f e6 3d 36 61 d5 bd d9 22 1f 3e
       -0.02251092 0.112364404 -0.10418932 0.15540637
0002d0 5c 59 7c 3d fd cc 6d 3b 54 55 03 3d d4 90 08 bc
       0.061608657 0.0036285513 0.032063797 -0.008335311
0002e0 71 52 1c bd 50 df 29 ba 01 dd 80 bc 70 0d fc bc
       -0.03816456 -0.00064801145 -0.015730383 -0.030768126
0002f0 51 4f 8a 3c 4b 0a 87 bb cb 86 e8 3c 84 d5 a2 3b
       0.016883524 -0.0041211 0.028384587 0.0049693007
000300 23 a4 99 bc a2 80 c8 bc 99 1a df 3b f2 18 39 bd
       -0.018755024 -0.0244754 0.0068085906 -0.045189805
000310 c3 fe a9 bb 43 f4 e8 bb ec 5c 0c bd a4 64 47 bd
       -0.0051878407 -0.0071091964 -0.034268305 -0.048679963
000320 f3 16 9d 3d d2 0a 40 bd 6f 2b 0a bc 35 08 ba bd
       0.07670393 -0.04688532 -0.008433207 -0.090835966
000330 06 38 f8 3b f4 c3 2f be 2e 66 cf 3c a6 5b 43 3d
       0.007575038 -0.17164594 0.025317278 0.047694825
000340 11 05 f8 bc 16 c4 30 bd c2 72 64 3d 69 e8 be bc
       -0.030275853 -0.043155752 0.055773504 -0.023304181
000350 c4 c9 75 3c ab 98 88 bc 02 3f 09 bc d4 cc d5 3b
       0.015001718 -0.01667436 -0.008376839 0.0065246616
000360 21 3e b0 bd df 22 dd 3c 9c fc 36 bd 9a 7b 9f 3d
       -0.086056 0.026994167 -0.0446745 0.07787247
000370 59 50 3b bc 87 34 1b 3c 42 c2 6d bc 69 85 df 3c
       -0.011432731 0.009472973 -0.014511647 0.027285295
000380 25 69 c7 3d 45 ee 77 3d f5 3d 97 bc 14 21 e7 3c
       0.097368516 0.060529966 -0.01846216 0.028214015
000390 8d 9c d5 bc cd c6 b1 bc e2 8e aa 3a 13 10 6e 3d
       -0.026075626 -0.02170124 0.0013012553 0.0581208
0003a0 bd 4d a9 3c 74 64 a4 3b fa 33 c2 bc 3c 52 7d bc
       0.020666951 0.0050168578 -0.023706425 -0.015461501
0003b0 58 a9 9a bc 05 c9 ec 3c ea d6 d3 3c e6 43 57 bc
       -0.018879578 0.028904447 0.025859315 -0.013138747
0003c0 bc 6f 96 3c 7d 24 cc 3c eb 8c 04 3d 51 41 6f 3d
       0.018363826 0.024919743 0.032360952 0.0584119
0003d0 13 d2 19 bd cb 24 14 3d 19 95 12 3d 5d d6 6a bc
       -0.037553858 0.0361679 0.03578672 -0.014333335
0003e0 8c 81 61 3c 24 44 a3 bc 69 b7 0b 3d b8 b4 08 bc
       0.013763797 -0.019929953 0.03411046 -0.008343868
0003f0 1b 06 4c 3d 3c 00 c7 bd e6 49 c9 3c 33 3a 9d bb
       0.04981051 -0.097168416 0.02457137 -0.0047981977

action_model._continuous_distribution.mu.bias f4 [2]
000000 3e b1 0a bc 67 c9 3f bd
       -0.008465109 -0.04682293

action_model._discrete_distribution.branches.0.weight f4 [1, 256]
000000 37 29 8c ba 10 14 b8 b9 2f ff 5c bc 6b ab 96 3b
       -0.0010693435 -0.00035110163 -0.013488575 0.0045980713
000010 9b 10 1b bb c3 9c 69 3b 01 68 88 bb 13 79 f3 ba
       -0.002366102 0.0035646416 -0.004162789 -0.0018575512
000020 3d 86 2e 3c 17 df 0a 3c ba 02 b7 3b 80 90 dd 3b
       0.010652122 0.00847604 0.005585042 0.0067616105
000030 54 c8 11 bc 62 c0 b5 3b c4 b6 84 bb 29 78 ad 39
       -0.00889786 0.0055466155 -0.0040501077 0.00033086658
000040 03 53 27 bc a0 4a 77 bb 28 47 6a bb f2 23 f9 bb
       -0.010212663 -0.003773369 -0.003574798 -0.007603162
000050 e8 f7 6f bb d5 8a 25 3b 20 71 36 bb da 6b 50 3c
       -0.003661627 0.0025259752 -0.0027838424 0.012721026
000060 73 41 4b ba d0 c8 bb 3b 1b 27 69 bb e7 1f 35 ba
       -0.0007753588 0.005730726 -0.0035576287 -0.0006909356
000070 d3 73 9d bb a6 99 30 bb ef da 56 bc cd 54 76 3b
       -0.004805067 -0.002694705 -0.013113721 0.0037587166
000080 0d 8d 76 3b aa 00 3c 3c 83 1f 1c 3b b0 3e 99 3a
       0.0037620694 0.011474768 0.0023822493 0.0011691656
000090 32 27 82 bb 25 1d bf bb 4f b9 05 bc 2a bd f5 3a
       -0.0039719576 -0.0058323317 -0.008161857 0.0018748392
0000a0 d2 be ff 3b 65 c9 34 3b ef 75 ee bb 54 14 14 bb
       0.00780473 0.002758586 -0.0072772424 -0.0022595124
0000b0 60 51 7c bb e7 64 c6 bb 6f e8 84 3a e9 ba 26 3a
       -0.0038500652 -0.006054509 0.0010140071 0.0006360249
0000c0 c0 90 7b 38 07 58 86 bb 94 59 35 bc a5 f9 f2 3b
       5.9977872e-05 -0.004099849 -0.01106872 0.007415014
0000d0 e6 76 1e bc 15 e2 cd 3b b8 68 9d 39 6b f2 da bb
       -0.009671902 0.0062830546 0.00030023395 -0.0066817305
0000e0 3b e5 30 3b 62 3e 0c 39 b4 04 c3 bb b4 54 1a 3c
       0.00269921 0.0001337468 -0.0059514884 0.009419609
0000f0 25 38 0d 3b 43 e6 c1 3b 6f 3d cf bb 4b 88 82 bb
       0.0021548357 0.005917342 -0.006324462 -0.0039835325
000100 9c c0 ba 3b 1b 16 1f bc d8 bf 05 bc 67 31 4f 3b
       0.0056992304 -0.00970986 -0.008163415 0.003161514
000110 2b d5 f5 ba 9b 4c 68 ba e9 9a 03 bc a0 f8 d5 bb
       -0.0018755546 -0.0008861513 -0.008032539 -0.0065298826
000120 4b 50 1a 3b a0 4b 90 3b dc 94 4c bc 4e f7 2d 3c
       0.0023546393 0.0044035465 -0.012486663 0.010618044
000130 4a 93 da b9 98 87 76 bb 38 48 8c bb 7f 9f 31 bc
       -0.0004168994 -0.0037617441 -0.00428107 -0.0108412495
000140 97 35 14 3b 67 f3 f3 38 b3 6a 41 b9 f6 9b bd 3b
       0.002261495 0.0001163248 -0.00018445663 0.0057864143
000150 ad d4 f0 3a b7 7f d7 3a 55 0d 51 ba d7 aa f0 bb
       0.0018373929 0.001644126 -0.0007974704 -0.0073445844
000160 92 d4 7c ba 03 7e b6 bb f6 f2 85 3a a2 4a 9a 3b
       -0.00096447126 -0.005569221 0.0010219503 0.004708604
000170 95 c8 e7 3a 3b db b0 ba 63 be c0 3b 3a 7f 50 3b
       0.001768368 -0.001349307 0.005882071 0.0031814114
000180 c2 57 29 3b ff 44 7e bb 79 27 05 bb fe a0 c8 3b
       0.0025839661 -0.003879845 -0.0020317717 0.0061227074
000190 91 1e 49 bb 57 6b 01 3b 5b cf 58 bc 0e e2 9f 3b
       -0.0030688385 0.0019747817 -0.013233031 0.0048792427
0001a0 67 2b 01 3c 5a 46 f2 ba 18 35 52 3b 0b 10 dc b9
       0.007883883 -0.0018484101 0.0032075103 -0.00041973623
0001b0 9b da 64 bb 3f 29 bb 3a b9 69 99 b9 cf 41 34 3a
       -0.0034920338 0.001427926 -0.00029261204 0.00068762613
0001c0 ad 8b c0 bb cb 7b 15 3c 9d b2 d3 bb 30 fb b9 3b
       -0.0058760257 0.009123753 -0.0064605013 0.005675696
0001d0 88 9b 5d b9 23 46 43 bc 1a d2 66 b9 e5 df d4 bb
       -0.00021134142 -0.011918577 -0.00022012778 -0.006496417
0001e0 61 90 22 bb ca 42 34 bb 9c 5f 8d 3b 98 a8 41 3c
       -0.0024805295 -0.002750563 0.004314376 0.011819981
0001f0 2b c9 7c bb 87 69 07 ba ab 66 73 3c f8 6e 04 bc
       -0.0038572054 -0.0005165566 0.014856021 -0.008083098
000200 20 4d 54 3c 78 ef 6c 3c 81 4d 1d 3b 8f d2 11 3c
       0.012957841 0.014461391 0.0024002495 0.008900299
000210 bf 87 83 bb 76 66 9e bb 32 06 31 bb 5b dc be 3a
       -0.004013985 -0.0048339916 -0.002701175 0.0014561521
000220 c9 4a 87 3a bd 9e a3 bb 6f f9 fe ba a0 92 31 bc
       0.001032197 -0.0049932883 -0.0019452999 -0.010838181
000230 5f 60 49 ba b0 43 12 bb bf bf 1b 3b fa aa da 3b
       -0.0007681902 -0.0022318177 0.0023765413 0.006673214
000240 d7 90 14 3c d7 62 02 bc 4f ed 11 bb 33 1c 9d bb
       0.009067736 -0.007958136 -0.002226669 -0.0047946214
000250 89 50 0a 3c 20 84 e9 bb 2a b3 80 bb 4a 43 d3 ba
       0.008442053 -0.007126346 -0.003927608 -0.0016118076
000260 87 ee da 3b bf f0 1d 3c 48 61 ec 3b 53 3c d8 bb
       0.0066812667 0.009639918 0.0072137453 -0.006598988
000270 8f e3 03 3a d9 2f 0d 3c d2 a1 f5 bb 1a 8a 97 3a
       0.0005031162 0.008617365 -0.007496097 0.0011561543
000280 9f 91 44 3b 2a 60 76 ba 8c 31 93 3b a7 ea bc bb
       0.0029994023 -0.0009398485 0.0044919904 -0.0057652774
000290 c4 ba c2 bb b6 2e 18 3b 15 e1 0e 3c 70 40 f7 bb
       -0.0059426744 0.0023221201 0.008720656 -0.0075455233
0002a0 29 d2 9f 3b 98 0d a1 bb f3 2f 08 3c 7b 31 7a bb
       0.004877348 -0.0049149506 0.008312213 -0.0038176465
0002b0 7b 63 6b bb e2 7d 69 bb 37 c9 5c bc f8 50 6f bb
       -0.003591745 -0.003562801 -0.013475708 -0.0036516767
0002c0 57 4c 4b bb d3 67 01 3c 47 70 8e 3b 94 23 91 bb
       -0.0031020844 0.007898289 0.0043468806 -0.00442929
0002d0 2f ff 6d bb fa 12 c4 3b c3 5c bf bb a7 e5 dc bb
       -0.0036315431 0.0059837075 -0.0058399155 -0.006741244
0002e0 97 fb 8d 3b bb 1d d0 3b 2a 92 7a 3b 15 47 3a 3b
       0.0043329704 0.0063512004 0.0038234093 0.0028423716
0002f0 5b 31 14 3c 80 45 09 bb fd d7 2d 3b 78 aa 99 bb
       0.00904497 -0.0020945966 0.0026526444 -0.004689511
000300 3c c3 a3 3b 2a 1a 9a bb f7 20 0f bb cb ee 2c 3b
       0.004997639 -0.004702826 -0.0021839717 0.002638745
000310 2b 76 9c 3b f3 1c fb bb 6c 7b 0e bb 83 42 da 3b
       0.004774829 -0.007663363 -0.0021741046 0.006660761
000320 67 3b 71 b7 80 46 72 3a 57 52 dd 3b 13 1e b6 3b
       -1.437855e-05 0.00092420727 0.0067542004 0.0055577843
000330 00 f6 07 3c 6b 11 3f bb 05 15 c7 3b 52 1f ba 3b
       0.008298397 -0.002915467 0.006075504 0.005680003
000340 38 3a 16 3c 77 a3 1d 3c 57 6a b5 3b 6f d7 cd 3b
       0.009169154 0.009621493 0.0055363583 0.006281785
000350 f3 3e 29 3b c7 17 8a 3b cc d0 c8 3b 88 c2 1b 3b
       0.0025824874 0.0042142603 0.006128406 0.0023767073
000360 d0 1e f7 ba fd c6 4a bb 3f 84 39 bc c0 5a 3f 3a
       -0.0018853787 -0.003094136 -0.011323034 0.00072995946
000370 60 33 10 3c af 1e 87 ba ad 59 90 bb 37 51 05 3c
       0.008801311 -0.0010308827 -0.0044052214 0.008137039
000380 57 97 93 bb 70 d2 f8 3b c3 c9 3a bb c3 9b 02 39
       -0.004504125 0.0075934455 -0.0028501607 0.00012455792
000390 1a 0e f7 39 dd 37 da bb ff 6d a4 3a 5b b9 04 bc
       0.00047122018 -0.0066594915 0.0012544988 -0.008100833
0003a0 1f aa 95 ba 3b 22 bc bb 99 b9 9b 3b bd ae e0 bb
       -0.0011418498 -0.0057413853 0.0047523496 -0.006856768
0003b0 1d 4d 58 3b e1 77 96 3b 77 9b c3 bb d5 bf 50 bb
       0.0033004947 0.0045919274 -0.0059694606 -0.0031852622
0003c0 0f 7c 6a 3c 5d e5 d3 3a 9b 9e f0 3b c3 bc 3c bc
       0.014311804 0.0016166378 0.007343126 -0.011519614
0003d0 81 ba 0a 3b df ec 35 bc a7 5a 1e b9 6c 13 19 3c
       0.0021168294 -0.011103838 -0.00015101825 0.009343009
0003e0 34 f0 b7 bb b7 1a 9d 3b 86 92 39 b8 6b 74 bf ba
       -0.0056133512 0.0047944444 -4.4243898e-05 -0.0014606839
0003f0 97 6b 1b bc 66 bb a1 b9 d6 64 3a bb 40 8f 34 bb
       -0.009486101 -0.00030847936 -0.002844145 -0.0027551204
