EcoSculptor/Assets/PreyAnimal.onnx (onnx, 320960 bytes, 7 tensors)

network_body._body_endoder.seq_layers.0.weight f4 [256, 46]
00000000: 9008 88be d3d3 8e3e 20d2 36bd da0d 86be
00000010: fc89 06be 074a 69bc d4f8 89bc 597c afbd
00000020: 00e9 63bd 855f da3e 5f58 3ebe c8f0 543e
00000030: c097 2ebe ff5f 6c3e 84c3 0ebd 929d 983d
00000040: 0a87 7cbd 248f 543c 66d1 423e cdf2 393d
00000050: 2bc8 503e b846 a7bd 769a e73d 7b10 1e3e
00000060: 8041 233e 3330 45bd a532 5a3d 6aea 2c3e
00000070: c83a 58bd e5c0 aebd 25e3 f1bc 1255 dc3d
00000080: f2e4 57bd 5ec3 e03a 3075 0dbd c8af 243b
00000090: 37a6 18be 2c8d b23e 4274 f6bd a72a 81be
000000a0: ce00 96be f892 a23d f77f 06be d36c 9c3d
000000b0: 5040 293e 67ab e03c 400d 2c3e 23ae e5bd
000000c0: e050 74be 7681 96bd 362d 09be 098c 7a3b
000000d0: 9491 5f3a d7f5 703e fab4 4d3d 3050 103e
000000e0: 3585 913e 1f92 1e3e 2dc3 52be c988 b63c
000000f0: 0bb3 323c 7998 a7be 0bd7 65be bac4 71bd
00000100: 6d3b 253e de50 3fbe 86eb c43c f7bc 0dbd
00000110: 940b 783d 140e ad3d 4a38 a0be f7b1 bfbd
00000120: 5d58 a33e ea7e 89bc 7184 11be ddf0 b7bd
00000130: bde3 373e 5c01 45be 5c0c eeba 324b 943d
00000140: 8329 7abe ada9 f23d d61a b9bd ed29 4ebe
00000150: afc0 d7bc bf0a c0bd 77e1 f7bd acdc 8a3d
00000160: 0fbb a03d 7249 78bd bf44 03be ce95 f6bd
00000170: b86c 843e 75d9 4bbe 89ea cebd 7e96 f83d
00000180: 5b21 15bd ecf5 6fbd 73f0 763d fb3e 6d3e
00000190: 8e20 873c bcf8 4a3e a54f fa3e a638 c53d
000001a0: 73f0 993d 6b90 c6bd f368 6abd c02d 9fbd
000001b0: 3212 a1be e67b afbe c12c 843b a3b0 b6bd
000001c0: 381f 023e 1012 cdbd 8814 7a3e e354 14bd
000001d0: 2062 78be 13b9 963d 6a75 0e3e 3caa 18bd
000001e0: fba9 853e 2fd2 86bd 1b96 03be dd8f 92bd
000001f0: 7a24 023d 137e b6bb b7ae a33c 589e bfbe
00000200: ea35 89bc e819 91bd cce8 10be e95e ae3a
00000210: cc26 aa3d 58e1 4bbe 3472 f53c efeb ad3d
00000220: 967e 73bd 570b b2bd b7bd c23d 92cf ffbd
00000230: a4e9 2a3e 2ec5 ecbc f8a0 de3d ab17 24bd
00000240: 55b6 863d d9ae 573e a635 113e 833e 52be
00000250: bf5b 59bc 2d85 143e c190 60bd 6e6b 49bd
00000260: 9d80 2a3d 5039 1b3e 19d3 8a3d fd28 5cbd
00000270: 64c8 cd3d 7064 923c b6a3 8d3c 5508 33bd
00000280: 9589 dabd 5381 c9bd fb74 2c3e 6951 3e3e
00000290: cd24 53be bfda 4dbe 6c3f 25bd affe ad3e
000002a0: ace8 443e f8f8 c73d 7e1c b53c 6a36 163e
000002b0: cf4d ea3d ec31 a1be 7c4e c5bc e8af 7bbe
000002c0: 9a43 14be 0034 8f3d 11bf d23d 0548 f33b
000002d0: 2f1d 40bd 1393 923e 8c04 323e 16bb 1c3e
000002e0: f082 babd df05 a03b 8b1b 8cbb 3677 96be
000002f0: 0b66 d53c fdb5 eabd d7c3 08be 43b8 5d3e
00000300: 10a2 dc3d fa7c 083e 5927 7e3c 7db1 91bd
00000310: 1a49 92bc 1174 d03d ccb2 ee3c 8b76 ca3d
00000320: 9e7c 983c 32c2 a2bd f36f 403c a0c8 423d
00000330: 87b8 edbd 48ef 33bc ad37 993d 564b 393e
00000340: 6b92 4f3d 70a2 083e 0347 ad3d af82 fc3d
00000350: 79d3 98be 3ddf babd c38b c13d 2fba 033e
00000360: ec46 95be 3eec e33d fc1d dfb9 2cfa 1b3e
00000370: 53dd 93bd 5c67 a63d 4a05 5f3e 9518 223e
00000380: b1dc 383c 25f6 71bd e508 a9be f7de bdbe
00000390: 629e dfbd 664c a43d c4d4 1f3e 4a03 8abd
000003a0: 7477 80be 5c9d 58be 8cd4 ea3d 0f40 6abc
000003b0: 392f c8bd 274b 02bd 7bd3 223d 3886 4b3e
000003c0: 5bce ddbd abd6 82be 3f06 09bc 1c62 4abe
000003d0: 8d04 e1bd a0be acbd 82f4 1cbe 4d80 a5bd
000003e0: 650d c9bd 6750 0dbd 18c7 393e 97fc b5bd
000003f0: 0085 903e a685 e4bd 6c55 3f3e dc3d 423e
-0.26569033 0.27895984 -0.044633985 -0.26182443 -0.13138574 -0.014238841 -0.016842283 -0.08568639
-0.055642128 0.42651 -0.18588398 0.20794976 -0.17050076 0.23083495 -0.034854427 0.07451929
-0.06165222 0.0129735805 0.19025192 0.04539757 0.20388858 -0.081677854 0.11308758 0.15435974
0.15942955 -0.04814167 0.053270955 0.16886297 -0.052790433 -0.085328855 -0.029527256 0.107584134
-0.052708574 0.0017148068 -0.034535587 0.0025129188 -0.14907156 0.3487333 -0.12033893 -0.25227854
-0.2929749 0.07938188 -0.13134752 0.07637944 0.1652844 0.027425481 0.1680193 -0.112148546
-0.23858976 -0.073489115 -0.13396153 0.003823044 0.0008528468 0.2353128 0.05022142 0.14093089
0.2842194 0.15485428 -0.20582266 0.022282021 0.010906945 -0.32733515 -0.22445314 -0.059025504
0.1613595 -0.18683192 0.024038088 -0.03460404 0.060557917 0.08449951 -0.31292945 -0.09360116
0.31903353 -0.01678415 -0.14210679 -0.08981488 0.17957969 -0.192388 -0.0018161642 0.07240905
-0.24429898 0.11848769 -0.09038322 -0.20133181 -0.026336996 -0.0937705 -0.12103551 0.06780371
0.078481786 -0.060616918 -0.12819193 -0.12040292 0.25864196 -0.19907172 -0.10103328 0.12138079
-0.036408763 -0.05858414 0.060287904 0.23168556 0.016495015 0.19821447 0.4888889 0.096299455
0.07516565 -0.09695514 -0.057228994 -0.07772398 -0.31459194 -0.34274215 0.0040336554 -0.089204095
0.12707222 -0.10013211 0.24421895 -0.036213767 -0.24256182 0.07359519 0.13911977 -0.037271723
0.26106247 -0.06583058 -0.1285023 -0.07156346 0.031773068 -0.0055692284 0.019980771 -0.37425494
-0.016749341 -0.07085019 -0.14151305 0.0013303432 0.08308181 -0.1991018 0.029961683 0.084922664
-0.059446894 -0.08693569 0.095088415 -0.12490763 0.1669069 -0.028902616 0.10870546 -0.040061634
0.06577746 0.21062793 0.14180622 -0.20531659 -0.013266503 0.14503928 -0.054825548 -0.04917472
0.04162656 0.15158582 0.06778545 -0.053750027 0.10047987 0.017870158 0.017289978 -0.043709118
-0.10670773 -0.0983912 0.168415 0.18585743 -0.20619507 -0.20102976 -0.040343687 0.3398337
0.19229382 0.09764284 0.022108313 0.14669195 0.11440622 -0.314834 -0.024085276 -0.24578822
-0.14478913 0.0699234 0.10290349 0.007424357 -0.04690283 0.28627834 0.17384547 0.15305743
-0.091070056 0.0048835124 -0.0042757443 -0.29387826 0.026049634 -0.11460493 -0.13355957 0.21652322
0.107730985 0.13328925 0.015512311 -0.07113931 -0.017857123 0.10178388 0.029137991 0.098858915
0.01861411 -0.07947196 0.011745441 0.047554612 -0.116074614 -0.010982342 0.074813224 0.18095145
0.050676744 0.13343215 0.0846081 0.123296134 -0.2984884 -0.091246106 0.094504856 0.12863992
-0.29155672 0.11129044 -0.00042556215 0.15232152 -0.072199486 0.08125183 0.21779361 0.1582969
0.011283086 -0.059072632 -0.33014598 -0.3708417 -0.10918881 0.08022384 0.15608507 -0.067389086
-0.25091136 -0.21153778 0.11466321 -0.014297499 -0.09774632 -0.031809952 0.039752465 0.19875419
-0.10830375 -0.25554404 -0.008363306 -0.19763988 -0.10987196 -0.08434796 -0.15327647 -0.08081112
-0.09817008 -0.034500506 0.18142354 -0.08886068 0.2822647 -0.11158304 0.1868493 0.1896891

network_body._body_endoder.seq_layers.0.bias f4 [256]
00000000: b9a2 f43b 1adc eaba c1e5 853b f15d 8c3c
00000010: 6c8c dc3a 95de 193d 4600 683c c034 d83c
00000020: 1600 613c 0c4d 233c 872d 1f3d dbf6 b03c
00000030: f433 843b 04e1 323d a352 ac3c 964c 4d3c
00000040: 92c6 2d3c fd01 423d 9791 4e3b 4238 863c
00000050: fcb7 9a3b c5f4 a63c f87f cd3b c336 083d
00000060: b880 6e3c ef6d 8c3c 99c5 223d f199 b43b
00000070: 6f91 00b9 4f01 7abb 8840 843b 7ba9 1a3d
00000080: adc3 eb3c 025b 983c 8c67 dc3b 285e c83c
00000090: 03d4 1bbb f7db 87bd c5b1 033d 3a31 c3ba
000000a0: 9b25 4cbb c1eb 813c ff85 4f3b 98fc 503d
000000b0: 73c6 aabc a084 9f3c 726c 9bbb b1d0 2bbb
000000c0: d272 8cbc acab 383b 95c3 7cbc a960 ca3c
000000d0: a7b7 e83b 81e9 b5bb 69c2 a43a 1ffe 513c
000000e0: 2ac6 0fbc 3f73 ca3c 0855 b33c 9d66 9fbc
000000f0: 1fa4 bd39 8c47 393c 4634 703b 2c05 89bb
00000100: da16 9b3c 67f1 923c 11a7 3e3a 1566 823c
00000110: f466 bd3c eaac 973c 870f 4c3a 83d7 b3bb
00000120: ab6e ac3c c365 ab3c 5ee7 01bc c541 923c
00000130: f0cd 65bb 4c15 dcbb ce86 dd3c bfb7 403b
00000140: 5dab ae3c 8182 fa3c 6742 85bb d515 0abb
00000150: 2640 d7bc 0151 0d3d 2115 9a3c bb91 1f3c
00000160: 071f 1b3c 2124 783c bb53 123c d815 ac3c
00000170: 1bd7 b83c aff5 a8bb 9e31 933c 2007 dbb9
00000180: 6bc1 a03b 8057 eebc 1822 173d a59b 813a
00000190: 0914 8ebb 721e 003c 98d4 9f3c 1dc8 1e3c
000001a0: 6670 733c 87da f53b 2844 a4bb 1d37 fb3c
000001b0: b348 8e3c f2ca bd3b 069f c83b 7fad 5eba
000001c0: fa77 37bd 0937 5f3c 6026 1a3c cf02 f63c
000001d0: 6a71 75bc d35d 02b9 4532 f83c 1c02 bc3b
000001e0: c6f6 373c 9bec e939 2781 a03c f43d 083d
000001f0: 8be3 f93c c891 533c dd17 283c 43cd debc
00000200: f3e6 cd3c 0635 0bba aaf1 d9bb bd30 013d
00000210: fa7b c43c 9ad0 633c 49c8 653d a9ef 30bc
00000220: 970b 65b9 1250 583c a903 d1bc 57bf 2a3c
00000230: 3991 05bb 40cf 573c 7ad2 89bc cab4 82bb
00000240: 91fe 6fbc dd79 443c 48d6 5cbb 5282 1a3c
00000250: 6f07 83ba ef5f 6bba a523 4eb9 18d5 003c
00000260: d169 3cbc 73a0 4b3a f988 a8bb 0e66 ca3c
00000270: a2eb cfbc c8d9 3d3a 48d4 7abb 2692 853c
00000280: 62bd 43bb 2ad3 013c 3aa7 a43c 4e89 903b
00000290: 74ba 103c aec5 f73c a04b 393c 99cb 4c3c
000002a0: 962d 13bc 1068 13bb 7b53 d03b 6f6c 243b
000002b0: 1c41 253c 9cd4 f33c f432 763c ea71 98ba
000002c0: 42d4 59b9 0dcd 3fba dcea e83c b432 963c
000002d0: 74f6 6b3c f747 f73b 11ed 853b 14bf 7eba
000002e0: 9818 283c 1605 1c3d 79c8 c13c 1d7b 1ebd
000002f0: 213b 7aba e3c8 47bb a8f2 32bc ca5b edbc
00000300: 1ed7 953c a20e 883c 3f74 a6bc 5827 6b3b
00000310: 8f92 353d e369 5fba 8c5a e63c 26e3 413b
00000320: 3249 983c 976c d8ba bdb5 2b3d 710f 0e3d
00000330: f7a0 a13c 056b c33c b515 57bc 9b78 6d38
00000340: c214 be37 272b db3c 4f23 683c c3e3 173d
00000350: 5abc b53b e72b 84bc d68f 87bc be2b 58bb
00000360: e708 39bb c8f2 2b3c 65dc b6bb d30d 5ab7
00000370: 9229 203c b2c8 703c f4a1 1bbc ca65 733a
00000380: 7341 923b 6ea4 4e3c 48cb 903b 5238 8e3c
00000390: 095a 6ebc f719 30bb b306 ee3b 53e6 6fbd
000003a0: bcba 783c 000b 273c 4517 123c da64 363b
000003b0: ad87 683c 59ec 0b3d 56cb 9d3c 721b 723c
000003c0: 3c62 f23c 1806 0f3c 07b3 a0bb 55e6 4cbc
000003d0: af87 8f3c 4d50 2bbc a503 843b 90bb 86bc
000003e0: 4d24 9b3c b43e e93a cc32 8c3c 21fa 013d
000003f0: a024 d5ba 30ec 8e3b 930b b73a 2936 dc3a
0.007465687 -0.0017918379 0.0040862267 0.017134639 0.0016826517 0.037565786 0.014160221 0.02639234
0.013732931 0.0099671 0.038861778 0.021602085 0.0040345136 0.043671623 0.021035498 0.012530467
0.010606425 0.047365177 0.0031519884 0.016384248 0.0047216397 0.020380387 0.0062713586 0.03325535
0.014557056 0.017142264 0.039739225 0.0055115153 -0.0001226121 -0.0038147753 0.004036013 0.037759285
0.028779829 0.018598083 0.006726211 0.02445896 -0.0023777492 -0.06633752 0.032151956 -0.001489199
-0.0031150344 0.015859487 0.0031665561 0.051022142 -0.020846581 0.01947242 -0.0047431523 -0.002621692
-0.017144594 0.0028178496 -0.01542749 0.024704294 0.007101971 -0.0055515175 0.0012570146 0.012816935
-0.008775273 0.024713157 0.021891132 -0.01945811 0.0003617117 0.011308562 0.003665225 -0.0041815247
0.018931795 0.017937375 0.00072728196 0.015917817 0.023120381 0.018515069 0.0007784296 -0.0054883375
0.021048864 0.020922547 -0.007928697 0.017853627 -0.0035065375 -0.006716406 0.027041819 0.0029406396
0.021321947 0.030579807 -0.0040667537 -0.0021070142 -0.026275706 0.03450108 0.018808903 0.009739335
0.009467847 0.015145333 0.008931096 0.02100651 0.022563508 -0.005156241 0.017967995 -0.00041776244
0.0049058697 -0.029094458 0.03689775 0.0009888305 -0.0043358845 0.007819759 0.019510552 0.009691265
0.014858341 0.007502857 -0.0050130077 0.030665928 0.01736865 0.005792015 0.0061224727 -0.0008494481
-0.044792153 0.013623961 0.009408563 0.030030636 -0.014980653 -0.00012432718 0.030297408 0.005737556
0.011228269 0.00044617508 0.019592835 0.033262208 0.030504009 0.012913175 0.010259596 -0.027197486
0.02513454 -0.00053103303 -0.006651123 0.03154062 0.023984898 0.013904715 0.05609921 -0.010799327
-0.0002184346 0.013202684 -0.02551444 0.010421596 -0.002038075 0.013171971 -0.016823996 -0.003988837
-0.014648096 0.011991945 -0.0033697058 0.009430485 -0.0009996722 -0.0008978834 -0.0001965897 0.0078633055
-0.011499838 0.0007767744 -0.0051432815 0.024706867 -0.025380913 0.000724223 -0.0038273502 0.01630504
-0.002986752 0.007923881 0.020099271 0.0044108992 0.008833516 0.030245628 0.011309534 0.012499713
-0.0089830365 -0.0022492446 0.006357608 0.0025089046 0.010086324 0.029764466 0.015026797 -0.0011630629
-0.00020773805 -0.0007316627 0.028432302 0.018334724 0.014402021 0.0075464207 0.0040870984 -0.0009717804
0.01025977 0.038090788 0.023655163 -0.03869163 -0.0009545554 -0.0030484728 -0.010922112 -0.028974432
0.018291052 0.01660854 -0.020319102 0.0035881605 0.044329222 -0.0008522553 0.028119348 0.0029584854
0.01858959 -0.0016511854 0.041921366 0.034682695 0.019730074 0.023854742 -0.013127734 5.6617526e-05
2.2659431e-05 0.026753975 0.0141685745 0.037082445 0.005546135 -0.016134216 -0.016548079 -0.0032985057
-0.0028234066 0.010494895 -0.0055804723 -1.2997031e-05 0.009775536 0.014696287 -0.009499062 0.0009284882
0.0044633686 0.012612445 0.0044187643 0.01736084 -0.014547833 -0.0026870945 0.007263982 -0.058569264
0.01518124 0.010195494 0.008916681 0.0027831108 0.014192504 0.034160946 0.019261997 0.014777051
0.029587857 0.00872948 -0.004904154 -0.012506087 0.017520754 -0.010456157 0.004028755 -0.016446859
0.018938208 0.0017795176 0.017114066 0.031732682 -0.0016261525 0.004361652 0.0013965241 0.0016800809

network_body._body_endoder.seq_layers.2.weight f4 [256, 256]
00000000: 4986 debd 669b cebc a318 6c3c d4aa 43bd
00000010: 5056 de3c f7b5 8abb 0c86 0e3e 9365 aebc
00000020: e4e0 ccbb 7873 96bd 1574 40bc 801c 063e
00000030: e20b d23d add5 acbd 27cf 0abd 6ebf 15be
00000040: 760b a5bd 689d 93bd b5ef b13d 2e40 5d3b
00000050: 1406 9abd 96cf d6bb fab8 d0bb c61f e13a
00000060: 5769 633d e0aa 09bd 313e f43d 0897 3ebd
00000070: 3b09 843d 8eb3 8a3d 11c8 71bc 745e 663d
00000080: e096 323c c0b0 213d f9e2 8fbc 9f1c 66bd
00000090: 1afc f6bc d5af febb 65a1 103c 95c8 c73c
000000a0: 0b3e 643d 09fc 703d d5e2 233c 5d88 e03d
000000b0: 286c b7bd 1924 6dbd 7588 c33c e2e9 4ebd
000000c0: e49b 03bd 7c78 803c d357 0abc cf1f 983d
000000d0: 19e2 b2bc 7734 70bc 35af a93d 5a69 8a3d
000000e0: 1cb0 f33c 3efb 6fbc c464 1b3e a913 42bc
000000f0: eb6f b23c 457b 10bd af58 9e3d ce58 3ebd
00000100: 9b9d e73d 56c9 86bd 5cb1 01bd c893 1a3e
00000110: 6cc5 ebbc 72b5 db3d 0bb0 8ebd f40a b53d
00000120: 4f37 863d f7a6 a53d 4983 793c 364b 1f3d
00000130: 0254 87bd 2524 8b3c 4ff6 133d 9b81 66bc
00000140: 79da e9bd c5ba a93a 4fb7 79bd aef0 d33c
00000150: e9dd 9fbc 7315 8d3c 67f8 84bb 8310 323d
00000160: 7fed 033e ac52 543d 49d6 dfbd 21d1 b4bd
00000170: 10f9 7f3d 9457 283d 4b95 c33d 3404 323d
00000180: 366b 063d 7d13 82bd cebe 583e a08a 86bd
00000190: d896 933c 1e9a bd3d 9796 063d 58dd b63d
000001a0: 66fb e53c 5e07 f13d 9849 a23c 74f8 0cbc
000001b0: ed24 873d a55b 14bd d2f1 debd db35 f43c
000001c0: 90ee 4cbc 5b91 17bd 5ea8 063c 0a7d 203c
000001d0: b76b 25bc 892d 9a3c 29d9 b1bc 65cc 133d
000001e0: 60f8 a0bc a039 e13d 8fc1 3d3d 7ab6 ad3d
000001f0: 235d 8e3d 339c d3bc 7683 eabd ce0e 84bc
00000200: 4b3e 433c 41e8 9a3d 1507 5f3c 70e0 d73d
00000210: 65ee afbd 043a fe3b 3da0 20bd acc8 bfbc
00000220: c929 f53d 5ec3 79bd 1498 a8bd 0116 09bd
00000230: 3cbe bbbb 40e6 b93c c8db e9bd f602 ab3c
00000240: e69d 503d 4ba8 babd 6f0d ae3c a673 acbc
00000250: 938d bb3d e6f1 60bd 08b1 7dbc fd64 a03d
00000260: becb 3f3d 8ca4 623c 82fe 0b3e 1134 6ebd
00000270: 325d e1bb 015d bb3d 41d3 893c 0a34 113e
00000280: 8589 853c ebf5 bcbd f4ce 31be 3b81 78bd
00000290: 6b9e 51bd 0a6e 2bbe cbe3 8bbd d30d 07bb
000002a0: c6ac 933d 26ef ef3a 9f98 43bb 7a9e aa3d
000002b0: 6bee 7f3d 2554 953d bb3f a3bd 33df e3bd
000002c0: 6855 603d aa10 853d 025d bdbd 1a18 04bc
000002d0: 08ca 43bd 2035 0ebd b323 2d3c ec38 143d
000002e0: 36c4 87bd d8e9 683d ecd8 87bd e87a bb3d
000002f0: c83d 913c c430 403d 7b6e bd3d 43f7 f9bc
00000300: 6c6a 7a3c f891 783e c4e1 0abd 5d1b aabc
00000310: 8d84 a6bd a8eb 51bd d4c2 8dbd 4ff7 b63d
00000320: 0525 37bd 8d36 62bd fa70 033d 3241 243e
00000330: ef29 503d acbb c13d 26a2 e3bc 231a c83c
00000340: 1bc6 23be f334 7c3d 36b9 a0bd 3fba 21bd
00000350: 00b9 29bd ce42 633d 71e7 4e3d 79ec ea3a
00000360: 4027 60bd 261f ce3d 0ff6 953d e544 4ebd
00000370: 30f1 bcbc e37d 6b3d 6d2e 623d d556 6b3d
00000380: f247 22bc bc1c 993d dfba fb3d 2f0c 483d
00000390: 8bac d73d 9cb8 38bd 8dac 8b3d bd8e f7bc
000003a0: 4ab4 8c3d 919b 4dbd e39a f2bc 2537 843d
000003b0: 08db e13c 96d9 fcbd ec07 a8bd 4f27 0abc
000003c0: 7057 803d 3f7f 32bd d404 bebd 4f7a f5bd
000003d0: 2ff8 03bd 843f a2bc 1780 783c 2942 9ebb
000003e0: b3ec 683c ceb3 43bd 58de 4b3d 9691 70bd
000003f0: 4075 02be 8c2f ee3d 3b4a ee3c 8c86 88bc
-0.108654566 -0.025220584 0.014410171 -0.047770336 0.027140766 -0.0042331177 0.13918322 -0.021288669
-0.006252395 -0.07346243 -0.011746426 0.1309681 0.10256173 -0.08439193 -0.033888962 -0.14623806
-0.080588266 -0.07207757 0.086882986 0.0033760178 -0.075206906 -0.006555508 -0.006369707 0.0017175607
0.05552038 -0.033610225 0.119259246 -0.046530753 0.06447073 0.067725286 -0.014757172 0.05624242
0.010900229 0.039475203 -0.017564284 -0.05617964 -0.030149508 -0.0077724257 0.008827542 0.024387637
0.05572323 0.05883411 0.010002811 0.10963509 -0.08956176 -0.057895754 0.023868779 -0.050516017
-0.03213109 0.015682451 -0.0084437905 0.07427942 -0.021836327 -0.014660946 0.08285371 0.067583755
0.029747061 -0.014647303 0.15175158 -0.011845508 0.021781882 -0.03527381 0.07731759 -0.04647141
0.11309358 -0.065813705 -0.031663284 0.15095437 -0.028780662 0.10727967 -0.06967171 0.0883998
0.06553518 0.08088487 0.015229055 0.038890086 -0.0660782 0.016985008 0.03612357 -0.014068986
-0.114186235 0.0012949338 -0.060965832 0.025871601 -0.019514995 0.017222142 -0.004057932 0.043472778
0.12883566 0.051836655 -0.109295435 -0.08828951 0.062493384 0.041099146 0.0954996 0.04346104
0.032817088 -0.06351373 0.21166536 -0.06569409 0.018016264 0.09257911 0.032858457 0.08928937
0.028073978 0.11768983 0.019810483 -0.008604158 0.0659884 -0.03622021 -0.10885967 0.029810837
-0.01250805 -0.037003856 0.008218853 0.009795437 -0.010096482 0.018820541 -0.021709995 0.036083598
-0.019649684 0.10997319 0.04632717 0.0848207 0.06951358 -0.025831318 -0.114508554 -0.01612034
0.011916707 0.0756383 0.013612528 0.10540855 -0.08590392 0.007758381 -0.039215315 -0.023411117
0.119708605 -0.060977332 -0.082321316 -0.03346825 -0.005729465 0.0226928 -0.11418873 0.020875435
0.050931834 -0.091141306 0.02124664 -0.02105124 0.091578625 -0.054918192 -0.015484102 0.07831762
0.046825163 0.013833176 0.13671306 -0.058155123 -0.006877565 0.091485985 0.016824367 0.14180008
0.016300926 -0.09226593 -0.17364103 -0.06067012 -0.05117647 -0.16741195 -0.068305574 -0.0020607605
0.07210688 0.0018305525 -0.0029845608 0.08331008 0.062483232 0.0729144 -0.0797114 -0.11126556
0.05476895 0.06497319 -0.092462555 -0.008062387 -0.047800094 -0.034718633 0.010567593 0.036187097
-0.06629221 0.056863636 -0.066331714 0.09154302 0.017729655 0.046921507 0.09249588 -0.030513411
0.015284162 0.24274433 -0.033906713 -0.020765001 -0.08130751 -0.05125013 -0.06921926 0.08933889
-0.04471304 -0.055227805 0.032090165 0.16040495 0.05082124 0.09459624 -0.02778728 0.024426525
-0.1599354 0.061573934 -0.07847826 -0.03948426 -0.041436195 0.05548363 0.05051369 0.0017923258
-0.05472493 0.10064535 0.073223226 -0.05035867 -0.023064226 0.0574931 0.055220056 0.057455856
-0.009904848 0.07476184 0.12291502 0.048839744 0.10530957 -0.045097932 0.06820021 -0.03021943
0.06870325 -0.050197188 -0.029614871 0.064558305 0.027570263 -0.12346189 -0.08204636 -0.008432223
0.062666774 -0.043578383 -0.09278265 -0.11986219 -0.03221911 -0.019805677 0.015167258 -0.0048296642
0.01421659 -0.047778897 0.04977259 -0.05873259 -0.1274004 0.116301626 0.02908813 -0.01666572

network_body._body_endoder.seq_layers.2.bias f4 [256]
00000000: f949 b73c 8c75 bf3b 7b2e 073a f185 ac3c
00000010: 9abe ca3c 9c9b 9cba 780f b83b 0ef1 123b
00000020: 3138 09ba 1585 ef3c c407 c33b 28a5 803c
00000030: e5fd 943b 66b3 9f3c f0c7 543b a095 c93b
00000040: f8f4 803b 5b51 5c3a 1bac 293b 45b5 6f3c
00000050: fd73 be3b 21d2 123c ac0e 4c3c 5f73 ffba
00000060: f903 933b 43d5 5d3c 4790 503c 73e7 50bb
00000070: 8ead 2d3c 833d 253c d2c9 d73b ac13 8d3b
00000080: d8a0 d13b 1903 063c 728e 673c 9195 a53a
00000090: ecb7 91ba e192 563c 20ac 443c 9b5d 833c
000000a0: 21e7 953b a3ed e63b 0b28 673c 55c4 f83c
000000b0: 1571 c83a 0a54 083c c08f 4d3c 0596 cdbb
000000c0: 6a97 863c 9de0 c63a 5c18 213c c969 993b
000000d0: 211c 993c e20f 313c ec66 4f3b a5a1 bb3b
000000e0: a4ec cd3c e882 0e3c df36 6f3c 519c a13b
000000f0: fd0c a1ba 4f83 243c f81f 243b 936e 8a3c
00000100: 38ec 5c3c bed4 863c af8b 9d3b 0f99 623c
00000110: c096 dabb bdfc 3abb b2c1 2e3c 01ed 443c
00000120: a888 a73c 098e aa3c 556f 703c 876f 1b3c
00000130: b563 b83b c90e 1e3c b1d3 993c 7bdc d33c
00000140: 4474 43ba bc34 c03c 5a11 5a3c 9eb3 993c
00000150: f0b5 02bb 2488 e43b 8861 2d3c 8a65 563c
00000160: e790 45bb 89b4 1ebb 6f77 d13c f64f 253c
00000170: 6298 a2bb af35 b33c cba5 893c 9901 513c
00000180: 5352 dd3b 78b9 293c eaa5 953c d073 2f3c
00000190: 0063 b53b eaee 963c 6f32 533a 5c52 ce3b
000001a0: bc09 2f3c cfc4 9a3b 7a98 e0bb 4df7 0a3c
000001b0: cfce 12ba dbfc f03a 641b e13b cfd1 833c
000001c0: b899 84bb 66bc e43a 5cb8 27bb db93 ca3c
000001d0: 4566 cc3c 896a 573c 54c2 0e3c 23e9 903b
000001e0: 4a88 3a3b c29a d03b 3861 8a3c 8f9c a73c
000001f0: 2061 873c 2b15 5e3c 84a9 4d3c f379 273b
00000200: 3b0f 463b 6f19 d03b b851 a43c 264b ee3b
00000210: cdb5 1f3c 36e5 213c 4a61 5a3c 58b1 ae3c
00000220: 1f4c 203a 0e1e 7fba e996 943b eefb 9b3a
00000230: a02c cc3b 50f3 a73c eefe 223c f046 293c
00000240: 7c5f a03b 0ab1 803b 6514 353b f12e d8bb
00000250: 89be 013d e70c 2fbc da4f cd3c c34a 403c
00000260: 7253 ee3b de77 2d3b e1ac 373c 0b1a 993c
00000270: 6184 0a3c 4640 063c f8c0 313b 2545 c83c
00000280: 4754 293c a6a3 5f3c 861d 123c 309a f83b
00000290: 9284 3f3c 7eb6 093d 82a8 13bc 5668 f83b
000002a0: 9af0 e13b 10a9 c1bb 37b8 983c 7370 1a3c
000002b0: 66c8 f0bb fb46 8bbb 5ece 833c 7170 dc3b
000002c0: bc2c 883b 3bc8 8cbb 69e7 8f3b 85d3 c9bb
000002d0: 3c8a 8b3c dbeb e83b 72e2 47ba 2389 623c
000002e0: 647e 3cbc 273a 133b 51d2 4a3c 4528 cd39
000002f0: b7c8 0f3d 7d37 8a3b f9b1 b03c 0897 3c3b
00000300: 0704 8b3b 2dfe f33b d75e 1d3c 604d a03c
00000310: 924b 733c 36d3 563c 02e2 843c c819 ce3b
00000320: f536 513c a9fc 8e3c bd77 a03b 21a0 ed3b
00000330: fb25 953c 3302 a33b 0d0d 853b 973d 533c
00000340: 61f7 a8bb f04e 9ebb 1ca6 ce3c 0589 a33c
00000350: 67c8 5f3c b231 1a3d 13fe 5b3d cffa 9c3c
00000360: fd18 a9bb e553 273c fd9a 5e3c aa18 063d
00000370: 26d8 803c 35af 7c3b db67 1a3c e83a 9f3c
00000380: 726f 5c3c 077b 003c f9b9 51bb abf0 013b
00000390: 32dd 6a3c e3c5 283b 2cde c33c db56 093c
000003a0: 8153 703c 9ca7 953c 5341 da3b be65 273b
000003b0: 4ae4 303c e5f5 b53b b0c8 093c 6cac 933b
000003c0: 8f8e 213b 9074 e13b 3264 613c 60db 213c
000003d0: 242c 843c b429 283b 451b 753b 687d c53c
000003e0: 40eb ea3c 2aaa 253b 2409 ab3b 8117 083c
000003f0: ae44 71bb 0247 7c3c 25a3 ba3b 6e07 253c
0.02237414 0.00584287 0.00051567674 0.021059962 0.024749089 -0.0011948231 0.0056170784 0.0022421512
-0.00052345084 0.029238263 0.0059518535 0.015703753 0.004546868 0.019494724 0.0032467805 0.00615187
0.0039354526 0.0008404457 0.0025889936 0.01463062 0.0058121667 0.008961231 0.01245467 -0.0019489339
0.0044865576 0.013539615 0.012729711 -0.0031876236 0.010600461 0.010085466 0.006585338 0.0043053236
0.006397348 0.0081794495 0.014133083 0.0012633075 -0.0011117435 0.013096542 0.012003928 0.016035846
0.004574672 0.0070473715 0.014108668 0.030367056 0.001529249 0.008320818 0.01254648 -0.0062739872
0.016429622 0.0015173141 0.009832468 0.0046818 0.01869017 0.010807009 0.003164704 0.0057260566
0.025137253 0.008698203 0.014600485 0.0049319644 -0.0012287196 0.010041072 0.002504347 0.016898429
0.013484053 0.016458865 0.0048079113 0.013830437 -0.006670803 -0.0028531991 0.010666298 0.012019397
0.020450905 0.02081968 0.014674981 0.009487039 0.0056271204 0.00964708 0.0187777 0.02586197
-0.00074559846 0.023462646 0.013309801 0.018762406 -0.001994487 0.006974237 0.010582335 0.013085732
-0.0030146183 -0.0024216494 0.025569646 0.010089865 -0.004962013 0.021876184 0.016802689 0.012756729
0.0067541986 0.010359161 0.01826759 0.010708764 0.0055354834 0.01842447 0.00080565264 0.006296439
0.010683473 0.0047231684 -0.006854114 0.008481813 -0.0005600275 0.0018385904 0.0068697203 0.016091255
-0.004046645 0.0017451167 -0.0025592064 0.024728706 0.02495111 0.013147959 0.008713324 0.0044223233
0.0028462582 0.006366105 0.01689206 0.020460395 0.016525805 0.0135548515 0.012552623 0.0025554865
0.003022148 0.006350688 0.020058498 0.007272142 0.0097479345 0.009881308 0.01332886 0.021324798
0.00061148586 -0.00097319565 0.0045345915 0.0011900642 0.0062309057 0.020501763 0.009948475 0.010331854
0.004894195 0.0039273547 0.0027630564 -0.0065973927 0.03167585 -0.0106842285 0.02506249 0.011736575
0.007273131 0.0026469151 0.011210651 0.018689176 0.008454413 0.008194035 0.0027123075 0.024447033
0.010335035 0.013649857 0.008918172 0.00758674 0.011689322 0.033621304 -0.009012343 0.007580797
0.006895137 -0.0059100464 0.018642528 0.009426224 -0.007348108 -0.004250405 0.016089614 0.0067272712
0.0041557234 -0.0042963303 0.0043916 -0.0061592483 0.017033689 0.0071081943 -0.00076249905 0.013826641
-0.011504743 0.0022465081 0.012379245 0.0003913065 0.035103526 0.0042180405 0.021569239 0.0028776545
0.0042424235 0.0074460716 0.009605131 0.019568145 0.01484956 0.01311188 0.01622105 0.0062896945
0.01276945 0.017454462 0.0048970864 0.007251755 0.018206587 0.0049746274 0.0040603937 0.012893102
-0.005156443 -0.0048311874 0.025225691 0.019962797 0.0136586195 0.03764505 0.0537091 0.019162564
-0.0051604495 0.010212873 0.013586757 0.032738365 0.015728068 0.003855658 0.009424175 0.019437268
0.013454305 0.007841832 -0.0032001717 0.0019827287 0.014334964 0.0025752715 0.02390965 0.008382524
0.014668346 0.018268399 0.0066606193 0.002554282 0.010796616 0.0055529946 0.008409664 0.0045066383
0.0024651622 0.0068803504 0.013756799 0.009878963 0.01613433 0.0025659623 0.0037400287 0.02410765
0.028676629 0.0025278428 0.0052195955 0.008306385 -0.0036814618 0.015397789 0.005695718 0.010072572

action_model._continuous_distribution.log_sigma f4 [1, 5]
00000000: 5a1b a1bc a2e2 efbc cf77 f2bc 37c6 983c
00000010: 412d 453d
-0.019666363 -0.029282872 -0.029598145 0.018649204 0.04813886

action_model._continuous_distribution.mu.weight f4 [5, 256]
00000000: fb27 923d 3683 823c 838e 9fb9 83f0 0bbd
00000010: 54cb d83d fb80 483d 199a 103d a2a1 bbbc
00000020: 7d4a 0dbd b90a debb 76ea c4bc dabc 4a3b
00000030: d9aa 3cbd 83e1 133d 2224 2e3c a5b2 3bbd
00000040: 5ecd 383c 2682 2d3d 7469 3bbd 1a93 c1bd
00000050: b8b7 28bd 3dc2 953c 4c18 f9bc 329c f4bb
00000060: bfc7 163d 5ea1 aa3d f72f 0ebc 4b85 5fbd
00000070: 6a6e 59bd ca6e 3fbd 85b4 d0ba 9378 b2bb
00000080: f5ea 313b 977d 36bd 7057 5ebc 182b 89bc
00000090: 498c 153d b3f8 033d 45c5 913d 56c8 993d
000000a0: 1d17 453d 62a4 cfbc feff 333d ac62 b33b
000000b0: a5b1 87bd 2a7b 063d a700 0f3d d912 6bbc
000000c0: 51dc edbc 29d0 0ebd 19ee 3f3c b6fb 2cbc
000000d0: e265 b1bc 91a8 ad3c 2232 cbbc 1931 283d
000000e0: fbd8 303c 1436 5e3d ac78 643d 7815 e13c
000000f0: 2d0f 51bd 0d94 043d 3c5b 15bc 39bf 9a3d
00000100: 4791 b13c 1652 83bd 6cf5 893c 88cd 70bc
00000110: d130 15bd f323 473c 645a 8abd f8c3 acbc
00000120: 00fd 313d ad46 013d a833 233d f163 8dbc
00000130: d5a6 6bbd 3e8f 743d a232 c53d 0cf3 413d
00000140: 0ef0 31bd 868c 433d 6a98 173d 14b2 a1bc
00000150: 73c1 ebbc b689 18bd c5a2 c33b 8570 8dbc
00000160: a649 80bb 292b 8dbc 7994 2e3b 476a c5bd
00000170: 9a25 9dbc 8c2b f3bc e679 88bd 119c 863d
00000180: 869f f13c 03b2 e03c 876f 33bc 5355 efbc
00000190: fc96 3e3b 2ec0 a63c e396 ae3c 6e71 c33c
000001a0: e519 403d 6033 bfbc 233f 813c b7df 503c
000001b0: 36a0 dd3c 6a00 313d 2209 b6bb ad74 8c3d
000001c0: 75e7 d73a 7288 c6bb 466c 06bd 4a92 703d
000001d0: e277 d33c bd22 75bd e3f3 9b3c 19aa 2d3d
000001e0: 8e32 333d 86f8 733d 7626 1e3d 69a1 0c3b
000001f0: 2cb6 c9bc 535d 8b3c 2690 9b3d ec2c 34bd
00000200: c0b9 67bd e2b2 55bd 1ee8 503c 39ad 47bc
00000210: 3cce b63c 6537 4d3d 24dd 073d cf44 693d
00000220: 7fe8 39bc c828 463d 9000 813c 2f6e 583d
00000230: f361 1fbd 978c 9b3d 7aeb 3bbd 6623 1f3d
00000240: 5f01 97bc 4476 2dbd 363c 48bd 2550 26bd
00000250: 3653 2b3d a238 02bd daad 4cbd 5b48 3f3d
00000260: 4db0 1dbd 8796 68bd 7ce0 71bc 3383 703d
00000270: 2fb3 0ebb 5037 29bb 43f0 3d3b fcf6 953c
00000280: 3d6f 1f3d 214f 87bd 0cb2 38bd 5c06 f9ba
00000290: beca b2bd 11f8 9a3d eb08 11bc 6d4a 5c3d
000002a0: 4be5 01bb e66e bfba 2f78 363d 4e56 fcbb
000002b0: 2f01 2fbd cb5f 853c 8def 01bd 870d 9f3c
000002c0: 8928 8dbc 2eeb 07bd b0dd 2fbd de85 733c
000002d0: 2a05 4a3d 43c2 173c cec2 16bd d74b 83bd
000002e0: 5094 e1bc ddfc 0d3d 3121 9a3b 8110 b4bc
000002f0: 4baf 993c beb3 4cbc 2d8d a23d 4383 7dbc
00000300: 08b7 8fbd 46d3 913c eff6 e23a 6e93 b33d
00000310: c05e 483c f494 303d 9d1d a03d 8ee0 60bd
00000320: adfa ff3b 696a a63c 5fde 2dbd f13b cebc
00000330: 6041 363d 9e7b 803d 5792 3c3d 6b62 b3bd
00000340: 3a2c 953c 7fd6 1ebd a6e3 a33d 3a72 d9bb
00000350: 4117 483d 93f4 543d 6b3a b63a 5402 a63c
00000360: e953 eebc 4aa4 fbbc 1b17 503d 5c91 943d
00000370: b547 223d ba1b a83c 866b 8c3c c855 9b3d
00000380: 5021 e0ba 5744 7ebc c0fa 9e3c 9221 3ebb
00000390: 2d9d 293d df93 4bbc 186b c43d 0113 00bb
000003a0: 59d1 c43c 86c9 943d 8c33 aebd fad1 f23c
000003b0: b89a 7e3d 578d 363c 91d8 eebc becd 04bd
000003c0: a9fb 103d f1e7 f73b 868a f23b 4ad2 b53d
000003d0: 0a12 ba3d 3a3f 023d 7b96 69bb a010 42bd
000003e0: e6b0 44bd 1fab 623c 2f1f f43c 3029 403c
000003f0: 3c73 34bc ba2e 3b3d a882 d6bb b801 d23c
0.07136532 0.015931707 -0.00030433023 -0.034164917 0.10585657 0.04895113 0.03530321 -0.022904221
-0.034494866 -0.0067761806 -0.024037581 0.0030935318 -0.04606137 0.036103737 0.010628732 -0.045824666
0.011279432 0.042360447 -0.045754865 -0.094518855 -0.041190833 0.018281097 -0.030407093 -0.007464909
0.036811586 0.083315596 -0.008678428 -0.054570477 -0.053083815 -0.046736516 -0.001592294 -0.0054465025
0.0027148102 -0.044553366 -0.013570651 -0.016744182 0.03651074 0.0322196 0.07117704 0.07508914
0.048117746 -0.025346939 0.043945305 0.005474409 -0.0662568 0.032832302 0.03491273 -0.014347755
-0.02903572 -0.034866486 0.011714482 -0.010558059 -0.021655027 0.021198543 -0.024804179 0.04106245
0.01079392 0.05425079 0.055779144 0.027476057 -0.051039863 0.032367755 -0.00911599 0.07556004
0.021675719 -0.06412141 0.01684066 -0.01469744 -0.036423508 0.012154567 -0.06755522 -0.021089539
0.04345417 0.031561542 0.039844185 -0.01725957 -0.05753215 0.05970692 0.09628798 0.04735093
-0.043441825 0.047741435 0.037010588 -0.019738235 -0.028778767 -0.037240706 0.0059703314 -0.017265568
-0.0039150296 -0.017232494 0.002663879 -0.096394114 -0.019182969 -0.02968385 -0.06663875 0.06572736
0.029495012 0.027428633 -0.010951883 -0.02921549 0.0029081693 0.02035531 0.021312183 0.023857798
0.046899695 -0.023339927 0.015777176 0.01274865 0.027053934 0.043213286 -0.005555288 0.06858192
0.0016472178 -0.006058746 -0.0328181 0.058733262 0.025814 -0.059847582 0.019037193 0.042398546
0.043749385 0.059563182 0.038610898 0.0021458513 -0.024623 0.017012274 0.075958535 -0.043988153
-0.05657363 -0.05217255 0.012750654 -0.012187296 0.022315137 0.050101656 0.03316988 0.056950387
-0.011346935 0.048378736 0.015747339 0.052839454 -0.03891177 0.07595175 -0.045878865 0.038852118
-0.018433271 -0.042349115 -0.048885547 -0.040603776 0.041827403 -0.03179229 -0.049970485 0.046699863
-0.03849821 -0.05678418 -0.014762994 0.05871887 -0.0021774282 -0.0025820322 0.0028982318 0.018306248
0.038924444 -0.066068895 -0.045091674 -0.0018999088 -0.08730076 0.07566846 -0.008852224 0.053781915
-0.0019820507 -0.0014605194 0.04454821 -0.007700718 -0.04272574 0.01628103 -0.031722594 0.01941563
-0.017231243 -0.03318327 -0.042936027 0.014863459 0.04932133 0.009262624 -0.036806874 -0.0641095
-0.027536541 0.034664977 0.0047036638 -0.021980526 0.018760344 -0.012494026 0.079370834 -0.01547319
-0.07017332 0.017800938 0.0017316024 0.08768354 0.012229621 0.043110803 0.07818148 -0.054901652
0.0078118653 0.020314412 -0.042448398 -0.025175067 0.04449594 0.06273578 0.046037998 -0.08759006
0.018209565 -0.03877878 0.08002405 -0.0066359313 0.0488503 0.051991057 0.0013902908 0.020264782
-0.029092746 -0.030717988 0.050803285 0.072542876 0.039619166 0.020521034 0.017141115 0.07584721
-0.0017099772 -0.015519223 0.019406676 -0.0029011709 0.04140966 -0.012425392 0.09590739 -0.0019542577
0.024025606 0.07265 -0.085059255 0.02964114 0.06215927 0.0111420965 -0.029156001 -0.032422774
0.03539625 0.0075654914 0.007401767 0.08878 0.09085472 0.03179858 -0.0035642672 -0.047379136
-0.048020266 0.013834744 0.029800026 0.01172857 -0.011013802 0.04569886 -0.006546337 0.025635585

action_model._continuous_distribution.mu.bias f4 [5]
00000000: 0dfe 043c 633e 4ebb 525a 963a dbbd a53b
00000010: 87cd 453c
0.008117211 -0.003147029 0.0011471009 0.005058033 0.012072927
