EcoSculptor/Assets/PreyAnimal2.onnx (onnx, 320960 bytes, 7 tensors)

network_body._body_endoder.seq_layers.0.weight f4 [256, 46]
0	0x3db1f817	0.086898975
1	0x3e0a9f96	0.1353744
2	0x3d413b54	0.04717572
3	0x3ce5aa78	0.028035387
4	0xbd503c71	-0.05083889
5	0x3e42afaa	0.19012323
6	0x3dc4bb8e	0.09606086
7	0x3e3ffcc5	0.18748768
8	0x3da2a073	0.079407595
9	0x3d7c095b	0.06153236
10	0x3e058df8	0.13042438
11	0x3ce5b121	0.028038563
12	0x3ba0a7ab	0.0049028
13	0xbd2216e1	-0.0395726
14	0xbdbe6478	-0.09296507
15	0xbc9ed80f	-0.019390134
16	0xbda7d52c	-0.08194956
17	0xbd0172eb	-0.031603735
18	0xbdb121a4	-0.086489946
19	0xbe040792	-0.12893513
20	0xbd1cb2df	-0.038256522
21	0x3d23972f	0.0399391
22	0x3c122d67	0.008921958
23	0x3e53f009	0.20697035
24	0xbc6d336d	-0.014477593
25	0x3b340f3e	0.0027474905
26	0xbe3ad4e2	-0.18245271
27	0x3da43201	0.0801735
28	0xbd9bdb02	-0.07610132
29	0x3e5cebca	0.21574321
30	0xbb947b53	-0.004531303
31	0x3e86b980	0.263134
32	0x3e1d3f21	0.15356113
33	0xbdf0f722	-0.11765887
34	0xbd78658a	-0.06064371
35	0x3dc18bf2	0.094505206
36	0xbd8b50c0	-0.06802511
37	0x3dfe6c42	0.12422992
38	0x3e0281b4	0.1274479
39	0x3ce4b982	0.027920488
40	0x3d8622b8	0.06549591
41	0x3e0395db	0.12850134
42	0xbdbf335c	-0.09335968
43	0xbe2e45b7	-0.17018782
44	0xbe4e5f66	-0.20153579
45	0x3d1fd114	0.03901775
46	0xbe9e322d	-0.30897656
47	0x3e601075	0.21881278
48	0xbdd82881	-0.105546005
49	0x3e100ab9	0.1406659
50	0xbdf1e277	-0.11810773
51	0xbda322f1	-0.07965649
52	0xbdba233f	-0.09088754
53	0x3e121fdc	0.14269966
54	0xbd094a56	-0.033518158
55	0xbb8d13ba	-0.00430533
56	0x3de38577	0.11109441
57	0x3d288748	0.04114464
58	0xbe632f98	-0.22186124
59	0xbe5014af	-0.2032039
60	0x3ebadf48	0.36498475
61	0xbe23bebf	-0.15990733
62	0x3ec3ff48	0.38280702
63	0x3e8e6c57	0.27817032
64	0xbdf3facc	-0.1191307
65	0x3cde5061	0.027137937
66	0x3dbbca7e	0.09169482
67	0x3c8158bf	0.015789388
68	0xbd9300f7	-0.071779184
69	0xbe142fc8	-0.14471352
70	0xbe83367a	-0.256275
71	0x3d151b2b	0.036402863
72	0x3d8c5755	0.06852595
73	0x3d4819e4	0.048852816
74	0x3db6abe4	0.08919504
75	0xbd85802d	-0.06518588
76	0x3da35549	0.07975251
77	0x3e173d58	0.14769495
78	0x3da506e7	0.08057957
79	0x3d5fd998	0.054650873
80	0x3d48dca4	0.049038544
81	0x3d144e15	0.036207277
82	0x3c8f4df4	0.017493226
83	0x3dcf08b3	0.10109081
84	0xbd9723cb	-0.07379874
85	0xbd1c3e85	-0.03814556
86	0x3e9cd3aa	0.30630237
87	0xbe01c81b	-0.1267399
88	0x3e54344d	0.20723076
89	0xbe1a6b82	-0.15080073
90	0xbde118b2	-0.109910384
91	0x3e111c80	0.14171028
92	0x3ca91b83	0.020643001
93	0xbe3cfc10	-0.18455529
94	0x3e71173e	0.23544022
95	0xbccb53bb	-0.0248202
96	0xbc3e4b7d	-0.0116146775
97	0xbcc83485	-0.024439106
98	0x3dbdf16d	0.09274564
99	0x3dbc1866	0.09184341
100	0xbdb08228	-0.08618575
101	0xbe2591a8	-0.16168845
102	0x3d605aec	0.05477421
103	0xbd94763c	-0.07249114
104	0x3df08a58	0.11745137
105	0xbd3eb13f	-0.046555754
106	0x3d25c726	0.040473126
107	0xbdb4df9e	-0.08831714
108	0x3e5dbf72	0.21655062
109	0x3e099e32	0.13439253
110	0xbda9e1ea	-0.08295043
111	0xbc8dce1a	-0.017310191
112	0xbd907c4b	-0.07054957
113	0x3da801a0	0.08203435
114	0x3dda028e	0.106450185
115	0xbb63b465	-0.0034744975
116	0x3cffe7bb	0.031238427
117	0x3e2b8225	0.16748865
118	0xbe145144	-0.14484125
119	0x3d1d76b5	0.038443286
120	0xbd53a3f6	-0.051670037
121	0xbd3ed08e	-0.046585612
122	0xbc7388b4	-0.0148641355
123	0x3dd838b8	0.10557693
124	0x3e35a460	0.17738485
125	0xbd348730	-0.044074237
126	0xbc423730	-0.011853978
127	0x3e0206fa	0.12697974
128	0x3da75709	0.081708975
129	0x3e7bd6fd	0.2459373
130	0xbcb12fc9	-0.021629231
131	0x3d8ce52d	0.06879649
132	0xbf0a1d6d	-0.5395115
133	0xbd7de55f	-0.061986323
134	0x3da2d9a0	0.07951665
135	0xbda7ccf2	-0.08193387
136	0x3d3b931b	0.045794588
137	0x3dbcf37c	0.092261285
138	0x3d9a7429	0.07541687
139	0x3e422dca	0.1896278
140	0x3e8d77c9	0.2763045
141	0xbe298af6	-0.16556916
142	0x3ea5886c	0.32330644
143	0x3e82a473	0.2551609
144	0x3e890dc1	0.26768306
145	0x3e1f7391	0.15571429
146	0xbe47c10a	-0.19507232
147	0xbe8dd48b	-0.2770122
148	0xbd77260b	-0.060339015
149	0x3d866195	0.06561581
150	0xbe178df8	-0.1480025
151	0xbe3b7a7a	-0.1830844
152	0x3db67865	0.08909682
153	0x3e11a4d7	0.14223038
154	0x3d9b847c	0.07593629
155	0xbda60171	-0.08105744
156	0xbe805c93	-0.2507063
157	0xbe351abb	-0.17685978
158	0x3b16f8c5	0.0023036462
159	0xbe34b669	-0.17647709
160	0xbe585cd8	-0.21129167
161	0xbe1cfebe	-0.15331551
162	0xbe80815b	-0.2509869
163	0x3e27259e	0.16322944
164	0xbd19907f	-0.037491318
165	0x3db21b5a	0.08696623
166	0xbdcc4349	-0.09973771
167	0xbe617565	-0.22017439
168	0x3d828d2a	0.06374581
169	0x3d2cfe13	0.04223449
170	0x3e60f9f6	0.21970353
171	0x3e24306d	0.16034098
172	0x3d2c1f34	0.042021945
173	0x3d0e5f88	0.034759074
174	0x3e4e05e7	0.20119439
175	0xbd995ddd	-0.07488606
176	0x3bba236e	0.005680493
177	0xbd9f0848	-0.077652514
178	0xbd118f3c	-0.03553699
179	0x3da8eeef	0.08248698
180	0x3bb2aa42	0.005452425
181	0x3e52fdf4	0.20604688
182	0x3d79697d	0.060891617
183	0x3dfbd8ed	0.12297235
184	0xbcfb7d27	-0.030699326
185	0x3e7aaa1d	0.24478956
186	0xbe6ffe10	-0.23436761
187	0x3d428122	0.047486432
188	0xbd88f1fc	-0.0668678
189	0xbe2affbc	-0.16699117
190	0x3c0932e7	0.0083739525
191	0x3c35ae03	0.011088851
192	0x3d4c624f	0.049898442
193	0xbd8f1ab2	-0.069875136
194	0xb9156847	-0.00014248594
195	0x3dfc21b6	0.12311117
196	0xbe695eda	-0.22790089
197	0xbe1afe65	-0.15136106
198	0x3d327bd4	0.043575123
199	0x3dfab127	0.122408204
200	0x3ea63b76	0.3246724
201	0xbe9cc943	-0.306223
202	0xbd0be721	-0.03415597
203	0xbe0d7ffb	-0.13818352
204	0x3d7ac04f	0.061218556
205	0x3dbe1ac4	0.09282449
206	0x3c1197da	0.008886302
207	0x3ea05697	0.31316063
208	0x3c5e6c76	0.013575664
209	0x3db738bd	0.08946369
210	0xbd3f01d3	-0.0466326
211	0xbe4056d6	-0.18783125
212	0xba861afb	-0.001023143
213	0x3b914bb0	0.0044340715
214	0xbdd17c1e	-0.102287516
215	0x3e03ee00	0.12883759
216	0x3c4a3bee	0.01234339
217	0x3d88205c	0.06646797
218	0x3e4ad21a	0.1980671
219	0xbe826c06	-0.2547304
220	0xbe204c4d	-0.15654106
221	0xbdea98e5	-0.114549436
222	0xbdd0f8ac	-0.102036804
223	0x3e91a20f	0.28443953
224	0xbe485d69	-0.19566883
225	0xbea775bf	-0.3270702
226	0xbe5eed33	-0.21770172
227	0x3caba3d5	0.020952145
228	0x3dffe867	0.12495499
229	0x3e1cafcd	0.15301438
230	0xbd0a2fb5	-0.033736903
231	0xbde26c1a	-0.11055775
232	0xbe9849fd	-0.2974395
233	0x3ba94aeb	0.0051664016
234	0xbd76c184	-0.060243145
235	0xbc9adea1	-0.018904986
236	0x3e354d5a	0.17705289
237	0x3e11b644	0.14229685
238	0xbde71f52	-0.11285271
239	0xbc714f35	-0.014728357
240	0xbe15d73b	-0.14632885
241	0x3d6bad84	0.057538524
242	0x3e4b6639	0.19863214
243	0x3ddc6f43	0.10763409
244	0x3e68eb48	0.22746003
245	0x3e22ef8c	0.15911692
246	0x3da37909	0.0798207
247	0x3de48fd7	0.11160248
248	0x3e096fd8	0.13421571
249	0xbb99ca44	-0.0046933014
250	0x3e1e331b	0.15449183
251	0xbdaae922	-0.08345248
252	0x3d9456a1	0.07243086
253	0x3d048a17	0.032358255
254	0xbd9f4465	-0.07776717
255	0xbe023d69	-0.12718739

network_body._body_endoder.seq_layers.0.bias f4 [256]
0	0x3b7eb7f9	0.003886698
1	0x3b978e0c	0.0046250876
2	0x3c99aba7	0.018758608
3	0x3ce803c6	0.028322112
4	0x3d2fa946	0.04288604
5	0x3c9ce7b3	0.019153452
6	0x3c5ddc2b	0.013541262
7	0x3c8fadbd	0.0175389
8	0xbb0bb671	-0.002131846
9	0xbc2d5245	-0.010578697
10	0x3c664a84	0.014055852
11	0x3d0ac8c5	0.033882875
12	0x3c95237c	0.018205397
13	0x3d00ad78	0.031415433
14	0x3bc89675	0.0061214515
15	0x3c978718	0.018497035
16	0x3b0dbb91	0.002162669
17	0x3d1fa6dc	0.03897749
18	0x3be8070f	0.0070809196
19	0x3c89038e	0.016725328
20	0xbc3b889d	-0.011446145
21	0x3c3dde18	0.011588596
22	0x3d01a3d6	0.031650387
23	0x3c979795	0.018504897
24	0x39085179	0.00013000322
25	0x3d051986	0.032495044
26	0x3d06c532	0.032902904
27	0x3b00a873	0.0019631654
28	0x3c84bdb8	0.016203746
29	0x3c566e55	0.013087829
30	0x3d83e72a	0.064405754
31	0x3d05ac27	0.03263488
32	0xbbbc95d3	-0.005755165
33	0x3c3e76f6	0.011625042
34	0x3a741f36	0.0009312512
35	0x3c86fd96	0.016478341
36	0x3c2249d8	0.009905301
37	0x3ce600c4	0.028076537
38	0x39bbfc10	0.0003585522
39	0x3c761aa1	0.015020997
40	0x3bec9c80	0.0072208047
41	0xbc2291a3	-0.009922418
42	0x3d049c72	0.03237576
43	0xbba38c0a	-0.004991059
44	0xbc050f60	-0.0081213415
45	0x3cdcf978	0.026974425
46	0x3c0a337a	0.0084351245
47	0xbcc54775	-0.024081925
48	0x3b134626	0.0022472232
49	0xbc59e417	-0.01329901
50	0x3c97c909	0.018528478
51	0x3b52bae3	0.003215485
52	0x3d454804	0.048164383
53	0x3c65f579	0.014035576
54	0x3cedb57e	0.029017206
55	0xbc1cf706	-0.009580379
56	0x3b00e8b7	0.001966996
57	0xbc0faaa6	-0.008768713
58	0x3d21de45	0.039518613
59	0x3c561903	0.013067487
60	0x3c831fca	0.01600637
61	0xbc63414d	-0.013870549
62	0x3c139bf7	0.009009353
63	0x3b288718	0.0025715288
64	0x3c8946e5	0.016757438
65	0x3d18b343	0.037280332
66	0x3c241b62	0.010016294
67	0x3cf07ae9	0.029355483
68	0x3ab5cf6c	0.0013871021
69	0xbb1aab34	-0.002360058
70	0xbc76c6e6	-0.0150620695
71	0x3c6c107a	0.014408225
72	0x3d45d8cf	0.048302468
73	0x3cb2e25c	0.021836452
74	0x3be352e2	0.0069373706
75	0x3c6f66e4	0.014611933
76	0x3b016aae	0.0019747424
77	0x3bd3b382	0.006460608
78	0x3b8d95b3	0.004320824
79	0x3cc51fd3	0.024063027
80	0x3d09cc1d	0.033641923
81	0x3c4d385e	0.012525646
82	0xbc146d4c	-0.0090592615
83	0x3c122bbc	0.00892156
84	0x3bbe8f5a	0.0058154287
85	0x3c68cf65	0.014209603
86	0x3c359c05	0.011084561
87	0x3d07226b	0.032991808
88	0xbc0137c2	-0.007886829
89	0x3c47bfd2	0.01219173
90	0xbc2cb3d1	-0.010540918
91	0xbd178f72	-0.037002034
92	0x3bfc99c9	0.0077087623
93	0x3c96daa7	0.018414808
94	0x3bef59f0	0.0073044226
95	0x3cd10665	0.025515744
96	0x3c6c6763	0.014428946
97	0x3cc96a71	0.024586888
98	0x3bde3ef4	0.006782407
99	0x3d58ff69	0.052977953
100	0x3cee4c8e	0.029089238
101	0x3d1e8356	0.03869947
102	0x3b63d581	0.003476471
103	0x3c3c7611	0.011502759
104	0x3bd04953	0.006356397
105	0xbb5116be	-0.0031904425
106	0xbc38806d	-0.011261088
107	0x3c287c0f	0.010283484
108	0xbb9f7a48	-0.004866872
109	0x3d0b26bb	0.033972483
110	0x3c87a32b	0.016557297
111	0x3cc3bb6c	0.02389308
112	0x3ca504c9	0.020143883
113	0x3d1ba958	0.038003296
114	0x3c6fb8a7	0.014631427
115	0x3bcd620a	0.0062677907
116	0x3af38ce6	0.001858142
117	0x3b94bff2	0.004539483
118	0x3c9c6618	0.01909165
119	0x3cd7cf33	0.026343917
120	0x3c3e5bb7	0.011618546
121	0x3b7932b7	0.0038024613
122	0x3cb009d6	0.021489065
123	0x39a9564f	0.00032298497
124	0xbc2135a4	-0.009839449
125	0xbbee0b96	-0.0072645647
126	0x3b44c80c	0.0030026464
127	0x3c839219	0.016060876
128	0x3cdd719f	0.027031718
129	0x3c2d1a18	0.010565303
130	0x3b975abf	0.004618972
131	0xbb0fde58	-0.0021952596
132	0xbb3631d6	-0.00278007
133	0x3bf77005	0.0075511956
134	0xbb8e4580	-0.004341781
135	0x3c99dcf2	0.018782113
136	0xbc329d62	-0.010901781
137	0xbc1bc9e9	-0.009508588
138	0x3c197c26	0.009367978
139	0x3b62acd0	0.0034587868
140	0x3d60b066	0.054855727
141	0xbbe647a1	-0.007027582
142	0xbba8dc4f	-0.005153216
143	0xbd00540e	-0.03133016
144	0xb8017ffd	-3.0875195e-05
145	0x3ce12f1e	0.027488288
146	0x3b5a03b0	0.0033266358
147	0xbbd2c3d8	-0.006432038
148	0xbc9d130b	-0.01917412
149	0x3ce44a5a	0.027867485
150	0x3c30b8a5	0.01078621
151	0x3d123b15	0.035700876
152	0x3cb8a3af	0.022538988
153	0x39811d8d	0.00024626814
154	0x3ceb7939	0.028744327
155	0x3c5a7001	0.013332368
156	0x3d1d1512	0.038350172
157	0x3d2a7ec0	0.041624784
158	0xbaa72b5f	-0.0012754014
159	0x3c3d0985	0.011537914
160	0x3c3ab5aa	0.011395851
161	0x3a206923	0.0006119182
162	0x3c78d09e	0.015186457
163	0xbb86cb13	-0.004113564
164	0x3c9fe388	0.019517675
165	0x3c3937b7	0.011304787
166	0x3d182f29	0.03715435
167	0xbaab9886	-0.001309172
168	0x3cb7d2c5	0.02243937
169	0x3c053df3	0.008132446
170	0xbc43ce0b	-0.01195098
171	0x3ce83ec9	0.02835025
172	0x3a332701	0.000683412
173	0x3c4763fd	0.012169835
174	0x3bdf8abb	0.006821958
175	0x3cd2f394	0.025750913
176	0x3bbd2443	0.005772145
177	0xbc6d2fb9	-0.01447671
178	0x3b3dfb1d	0.0028988787
179	0xbbadd6fd	-0.0053051696
180	0x3d0b976d	0.034079958
181	0x3c14048f	0.00903429
182	0x3c895885	0.016765842
183	0x3b961710	0.004580386
184	0xbc9f6818	-0.019458815
185	0x3ce15dcb	0.027510544
186	0x3c7e7479	0.015530699
187	0xbbd17a13	-0.006392726
188	0xbc8a7123	-0.01689965
189	0x3c057370	0.008145198
190	0x3d1dffcb	0.03857402
191	0x3c5ba8b8	0.013406925
192	0xbcbdebea	-0.023183782
193	0x3c290b9d	0.01031771
194	0xbc804fe9	-0.015663104
195	0xbb6f2caa	-0.0036495128
196	0xbb19e035	-0.0023479585
197	0x3bb4e0d5	0.005519966
198	0x3c2af2c2	0.010433855
199	0x3c912d2b	0.017721733
200	0x3ce1b4c4	0.027552016
201	0x3d28dcf0	0.041226327
202	0x3c917ac2	0.01775873
203	0x3be92367	0.007114816
204	0x3ac5ab42	0.0015080946
205	0xbc1bc976	-0.009508481
206	0xbba89134	-0.0051442627
207	0x3caff4f3	0.021479106
208	0xba2bcb07	-0.0006553386
209	0x3c5c989b	0.013464118
210	0xbb96c2bd	-0.0046008513
211	0x3c3a0757	0.011354289
212	0x3a31777c	0.0006769819
213	0x3cb458fc	0.022015087
214	0x3cb49e25	0.022048065
215	0x3cba5c6a	0.022749145
216	0xbcaf146c	-0.021372043
217	0x3d20c70a	0.03925232
218	0x3b95e26d	0.004574111
219	0x3c8879f9	0.016659724
220	0x3c8588ee	0.016300645
221	0x3bb48a1b	0.0055096275
222	0xbb27a12d	-0.0025578246
223	0x3d2f8513	0.04285152
224	0xbc197f58	-0.00936874
225	0x3d1ba990	0.038003504
226	0xbc3ddb1d	-0.011587885
227	0x3cc1d927	0.023663117
228	0x3b50c3bf	0.0031854955
229	0x3c209504	0.009801153
230	0x3c96eb62	0.018422786
231	0x3d00daf9	0.03145883
232	0xbc06ff4e	-0.00823958
233	0x3c2eec6b	0.010676484
234	0x3c63d6f3	0.013906228
235	0x3b9ebc9a	0.0048442604
236	0x3bd01b9c	0.0063509475
237	0x3d30f8cc	0.04320602
238	0x3a208953	0.00061239785
239	0xbbe4a09f	-0.0069771553
240	0xba4333f0	-0.0007446399
241	0x3bdcbb64	0.006736206
242	0x3cb5862d	0.022158707
243	0xbba59990	-0.0050537065
244	0x3c9123a3	0.017717188
245	0x3c053336	0.008129885
246	0xbc875678	-0.016520724
247	0x3a70f207	0.00091913383
248	0xbb79344a	-0.0038025551
249	0x3c9966c1	0.018725755
250	0x3beea9c3	0.007283421
251	0xbc01563a	-0.007894093
252	0x3c4c993f	0.012487709
253	0x3b5f0380	0.0034029186
254	0x3c132520	0.008981019
255	0x3cde4790	0.027133733

network_body._body_endoder.seq_layers.2.weight f4 [256, 256]
0	0xbd6b3f0d	-0.057433177
1	0xbd67907e	-0.056534283
2	0x3d7af024	0.061264172
3	0xbd4be46c	-0.049778387
4	0xbdd5d0c1	-0.10440207
5	0x3dff37f4	0.12461844
6	0x3d50e9d1	0.051004235
7	0x3dd20de4	0.10256556
8	0x3dac4b3d	0.08412788
9	0xbd9b1015	-0.07571427
10	0x3c10dda5	0.008841907
11	0x3b21ebd2	0.002470721
12	0xbd458a48	-0.04822758
13	0xbdb50fcf	-0.08840906
14	0x3c76f554	0.015073139
15	0xbd875dcb	-0.066096865
16	0xbd6bd819	-0.057579134
17	0xbe316ec3	-0.17327408
18	0x3c2d78cc	0.010587882
19	0xbc9ebec6	-0.019378077
20	0x3d5c78d4	0.05382617
21	0x3d648950	0.055795014
22	0xbdec8ac6	-0.115499064
23	0x3b88eb69	0.0041784537
24	0xbc4130bd	-0.011791405
25	0x3cb0adb7	0.021567209
26	0xbd41d263	-0.04731978
27	0xbd0b6f9d	-0.03404199
28	0x3dbcfe56	0.09228198
29	0xbda7815c	-0.0817897
30	0x3db51217	0.08841341
31	0xbd90d607	-0.070720725
32	0x3cf19d69	0.029494004
33	0xbc43fd0d	-0.0119621875
34	0x3d2c6eb7	0.042097773
35	0xbc4ecfa4	-0.012622748
36	0xbc7cd04c	-0.015430521
37	0xba2c0042	-0.0006561318
38	0x3dc0d71c	0.09416029
39	0xbdb791aa	-0.0896333
40	0x3d006aec	0.03135197
41	0x3b4b1d28	0.003099272
42	0x3d045478	0.03230712
43	0x3d95271c	0.0728285
44	0x3deeae9e	0.11654399
45	0x3d1fd78f	0.039023932
46	0xbd30651a	-0.043065168
47	0x3c9949b9	0.018711912
48	0xbc9dbbc1	-0.019254567
49	0x3d1b7d5a	0.03796134
50	0xbd05b5cc	-0.032644078
51	0x3c8315fd	0.016001696
52	0x3d9f9b4e	0.07793294
53	0x3ca6b69a	0.020350743
54	0x3c94f7aa	0.018184502
55	0xbda47d26	-0.08031683
56	0xbd9e7c5a	-0.07738562
57	0xbc294c44	-0.010333125
58	0x3d28f070	0.041244924
59	0xbc84e8e0	-0.016224325
60	0x3d85b78a	0.06529148
61	0x3c3b7fc8	0.01144404
62	0xbdc86c0f	-0.097862355
63	0xbd906f64	-0.07052496
64	0xbd81b36d	-0.06333051
65	0x3cbe5cd2	0.02323762
66	0x3cada268	0.021195605
67	0xbe0ccdee	-0.13750431
68	0xbd4ac627	-0.04950538
69	0x3da041dc	0.07825062
70	0xbcbd323e	-0.023095246
71	0x3d840b5f	0.06447481
72	0xbd022222	-0.031770833
73	0x3d1cd861	0.038292293
74	0xbc8f5745	-0.017497668
75	0xbc9281a1	-0.017884078
76	0xbd76c4d3	-0.0602463
77	0x3c37087b	0.0111714555
78	0xbd8a14a9	-0.06742222
79	0x3d4f634d	0.05063181
80	0xbbb37b4f	-0.005477346
81	0xbdd0b1e9	-0.10190184
82	0x3d8eca27	0.06972151
83	0x3dab480e	0.08363353
84	0x3b499f9b	0.0030765298
85	0x3dfcedb8	0.12350029
86	0xbcf84fd1	-0.030311497
87	0xbcc3a72d	-0.023883427
88	0x3e13267d	0.14370151
89	0xbdc1845b	-0.09449073
90	0x3cc27c46	0.023740899
91	0xbcad6383	-0.021165615
92	0x3ca31a1a	0.019909907
93	0xbafbaf4c	-0.0019202023
94	0x3e1ab947	0.1510974
95	0xba2abde6	-0.00065132824
96	0x3d2ca4fd	0.042149533
97	0x3d7827d9	0.060584877
98	0xbd34725e	-0.04405438
99	0x3e02a995	0.12760003
100	0xbdaf5118	-0.08560389
101	0xbde84fb3	-0.113433264
102	0xbd13790c	-0.03600411
103	0x3deaece6	0.11470966
104	0x3d712ed4	0.05888255
105	0x3c64c80a	0.013963709
106	0xbd43835d	-0.0477327
107	0xbd1235e1	-0.035695914
108	0xbde4aa2c	-0.1116527
109	0x3dd2518f	0.10269462
110	0x3c3f68d8	0.011682712
111	0xbd2b094e	-0.04175692
112	0xbd35f1a5	-0.044419903
113	0xbc841325	-0.01612241
114	0x3ce00138	0.027344331
115	0x3d98332e	0.07431637
116	0xbda2a58d	-0.079417326
117	0xbade53d5	-0.001696224
118	0xbd1de24e	-0.0385459
119	0x3b8bbed9	0.004264694
120	0x3d8770f5	0.06613342
121	0x3be52aa6	0.0069936095
122	0x3daa4111	0.08313192
123	0x3d676fe4	0.05650319
124	0xbcbde468	-0.023180202
125	0x3c9aec68	0.018911555
126	0x3c13ee8a	0.00902904
127	0x3d564df2	0.05232043
128	0xbdb1d14d	-0.08682499
129	0xbdd207ea	-0.10255416
130	0xbdcc5042	-0.099762455
131	0x3d5935cb	0.053029817
132	0x3d83d43f	0.06436967
133	0x3af6b87f	0.0018823295
134	0x3ddca62a	0.10773881
135	0xbd8cf7ed	-0.068832256
136	0x3d5513a4	0.052020684
137	0x3db1bee2	0.08678986
138	0x3dcaddee	0.09905611
139	0x3c2e5a40	0.010641634
140	0xbde5a1b6	-0.112124845
141	0xbca3b2bc	-0.019982688
142	0x3d553641	0.052053694
143	0xbd3683bf	-0.044559237
144	0xbddf5ca6	-0.10906343
145	0x3cf070d6	0.02935068
146	0x3da7695f	0.08174395
147	0x3aab458a	0.0013066989
148	0xbd4f6d76	-0.0506415
149	0xbc023ff4	-0.007949818
150	0x3e2766d3	0.16347818
151	0x3ca09a8d	0.019604946
152	0xbc66d08d	-0.014087808
153	0xbb894625	-0.00418927
154	0xbd797845	-0.060905714
155	0xbd45391f	-0.048150178
156	0xbe0facf1	-0.14030816
157	0xbdb49f92	-0.08819498
158	0xbe046827	-0.12930356
159	0x3c0d6377	0.008629671
160	0xbd8a27d0	-0.06745875
161	0x3d0a5b15	0.03377827
162	0x3c21007a	0.009826774
163	0x3d84e3c4	0.06488755
164	0xbdac56a2	-0.084149614
165	0xbd21322c	-0.03935449
166	0xbc8633f4	-0.016382195
167	0x3cd7a561	0.026323976
168	0x3dffd022	0.1249087
169	0xbd19cea9	-0.037550602
170	0x3d13013f	0.03588986
171	0x3cba2cbf	0.022726415
172	0x3cbd5d36	0.023115736
173	0x3dc06a33	0.09395256
174	0x3d1afd8a	0.03783945
175	0xbe0338d3	-0.12814645
176	0xbdad70ff	-0.08468818
177	0x3d158901	0.03650761
178	0xbc0371bf	-0.008022725
179	0xbdeac9dd	-0.114642836
180	0xbda8fe7e	-0.082516655
181	0x3cf524ca	0.029924769
182	0xbd87613a	-0.06610341
183	0x3b8b8277	0.004257496
184	0x3c12435f	0.008927195
185	0x3c96e7b1	0.018421026
186	0x3dcf29fd	0.101154305
187	0xbe007d2f	-0.12547754
188	0x3d9df126	0.07712011
189	0xbcc9991d	-0.024609143
190	0xbdb2b155	-0.0872523
191	0x3c893f6a	0.016753871
192	0x3e14fd93	0.14549856
193	0x3d3b2430	0.045688808
194	0xbd337a1d	-0.04381763
195	0xbcb586cc	-0.022159003
196	0x3d76ed94	0.060285166
197	0xbc45b437	-0.012066892
198	0x3d2ba7e2	0.041908152
199	0x3d568db4	0.052381232
200	0xbd37632c	-0.044772312
201	0x3d885a55	0.066578545
202	0x3c116afe	0.008875607
203	0xbd9ab9f3	-0.07554998
204	0xbe05db2b	-0.13071887
205	0xbd0e6db0	-0.034772575
206	0xbc80d2dd	-0.015725547
207	0xbd72138d	-0.059100676
208	0x3d618885	0.055061836
209	0x3cb51338	0.02210389
210	0xbdb6d906	-0.08928113
211	0x3dea75e1	0.11448265
212	0xbdc9ade8	-0.09847623
213	0xbd5cca23	-0.05390371
214	0x3dd995dc	0.106242865
215	0x3cb5295b	0.022114446
216	0xbc61df13	-0.013786095
217	0x3d0503c6	0.0324743
218	0x3d23848a	0.03992132
219	0xbcd5607f	-0.02604699
220	0x3d12700a	0.03575138
221	0x3e0b98ff	0.13632582
222	0x3ad37cfa	0.0016135268
223	0x3ccd2955	0.025044123
224	0x3d2e85e9	0.042608175
225	0x3cbd408d	0.02310207
226	0x3c19b352	0.009381132
227	0xbd652b32	-0.055949397
228	0xbd981dc5	-0.07427553
229	0xbd0e744d	-0.03477888
230	0xbde4122f	-0.11136281
231	0xbd3f8c35	-0.04676457
232	0xbb2ec4fb	-0.0026667702
233	0x3bbf7f56	0.005844037
234	0xbdc0f257	-0.09421223
235	0xbdb28f37	-0.08718722
236	0xbcee9005	-0.029121408
237	0x3d8539ae	0.06505142
238	0x3d8108fe	0.06300543
239	0x3c119ba1	0.0088872025
240	0xbd8e7b99	-0.06957168
241	0x3c2c0d57	0.010501227
242	0x3d1fd410	0.039020598
243	0xba9049d0	-0.0011008326
244	0xbceee4b0	-0.029161781
245	0x3deb8787	0.11500459
246	0x3d1a0e3c	0.03761123
247	0xbd6df8fb	-0.058098774
248	0x3d8f7cb4	0.07006207
249	0xbd4819ea	-0.04885284
250	0x3bec1efd	0.0072058425
251	0xbab8e97d	-0.0014107671
252	0xbda769c9	-0.08174474
253	0xbd8f8836	-0.07008402
254	0x3c8c1eb2	0.01710448
255	0x3d65755a	0.05602012

network_body._body_endoder.seq_layers.2.bias f4 [256]
0	0xbba3df13	-0.0050009578
1	0x3c43070f	0.011903538
2	0x3cc3c93e	0.02389967
3	0x3bccc1ae	0.0062486744
4	0x3c8ba5b1	0.017046781
5	0x3c925d48	0.017866746
6	0x3bba92a5	0.005693751
7	0x3c7db2ce	0.015484525
8	0x3b69268d	0.0035575957
9	0x3c59d015	0.0132942395
10	0x3bb80ed5	0.0056170025
11	0x3c850e4d	0.01624217
12	0xbb7f4d68	-0.003895605
13	0x3c9adefb	0.018905153
14	0x3b991195	0.0046712854
15	0x3c0b6ec3	0.008510294
16	0x3c81c5a0	0.015841305
17	0x3c7b9eb9	0.015357667
18	0x3b0524a7	0.0020316036
19	0x3c1f41c3	0.009720269
20	0x3c68ef85	0.014217262
21	0x3c2d09ee	0.010561449
22	0x3ac8bcc9	0.0015315051
23	0x3c0b0855	0.008485873
24	0x3cb6d8fb	0.022320261
25	0x3ca2e2cf	0.019883541
26	0x3c949ff8	0.018142685
27	0x3be4ec35	0.006986166
28	0xbabb0922	-0.001426969
29	0x3c7c8d94	0.015414614
30	0x3c4a8104	0.012359861
31	0x3c3945af	0.011308118
32	0x3cade1ae	0.021225777
33	0xbc740b7b	-0.014895315
34	0xbbad0289	-0.005279843
35	0x3b2dba9c	0.0026508933
36	0x3c77651f	0.015099793
37	0x3cd32b8b	0.025777599
38	0x3c5dd9f8	0.013540737
39	0xbc97b863	-0.01852054
40	0x3c8a26bb	0.016864171
41	0xbae1f93f	-0.0017240419
42	0x3c0fa20c	0.008766662
43	0x3caf03d9	0.02136414
44	0x3c4619ea	0.012091139
45	0x3bcbb7cb	0.006216978
46	0x3cd619be	0.026135322
47	0x3bdde4e2	0.0067716697
48	0x3bae391e	0.0053168675
49	0x3b470683	0.0030368872
50	0x3cad9b34	0.02119217
51	0x3c946f53	0.01811949
52	0xbb26e5dc	-0.0025466597
53	0x3bf9c89c	0.0076227915
54	0xbb159d4c	-0.0022829352
55	0x3c6a335c	0.014294472
56	0x3cd5a797	0.02608089
57	0x3c353005	0.011058812
58	0x3aba568e	0.0014216469
59	0x3ca8ff22	0.02062947
60	0x3b85badb	0.004081113
61	0xbc3264da	-0.010888303
62	0x3c961147	0.018318785
63	0x3cb1a47f	0.021684883
64	0xbb157463	-0.0022804968
65	0x3bca6148	0.0061761476
66	0x3c449b06	0.011999851
67	0x3bf801c9	0.007568572
68	0x3c7df0a4	0.015499268
69	0xbcb76c88	-0.022390619
70	0x3c87c782	0.016574625
71	0x3b9c1d83	0.0047642603
72	0x3c9cc1ec	0.019135438
73	0x3c1e3b63	0.009657714
74	0x3ce04ff1	0.027381869
75	0x3bf68a26	0.007523793
76	0x3c704b66	0.014666414
77	0x3bf72bde	0.007543071
78	0x3c248845	0.010042255
79	0x3cc36b08	0.023854747
80	0x3b6d32e9	0.0036193675
81	0x3c359c61	0.011084647
82	0xbb57616a	-0.003286446
83	0x3cad9e98	0.021193787
84	0x3cbd4ee9	0.023108916
85	0x3c23bdd0	0.009993985
86	0x3c5b2904	0.013376478
87	0xbbe3736d	-0.00694125
88	0x3be67fc1	0.0070342724
89	0x3bf4ba93	0.0074685304
90	0x3cb109cd	0.021611119
91	0xbc8562b7	-0.016282422
92	0x3cd1005c	0.025512867
93	0xba064fe5	-0.00051235995
94	0x3bcb1e6a	0.006198694
95	0x3bf25c0f	0.007396228
96	0x3c33af49	0.010967084
97	0x3c89b40f	0.016809491
98	0xbb981af9	-0.0046418873
99	0x3cefb5f7	0.029261572
100	0xbb67e21e	-0.003538258
101	0x3b9ea0ee	0.0048409617
102	0x3c66a3aa	0.0140771065
103	0x3cae5238	0.02127944
104	0x3c467a86	0.012114173
105	0xbac4ad53	-0.0015005268
106	0x3cf29786	0.029613268
107	0xb9c34f9d	-0.00037252615
108	0x3c9ad7ad	0.01890167
109	0x3cdde0dd	0.027084762
110	0xbb662763	-0.003511869
111	0x3ca19da5	0.019728491
112	0x3c8fd1d1	0.017556103
113	0xbb49cf5c	-0.0030793762
114	0x3cbaf820	0.022823393
115	0x3c08c291	0.0083471695
116	0x3c681a96	0.014166495
117	0x3c143f09	0.009048232
118	0xbac7493f	-0.0015204324
119	0x3c35c47b	0.011094208
120	0x3b9b7057	0.0047436166
121	0x3b95705a	0.0045605125
122	0xbb5b4512	-0.0033457917
123	0x3bf9a9f9	0.0076191393
124	0x3cd80d07	0.0263734
125	0x3c2284b0	0.0099193305
126	0x3c090ad4	0.008364398
127	0x3ba0887d	0.004899083
128	0x3c416de0	0.011805981
129	0xbbaae97d	-0.0052158223
130	0x3be82ef5	0.007085676
131	0x3ca4fa80	0.020138979
132	0x3c6d196d	0.014471394
133	0xbb859149	-0.004076157
134	0x3bed3ea6	0.0072401343
135	0x3c8df34d	0.017327929
136	0x3c5b5e91	0.013389246
137	0x3ccd0680	0.025027514
138	0x3c8552cd	0.016274834
139	0x3c778201	0.015106679
140	0x3c7fd83e	0.015615521
141	0xbb336cd4	-0.00273781
142	0x3c6bdcb3	0.0143958805
143	0xbbe34963	-0.0069362386
144	0x3ca4998c	0.020092748
145	0x3c4af6b0	0.012387916
146	0x3bd9643b	0.006634263
147	0x3ccbfd9d	0.024901206
148	0xb8c4b4b0	-9.379664e-05
149	0x3ca54833	0.020176029
150	0xbb21f9ac	-0.0024715466
151	0x3bb4e418	0.005520355
152	0x3b90d004	0.0044193286
153	0x3cffb3da	0.03121369
154	0x3ca4c0cf	0.02011147
155	0x3ca58a1c	0.020207457
156	0x3c9c6de9	0.019095378
157	0x3b804b03	0.003915192
158	0x3ca030ca	0.019554514
159	0xbbc96c58	-0.006146949
160	0x3c1fbdf2	0.009749876
161	0x3c05e9f7	0.008173457
162	0x3bfa8e3f	0.0076463516
163	0x3c92bccf	0.017912297
164	0x3bdcdb61	0.006740019
165	0xbb25e230	-0.002531182
166	0x3bd80d65	0.0065933936
167	0x3c474f41	0.012164892
168	0x3c6e1392	0.014531033
169	0x3d2276ca	0.039664067
170	0xbb312e34	-0.0027035596
171	0x3bea4f8d	0.0071505965
172	0x3c351105	0.011051421
173	0x3c10d702	0.008840324
174	0x3c869b1b	0.016431382
175	0xbac78c02	-0.0015224221
176	0xbc4351de	-0.011921374
177	0x3b08c374	0.0020868452
178	0x3d0427f2	0.032264657
179	0x3c8ddef4	0.017318226
180	0x3cf1c4a0	0.029512703
181	0x3b37db24	0.0028054202
182	0xbb9d8d28	-0.004808087
183	0x3c76901e	0.015049009
184	0xbb13ca5d	-0.0022551038
185	0x3b17ac3c	0.0023143431
186	0xbb27b2ba	-0.0025588707
187	0xbba1b34d	-0.0049347044
188	0x3bc5fc68	0.006042052
189	0x3c185e12	0.009299772
190	0x3b184e8e	0.0023240182
191	0x3c39be63	0.011336896
192	0x3ca68b71	0.020330163
193	0x3c268c33	0.010165262
194	0x3c088476	0.008332362
195	0x3bc179ed	0.0059044273
196	0x3c98d5e2	0.018656675
197	0x3c62e39d	0.013848213
198	0x3a153eb1	0.00056932407
199	0x3ae1c0e8	0.0017223628
200	0x3c95094f	0.018192915
201	0x3c7503a2	0.014954479
202	0x3ca776c0	0.020442367
203	0x3bfd16fd	0.0077236877
204	0x3cb29ab1	0.021802278
205	0x3b79c069	0.003810907
206	0x3b8fb770	0.004385881
207	0xbbae77f4	-0.005324358
208	0x3c468c8c	0.01211847
209	0x3b005f73	0.0019588142
210	0x3c80bc1f	0.015714703
211	0x3c4ced7d	0.0125077935
212	0x3c010ea0	0.007877022
213	0x3b5975a8	0.00331817
214	0x3a54be31	0.0008115499
215	0x3b6898ec	0.003549154
216	0x3c7e350a	0.015515575
217	0x3c4b356b	0.012402873
218	0x3c4c3367	0.012463427
219	0x3c8ed82d	0.017437065
220	0x3c95faad	0.018308008
221	0x3c9ab0da	0.018883158
222	0x3c2b2bed	0.010447484
223	0x3caad0e5	0.020851562
224	0x3b55c709	0.0032619855
225	0x3cc063d1	0.023485096
226	0x3babe559	0.005245846
227	0x3cc40b5a	0.023931194
228	0x3be24bf4	0.006906027
229	0x3b51ed22	0.0032032211
230	0xbb30243b	-0.0026877064
231	0x3c88e989	0.01671292
232	0x39bc3bcf	0.00035902715
233	0x3c09fc4f	0.008421971
234	0x3bbbbcd6	0.005729298
235	0x3ca1d702	0.019755844
236	0x3b9e41d0	0.004829623
237	0x3c414f6c	0.011798721
238	0x3c65e897	0.0140325045
239	0x3cc3bf40	0.023894906
240	0x3c9025cd	0.01759615
241	0x3bf79f70	0.007556848
242	0xbafd3ce2	-0.0019320513
243	0x3c787478	0.015164487
244	0x3bdad983	0.0066787614
245	0xbafb1bf5	-0.0019158112
246	0x3ca85cec	0.020552121
247	0x3c74f6ef	0.014951452
248	0x3c827832	0.015926454
249	0x39aff971	0.0003356445
250	0x3ca2895a	0.019840885
251	0x3cf2cb39	0.02963792
252	0x3bdd1abe	0.0067475727
253	0x3c3f42d3	0.011673647
254	0x3c298844	0.01034743
255	0x3bbf50a1	0.005838469

action_model._continuous_distribution.log_sigma f4 [1, 5]
0	0xbd6e0a57	-0.05811533
1	0xbd976194	-0.073916584
2	0xbacea5a9	-0.0015765923
3	0xbca45c7c	-0.020063631
4	0xbbdddb6d	-0.0067705424

action_model._continuous_distribution.mu.weight f4 [5, 256]
0	0x3c078285	0.008270864
1	0x3d3e2f19	0.046431635
2	0x3cbef5d9	0.023310589
3	0xbd79de36	-0.061002932
4	0x3ce09717	0.027415795
5	0x3d1237fe	0.03569793
6	0x3c9b4dd8	0.018958017
7	0x3c401496	0.011723658
8	0xbc9e3c83	-0.019315964
9	0xbb1d42df	-0.0023996157
10	0xbd6d74b4	-0.057972625
11	0xbd0a7437	-0.033802237
12	0xbbea409e	-0.0071488163
13	0xbb660f21	-0.0035104232
14	0x3b5c43dc	0.0033609783
15	0x3d4dc2da	0.050234653
16	0xbd553807	-0.052055385
17	0x3d906d78	0.070521295
18	0xbcf6fe05	-0.030150423
19	0x3ca89d1a	0.020582724
20	0xbcf463b2	-0.029832695
21	0x3d753a9e	0.059870355
22	0x3bdb4cfb	0.0066925264
23	0x3c814a8d	0.015782619
24	0x3c9cdbf8	0.019147858
25	0xbd8e49e1	-0.06947685
26	0xbd86ebc6	-0.06587939
27	0x3d732164	0.059358016
28	0x3b7bbf15	0.0038413454
29	0x3cf815c0	0.030283809
30	0x3d579031	0.052627746
31	0xbd189298	-0.037249178
32	0xbc881c24	-0.016614981
33	0x3d0be35d	0.034152377
34	0x3ab00991	0.0013430585
35	0xbd2941e0	-0.04132259
36	0xbd239646	-0.039938234
37	0x3c6b3f22	0.014358314
38	0xbd89b1d3	-0.067233704
39	0xbcbc3ebf	-0.022979138
40	0xbd7961b0	-0.060884178
41	0x3d540430	0.051761806
42	0xbab3a0cc	-0.0013704537
43	0x3d81f755	0.06346003
44	0x3be21146	0.006899032
45	0x3d86bb09	0.06578643
46	0xbd3cf767	-0.04613438
47	0xbccd21e8	-0.025040582
48	0xbd464e87	-0.048414733
49	0x3d05835b	0.032595973
50	0xbd848416	-0.06470506
51	0x3c7d3acc	0.015455913
52	0xbd202cf3	-0.039105367
53	0xbb2f6b4e	-0.002676684
54	0x3d21fe0b	0.039548915
55	0xbcdfca43	-0.027318126
56	0xbdc75be0	-0.09734321
57	0x3c57e5d5	0.013177355
58	0xbc47476c	-0.012163024
59	0xbd804e21	-0.06264902
60	0xbca34db2	-0.019934509
61	0x3af216ef	0.001846997
62	0x3d4f2eac	0.05058162
63	0x3bebdc15	0.0071978667
64	0x3cb3d5fc	0.021952622
65	0x3c9d0657	0.019168062
66	0xbbd3b0af	-0.0064602713
67	0x3d37e6ad	0.044897724
68	0x3d5d8088	0.054077655
69	0x3cb9b394	0.022668637
70	0xbd035875	-0.03206678
71	0x3d286818	0.041114897
72	0xbc9b3098	-0.01894407
73	0xbbc8a9ca	-0.006123756
74	0x3ca5f5df	0.020258842
75	0x3d9976c5	0.074933566
76	0xbdb40846	-0.087906405
77	0x3c7e5f5c	0.015525665
78	0xbd364adb	-0.04450498
79	0x3d42e433	0.04758091
80	0x3d0f67fd	0.03501128
81	0x3d960c89	0.0732661
82	0x3b4077bd	0.0029368245
83	0x3cd7beb5	0.026336053
84	0xbd464736	-0.048407756
85	0x3cf10a32	0.029423807
86	0xbd5707fb	-0.052497845
87	0xbd369b7b	-0.04458187
88	0x3d15e25d	0.03659283
89	0xbd58fa1b	-0.052972894
90	0xbd75f2da	-0.060046054
91	0x3b146ed9	0.0022649078
92	0xbcb9b754	-0.022670425
93	0x3ccc006e	0.024902549
94	0xbd076cf2	-0.033062883
95	0xba77481e	-0.00094330485
96	0x3cb7e31e	0.022447165
97	0x3c3f7018	0.01168444
98	0xbd242822	-0.040077336
99	0xbd1b6775	-0.03794046
100	0x3d3304a5	0.0437056
101	0xbad19186	-0.0015988804
102	0x3d806fcc	0.062713236
103	0x3b826ef0	0.00398051
104	0xbc6ce506	-0.0144589
105	0x3d25e2d1	0.040499512
106	0xbd2b0fcc	-0.041763112
107	0x3c8fc9e4	0.017552324
108	0xbd5cd5e7	-0.05391493
109	0xbdb106f9	-0.08643908
110	0x3d56d53a	0.052449442
111	0x3d53167f	0.051535126
112	0x3d7c6ed6	0.06162914
113	0x3d4ed143	0.050492536
114	0xbd147496	-0.036243998
115	0xbcad2b25	-0.021138737
116	0xbd8d0a89	-0.06886775
117	0xbcde8d1b	-0.027166894
118	0xbd6d7a60	-0.057978034
119	0x3d9621b6	0.073306486
120	0x3d661a97	0.0561777
121	0x3d987b2d	0.07445369
122	0x3c288893	0.010286468
123	0x3d299ebd	0.04141115
124	0xbc88d9d7	-0.016705437
125	0x3d86d258	0.06583089
126	0xbc29bec6	-0.010360425
127	0x3c80e014	0.015731849
128	0x3d306c21	0.04307187
129	0xbc4b904d	-0.012424541
130	0x3dc04d23	0.09389713
131	0xbc9958b4	-0.018719055
132	0xbd86cb39	-0.065817304
133	0xbc95e960	-0.018299758
134	0xbcd7a517	-0.026323838
135	0x3d4acbdc	0.04951082
136	0x3dac2f8e	0.08407508
137	0xbc9c9750	-0.01911512
138	0x3d98e353	0.07465234
139	0x3d933fa3	0.07189872
140	0x3daa5efe	0.083188996
141	0xbbc40333	-0.0059818267
142	0xbd8a302d	-0.0674747
143	0x3d03e24b	0.03219823
144	0x39f0bc5c	0.00045916706
145	0xbd463495	-0.04838999
146	0xbd010568	-0.031499296
147	0xbcfa2ede	-0.030539926
148	0xbd0fee3f	-0.03513932
149	0xbd4df65a	-0.050283767
150	0x3c9e35d9	0.019312786
151	0x3d27fc24	0.041011944
152	0x3d3549ff	0.04426002
153	0x3c8d40e8	0.017242864
154	0x3d06e701	0.032935146
155	0x3d4c3ca4	0.04986252
156	0xbdc67dae	-0.0969194
157	0x3d62a176	0.055329762
158	0x3c6cc456	0.014451107
159	0x3c4fa7f3	0.01267432
160	0xbd1de511	-0.038548533
161	0xbd591d8e	-0.0530067
162	0x3d5ef83b	0.05443595
163	0xbcc2b567	-0.02376814
164	0x3d7af737	0.06127092
165	0x3d63e3ac	0.055637047
166	0x3bdeca78	0.0067990385
167	0xbd01e8de	-0.03171622
168	0xbb9828fc	-0.0046435576
169	0xbdc5aa49	-0.0965162
170	0x3b4ca712	0.0031227511
171	0xbd61f040	-0.05516076
172	0x3c08b6ba	0.008344347
173	0x3bc47397	0.0059952247
174	0xbd314381	-0.043277267
175	0x3d00f342	0.03148199
176	0x370604a5	7.988104e-06
177	0xbd14be75	-0.036314446
178	0xbd843f8e	-0.064574346
179	0xbc6f19fa	-0.014593596
180	0x3d85fe92	0.06542696
181	0xbdada505	-0.084787406
182	0x3c057e66	0.0081478115
183	0xbda33eb1	-0.07970942
184	0xbccb799d	-0.024838263
185	0x3cd2e34c	0.02574315
186	0xbc6c39aa	-0.014418045
187	0x3d60c0d0	0.05487138
188	0xbd8f871e	-0.070081934
189	0x3d8106c1	0.06300116
190	0x3cf92d3d	0.03041708
191	0x3da6677a	0.08125205
192	0xbcaccd55	-0.021094004
193	0x3c926e7a	0.017874945
194	0x3d3c4504	0.045964256
195	0xbd88b3b4	-0.06674901
196	0x3d05a1ae	0.032624893
197	0x3d75ba3e	0.059992068
198	0xbc4f9c42	-0.012671532
199	0xbae99393	-0.001782047
200	0xbbf03934	-0.007331038
201	0x3be57803	0.007002832
202	0x3c56b062	0.013103576
203	0x3d76ec7b	0.06028412
204	0xbcdefd3b	-0.02722036
205	0x3cda3e03	0.026640898
206	0x3cf49545	0.029856334
207	0xbc96edde	-0.01842397
208	0x3d81f35f	0.063452475
209	0xbc8434a1	-0.016138377
210	0xbd0f6663	-0.035009753
211	0xbdc734d5	-0.09726874
212	0xbd16f9ec	-0.036859438
213	0xbd424525	-0.047429223
214	0x3d8f1abb	0.0698752
215	0x3b90667c	0.0044067483
216	0x3d1c910b	0.03822426
217	0xbb1dfcc8	-0.0024106968
218	0xbcca5cc3	-0.024702435
219	0x3c331448	0.010930128
220	0x3b43a818	0.002985483
221	0x3d08f225	0.033434052
222	0xbcd831b4	-0.026390888
223	0xbdb7b3fd	-0.08969877
224	0x3c202a25	0.009775673
225	0x3d95e542	0.07319118
226	0xbc8437a1	-0.016139807
227	0x3d249af2	0.04018683
228	0xb8e0c6cc	-0.00010718181
229	0x3cf1d76b	0.029521665
230	0x3d17dd26	0.037076138
231	0xbcd08c17	-0.025457425
232	0xbd05b044	-0.032638803
233	0x3d37a143	0.044831526
234	0xbbd8525a	-0.006601614
235	0x3caebf3c	0.021331422
236	0x3d524837	0.0513384
237	0xbcdacbe0	-0.026708543
238	0xbd6501e5	-0.05591001
239	0xbd849bc0	-0.064750195
240	0x3c68a1de	0.014198748
241	0xbd24432f	-0.040103134
242	0xbd39d44b	-0.045368474
243	0xbdaf0705	-0.08546261
244	0x3d1e2735	0.03861161
245	0x3b31b2f4	0.002711472
246	0x3ce565f1	0.028002711
247	0x3d366dce	0.04453831
248	0x3d144968	0.03620282
249	0x3d1bb218	0.03801164
250	0x3d462133	0.048371505
251	0xbde91668	-0.11381227
252	0x3cfc9bcc	0.030836008
253	0xbcff600e	-0.031173732
254	0x3c5d4d68	0.013507225
255	0xbd1a5722	-0.037680753

action_model._continuous_distribution.mu.bias f4 [5]
0	0xbb44cf81	-0.0030030909
1	0xbab7a491	-0.0014010837
2	0x3c722844	0.014780108
3	0x3c33799d	0.010954288
4	0x3c4795df	0.012181728
