EcoSculptor/results/Final_1.3/Preyanimal/Preyanimal-999926.onnx (onnx, 140329 bytes, 6 tensors)

network_body._body_endoder.seq_layers.0.weight f4 [256, 127]
0	0xbdff39bb	-0.12462183
1	0x3d80ba8e	0.062855825
2	0xbd237d09	-0.039914165
3	0xbdf579bc	-0.119861096
4	0xbd88ce76	-0.06680004
5	0xbd379af5	-0.044825513
6	0x3c95b6f8	0.018275723
7	0xbe1deeb9	-0.15423097
8	0x3dbf712e	0.09347759
9	0xbdead55b	-0.114664756
10	0x3e0bf98c	0.13669413
11	0xbd539045	-0.051651258
12	0x3d03b498	0.03215465
13	0xbdf0e409	-0.11762244
14	0x3d74563c	0.059652552
15	0x3b783411	0.003787283
16	0xbc45fdff	-0.012084483
17	0x3dc05c12	0.09392561
18	0xbe0f2891	-0.13980319
19	0xbd9255c3	-0.07145264
20	0xbda8327c	-0.08212754
21	0x3e060fdb	0.13091986
22	0xbce7e13c	-0.028305642
23	0x3d8815b2	0.06644763
24	0xbba8826e	-0.0051425016
25	0xbdb3555a	-0.08756514
26	0xbdb676c1	-0.08909369
27	0x3c0a4b23	0.008440766
28	0x3df1f43c	0.11814162
29	0x3d5adb3d	0.05343174
30	0xbe1f2a29	-0.15543427
31	0xbdbaf5ba	-0.091289
32	0x3d233446	0.039844774
33	0x3d4c5c76	0.049892865
34	0xbd9d1e4f	-0.076717965
35	0xbdc082ff	-0.093999855
36	0xbdca299f	-0.0987122
37	0xbd85ac58	-0.065270126
38	0xbdd8e6f2	-0.10590924
39	0x3d54a792	0.05191762
40	0x3e189e5a	0.14904156
41	0x3beb7ffc	0.007186888
42	0x3b13683a	0.0022492544
43	0xbd8d1ec6	-0.06890635
44	0xbd66e83e	-0.056373827
45	0xbd17391a	-0.03691969
46	0xbc99ea41	-0.018788459
47	0xbd7716d6	-0.060324512
48	0xbcab1401	-0.020883562
49	0xbe074d8a	-0.13213173
50	0x3dcb8578	0.099375665
51	0xbdacdf7c	-0.08441064
52	0xbd0d4e7b	-0.034498673
53	0x3d7838c9	0.06060103
54	0xbd10c985	-0.035348434
55	0x3dd2ca0a	0.10292442
56	0xbc460a7f	-0.012087463
57	0xbc9ae0ed	-0.018906081
58	0x3da5f033	0.08102455
59	0xbe299d33	-0.16563873
60	0x3d253042	0.040329225
61	0x3d18a40e	0.03726583
62	0x3e55a717	0.20864521
63	0x3b848f07	0.0040453705
64	0x3e13820f	0.14405082
65	0x3b78c587	0.0037959532
66	0xbd8ddc7c	-0.0692682
67	0x3e261f14	0.16222793
68	0xbd8827c2	-0.06648208
69	0xbd6bd10d	-0.057572413
70	0x3df5d4c1	0.1200347
71	0xbd939009	-0.07205207
72	0xbb004657	-0.0019573176
73	0x3ca2920a	0.019845027
74	0x3db75368	0.08951455
75	0xbddefafd	-0.10887716
76	0xbd43ae37	-0.047773566
77	0xbd4c4cdb	-0.049877983
78	0x3b61a723	0.0034431897
79	0x3e06ca4b	0.13163106
80	0x3e1b3125	0.15155466
81	0x3d091c1d	0.033474077
82	0xbe1e5d7c	-0.15465349
83	0xbdf9ce50	-0.12197554
84	0xbce639a0	-0.02810365
85	0xbd8d8acf	-0.06911241
86	0xbe346784	-0.17617613
87	0x3e8318e8	0.2560494
88	0x3d84c150	0.06482184
89	0xbdec04ab	-0.11524328
90	0x3d63719e	0.055528276
91	0xbe04c0bd	-0.12964149
92	0xbda661cc	-0.08124122
93	0xbe21f374	-0.15815526
94	0xbe0d8973	-0.13821964
95	0x3d2208ef	0.0395593
96	0x3da95410	0.08267987
97	0x3e172473	0.14759998
98	0x3c0cc9b8	0.008593015
99	0xbd9bd839	-0.076096006
100	0x3e1921c2	0.14954284
101	0xbd666632	-0.056249805
102	0x3d6d9f67	0.058013346
103	0xbdb49f41	-0.08819438
104	0xbdb0c540	-0.086313725
105	0x3d0b1833	0.033958625
106	0x3d4d446b	0.050114077
107	0xbd4db15d	-0.050217975
108	0xbd2e96a8	-0.042624146
109	0xbe5d4730	-0.21609187
110	0xbc7c6a65	-0.015406226
111	0x3e3ef3dd	0.18647714
112	0x3d89e35d	0.06732819
113	0x3d2f79a1	0.042840604
114	0xbce61fe4	-0.028091379
115	0xbbdec908	-0.006798867
116	0xbd81e903	-0.063432716
117	0xbe92d0cc	-0.28674924
118	0x3d1d90e0	0.03846824
119	0xbddfdece	-0.109311685
120	0xbe10c929	-0.14139237
121	0xbe342872	-0.17593554
122	0x3c309d24	0.010779653
123	0xbde2d899	-0.11076469
124	0x3cf20b02	0.029546265
125	0xbd0d6434	-0.03451939
126	0xbe13e12f	-0.1444137
127	0x3d567958	0.052361816
128	0xbc43a755	-0.0119417505
129	0xbc46b90a	-0.012129078
130	0x3e774bcc	0.24150008
131	0x3e4bcc91	0.19902255
132	0xbdc7a2b6	-0.097478315
133	0x3d1dbb9e	0.038509004
134	0xbd83a2fc	-0.06427571
135	0xbc911875	-0.017711857
136	0x3ca3f1ae	0.020012703
137	0xbb077662	-0.0020669927
138	0x3e0bfbc9	0.13670267
139	0xbe0ec3c2	-0.13941863
140	0x3d922e66	0.07137756
141	0xbd53729a	-0.051622964
142	0xbe01e0ee	-0.1268346
143	0x3bebd791	0.0071973284
144	0x3ba99e03	0.005176307
145	0x3d6ad5d4	0.05733283
146	0x3e0620f1	0.13098504
147	0xbb6ec189	-0.0036431274
148	0xbe10c9d1	-0.14139487
149	0x3dcac866	0.09901504
150	0x3e23e76b	0.16006248
151	0xbd35e6aa	-0.04440943
152	0x3dc94129	0.098268814
153	0x3e09a9ff	0.13443755
154	0xbd6102d3	-0.054934334
155	0x3e2760d3	0.1634553
156	0x3d567b01	0.0523634
157	0x3c76fe46	0.015075272
158	0xbe1fadde	-0.15593669
159	0x3da83990	0.08214104
160	0x3e1bb757	0.15206657
161	0x3d42d951	0.04757053
162	0x3bc779eb	0.006087532
163	0x3dfca67b	0.12336441
164	0x3e5c9efb	0.21545021
165	0x3d1ded43	0.03855635
166	0x3d2f17e4	0.042747393
167	0x3c9fe8f2	0.019520257
168	0x3d9bb9fd	0.07603834
169	0x3ce040ae	0.027374592
170	0x3e18ecb4	0.14934045
171	0x3e64f780	0.22360039
172	0xbd94b740	-0.07261515
173	0xbd67f239	-0.056627486
174	0xbe87f4dd	-0.26554003
175	0xbc524380	-0.012833476
176	0xbd9ef95d	-0.07762406
177	0xbd15b9ad	-0.036554027
178	0xbc4f1885	-0.012640123
179	0x3d4bb4af	0.04973286
180	0xbdf3065c	-0.11866447
181	0x3c2f390c	0.010694753
182	0x3da363f4	0.07978049
183	0x3da276b9	0.07932801
184	0x3d20eef0	0.03929037
185	0x3db1b9a7	0.086779885
186	0xbcde3d81	-0.027128937
187	0x3d80ac87	0.06282907
188	0xbdefea77	-0.117146425
189	0xbceb3e1e	-0.028716143
190	0xbdd087b1	-0.10182131
191	0xbd9eb130	-0.077486396
192	0x3dacb9d2	0.0843388
193	0x3bacbec0	0.0052717626
194	0x3d7a6f00	0.061141014
195	0xbe2de04a	-0.1698009
196	0x3df84f0e	0.121244535
197	0xbe12446a	-0.1428391
198	0xbda6c72d	-0.081434585
199	0x3e3df173	0.18549137
200	0x3a99ea05	0.0011742717
201	0x3d2f7a01	0.04284096
202	0x3d05383b	0.03252433
203	0xbaeb6465	-0.0017958997
204	0xbd5593ff	-0.052143093
205	0x3c07786e	0.008268459
206	0xbda4face	-0.0805565
207	0xbd9332ab	-0.071873985
208	0xbe7b8b05	-0.2456475
209	0x3ccdb8d8	0.025112554
210	0x3e461df1	0.19347359
211	0x3dc474df	0.09592604
212	0x3d6a659e	0.057225816
213	0xbe600941	-0.2187853
214	0xbe91c345	-0.2846929
215	0xbde8ee60	-0.113735914
216	0x3d061642	0.03273607
217	0xbc0458fb	-0.008077855
218	0x3e71d943	0.23618035
219	0x3c3614bc	0.011113342
220	0xbd9289ce	-0.071551904
221	0xbdc17f5e	-0.094481215
222	0x3c88755a	0.01665752
223	0xbe54abfa	-0.20768729
224	0x3c958818	0.018253371
225	0x3d5d3d3c	0.054013476
226	0x3d591089	0.052994285
227	0x3cc7be1b	0.024382642
228	0xbe3b32ed	-0.18281145
229	0x3dedcd9c	0.116114825
230	0xbd88c4ee	-0.06678186
231	0x3da9b226	0.08285932
232	0xbd735baa	-0.05941359
233	0x3d751aea	0.05984012
234	0x3e32dfe2	0.17468217
235	0x3e720665	0.23635252
236	0xbd4730ab	-0.048630398
237	0x3df68758	0.120375335
238	0xbe408b52	-0.18803146
239	0xbbfff03e	-0.0078106215
240	0x3e308350	0.17237592
241	0x3d03f57a	0.032216527
242	0x3d577e98	0.052610964
243	0x3a759f8b	0.0009369782
244	0xbd07517f	-0.033036705
245	0xbdbc4671	-0.09193123
246	0x3daceab3	0.08443203
247	0x3d00305c	0.03129612
248	0x3dba596a	0.09099086
249	0x3d8f37df	0.069930784
250	0xbe16af07	-0.14715205
251	0x3d8a2d2c	0.06746897
252	0x3cc19a56	0.023633163
253	0xbd434494	-0.047672823
254	0xbd863daa	-0.0655473
255	0xbc3ad666	-0.011403656

network_body._body_endoder.seq_layers.0.bias f4 [256]
0	0xbcd048d9	-0.025425361
1	0x3c7e9ecd	0.015540791
2	0x3cb485a7	0.022036387
3	0x3be9c379	0.007133898
4	0xbc5c2432	-0.013436364
5	0x3c934517	0.01797728
6	0x3d02e7c6	0.031959318
7	0x3c335b8a	0.010947118
8	0xba9bcafc	-0.0011886056
9	0xbb87e410	-0.00414706
10	0x3bfb2b82	0.0076650986
11	0x3c9b9ffe	0.018997189
12	0x3bed47fc	0.007241247
13	0xbcc8c197	-0.024506373
14	0x3c8ebdbd	0.017424459
15	0x3c085c7c	0.008322831
16	0x3c7d1ac2	0.015448274
17	0x3c615cfa	0.0137550775
18	0x3c8d813b	0.017273536
19	0xbca97cac	-0.020689331
20	0x3c188db4	0.009311128
21	0x3d1880ad	0.03723209
22	0x3cc4a74d	0.024005556
23	0x3d04ab8b	0.03239016
24	0x3c09c398	0.00840845
25	0xbc697138	-0.014248185
26	0xbc147f5e	-0.00906357
27	0x3c7f5bfd	0.015585897
28	0x3baac8f5	0.005211944
29	0xbb32bb02	-0.002727211
30	0x3bbbdcd3	0.0057331114
31	0x3bd0dfa2	0.0063743154
32	0x3cdffd84	0.027342565
33	0x3b4e75d3	0.0031503334
34	0x3d174b17	0.036936846
35	0x3c988c9c	0.018621735
36	0x3bd75041	0.0065708463
37	0x3d34c25f	0.04413068
38	0x3d16b509	0.036793742
39	0x3ca72675	0.02040408
40	0x3ce7287e	0.02821755
41	0x3ad4013e	0.0016174687
42	0x3c33c324	0.010971818
43	0x3bf3e5a7	0.007443148
44	0x3d0aa412	0.033847876
45	0x3c6adc18	0.014334701
46	0x3d595fe0	0.05306995
47	0x3cdf2d05	0.027243147
48	0x3cf26a7a	0.029591788
49	0x3c683399	0.014172458
50	0x3b502479	0.003176002
51	0x3d35b308	0.04436019
52	0x3cbfbe40	0.023406148
53	0x3ce167e8	0.027515367
54	0x3caa5ecb	0.020797154
55	0x3c6f9b62	0.0146244485
56	0x3bc5ee8d	0.0060404004
57	0x3d063aff	0.032771107
58	0x3c8fb573	0.017542576
59	0xbb2ab1e9	-0.0026045984
60	0x3cb1a2b3	0.021684026
61	0x3d076aec	0.033060953
62	0x39e8123a	0.00044264068
63	0x3b38fd20	0.0028227046
64	0xbc81912c	-0.015816294
65	0x3c11b0a3	0.008892211
66	0x3c5c711c	0.013454702
67	0xbc4fda95	-0.012686391
68	0xbcc0dab0	-0.023541778
69	0xbc1c527b	-0.009541149
70	0x3c7f93f6	0.0155992415
71	0xbb8088fa	-0.003922579
72	0x3cfb50d8	0.030678198
73	0xbbcec35d	-0.00630991
74	0x3be2e377	0.0069240886
75	0x3c99b4e3	0.018763011
76	0x3d01f09b	0.0317236
77	0xbb2b1968	-0.0026107673
78	0x3d5d0ad2	0.053965397
79	0xbc7ae1dc	-0.015312638
80	0x3c5e2a4e	0.013559891
81	0x3d7a428f	0.06109863
82	0xba9d3deb	-0.0011996602
83	0xbca232eb	-0.01979967
84	0x3c80d5af	0.015726892
85	0x3cfd0f67	0.030891133
86	0x3c5d0183	0.01348913
87	0xbc81ccb4	-0.01584468
88	0x3d226e45	0.039655942
89	0x3d328ddf	0.04359233
90	0x3cc8d63a	0.024516214
91	0x3bebb792	0.007193514
92	0x3bc5c8a1	0.0060358797
93	0x3c34efeb	0.011043529
94	0xbc9f84cf	-0.019472508
95	0x3cbf4986	0.023350488
96	0x3be7e724	0.0070771147
97	0x3cb84127	0.022492005
98	0x3d0937d6	0.033500515
99	0x3bb027e8	0.005375851
100	0x3c781ac1	0.015143097
101	0x3ce64936	0.028111082
102	0x3a82f183	0.0009990189
103	0x3c8fbffe	0.017547604
104	0x3d29eda2	0.04148639
105	0x3c32bc41	0.010909141
106	0x3b9405c1	0.0045172875
107	0xbbe92d77	-0.0071160155
108	0x3cfd2d63	0.030905431
109	0x3b809ecd	0.0039251805
110	0x3d20dc80	0.039272785
111	0x3c31e763	0.01085839
112	0xbc4d4ac0	-0.012530029
113	0xbb99e201	-0.004696131
114	0xbc10a972	-0.008829461
115	0x39b647cb	0.00034767235
116	0x3d4dd5c5	0.050252695
117	0x3c333e60	0.010940164
118	0x3b90ad24	0.004415171
119	0x3c63709e	0.0138818305
120	0x3cc211a5	0.023690054
121	0xbc00b9bc	-0.0078567825
122	0x3cfc4ea2	0.030799214
123	0x3a764e32	0.0009395807
124	0x3bba964f	0.0056941877
125	0x3ce42647	0.027850283
126	0x3b2edc3e	0.0026681568
127	0x398d7ff8	0.0002698896
128	0x3c919afd	0.0177741
129	0x3c1d32c5	0.009594624
130	0x3cddb1a4	0.027062245
131	0x3c365e39	0.011130863
132	0x3c054d0e	0.008136047
133	0x3c1a237f	0.009407877
134	0x3ccd74a4	0.025080033
135	0xbb71bccc	-0.0036886213
136	0x3c61307a	0.013744468
137	0x3cb64159	0.022247957
138	0xbc252f5b	-0.010082091
139	0x3c6e71ab	0.014553468
140	0x3c4602bd	0.012085614
141	0x3cb8073d	0.022464389
142	0x3d13beea	0.03607074
143	0x3d0c33c7	0.034229066
144	0x3d054f21	0.032546166
145	0x3cfd8b76	0.03095029
146	0x3c1bdaf8	0.009512655
147	0x3c01dcf4	0.0079262145
148	0x3cb69394	0.022287168
149	0xba357bd1	-0.0006923052
150	0x3ac809c8	0.0015261704
151	0x3a59740c	0.00082951854
152	0x3d309975	0.043115098
153	0xb9a2c845	-0.0003104826
154	0x3c7fef7a	0.0156210605
155	0x3c54bc28	0.012984313
156	0x3c319e16	0.010840913
157	0xb99bedf5	-0.00029741196
158	0x3cab8d81	0.020941498
159	0x3a17a8d4	0.000578535
160	0x3c9cf55c	0.019159965
161	0x3c5f035b	0.01361164
162	0x3c53437b	0.012894507
163	0x3c39c55a	0.011338556
164	0x3bd635c9	0.0065371734
165	0x3d0eab70	0.034831464
166	0x3d3ad577	0.045613732
167	0x3cca3361	0.024682702
168	0x3a679fcc	0.0008835762
169	0x3bf86e6e	0.0075815236
170	0xba70341c	-0.00091630383
171	0x3ce9c8a7	0.028538061
172	0x3c9c608f	0.019089011
173	0x3bf91e74	0.0076025072
174	0x3c35fcea	0.011107663
175	0x3c87be3a	0.0165702
176	0x3c9aca44	0.018895276
177	0x3bd0ee09	0.0063760323
178	0x3ca9043e	0.020631906
179	0x3be705df	0.0070502604
180	0x3b2b6a70	0.002615597
181	0x3caaf5ef	0.020869223
182	0x3d1fb4fb	0.038990956
183	0x3ce771ce	0.028252508
184	0xbbd0c8ba	-0.0063715847
185	0x3be98ae7	0.007127154
186	0x3cf51f97	0.02992229
187	0x3ca9eb36	0.02074204
188	0xbce52f9f	-0.02797681
189	0xbbfd019d	-0.0077211396
190	0xbb5527f8	-0.0032525044
191	0x3cad1162	0.021126453
192	0xbc0de4e1	-0.008660526
193	0x3cf301c0	0.02966392
194	0x3d0e8103	0.034791004
195	0x3b6bb3a7	0.0035965235
196	0x39d5d158	0.000407825
197	0x3cd3c160	0.025849044
198	0x3a815067	0.0009865881
199	0x3cb0b8ba	0.02157246
200	0xbc81f3c5	-0.015863309
201	0x3a895c73	0.0010479823
202	0x3c111627	0.008855379
203	0x3cf81bb2	0.030286644
204	0x3c6b9d2b	0.0143807335
205	0xbabc7955	-0.0014379421
206	0x3d90f721	0.07078386
207	0x3c160fa1	0.009159
208	0x3d2b87f5	0.041877706
209	0xbbd3bd25	-0.006461757
210	0xba0b0160	-0.0005302634
211	0x3d100d9a	0.03516922
212	0x3c356c13	0.01107313
213	0xbc4267c9	-0.011865565
214	0x3cce8195	0.025208274
215	0x3c660ba8	0.014040865
216	0x3c941ace	0.018079188
217	0x3d1fadfd	0.038984288
218	0x3c7c81c9	0.015411803
219	0x3ca2f922	0.019894186
220	0xbc80efa0	-0.015739262
221	0x3b5af95a	0.0033412785
222	0xbb59a086	-0.0033207252
223	0x3d48ba78	0.049005955
224	0x3c891287	0.016732467
225	0x3c0d1947	0.008611984
226	0x3ca3f863	0.020015901
227	0x3a8d5276	0.0010782022
228	0x3c52e033	0.012870836
229	0x3cbf5a7c	0.023358576
230	0x3cd923fe	0.02650642
231	0x3ca99a57	0.020703478
232	0x3c37c42b	0.011216204
233	0x3b034860	0.0020032153
234	0xbc0f49f3	-0.008745658
235	0x3c34d5be	0.011037288
236	0x3c287198	0.010280989
237	0x3cbe24d0	0.023210913
238	0xbcd30468	-0.025758937
239	0x3cbd1d0b	0.023085138
240	0x3ca9ac5e	0.020712074
241	0x3c07f4fb	0.008298154
242	0x3bea51c4	0.0071508605
243	0x3cf5690a	0.029957313
244	0x3c1f3cbd	0.009719071
245	0x3c440540	0.011964142
246	0xbc010123	-0.007873806
247	0x3ca0ef6d	0.019645417
248	0x3c802d3c	0.01564657
249	0x3cb3d0ca	0.021950144
250	0xbcc264e7	-0.023729755
251	0x3bdf5b9b	0.00681634
252	0x3ca5cb1e	0.020238455
253	0xbc0bf17f	-0.008541464
254	0xbc0059a8	-0.007833876
255	0x3c76ce9e	0.01506391

action_model._continuous_distribution.log_sigma f4 [1, 2]
0	0xbe04cbff	-0.12968443
1	0xbdc03559	-0.09385175

action_model._continuous_distribution.mu.weight f4 [2, 256]
0	0x3c51b825	0.012800251
1	0xbd88f64a	-0.06687601
2	0x3b3a5d66	0.0028437017
3	0x3c9eb7b6	0.01937471
4	0xbc98c2fe	-0.018647667
5	0x3d1f0373	0.03882165
6	0x3ce7737a	0.028253306
7	0xbd3a6ee9	-0.04551593
8	0x3d657540	0.05602002
9	0xbcb6683b	-0.022266498
10	0xbd1dc8b9	-0.038521502
11	0x3d864cec	0.065576404
12	0xbd2f34f6	-0.042775117
13	0xbc548675	-0.01297151
14	0xbb8a1638	-0.0042140745
15	0xbd00c574	-0.031438306
16	0x3da7cba7	0.081931405
17	0x3d1f5312	0.03889758
18	0x3ce50544	0.027956612
19	0xbbf09a45	-0.007342609
20	0x3d1374fe	0.036000244
21	0x3d3781ce	0.044801526
22	0xbd19d0f4	-0.03755279
23	0xbd45089c	-0.048103914
24	0xbc1fdc13	-0.00975706
25	0x3ba7ddb7	0.005122866
26	0xbca132f0	-0.01967761
27	0xbcfd41ef	-0.030915229
28	0xbd0b6870	-0.034035146
29	0x3d1a65be	0.037694685
30	0xbd0d1423	-0.034443032
31	0xbcc9d00f	-0.024635343
32	0xbd61f4c4	-0.055165067
33	0x3cf3a46c	0.029741488
34	0xbd37c876	-0.04486891
35	0x3ae76e9c	0.0017656866
36	0xb9c5e731	-0.0003774702
37	0x3da4fdcd	0.08056221
38	0x3db227ed	0.086990215
39	0xbd96f6c6	-0.07371287
40	0x3d504284	0.050844684
41	0xbcefa331	-0.02925262
42	0xbd1f51f9	-0.038896535
43	0x3cbc73e2	0.023004476
44	0x3d9d0f3e	0.07668923
45	0xbd3db393	-0.046313833
46	0x3d779abe	0.060450308
47	0x3b8ffdf9	0.0043942896
48	0xbc892733	-0.016742324
49	0x3d0d95cf	0.034566697
50	0x3c92c76d	0.01791736
51	0x3d9696c1	0.07352973
52	0x3d18f679	0.03734443
53	0x3d5c6be1	0.05381382
54	0x3d13517b	0.035966378
55	0xbd889201	-0.06668473
56	0x3cbe6001	0.023239138
57	0x3d545ad9	0.05184445
58	0xbca6b882	-0.020351652
59	0x3c41b9db	0.011824097
60	0x3ce1fce6	0.027586412
61	0x3d50a644	0.050939813
62	0xbc87597f	-0.016522167
63	0xbd4c60b5	-0.049896915
64	0x3cbaeecb	0.022818943
65	0x3be6adbc	0.0070397537
66	0xbd09b23e	-0.03361725
67	0xbd058049	-0.032593045
68	0xbbefbc27	-0.0073161307
69	0x3bc41ef4	0.005985135
70	0xbd3b30ba	-0.045700766
71	0xbcaaa812	-0.020832095
72	0x3d770265	0.060305018
73	0xbbbe1b87	-0.0058016214
74	0xbd4b6934	-0.049660876
75	0x3d08c178	0.03338763
76	0xbd844da2	-0.0646012
77	0x3c5ad15c	0.013355579
78	0xbde6fc86	-0.11278634
79	0x3c26b430	0.010174796
80	0x3d140a4d	0.036142636
81	0x3ca6743d	0.020319099
82	0xbcb4a45f	-0.022051034
83	0x3d0dd288	0.034624606
84	0xbd17672b	-0.036963623
85	0x3d9326db	0.071851455
86	0xbd1a4c9d	-0.03767072
87	0xbb9e2517	-0.004826199
88	0x3dce8e92	0.10085787
89	0x3d55aca3	0.052166592
90	0xbc831540	-0.016001344
91	0xba934a30	-0.001123732
92	0xbd3ea1fe	-0.046541207
93	0x3ca8a0de	0.02058452
94	0x3b98b4f4	0.004660243
95	0x3d237fe4	0.039916888
96	0xbd0e7761	-0.034781817
97	0xbd38d090	-0.045120776
98	0xbd6d8836	-0.05799123
99	0x3bf7d85e	0.007563635
100	0x3b06a0ba	0.0020542578
101	0xbdba481f	-0.09095787
102	0xbd1a6701	-0.03769589
103	0x3bb7e9f1	0.005612605
104	0x3d43a029	0.047760163
105	0xbc877ec4	-0.016539939
106	0xbc4d7328	-0.012539662
107	0xbcf1d1d7	-0.029519005
108	0x3d4e1ee4	0.05032243
109	0x3c0398be	0.008032022
110	0x3d1c217c	0.03811787
111	0xbb03c88b	-0.0020108547
112	0xbbd50342	-0.0065006325
113	0xbb702c68	-0.0036647562
114	0xbc6cf8e9	-0.014463642
115	0xbc8b52b2	-0.017007206
116	0xbcf60a92	-0.030034337
117	0xbd7fc1a7	-0.06244054
118	0x3bcaedb3	0.0061928867
119	0x3ccbfda5	0.02490122
120	0xbd6c9673	-0.057760667
121	0xbce4c7cd	-0.027927304
122	0x3d90602f	0.070495956
123	0xbb44fe80	-0.003005892
124	0x3cd7ecf7	0.02635811
125	0xbcfcdd20	-0.03086716
126	0x3bb14ede	0.005411013
127	0x3ca31dc6	0.019911658
128	0x3d10f8d6	0.03539356
129	0x3c205e5d	0.009788123
130	0x3cd0bbe8	0.025480226
131	0x3b0c3c85	0.0021398377
132	0x3cfab56d	0.030604089
133	0x3c84bdc8	0.016203776
134	0x3d40e2d0	0.047091305
135	0xbc8e2022	-0.017349306
136	0xbd493f4f	-0.04913264
137	0xbbf0cc35	-0.007348562
138	0xb9e334a9	-0.0004333605
139	0x3cb78dc9	0.022406476
140	0x3c5f999a	0.013647461
141	0x3d95f5c8	0.0732227
142	0xbc8a0255	-0.016846815
143	0x3c4e6276	0.012596717
144	0x3ce4b897	0.02792005
145	0xbcde2e22	-0.027121607
146	0x3bd14c3e	0.0063872626
147	0x3c9f598f	0.019451885
148	0xbc65bdbd	-0.014022288
149	0xbc9f02a8	-0.019410446
150	0xbd22f76b	-0.039786737
151	0x3aa97672	0.0012928976
152	0x3e028992	0.12747791
153	0x3c2b9b34	0.010474015
154	0xbc422298	-0.011849068
155	0x3ca39f0c	0.0199733
156	0xbc8c3f3f	-0.017120002
157	0x3b9576f4	0.0045612995
158	0xbd4f7be6	-0.050655268
159	0xbc750382	-0.01495445
160	0x3d3be1e9	0.04586974
161	0x3c1ff80b	0.009763728
162	0xbc7c8015	-0.0154113965
163	0x3cb0ce6d	0.021582806
164	0x3bdb9c3c	0.006701974
165	0x3d35ff1e	0.04443275
166	0x3d2b8d34	0.04188271
167	0x3d16ddcf	0.036832627
168	0xbb882880	-0.0041552186
169	0x3c2d41c6	0.010574764
170	0xbce46b80	-0.027883291
171	0x3d9e1334	0.077185065
172	0x3c0581c1	0.0081486115
173	0x3cd93c76	0.026518088
174	0x3d49a04e	0.049225144
175	0xbd9d6ff7	-0.07687371
176	0xbcb2fc3f	-0.021848796
177	0xbcd2a8e0	-0.025715292
178	0x3d070228	0.03296104
179	0xbc2beaa8	-0.010492958
180	0xbd42c552	-0.04755146
181	0xbd5e1024	-0.05421461
182	0x3d3f2d07	0.0466738
183	0x3d4d5175	0.05012651
184	0xbc039771	-0.008031712
185	0xbc715ba7	-0.014731324
186	0xbd321168	-0.04347363
187	0x3d255116	0.040360533
188	0xbc278b11	-0.010226027
189	0xbcac2b0d	-0.021016622
190	0xbc1f7177	-0.009731642
191	0x3d89528f	0.067052
192	0xbd401169	-0.046891604
193	0xbcfe5925	-0.031048367
194	0xbdab97a9	-0.08378536
195	0xbd63c9bc	-0.05561231
196	0xbcdc7b3c	-0.026914231
197	0x3b9aeb97	0.0047277915
198	0xbd244150	-0.04010135
199	0x3c670f2e	0.01410274
200	0xbc1df0b1	-0.009639905
201	0x3b8a5fc1	0.0042228405
202	0xbd2de4e3	-0.04245461
203	0xbb1b0d37	-0.0023659
204	0x3c3134be	0.010815797
205	0xbceb1285	-0.028695354
206	0x3e16d20a	0.14728561
207	0x3cdf6338	0.02726899
208	0x3dad2f8a	0.08456333
209	0x3c53b302	0.012921097
210	0x38b79426	8.753715e-05
211	0x3dc4c6c8	0.09608227
212	0x3c801956	0.015637081
213	0x3c24e163	0.010063502
214	0x3d8f29cc	0.06990394
215	0x3c1fa345	0.009743516
216	0x3cd7870f	0.026309518
217	0x3d85aac8	0.065267146
218	0x3cecd2ae	0.028909054
219	0xbd27c883	-0.040962707
220	0xbc41c7ba	-0.011827404
221	0xbd00fea6	-0.03149285
222	0xb9f734e1	-0.0004715091
223	0xbdd16738	-0.102247655
224	0x3d57f6cf	0.05272561
225	0xbc007042	-0.007839264
226	0xbd2b45bc	-0.04181455
227	0xbd19b070	-0.03752178
228	0xbd9d0122	-0.07666232
229	0x3d4ffd54	0.050778702
230	0x3d504075	0.05084272
231	0xbd2f8a65	-0.042856593
232	0xbce22350	-0.027604729
233	0x3cb81e50	0.022475392
234	0xbd295dec	-0.041349337
235	0x3c1a455f	0.009415953
236	0x3ba50769	0.0050362838
237	0xbc5581b0	-0.013031408
238	0x3baf1a35	0.0053437003
239	0xbc9c4b71	-0.019078942
240	0x3d1145b4	0.035466865
241	0xbcc416a5	-0.023936579
242	0xbd245eca	-0.04012946
243	0x3cc10317	0.023561044
244	0xbd32c873	-0.043648195
245	0xbd498af1	-0.04920477
246	0xbbc7fdec	-0.006103268
247	0x3d0e283a	0.03470633
248	0xbda1d82c	-0.0790256
249	0xbcbade17	-0.022810979
250	0x3cba00a7	0.02270539
251	0xbcefb888	-0.029262796
252	0xbd099701	-0.033591274
253	0xbc4c4a2f	-0.012468859
254	0xbbc526ca	-0.006016587
255	0x3c56b164	0.013103817

action_model._continuous_distribution.mu.bias f4 [2]
0	0x3b1a55cc	0.0023549674
1	0xbbea0725	-0.007141965

action_model._discrete_distribution.branches.0.weight f4 [1, 256]
0	0x3b79afc2	0.0038099145
1	0x3c0a3b77	0.008437029
2	0x3b9dce27	0.004815835
3	0x3c1f6115	0.009727736
4	0x3be9b940	0.007132679
5	0x3ae94f1b	0.0017800065
6	0xba5d21fa	-0.0008435544
7	0x3b2ac28e	0.0026055905
8	0x39aae005	0.00032591834
9	0x3ba8f082	0.005155624
10	0x3be1bd43	0.006889017
11	0x3b54e675	0.0032485996
12	0xbb31616e	-0.002706613
13	0xbbcd76c2	-0.0062702606
14	0xbacaeffa	-0.0015482896
15	0xbb6418e3	-0.0034804873
16	0x3b4a92c3	0.003091023
17	0x3a3d22b6	0.000721495
18	0xbbb142d7	-0.0054095793
19	0x3c0c3d30	0.00855951
20	0xbc172961	-0.009226174
21	0xbb1211b4	-0.0022288384
22	0x3b869745	0.004107388
23	0xba91aa7f	-0.0011113434
24	0xbb9bc9ce	-0.0047542816
25	0xbb051b2a	-0.002031038
26	0x3a6c92c2	0.0009024554
27	0x3bd834a0	0.0065980703
28	0x3bd8e8d2	0.006619551
29	0x3c098903	0.008394483
30	0x3c62653a	0.01381808
31	0xbb1912d0	-0.002335716
32	0x3a4e68bb	0.00078738824
33	0xbc52aab3	-0.012858081
34	0xbbf54328	-0.0074848123
35	0x3c6c15c8	0.01440949
36	0x3b9dc1bb	0.0048143542
37	0x3bb67afb	0.0055688596
38	0xbbb18b1c	-0.0054181945
39	0x3ac7db9f	0.0015247947
40	0xbb99fcb1	-0.0046993126
41	0xbb0c28e3	-0.0021386675
42	0x3b25be6d	0.0025290505
43	0x3a86e7f5	0.0010292517
44	0x3b4c0296	0.003112947
45	0xbaa20a9a	-0.0012362779
46	0xbba56069	-0.0050468934
47	0x3b5e1117	0.0033884698
48	0x3b8ba64f	0.004261769
49	0xb9990860	-0.00029188674
50	0x3baaf1f8	0.005216833
51	0xba3155f3	-0.00067648216
52	0xbace5c63	-0.0015744086
53	0x3ac1de47	0.0014790975
54	0x3b8263d7	0.003979187
55	0x3ba39d73	0.0049931346
56	0x3b7f779a	0.00389812
57	0x3ac18608	0.0014764676
58	0xbbe41068	-0.0069599636
59	0xbbf14855	-0.007363359
60	0xba9283f3	-0.001117824
61	0x3b82f18d	0.0039960803
62	0xbb5fcc73	-0.003414896
63	0x3b81cf6e	0.003961495
64	0xbc6555c5	-0.0139975
65	0x3ba35090	0.004983969
66	0xba91493e	-0.001108445
67	0x3b46d60f	0.0030339991
68	0x3c31a9a8	0.010843672
69	0x3a6a7353	0.0008943576
70	0x3b0f3585	0.0021851968
71	0xbbac478a	-0.0052575516
72	0x3c201a07	0.00977183
73	0x35c1e75c	1.4446955e-06
74	0xbb94231b	-0.0045207865
75	0xbb1336da	-0.0022463114
76	0x3bbb95cc	0.0057246443
77	0x3b9d8def	0.0048081796
78	0xbc603e1f	-0.013686686
79	0x3b916733	0.004437351
80	0xbc1d37fb	-0.009595866
81	0x3b7ee345	0.0038892787
82	0xbb1067cf	-0.002203453
83	0xbc392ba0	-0.011301905
84	0x3ad64972	0.0016348793
85	0x3bcb62db	0.006206853
86	0x3b60a6d7	0.0034279132
87	0x3bafb9bf	0.005362719
88	0x3c1d5bb1	0.0096043805
89	0xbbaf953f	-0.0053583677
90	0x3b59fe0a	0.0033262991
91	0xbb56e8d3	-0.0032792583
92	0x3b926f4d	0.0044688345
93	0xbbfb9143	-0.0076772287
94	0x3c05bea3	0.008163127
95	0x3c0fa4a7	0.0087672835
96	0x3af30a4a	0.0018542495
97	0x3c2971ab	0.010342042
98	0x3b63a672	0.003473666
99	0x3c11dcd3	0.008902746
100	0xbbf83a9d	-0.0075753466
101	0x3bcbfd03	0.0062252297
102	0x3b514c35	0.0031936292
103	0x3a2106c2	0.00061426696
104	0xbc6926a5	-0.014230405
105	0xbb90f32f	-0.004423521
106	0xbbd05a72	-0.006358438
107	0xbc2869f7	-0.01027917
108	0xbc230db6	-0.009951999
109	0xbc2984af	-0.010346576
110	0xbb61646a	-0.0034392127
111	0x3b913cd9	0.0044323024
112	0xbb956fa9	-0.00456043
113	0x3a28b9ae	0.000643636
114	0xba2e3128	-0.0006644898
115	0xbc80557f	-0.015665768
116	0xbbaaf7d3	-0.005217531
117	0x3b82cf23	0.003991978
118	0xbbc9ba27	-0.0061562243
119	0xbb7f6cdf	-0.0038974804
120	0x3bce5488	0.006296698
121	0xbc6875db	-0.014188255
122	0x3aeb0047	0.001792916
123	0x3aca28d3	0.0015423544
124	0xbc240df3	-0.010013091
125	0xbb825335	-0.003977204
126	0xb946c1cc	-0.00018954946
127	0xbb3fed7a	-0.0029285834
128	0xbc14a8b2	-0.009073423
129	0xbbabb466	-0.005240011
130	0xb99b0d81	-0.00029573965
131	0xbc807497	-0.015680594
132	0x3ba8790f	0.0051413844
133	0x3c68e9d2	0.014215903
134	0xba59546b	-0.00082904723
135	0xba9c05e2	-0.0011903609
136	0xbb30bf46	-0.0026969477
137	0x3a5a4d3f	0.00083275506
138	0x3bd6738a	0.006544535
139	0x3b6ff507	0.0036614554
140	0x3becaccd	0.007222748
141	0xbb68bf2d	-0.003551434
142	0x3a22f966	0.0006216973
143	0xb8e0352a	-0.00010691055
144	0xbb23d5a9	-0.0024999178
145	0xbaf82d33	-0.0018934369
146	0xbb4e4dd8	-0.0031479504
147	0x3b78fc4d	0.003799218
148	0x3ad89c3b	0.0016526052
149	0xbbe16c7b	-0.006879387
150	0x3b0083cd	0.001960981
151	0xb907dcb1	-0.00012956817
152	0xbba730c7	-0.0051022503
153	0x3bfbae00	0.0076806545
154	0xbc26e291	-0.010185854
155	0xbb7feb9f	-0.0039050353
156	0x3c22f5b8	0.009946279
157	0xbb4e40d7	-0.0031471753
158	0xbc96ccfe	-0.018408295
159	0x3bc046bb	0.0058678067
160	0xbbba1183	-0.005678357
161	0xbbf62bbb	-0.0075125373
162	0x3c59dd0d	0.0132973315
163	0xbb96ca18	-0.004601728
164	0xbc438521	-0.011933596
165	0x3b5a5e6b	0.0033320438
166	0x3afadc1b	0.0019139083
167	0xbbbcdc4d	-0.0057635666
168	0x3bb7991f	0.0056029703
169	0xbc2b36ad	-0.010450047
170	0x37b5adc4	2.1657797e-05
171	0x3b88bd49	0.004172955
172	0xbb991694	-0.004671881
173	0x3a776038	0.000943664
174	0x3c26a15e	0.010170309
175	0xbc06991f	-0.008215218
176	0xbb2745e7	-0.0025523843
177	0xbb8257f1	-0.0039777686
178	0xbb546eb5	-0.003241462
179	0xbbe0dda8	-0.006862361
180	0xbb9bf4e5	-0.0047594183
181	0xbc3b0437	-0.011414579
182	0x39ca75e9	0.00038616292
183	0x3b6a090a	0.0035710954
184	0xbc321287	-0.010868675
185	0x3b35c285	0.002773435
186	0x3b05eb05	0.0020434272
187	0xbc200a5f	-0.009768098
188	0x3b28d415	0.0025761176
189	0x3a6dbec3	0.0009069258
190	0x3b1b6662	0.0023712148
191	0xbb92993b	-0.004473833
192	0x3bcdd778	0.0062817894
193	0x3c2e4bba	0.010638172
194	0xbb827c36	-0.0039820923
195	0x3b3c7c13	0.0028760477
196	0xbc163fb9	-0.009170466
197	0xbbe773a0	-0.007063344
198	0xb9a9253b	-0.0003226193
199	0x3b8d73fc	0.004316805
200	0xb9c75c6a	-0.00038025092
201	0x3bbc7266	0.005750942
202	0x3b231dd7	0.0024889612
203	0xbbb73cd1	-0.0055919667
204	0xbc0e9b06	-0.008703953
205	0x3acc60b7	0.0015592788
206	0xbb4afb7b	-0.0030972648
207	0xbb70c69b	-0.0036739472
208	0xb9fab2eb	-0.0004781702
209	0xbc1689ae	-0.009188099
210	0xbb00d46a	-0.0019657859
211	0xbba0f990	-0.0049125627
212	0x3c33a770	0.010965213
213	0x3b36d045	0.0027895134
214	0x3b299a0d	0.0025879175
215	0xbace9c62	-0.0015763158
216	0x3a85ac0e	0.0010198371
217	0xbb1ddd17	-0.0024088079
218	0xbc114993	-0.008867639
219	0x3b869c7a	0.004108009
220	0x3b0e4a49	0.0021711758
221	0xb9c60c8a	-0.00037774845
222	0xbc792ebf	-0.015208899
223	0xbb732a25	-0.0037103978
224	0x3b12198f	0.0022293066
225	0x3c7d76f7	0.015470258
226	0x3c041cf6	0.008063545
227	0xbc03c482	-0.008042457
228	0x3ac2103a	0.0014805861
229	0x3bd99840	0.006640464
230	0xbb52791f	-0.003211565
231	0xbb50b0c8	-0.003184365
232	0x3b2e64d9	0.0026610403
233	0xbb950e67	-0.004548836
234	0xbb7c8dc5	-0.003853665
235	0xbc1a3ebf	-0.009414374
236	0xbb115399	-0.0022175072
237	0x3bebe90a	0.0071994113
238	0xbb2df420	-0.0026543215
239	0x3bb28b21	0.0054487144
240	0x379948e5	1.8272965e-05
241	0xbb99cb26	-0.0046934066
242	0xbc003e4e	-0.007827355
243	0xbbe5555a	-0.0069987
244	0x3a7bcada	0.00096051174
245	0xbb6674c2	-0.0035164808
246	0x3a21fa0d	0.0006178923
247	0xbc078c9b	-0.008273269
248	0x3b0f2842	0.0021844064
249	0x3b452963	0.0030084483
250	0x3bbee5c3	0.0058257296
251	0x3b082943	0.0020776547
252	0xbb5ae8a5	-0.0033402827
253	0xbbd30b08	-0.006440524
254	0x3b023aa5	0.001987138
255	0x3c023090	0.0079461485
