EcoSculptor/results/Final_1.3/Preyanimal/Preyanimal-499979.pt (torch, 816163 bytes, 27 tensors)

network_body._body_endoder.seq_layers.0.weight f4 [256, 127]
00000000: e312 fdbd adcd 613d d588 edbc 1980 dfbd
00000010: 457c 83bd d961 55bd e471 a03c d0b2 1abe
00000020: c5fe c83d d05c f8bd 1260 113e 5c87 21bd
00000030: a87e d63c 2b11 f8bd f6dd 533d 4d1b 5a3b
00000040: e388 0bbc 83e4 bc3d d1a6 f8bd 1022 4cbd
00000050: 9639 80bd 51fc 013e 8faa 05bd 4b48 8d3d
00000060: 4058 1bbc 115e aabd de49 9dbd 2252 f63c
00000070: 0223 f23d 2588 653d 0676 26be 415a babd
00000080: 751e 143d 1717 573d b6f4 92bd 2126 9cbd
00000090: fb4d c8bd 8c63 7bbd 0453 f9bd 8fbb 3a3d
000000a0: e5c6 093e 9ad0 173c 0584 353c 7203 55bd
000000b0: b5cd 5fbd 3b8f 0fbd 4701 fabc 9a13 86bd
000000c0: 748c 4bbd 71ed 03be 4672 d33d 338a 8cbd
000000d0: 790e e3bc efc9 763d 8d85 6ebd 9418 c73d
000000e0: 9edc 1dbd 852c 5dbc 1d39 9a3d 8a74 20be
000000f0: ea39 0f3d 1ce3 f43c eb98 4b3e 8ff9 23bb
00000100: fcf3 013e 3e97 273c 02f5 91bd f86d 2f3e
00000110: 9fbc 4ebd 08d2 84bd 96a2 ea3d fb01 93bd
00000120: 5845 8fbc 7d05 fa3c 86e6 ac3d 80f1 cdbd
00000130: a1ca 48bd 1e28 45bd a8a2 463c 5b0a 0b3e
00000140: dafd 0d3e ed3c 283d 470a 28be 2c0a f4bd
00000150: 2107 2fbc 2001 5abd 76d2 2abe da1c 883e
00000160: ea0b 533d b5aa d9bd 2fca 4e3d a23a 02be
00000170: 9c0e 9fbd a781 14be 9644 0bbe cece 3c3d
00000180: d729 8f3d 3ca1 1e3e 0b35 b23b 6f6c 95bd
00000190: 900b 1f3e 5d23 4dbd 6767 7b3d cec0 adbd
000001a0: 8112 b6bd 90b9 1f3d 27d4 683d 05c9 50bd
000001b0: 5d7a dbbc fa0a 5bbe 279e 6dbb 8469 453e
000001c0: c3f6 813d e016 413d 8c14 e2bc 0938 35bc
000001d0: 3bfe 6dbd 2ffd 8cbe 84b3 2c3d 0e96 d6bd
000001e0: f9fe 13be a824 2bbe 54fd e23b 5bf6 e9bd
000001f0: c08c 113d 8aec 00bd c01a 19be 25bd 683d
00000200: 7287 54bc e651 edbb 092e 763e 805a 4f3e
00000210: 019f c7bd 071d 283d 912e 7dbd 2da6 7dbc
00000220: ecd2 9b3c 4d28 523c a6b4 073e 04ed f2bd
00000230: 3987 8a3d 96a0 38bd bec9 f1bd 2c97 41bc
00000240: 26c1 483b 8718 4e3d d37b ee3d 7760 50bb
00000250: bae1 0abe f42e e13d 1cab 2e3e 14f3 65bd
00000260: 5939 cb3d dc13 013e bcd4 8bbd 3ad7 2f3e
00000270: a3d5 7b3d 391b e63c 6afb 12be dd93 973d
00000280: 6486 203e 13b3 383d e07f 2abb dafe 063e
00000290: 13ee 673e d060 323d bae2 693d 7f23 7d3c
000002a0: 6b98 a23d 7f74 e53c 2126 103e 5540 763e
000002b0: b906 7cbd 0ff2 4ebd b8d0 81be 0fae 00bc
000002c0: 8e3e 99bd 2b8f 15bd 4f6f c9bc d7a0 763d
000002d0: b5df e0bd 1bee 973c 99c6 b13d 1a34 b33d
000002e0: a64a 3b3d 154b b23d d9da fcbc 7efa 8d3d
000002f0: 9f0f ddbd 8caa 06bd 0fdd c8bd 54b7 8dbd
00000300: 14cf ae3d bd8e 453c 4449 673d e99f 2fbe
00000310: a72a 043e ca78 0cbe 84f6 a4bd 0869 3e3e
00000320: 6535 72bb bfa2 333d 8a4d cd3c e74e 41bc
00000330: 2209 5dbd a024 bcbb 53ef acbd 1552 93bd
00000340: f174 7dbe c0f8 253d 271d 463e b24b b03d
00000350: 5884 2f3d 74d9 66be 6394 94be 2342 e7bd
00000360: 4af7 c73c eb85 10ba f7c6 703e a285 183c
00000370: 4e1b aebd 92dc b3bd fadf 803c 3fef 55be
00000380: bed5 323c ebf3 5e3d 8972 4f3d a613 ef3c
00000390: 89d3 47be b68f f13d ed57 8bbd 5246 8c3d
000003a0: 1528 89bd 79aa 6d3d c068 343e 6287 703e
000003b0: 5d55 55bd d6a7 e13d 2db3 43be 4ac9 85bc
000003c0: e73e 2a3e 8966 143d 013d 753d 50f3 5d3b
000003d0: 0afa 18bd 315e d4bd 8de8 a93d df69 d53c
000003e0: 53e8 a33d bfa6 9d3d 480e 10be 258b 863d
000003f0: f1eb c83c 8ca4 54bd 4a52 8bbd 4133 d1bc
-0.12357118 0.05512779 -0.02899591 -0.109131046 -0.06420187 -0.052095268 0.019585557 -0.15107274
0.098142184 -0.121270776 0.14196804 -0.03943573 0.026183441 -0.121126495 0.05172535 0.0033280433
-0.008516523 0.09223273 -0.12141193 -0.049837172 -0.06260984 0.12693907 -0.03263336 0.068985544
-0.00948149 -0.08318723 -0.07680105 0.03006846 0.118230835 0.05603804 -0.1625596 -0.09099246
0.03616186 0.052512255 -0.07175581 -0.0762446 -0.097804986 -0.061374232 -0.12174037 0.045589026
0.13454778 0.009266043 0.011078839 -0.05200524 -0.054639537 -0.035048705 -0.030518187 -0.065467075
-0.049694493 -0.12883545 0.1032453 -0.06862297 -0.027716862 0.060251173 -0.058232833 0.09721485
-0.038540475 -0.013499384 0.07530425 -0.15669456 0.03496734 0.02989345 0.19882552 -0.0025020575
0.12690729 0.01022893 -0.0712681 0.17131793 -0.05047285 -0.06485373 0.11456792 -0.07178112
-0.01748912 0.030520195 0.08442406 -0.10055828 -0.049021367 -0.04813396 0.012123741 0.13578169
0.13866368 0.04107373 -0.1641017 -0.11916003 -0.010682852 -0.05322373 -0.16681847 0.26584512
0.051525034 -0.10628263 0.050485786 -0.12717679 -0.077664584 -0.14502583 -0.13600382 0.04609566
0.06990402 0.15491194 0.005438452 -0.07296073 0.15531754 -0.050082553 0.06137791 -0.0848404
-0.08890248 0.038995326 0.05684295 -0.050972957 -0.026791746 -0.21390906 -0.0036257596 0.19278532
0.06345894 0.047140956 -0.027597688 -0.011060723 -0.05810378 -0.27536914 0.042163387 -0.104778394
-0.14452733 -0.16713202 0.0069271717 -0.11423942 0.03553462 -0.03147558 -0.1495161 0.056821007
-0.012971746 -0.007242429 0.24040999 0.20249367 -0.097471245 0.041043308 -0.061811987 -0.015481514
0.019021474 0.012826991 0.13252506 -0.118616134 0.06764073 -0.04507502 -0.118060574 -0.011815827
0.0030632704 0.05031636 0.11644711 -0.0031795779 -0.1356267 0.10995284 0.1705746 -0.05614002
0.099230476 0.12605232 -0.06827685 0.17171946 0.061483037 0.028089153 -0.1435372 0.074012496
0.15676266 0.045092653 -0.002601616 0.13183156 0.22649412 0.04354936 0.05710099 0.015450357
0.07939228 0.028009651 0.14077045 0.24047978 -0.06152985 -0.050523814 -0.25354552 -0.007853999
-0.074826345 -0.03651349 -0.024589209 0.060211983 -0.10980169 0.018546155 0.086804576 0.08750172
0.045725487 0.08705727 -0.030866073 0.06932543 -0.10793995 -0.03287749 -0.098077886 -0.06919733
0.08535591 0.012057957 0.056466356 -0.17150845 0.12906896 -0.13717952 -0.080548316 0.18594754
-0.0036958095 0.04385638 0.025061388 -0.011798597 -0.053963788 -0.0057416707 -0.08444085 -0.0719339
-0.24751641 0.04052043 0.19347058 0.08608188 0.042850822 -0.2254389 -0.2901946 -0.112919115
0.024409909 -0.00055131194 0.23513399 0.009309204 -0.08501302 -0.08782305 0.0157318 -0.20892046
0.010915218 0.054431837 0.05064634 0.029184174 -0.19514288 0.11794989 -0.0680388 0.0684935
-0.06697098 0.058023904 0.17618084 0.23489144 -0.052083362 0.1101834 -0.19111319 -0.016331334
0.16625558 0.036230598 0.05987263 0.003386695 -0.03734783 -0.10369528 0.08296309 0.02605146
0.08003297 0.0769782 -0.14067948 0.065695085 0.024526568 -0.051914737 -0.06802805 -0.025537135

network_body._body_endoder.seq_layers.0.bias f4 [256]
00000000: f958 b7bc 13a1 863c bb58 bf3c ff9e 9a3b
00000010: 7dc9 30bc c1ab 883c 8caf ee3c 3726 a93b
00000020: 2928 223b 13d4 48ba a2b8 beba bf5f c43c
00000030: c91b 583b 5dcc aabc fe50 5f3c 16e0 103c
00000040: 2573 5e3c 94d8 283c 53c8 9f3c 3502 85bc
00000050: 1285 0b3c bc56 ef3c 4c42 ae3c 191b d13c
00000060: e030 fd3a 370a 68bc 14c0 a3bb 8558 823c
00000070: bbbd 153c 6db8 1cbc 1f42 603b bf0d 0a3b
00000080: b735 e33c eb44 293b 853b 153d 98b9 9f3c
00000090: d476 5439 45a5 163d 1d12 0e3d 9f1c 823c
000000a0: 8edd ce3c 329b 22bc 4011 7a3b eebd 153c
000000b0: 737a 003d 7dde 6e3c 7d54 493d 6867 e43c
000000c0: 0d24 f33c f876 d23b 387f 273c da4e 163d
000000d0: 4c99 b93c 0274 7f3c 4d65 533c e886 383c
000000e0: b92e fa3b 9367 e93c 0daa ac3c 8bb3 83bb
000000f0: 5d6c be3c a8b5 b03c b946 85bb 2d81 b13a
00000100: 262d 84bc bc3c 723c 4fc5 463c 3de9 7bbc
00000110: cc73 a9bc 2751 7fbc d7d7 343c 4539 85bb
00000120: 6257 d43c 2d10 fabb 30a5 863b 5ee3 6e3c
00000130: ffa0 c13c 4e58 633b d074 4b3d e6eb 46bc
00000140: d05c 903b ef19 803d c8a5 3f3b 3cfa a4bc
00000150: 846f 443c d3f5 e43c e97d 263b 4388 83bc
00000160: 490d 0b3d d618 2b3d fe97 9b3c 6271 3b3c
00000170: 6fa3 9c3b 38ed 523c 782f a7bc 8c64 af3c
00000180: f9d3 dd3b cdf3 da3c f60f e43c e4e2 7dbb
00000190: 3036 1d3c e573 b83c 2591 c7bb f556 3b3c
000001a0: 3ba8 2d3d 766d 3b3c d4b0 9d3a 06e1 2abc
000001b0: 1d25 d63c d734 103c 623d 003d bbde 9a3b
000001c0: a204 23bc eafc a0bb 56c2 f2bb d0f4 5abb
000001d0: 72ee 5b3d d77b 0c3c b9d4 a9b9 d94c 333c
000001e0: abf3 7d3c 8944 81bb ea69 dd3c 6e22 683b
000001f0: 7cf7 863b 8696 e83c 9de2 563c 3eb7 72bb
00000200: 269c 8a3c b2d0 5a3c a4f9 fb3c 71df f23b
00000210: 80a6 9f3b 54c8 903b c51d 953c 81b6 3bbb
00000220: 35f4 ed3b c219 6d3c 4048 39bc b009 b33b
00000230: 00c4 073c ed3f ad3c 40ab 1b3d d38c 193d
00000240: 4e1d 193d f9a6 c93c a1df 2e3c be9f b83b
00000250: 6e36 c43c fcd0 1bbb 2497 c437 d049 e13b
00000260: 32b2 073d 92e1 0abb f8f2 603c be61 233c
00000270: bf14 283c c1f8 28bb 29b3 973c ccfb 88b9
00000280: b318 783c e508 9a3c abab 783c 46c7 593c
00000290: 2c2e 343c cd89 063d ed1f 2e3d 48d9 963c
000002a0: c905 d23b af31 483b 5447 23bb 85bc ae3c
000002b0: deb1 823c 156f 623a f0c6 2f3c 9fda 603c
000002c0: cc23 bb3c be7f 17bb beab 873c 391b 4c3b
000002d0: 1a65 1fba 1fb2 a53c 6ebf 163d 09ea d23c
000002e0: 293e 0cbb 9847 9f3b a8f5 9d3c aba0 ac3c
000002f0: 04bd acbc 916f e1bb 6fdc 9e39 82b4 5b3c
00000300: 1d29 eabb 2efb df3c 2825 e03c 2ca6 2b3c
00000310: 22b8 4bb9 a72d fb3c eadc 95bb 5b7b b23c
00000320: 30e8 56bc e0e1 993b b45d ea3b c3a1 0b3d
00000330: 1b06 8f3c f06f 6fbb 5de6 833d 6401 1a3c
00000340: 15d3 103d a844 ccbb 74fd b73b a869 d93c
00000350: f788 e13b ec85 63bc 40dc a03c 87cf f93b
00000360: e0d8 523c e84a 033d 5c96 1a3c ea23 a83c
00000370: 11f5 65bc bd6f 9d3b 025e 353a 5568 2b3d
00000380: 074b 433c af2d 403c b3fb b33c a355 6c3b
00000390: fb80 933b f9a7 a03c c2ec cf3c 0a33 4d3c
000003a0: ecf7 563c 789d c0ba d242 44bc 6ecf b43b
000003b0: e5ff 4c3b 62e9 673c 73a5 81bc bb01 cb3c
000003c0: 9993 533c 41e4 b83b 9371 fe3b 8211 ca3c
000003d0: ec09 2a3b 47d6 363c 2306 e6bb 75b5 413c
000003e0: fb26 393c 7934 4a3c 847b 73bc 1111 373c
000003f0: f742 833c 33cd ffbb 037e 0fbc 7686 843c
-0.022381293 0.016434228 0.02335774 0.004718661 -0.010790226 0.016683461 0.029136442 0.0051620263
0.0024743176 -0.0007660996 -0.0014550874 0.023971437 0.0032975546 -0.020849401 0.01363015 0.008842489
0.013577257 0.0103055425 0.019504702 -0.016236404 0.008515613 0.029216163 0.021271847 0.025525616
0.0019316934 -0.014162592 -0.0049972627 0.01591135 0.009139474 -0.009565455 0.0034219099 0.0021065322
0.027735574 0.0025828432 0.036433715 0.019497678 0.00020262162 0.036778707 0.034685243 0.015882788
0.02525213 -0.009924697 0.0038157254 0.009139521 0.031366777 0.0145794125 0.04915284 0.02788134
0.029680276 0.0064228736 0.010223202 0.036696292 0.022656105 0.015591623 0.01290257 0.011262633
0.0076349643 0.02849177 0.02107718 -0.004019206 0.023245031 0.021570995 -0.0040672687 0.0013542526
-0.01613481 0.014784988 0.012132003 -0.015375433 -0.020685099 -0.015583313 0.011037788 -0.004065665
0.025920574 -0.007631323 0.0041090474 0.014580576 0.02363634 0.0034690085 0.049671948 -0.0121412035
0.0044055954 0.062549464 0.00292431 -0.020138852 0.011989478 0.02794925 0.0025404638 -0.016056186
0.033948217 0.041771732 0.018993374 0.011440607 0.004780225 0.01287394 -0.020408377 0.02141025
0.006769654 0.026727581 0.027839642 -0.0038739974 0.009595439 0.0225162 -0.0060903006 0.011434306
0.042396765 0.011439672 0.0012030848 -0.010429626 0.026140744 0.0088016605 0.03130854 0.0047262586
-0.009949835 -0.004912962 -0.0074084206 -0.003341008 0.053694196 0.008574448 -0.00032392683 0.010943615
0.0154999895 -0.0039449376 0.027028043 0.0035420912 0.004118858 0.028392088 0.013115552 -0.003703549
0.01692016 0.013355421 0.030758686 0.00741189 0.0048721433 0.004418412 0.018202672 -0.0028642716
0.0072617778 0.014471473 -0.01130873 0.0054638013 0.008286476 0.021148646 0.038005114 0.037487816
0.037381463 0.024615752 0.0106734345 0.005634277 0.023951735 -0.0023775687 2.3435401e-05 0.006875254
0.033128925 -0.002119158 0.013729803 0.009972034 0.0102588525 -0.0025783035 0.018518047 -0.00026127545
0.0151426075 0.01880307 0.015177648 0.013292139 0.010997336 0.03284626 0.042510916 0.018414155
0.006409381 0.0030547192 -0.002491434 0.021330127 0.015953954 0.00086377683 0.010728583 0.013723998
0.022844218 -0.0023116912 0.016561385 0.0031144156 -0.0006080434 0.020226536 0.036803655 0.025746362
-0.0021399355 0.0048608296 0.019282177 0.021072706 -0.021086223 -0.006879755 0.00030300344 0.013409736
-0.0071460144 0.027341451 0.027361467 0.01047663 -0.00019428183 0.030661417 -0.004573454 0.021787336
-0.013116881 0.004696116 0.0071522836 0.034089815 0.017458966 -0.0036535226 0.06440423 0.009399746
0.035357554 -0.0062337704 0.0056149308 0.026539639 0.0068827826 -0.01388691 0.019636273 0.007623616
0.01286909 0.032053858 0.0094352625 0.020524938 -0.014035479 0.00480458 0.00069186103 0.041847546
0.011919743 0.011729642 0.021970605 0.0036061786 0.0045014597 0.019611346 0.02538145 0.012524376
0.013120633 -0.0014695367 -0.011978822 0.0055178916 0.0031280455 0.014154764 -0.015825963 0.024781099
0.012913608 0.0056424444 0.007765004 0.024666552 0.0025945855 0.011159486 -0.0070197745 0.011823048
0.011300798 0.012341612 -0.014860991 0.011173503 0.016023142 -0.007806444 -0.008758071 0.016177397

action_model._continuous_distribution.log_sigma f4 [1, 2]
00000000: 3bf1 62bd 240e 29bd
-0.055405837 -0.04127325

action_model._continuous_distribution.mu.weight f4 [2, 256]
00000000: d5c1 4d3c 01fe 89bd d463 853b 3758 8f3c
00000010: 4768 80bc e475 153d 500e c93c 41aa 1cbd
00000020: e857 0c3d 0f31 b4bc e212 febc fa30 733d
00000030: fb4f 04bd 445c 0dbc 847e ffbb f0b1 01bd
00000040: 2f0e a33d d0d6 fa3c d42f dc3c afb2 d7bb
00000050: de0c 023d 6666 103d 3a3c e0bc a59b c0bc
00000060: ed64 22bc 9d99 703b 8be1 4abc 8b7d edbc
00000070: 7438 f0bc f826 bc3c 68c1 f0bc 82a7 a1bc
00000080: 2fd6 35bd 9aa9 dd3c 9277 22bd 586a 96ba
00000090: b5d9 a33b aaf8 823d 05e7 a13d 8b88 81bd
000000a0: 327f 273d a28d b1bc 6fe5 f4bc ea29 a43c
000000b0: 40f0 8c3d 8ec7 21bd 289c 133d 266f 883b
000000c0: 768b 89bc 1455 df3c 3bd7 823c 99ab 863d
000000d0: 7dd0 1b3d 9d34 3b3d 0b80 dc3c 07eb 62bd
000000e0: 5343 eb3c 6716 2d3d c70c 91bc e66e 313c
000000f0: eaf3 893c 6e15 383d 07a5 64bc e41c 38bd
00000100: 0094 a63c e1b1 fe3b f961 a0bc fb5d cbbc
00000110: c283 46bb e5ea 8e3b a3d2 2cbd 4240 4ebc
00000120: f4c8 463d 23ac 98bc 7fc0 38bd 54b1 013d
00000130: 1830 61bd a619 6e3c a952 b8bd 40c3 eb3b
00000140: e7e6 023d 5866 943c 062c 83bc 6dab d43c
00000150: 3056 debc bfc8 8b3d 8c10 ccbc 3b5a 15b9
00000160: 1f01 a43d eec0 133d fdde 9ebc 5772 bb3b
00000170: aa68 25bd d496 193c 4beb 913b a942 ff3c
00000180: d3c3 12bd f9e0 2bbd 684b 57bd 967c a23b
00000190: 5d1e a3ba 5355 7bbd 83e4 aebc 741e e43b
000001a0: d009 353d bee8 7abc 69fc 02bc a349 9fbc
000001b0: 4a9b 2b3d 4db4 813c 3d82 043d 9610 91bb
000001c0: 5029 5cbc 5f36 0f3b cb51 5bbc 17fe 2dbc
000001d0: 20fb f0bc c80a 4dbd ba6b ce3b c80a ad3c
000001e0: ed69 42bd 0544 e2bc c0e7 733d 7002 913a
000001f0: 4ebe ca3c bfba c8bc 2f81 993b 56ec 853c
00000200: 5e95 fa3c 14fb 983b 1ec8 b43c 18ed 3c3a
00000210: 8f00 aa3c fb5a 243c 49e6 173d 7c20 6dbc
00000220: dfc6 3bbd a3e5 8fbb ae7f 7dbb abe5 9e3c
00000230: 50d3 4b3c 26dd 8f3d 6dfa 28bc 12d9 853c
00000240: db95 073d 43c8 ccbc 0bde 103c 3f94 8e3c
00000250: 5a54 f7bb 10c8 89bc 0bca 2cbd 2445 533b
00000260: 52a7 d83d cbd6 423c 8611 49bc 2bf8 4a3c
00000270: ddac 23bc 7355 113b 2c89 3abd e073 4abc
00000280: 0963 253d 352a 793c e459 6ebc f8fb af3c
00000290: dd32 1a3c 5d7d 033d 1442 173d d867 fb3c
000002a0: e0e2 f5ba 590d 103c f78c ecbc 79d4 8f3d
000002b0: 7a69 8f3b bf91 9f3c 3aea 2e3d 9dc2 86bd
000002c0: de6b 83bc 89d7 9fbc ae5f d33c 675a 67bc
000002d0: ac6b 28bd ad18 43bd 2c56 233d 1224 2d3d
000002e0: 20e8 1cbb 60b3 e6bb c7ac 17bd 68bf ed3c
000002f0: 1f4c 83bc fab7 b7bc cd17 d0bb 7afa 503d
00000300: 27d2 12bd 4d95 b0bc 7980 95bd 9ad8 21bd
00000310: 31d1 b7bc 89a9 f73b 995d 03bd fce1 5d3c
00000320: 194d 55bc 02d0 d83b 3a25 e8bc cb40 2bbb
00000330: f6f5 263b e92a bbbc 5be2 fc3d a806 ae3c
00000340: 84c2 a53d 1f0f 303c e32f 653b 4493 953d
00000350: 4f39 953c 9aee 9d3b 210b 7d3d f223 533c
00000360: 2f17 c13c c30a 6e3d 61be a03c 3ea3 02bd
00000370: 9530 4dbc 6d83 e5bc 1545 833b 04ac b0bd
00000380: 2aa4 2b3d 5928 d5bb 3ac8 06bd 3413 0cbd
00000390: ce2d 5bbd 7740 3a3d a967 313d 77a3 17bd
000003a0: 86d4 9bbc b388 b13c 7f9e e8bc 92c7 063c
000003b0: 054a 343b 4916 8abc 9db3 363b 324c 95bc
000003c0: 28a8 f53c e2d9 b6bc 0398 0ebd 6b97 9f3c
000003d0: d0b3 29bd bd1b 1dbd 9da7 01bc ee8b d83c
000003e0: 5b8c 8fbd 61d6 34bc 3531 663c 471c fdbc
000003f0: 1b5e 05bd e68c 18bc 3a6a 10bc 8374 533c
0.01255842 -0.067379005 0.0040707383 0.017498119 -0.015674723 0.036489382 0.024542958 -0.038248304
0.03426352 -0.02199605 -0.031014863 0.05937288 -0.032302838 -0.008627955 -0.0077970643 -0.031663835
0.0796169 0.030620009 0.026878275 -0.00658258 0.031750552 0.035253905 -0.027372468 -0.023511717
-0.009911758 0.0036712654 -0.012382875 -0.028990528 -0.029323794 0.0229678 -0.029389098 -0.019733194
-0.044393715 0.027058411 -0.039664812 -0.0011475785 0.005000318 0.06395085 0.079053916 -0.06324872
0.040892787 -0.021673981 -0.029894559 0.020039517 0.068817616 -0.03949695 0.036037594 0.0041636406
-0.016790133 0.027262248 0.01597177 0.065756984 0.038040627 0.045704473 0.026916524 -0.05539992
0.028718626 0.042257693 -0.017706288 0.010829663 0.01683994 0.044942312 -0.013955361 -0.044949427
0.020334244 0.0077726697 -0.019577967 -0.024825087 -0.0030290936 0.0043614977 -0.042193066 -0.012588562
0.048531488 -0.018636769 -0.045105454 0.031663254 -0.054977506 0.014532482 -0.09000141 0.0071949065
0.031958487 0.018115208 -0.016012203 0.025960648 -0.027140707 0.06825399 -0.024910234 -0.00014243361
0.08008026 0.036072664 -0.019393438 0.0057204175 -0.04038302 0.009374339 0.004453098 0.031159716
-0.035831284 -0.041962598 -0.052562147 0.0049586995 -0.0012444962 -0.06136067 -0.021349197 0.006961638
0.04419881 -0.015314279 -0.00799475 -0.019444292 0.041896142 0.015833044 0.032350767 -0.004427026
-0.013437584 0.0021852476 -0.0133862 -0.010619662 -0.02941662 -0.05005911 0.006299463 0.021123305
-0.0474643 -0.027620325 0.059547186 0.0011063349 0.024748947 -0.02450311 0.0046845893 0.016348045
0.030588802 0.0046686027 0.02206808 0.00072069606 0.02075222 0.010031457 0.03708485 -0.014473077
-0.045843955 -0.0043913885 -0.003868084 0.019396624 0.012440518 0.070246026 -0.010313612 0.016338859
0.033101898 -0.024997836 0.008842002 0.017404674 -0.0075478973 -0.01681903 -0.04218487 0.0032237256
0.10578789 0.011892031 -0.012272244 0.012388269 -0.009989944 0.0022176176 -0.045540974 -0.012356728
0.04037765 0.015207817 -0.014547799 0.021482453 0.009411541 0.032101978 0.03692825 0.030689165
-0.0018759631 0.008792245 -0.028875811 0.07022948 0.0043765875 0.019478677 0.042703845 -0.06580088
-0.016042646 -0.019511955 0.02580246 -0.014120675 -0.04111831 -0.047630955 0.0398771 0.042270727
-0.0023942068 -0.007040426 -0.037030008 0.029021934 -0.016027508 -0.022426594 -0.0063504935 0.051020123
-0.03584495 -0.021555567 -0.07299895 -0.039513208 -0.022438617 0.007558052 -0.032071684 0.013542648
-0.01301887 0.0066165933 -0.028338064 -0.002613115 0.0025476194 -0.02284761 0.123478614 0.021243408
0.080937415 0.010745793 0.003497117 0.07303479 0.018215803 0.0048197033 0.06177819 0.012886988
0.023570625 0.058115732 0.01962203 -0.03189396 -0.01252379 -0.02801677 0.004006038 -0.086265594
0.041904606 -0.006505054 -0.032905795 -0.034198 -0.05351048 0.045471635 0.04331175 -0.037021127
-0.019022238 0.021671629 -0.02839589 0.008226292 0.002750994 -0.01685633 0.0027878054 -0.01822481
0.02998741 -0.022320691 -0.03481294 0.019481381 -0.04143125 -0.03835653 -0.007913497 0.026433911
-0.070091926 -0.01103744 0.014049818 -0.030897273 -0.03256045 -0.009310937 -0.008814389 0.0129061965

action_model._continuous_distribution.mu.bias f4 [2]
00000000: 5074 063b 13c8 37bc
0.0020516105 -0.011217135

action_model._discrete_distribution.branches.0.weight f4 [1, 256]
00000000: c2af 793b 773b 0a3c 27ce 9d3b 1561 1f3c
00000010: 40b9 e93b 1b4f e93a fa21 5dba 8ec2 2a3b
00000020: 05e0 aa39 82f0 a83b 43bd e13b 75e6 543b
00000030: 6e61 31bb c276 cdbb faef caba e318 64bb
00000040: c392 4a3b b622 3d3a d742 b1bb 303d 0c3c
00000050: 6129 17bc b411 12bb 4597 863b 7faa 91ba
00000060: cec9 9bbb 2a1b 05bb c292 6c3a a034 d83b
00000070: d2e8 d83b 0389 093c 3a65 623c d012 19bb
00000080: bb68 4e3a b3aa 52bc 2843 f5bb c815 6c3c
00000090: bbc1 9d3b fb7a b63b 1c8b b1bb 9fdb c73a
000000a0: b1fc 99bb e328 0cbb 6dbe 253b f5e7 863a
000000b0: 9602 4c3b 9a0a a2ba 6960 a5bb 1711 5e3b
000000c0: 4fa6 8b3b 6008 99b9 f8f1 aa3b f355 31ba
000000d0: 635c ceba 47de c13a d763 823b 739d a33b
000000e0: 9a77 7f3b 0886 c13a 6810 e4bb 5548 f1bb
000000f0: f383 92ba 8df1 823b 73cc 5fbb 6ecf 813b
00000100: c555 65bc 9050 a33b 3e49 91ba 0fd6 463b
00000110: a8a9 313c 5373 6a3a 8535 0f3b 8a47 acbb
00000120: 071a 203c 5ce7 c135 1b23 94bb da36 13bb
00000130: cc95 bb3b ef8d 9d3b 1f3e 60bc 3367 913b
00000140: fb37 1dbc 45e3 7e3b cf67 10bb a02b 39bc
00000150: 7249 d63a db62 cb3b d7a6 603b bfb9 af3b
00000160: b15b 1d3c 3f95 afbb 0afe 593b d3e8 56bb
00000170: 4d6f 923b 4391 fbbb a3be 053c a7a4 0f3c
00000180: 4a0a f33a ab71 293c 72a6 633b d3dc 113c
00000190: 9d3a f8bb 03fd cb3b 354c 513b c206 213a
000001a0: a526 69bc 2ff3 90bb 725a d0bb f769 28bc
000001b0: b60d 23bc af84 29bc 6a64 61bb d93c 913b
000001c0: a96f 95bb aeb9 283a 2831 2eba 7f55 80bc
000001d0: d3f7 aabb 23cf 823b 27ba c9bb df6c 7fbb
000001e0: 8854 ce3b db75 68bc 4700 eb3a d328 ca3a
000001f0: f30d 24bc 3553 82bb ccc1 46b9 7aed 3fbb
00000200: b2a8 14bc 66b4 abbb 810d 9bb9 9774 80bc
00000210: 0f79 a83b d2e9 683c 6b54 59ba e205 9cba
00000220: 46bf 30bb 3f4d 5a3a 8a73 d63b 07f5 6f3b
00000230: cdac ec3b 2dbf 68bb 66f9 223a 2a35 e0b8
00000240: a9d5 23bb 332d f8ba d84d 4ebb 4dfc 783b
00000250: 3b9c d83a 7b6c e1bb cd83 003b b1dc 07b9
00000260: c730 a7bb 00ae fb3b 91e2 26bc 9feb 7fbb
00000270: b8f5 223c d740 4ebb fecc 96bc bb46 c03b
00000280: 8311 babb bb2b f6bb 0ddd 593c 18ca 96bb
00000290: 2185 43bc 6b5e 5a3b 1bdc fa3a 4ddc bcbb
000002a0: 1f99 b73b ad36 2bbc c4ad b537 49bd 883b
000002b0: 9416 99bb 3860 773a 5ea1 263c 1f99 06bc
000002c0: e745 27bb f157 82bb b56e 54bb a8dd e0bb
000002d0: e5f4 9bbb 3704 3bbc e975 ca39 0a09 6a3b
000002e0: 8712 32bc 85c2 353b 05eb 053b 5f0a 20bc
000002f0: 15d4 283b c3be 6d3a 6266 1b3b 3b99 92bb
00000300: 78d7 cd3b ba4b 2e3c 367c 82bb 137c 3c3b
00000310: b93f 16bc a073 e7bb 3b25 a9b9 fc73 8d3b
00000320: 6a5c c7b9 6672 bc3b d71d 233b d13c b7bb
00000330: 069b 0ebc b760 cc3a 7bfb 4abb 9bc6 70bb
00000340: ebb2 fab9 ae89 16bc 6ad4 00bb 90f9 a0bb
00000350: 70a7 333c 45d0 363b 0d9a 293b 629c ceba
00000360: 0eac 853a 17dd 1dbb 9349 11bc 7a9c 863b
00000370: 494a 0e3b 8a0c c6b9 bf2e 79bc 252a 73bb
00000380: 8f19 123b f776 7d3c f61c 043c 82c4 03bc
00000390: 3a10 c23a 4098 d93b 1f79 52bb c8b0 50bb
000003a0: d964 2e3b 670e 95bb c58d 7cbb bf3e 1abc
000003b0: 9953 11bb 0ae9 eb3b 20f4 2dbb 218b b23b
000003c0: e548 9937 26cb 99bb 4e3e 00bc 5a55 e5bb
000003d0: daca 7b3a c274 66bb 0dfa 213a 9b8c 07bc
000003e0: 4228 0f3b 6329 453b c3e5 be3b 4329 083b
000003f0: a5e8 5abb 080b d3bb a53a 023b 9030 023c
0.0038099145 0.008437029 0.004815835 0.009727736 0.007132679 0.0017800065 -0.0008435544 0.0026055905
0.00032591834 0.005155624 0.006889017 0.0032485996 -0.002706613 -0.0062702606 -0.0015482896 -0.0034804873
0.003091023 0.000721495 -0.0054095793 0.00855951 -0.009226174 -0.0022288384 0.004107388 -0.0011113434
-0.0047542816 -0.002031038 0.0009024554 0.0065980703 0.006619551 0.008394483 0.01381808 -0.002335716
0.00078738824 -0.012858081 -0.0074848123 0.01440949 0.0048143542 0.0055688596 -0.0054181945 0.0015247947
-0.0046993126 -0.0021386675 0.0025290505 0.0010292517 0.003112947 -0.0012362779 -0.0050468934 0.0033884698
0.004261769 -0.00029188674 0.005216833 -0.00067648216 -0.0015744086 0.0014790975 0.003979187 0.0049931346
0.00389812 0.0014764676 -0.0069599636 -0.007363359 -0.001117824 0.0039960803 -0.003414896 0.003961495
-0.0139975 0.004983969 -0.001108445 0.0030339991 0.010843672 0.0008943576 0.0021851968 -0.0052575516
0.00977183 1.4446955e-06 -0.0045207865 -0.0022463114 0.0057246443 0.0048081796 -0.013686686 0.004437351
-0.009595866 0.0038892787 -0.002203453 -0.011301905 0.0016348793 0.006206853 0.0034279132 0.005362719
0.0096043805 -0.0053583677 0.0033262991 -0.0032792583 0.0044688345 -0.0076772287 0.008163127 0.0087672835
0.0018542495 0.010342042 0.003473666 0.008902746 -0.0075753466 0.0062252297 0.0031936292 0.00061426696
-0.014230405 -0.004423521 -0.006358438 -0.01027917 -0.009951999 -0.010346576 -0.0034392127 0.0044323024
-0.00456043 0.000643636 -0.0006644898 -0.015665768 -0.005217531 0.003991978 -0.0061562243 -0.0038974804
0.006296698 -0.014188255 0.001792916 0.0015423544 -0.010013091 -0.003977204 -0.00018954946 -0.0029285834
-0.009073423 -0.005240011 -0.00029573965 -0.015680594 0.0051413844 0.014215903 -0.00082904723 -0.0011903609
-0.0026969477 0.00083275506 0.006544535 0.0036614554 0.007222748 -0.003551434 0.0006216973 -0.00010691055
-0.0024999178 -0.0018934369 -0.0031479504 0.003799218 0.0016526052 -0.006879387 0.001960981 -0.00012956817
-0.0051022503 0.0076806545 -0.010185854 -0.0039050353 0.009946279 -0.0031471753 -0.018408295 0.0058678067
-0.005678357 -0.0075125373 0.0132973315 -0.004601728 -0.011933596 0.0033320438 0.0019139083 -0.0057635666
0.0056029703 -0.010450047 2.1657797e-05 0.004172955 -0.004671881 0.000943664 0.010170309 -0.008215218
-0.0025523843 -0.0039777686 -0.003241462 -0.006862361 -0.0047594183 -0.011414579 0.00038616292 0.0035710954
-0.010868675 0.002773435 0.0020434272 -0.009768098 0.0025761176 0.0009069258 0.0023712148 -0.004473833
0.0062817894 0.010638172 -0.0039820923 0.0028760477 -0.009170466 -0.007063344 -0.0003226193 0.004316805
-0.00038025092 0.005750942 0.0024889612 -0.0055919667 -0.008703953 0.0015592788 -0.0030972648 -0.0036739472
-0.0004781702 -0.009188099 -0.0019657859 -0.0049125627 0.010965213 0.0027895134 0.0025879175 -0.0015763158
0.0010198371 -0.0024088079 -0.008867639 0.004108009 0.0021711758 -0.00037774845 -0.015208899 -0.0037103978
0.0022293066 0.015470258 0.008063545 -0.008042457 0.0014805861 0.006640464 -0.003211565 -0.003184365
0.0026610403 -0.004548836 -0.003853665 -0.009414374 -0.0022175072 0.0071994113 -0.0026543215 0.0054487144
1.8272965e-05 -0.0046934066 -0.007827355 -0.0069987 0.00096051174 -0.0035164808 0.0006178923 -0.008273269
0.0021844064 0.0030084483 0.0058257296 0.0020776547 -0.0033402827 -0.006440524 0.001987138 0.0079461485

exp_avg f4 [256, 127]
00000000: 40f7 1029 3ba3 c037 9e72 15b6 3d2d 1a37
00000010: ff73 0233 0666 0a38 696a 84b7 4a0a 4d36
00000020: 0533 9332 ce71 dc37 680d 84b7 b0e3 2437
00000030: 3f84 7fab 8abb f037 1d2c c2b7 b821 62b5
00000040: c1e5 a2b3 5e67 ac37 1e72 80b7 3441 4337
00000050: 4883 7fab 7c4a 3f37 7a6e 01b7 48b7 95b6
00000060: b6a2 4b31 81b7 9637 7ca8 c6b6 2db9 9137
00000070: a275 5f2d 80fb db36 d0de 84b6 2a85 83b7
00000080: 48b1 7433 edcb d036 c283 afb5 bce8 1537
00000090: a4c7 eb32 c47b 8b36 56c2 f2b7 83da e8b7
000000a0: de3c 162c bc3c 1b36 0757 11b7 c393 1437
000000b0: f7f0 f633 9edd 18b6 458d 01b7 399e a6b7
000000c0: b8b9 a1b2 55f8 ccb6 9edb e8b6 9f5d 8036
000000d0: 27f4 9eaa c483 2237 a671 a8b7 8f65 a1b7
000000e0: e0b8 71b2 2059 f8b6 478f 1736 7cc0 d836
000000f0: e519 1e29 e67f 99b6 2f23 f234 24b5 aeb7
00000100: b5b0 61ae abe5 13b7 71bb 67b6 fc24 ad36
00000110: 042d 8baa 22bd 9436 8c47 98b7 6768 86b7
00000120: 3d7c af32 cc47 09b7 bf1f 2fb7 bcf3 b435
00000130: c037 1e29 9000 ae37 b61b 86b7 0a81 47b6
00000140: e737 a92e 06d8 0b36 1140 c5b5 dc65 4037
00000150: 1521 0faa b87a 7736 6cb9 0e36 b032 a934
00000160: 473e 84b1 46f1 5ab6 90bc 3f36 44d0 0e37
00000170: f816 0633 4d1f c836 4d76 4f37 3072 ec34
00000180: 473e 84b1 e28b 19b7 f62e fbb6 2888 be36
00000190: b73d 1c2e 4670 24b6 bb7e 21b7 c938 66b6
000001a0: 54be 87b1 0e18 6cb7 aa9a 0536 7832 8f35
000001b0: 79c7 8433 8246 4cb7 1e8b 2d37 2d65 8ab6
000001c0: 56be 87b1 b11b 9035 d092 e0b6 d2c2 6d36
000001d0: 7ac7 8433 c2a1 46b7 6c50 1fb6 0093 55b6
000001e0: 55be 87b1 3209 7036 33d4 8e35 a22d 7137
000001f0: e499 25b7 435f e0b5 e0d5 f838 3f3e 922a
00000200: 782d 31b9 94e8 6f38 a60e b2b7 95e5 4bb2
00000210: 77b0 6ab9 5099 fc38 24c6 c936 28a3 bdb2
00000220: 4ccd 4ab9 1ed6 e538 95ce 00b8 8fce ff2b
00000230: 6645 7fb9 41af 8f38 cee6 98b7 464b 1f33
00000240: de9d 33b9 16a7 cf38 7460 62b8 a6cc ff2b
00000250: a280 18b9 0b97 a037 356a 9537 58a0 c3b0
00000260: 9e85 02b9 b406 7d38 30bf 35b8 53bb a1ad
00000270: 4fda beb7 b806 e7b4 5688 8a38 35b7 ecb3
00000280: 37c0 70b8 231b 3e36 c8c6 35b7 3941 51b3
00000290: 3287 31b8 d524 e438 62ef de38 403e 4bad
000002a0: 6c23 02b8 8e1c 8338 805b 8433 c178 d7b4
000002b0: ef82 d1b7 c94d 4438 a86d 8b38 b415 6233
000002c0: 0a00 9137 a84f ad37 feb0 e337 a76b 842b
000002d0: dc8e aeb8 70db c238 3f46 4138 6bea f632
000002e0: 7116 a3b6 0642 3237 1fcf a837 4568 7e2a
000002f0: 4034 c436 5775 e937 06d3 9e38 efef ab2f
00000300: 18eb 3fb6 d4f2 9538 8a42 0538 cd35 a42b
00000310: f00b e4b5 00b6 d536 c5f6 c636 4d04 3ab4
00000320: 0ec9 5537 bd90 9237 b90b a737 ea51 7e2a
00000330: 00f5 1fb8 2021 e737 b1ba acb7 4265 7eb0
00000340: 7483 97b8 9c0d 7438 a4a7 e0b7 3863 b2aa
00000350: c0e4 d0b6 9083 b436 d0a2 1eb7 837f 3b33
00000360: b516 8db8 9733 b437 8a66 88b7 fac4 d52e
00000370: 2c5c b836 b82b acb8 2488 91b6 837f 3b33
00000380: 543e f1b7 0a69 b838 40fd 5cb5 d799 49af
00000390: 167f 6b38 6a9f 3e38 92c3 fc37 ca45 4033
000003a0: a859 5737 3c16 7a38 92a4 3738 48f3 89b4
000003b0: 3907 1639 7ac6 9ab8 a258 0438 ca45 4033
000003c0: 2fb0 73b8 19da ad38 801b 98b5 4af3 89b4
000003d0: bdfd 9438 ce98 6137 2c8b 0037 ca45 4033
000003e0: be79 97b7 a5b6 43b8 6f51 acb8 c094 183a
000003f0: 0483 6936 80e6 a6b6 f8ba 81a9 4f49 a6b7
3.2188878e-14 2.2964194e-05 -2.2269446e-06 9.189648e-06 3.037348e-08 3.299678e-05 -1.5785177e-05 3.055337e-06
1.7136253e-08 2.6279038e-05 -1.5741869e-05 9.828174e-06 -9.0777727e-13 2.869756e-05 -2.3147144e-05 -8.424063e-07
-7.585505e-08 2.0552132e-05 -1.5311929e-05 1.1638087e-05 -9.077639e-13 1.1401829e-05 -7.7147215e-06 -4.461883e-06
2.9632878e-09 1.7966844e-05 -5.920474e-06 1.7371576e-05 1.2702202e-11 6.555987e-06 -3.9598453e-06 -1.5678426e-05
5.6971913e-08 6.222623e-06 -1.3076863e-06 8.93528e-06 2.7448387e-08 4.156931e-06 -2.8939143e-05 -2.7758308e-05
2.135007e-12 2.3132152e-06 -8.662936e-06 8.855891e-06 1.1499099e-07 -2.2778763e-06 -7.721891e-06 -1.986242e-05
-1.8827322e-08 -6.1085834e-06 -6.9397056e-06 3.825596e-06 -2.8235853e-13 9.6866315e-06 -2.0080082e-05 -1.9239988e-05
-1.4070082e-08 -7.4013515e-06 2.2584152e-06 6.4597098e-06 3.5105508e-14 -4.5746447e-06 4.5101612e-07 -2.0826767e-05
-5.1316024e-11 -8.8153565e-06 -3.4530788e-06 5.1601073e-06 -2.4722596e-13 4.4327617e-06 -1.8153129e-05 -1.6022661e-05
2.0429178e-08 -8.182553e-06 -1.0438204e-05 1.3481981e-06 3.5131403e-14 2.0742678e-05 -1.5986949e-05 -2.9728421e-06
7.6951605e-11 2.0838356e-06 -1.469629e-06 1.1467808e-05 -1.2712429e-13 3.68773e-06 2.1267579e-06 3.1515583e-07
-3.8487857e-09 -3.262497e-06 2.8570976e-06 8.51235e-06 3.1220196e-08 5.9641084e-06 1.23657055e-05 4.4041508e-07
-3.8487857e-09 -9.15208e-06 -7.48585e-06 5.678292e-06 3.5525107e-11 -2.4503256e-06 -9.625855e-06 -3.4305724e-06
-3.950655e-09 -1.4072297e-05 1.990857e-06 1.0669019e-06 6.183013e-08 -1.2175764e-05 1.0343994e-05 -4.124499e-06
-3.950656e-09 1.0736895e-06 -6.6928114e-06 3.5429152e-06 6.1830136e-08 -1.1839382e-05 -2.3739658e-06 -3.1825039e-06
-3.9506554e-09 3.576814e-06 1.0641583e-06 1.4375344e-05 -9.870597e-06 -1.6717025e-06 0.00011865399 2.5978002e-13
-0.00016896974 5.7198646e-05 -2.1226075e-05 -1.1868356e-08 -0.00022381717 0.00012044853 6.0133334e-06 -2.207669e-08
-0.000193407 0.00010959453 -3.0709973e-05 1.8176171e-12 -0.00024344548 6.851415e-05 -1.8227289e-05 3.7088533e-08
-0.0001712958 9.901651e-05 -5.3972428e-05 1.8175641e-12 -0.00014543769 1.9143821e-05 1.781164e-05 -1.423369e-09
-0.00012447542 6.0326143e-05 -4.333182e-05 -1.838677e-11 -2.2751423e-05 -4.3031991e-07 6.605747e-05 -1.10229315e-07
-5.7399473e-05 2.8328002e-06 -1.0834723e-05 -4.8720924e-08 -4.2326e-05 0.00010878748 0.000106303734 -1.1553036e-11
-3.1027404e-05 6.2518855e-05 6.163373e-08 -4.013473e-07 -2.4975712e-05 4.6802485e-05 6.6484616e-05 5.2639464e-08
1.7285365e-05 2.06603e-05 2.7142927e-05 9.409044e-13 -8.323576e-05 9.291514e-05 4.6080208e-05 2.874477e-08
-4.860391e-06 1.0624999e-05 2.0123609e-05 2.2595908e-13 5.847338e-06 2.7830405e-05 7.573333e-05 3.1275202e-10
-2.859806e-06 7.150104e-05 3.177164e-05 1.1667834e-12 -1.6990798e-06 6.3690823e-06 5.9295876e-06 -1.7324165e-07
1.2742601e-05 1.7471955e-05 1.991341e-05 2.2588152e-13 -3.8136728e-05 2.7552771e-05 -2.0590933e-05 -9.254856e-10
-7.224726e-05 5.8186808e-05 -2.6780945e-05 -3.1687999e-13 -6.225513e-06 5.379734e-06 -9.455442e-06 4.36553e-08
-6.7276334e-05 2.1481696e-05 -1.6260212e-05 9.7211086e-11 5.4943575e-06 -8.2097424e-05 -4.3371856e-06 4.36553e-08
-2.8758463e-05 8.793369e-05 -8.2324914e-07 -1.8335498e-10 5.6146724e-05 4.5447996e-05 3.013181e-05 4.4766956e-08
1.2835873e-05 5.9625352e-05 4.3783868e-05 -2.569525e-07 0.00014307805 -7.3802614e-05 3.1553798e-05 4.4766956e-08
-5.80998e-05 8.289907e-05 -1.1332886e-06 -2.5695255e-07 7.1044524e-05 1.3446623e-05 7.661798e-06 4.4766956e-08
-1.8057293e-05 -4.6661724e-05 -8.216767e-05 0.00058205053 3.4795967e-06 -4.9740192e-06 -5.761185e-14 -1.9822879e-05

exp_avg_sq f4 [256, 127]
00000000: 640d 192a 4187 9231 2b19 cc30 5ce7 7d31
00000010: 9f76 372b 0dbb 8931 49bb e330 bf47 8231
00000020: 2dd8 012b 095c 9a31 cbd2 d430 55bd 8331
00000030: 3345 a72a 0ec8 8631 1b61 ed30 62b3 8331
00000040: 8ea5 9a2a d135 a331 6ae3 d730 1bcf 8431
00000050: 6826 172a 7ef7 8531 0f1f dd30 be52 8631
00000060: d79c c32b 57b7 9e31 8faf c030 6c1a 8231
00000070: 68ab 862a 7a3e 8831 4e0c d430 7489 8731
00000080: 8f6d 5a2c 6742 9f31 c777 bf30 bdff 8031
00000090: f776 802b 719d 8131 e0cd fd30 622a 8931
000000a0: 1669 882a bf9b 9b31 4e5a d230 1cc3 7c31
000000b0: 374e 052b aed5 7d31 9ad7 f330 ac8c 8c31
000000c0: 3c51 e629 bb5a 9e31 1e19 d930 d616 7d31
000000d0: 825e 082b b0d1 7331 17bb 0431 2a71 9231
000000e0: 3dfe 6729 240f 9d31 937a cf30 d83e 7831
000000f0: 80c4 e72a 821b 6831 d738 0f31 e61a 9631
00000100: 6904 2e2b f66d a031 39a7 c530 050d 7931
00000110: 11f9 7529 01ea 5731 c6f5 0a31 c016 9631
00000120: 2a80 ef2a 79ef 9a31 a071 c430 adf3 7431
00000130: 19ec 9f2a 2ed4 5431 80f5 1a31 63c0 9531
00000140: 05ea ce2a 297e 9931 39a3 b830 d765 7031
00000150: 964c 9d2a f403 4131 732e 1631 dbdc 9431
00000160: 58dc d32a 5ec1 9331 8fd1 c830 b9d5 7531
00000170: 9fe3 102a af10 3631 be49 1531 e87f 8e31
00000180: 1df5 052b 456e 9031 4b86 d530 48c7 7d31
00000190: ecd2 4229 88e1 3431 b386 1831 50c5 8e31
000001a0: 0732 022a db4d 8d31 344a d230 a8c7 7a31
000001b0: 0928 5129 1cd9 3231 3a22 1c31 5d60 9431
000001c0: 6624 0d2a ec0f 8131 388c d830 f8de 7631
000001d0: 3946 122c 3449 2f31 c896 1431 8c54 9131
000001e0: e416 282a 9773 7931 2d16 ef30 a6e4 7a31
000001f0: 76ee 4235 6ea3 0631 8f1d e735 f606 2c2d
00000200: ceba c833 2d2e 2733 a009 c833 b23f 192d
00000210: e178 be33 1338 3833 40eb c633 95b8 702d
00000220: 13f1 d333 8f5b 2733 f100 d133 518a 552c
00000230: e0f6 bc33 ae8b 1e33 bbb1 c133 d96b 442d
00000240: ef7c db33 1738 2e33 2fe3 d033 0a18 ed2c
00000250: 6404 b633 ec29 2f33 4f8c c633 a88a 072e
00000260: db1b d733 65ff 2333 461f ce33 ba49 212d
00000270: 26ce c533 5eb9 2633 0543 c833 8bd2 4f2e
00000280: ec87 dc33 4bec 1b33 ef0f ca33 b6bf 9e2d
00000290: 9cdd cb33 9c86 2b33 435e c933 8a39 3f2d
000002a0: 2e5b cc33 0e7c 3433 a0de cb33 81a4 c02d
000002b0: e4ad c733 4346 1233 8e04 c133 20f3 852b
000002c0: 6507 c433 7a47 3033 79bd c133 5034 802d
000002d0: feca b633 6e01 1b33 35bf bb33 046b c52b
000002e0: 084e bd33 8073 4033 d6ef c533 90c6 712d
000002f0: a71e b733 bbc0 1e33 21a3 bd33 06c8 202d
00000300: 2223 bb33 b070 3833 d4ed c433 f204 062c
00000310: 415f b833 8416 0c33 3d29 bb33 b794 8d2c
00000320: 938f a733 c8a2 4733 e0f8 c733 300a de2c
00000330: 2595 b133 3893 1933 684c b433 3691 1f2c
00000340: 401c a733 666f 5833 0362 cc33 6d86 902d
00000350: 4f94 a333 bde4 0b33 9f75 ab33 c63c 552c
00000360: baed a633 499c 5a33 327a d333 7663 482d
00000370: 3901 9733 f678 2733 1117 ae33 5b15 bd2c
00000380: fd94 9d33 7a4e 6933 0ced db33 2492 452d
00000390: efdb 9733 6b5c 3b33 68a8 b933 e7b3 2b2b
000003a0: bc23 9f33 7c1b 5433 63af d333 6b8b 482d
000003b0: ee28 9e33 745f 3633 f0b2 bf33 57bd 7f2b
000003c0: 0db5 9a33 962d 4733 238d d033 2a95 062e
000003d0: dad3 9c33 570b 2733 af4c c333 2dff a42b
000003e0: 0a9a 9933 5551 4333 98e1 c633 6eb4 9337
000003f0: 3ba2 3f33 093d 0938 78dc 942a d6c9 1d32
1.3593776e-13 4.264536e-09 1.4850107e-09 3.6947858e-09 6.517928e-13 4.00849e-09 1.6569653e-09 3.7916545e-09
4.613001e-13 4.492453e-09 1.5484941e-09 3.8341263e-09 2.9713176e-13 3.922657e-09 1.7271619e-09 3.8329953e-09
2.7470772e-13 4.7500426e-09 1.5707944e-09 3.865251e-09 1.3424819e-13 3.898946e-09 1.6088694e-09 3.90932e-09
1.3899115e-12 4.6192485e-09 1.4019735e-09 3.786502e-09 2.3922119e-13 3.9652237e-09 1.5428527e-09 3.9446437e-09
3.104048e-12 4.635058e-09 1.3931122e-09 3.7543644e-09 9.127966e-13 3.772293e-09 1.8466686e-09 3.992043e-09
2.423137e-13 4.5288e-09 1.5305177e-09 3.6781733e-09 4.7359637e-13 3.6937808e-09 1.7741855e-09 4.090529e-09
1.0228144e-13 4.60872e-09 1.5795967e-09 3.6829326e-09 4.844806e-13 3.5480348e-09 1.9314876e-09 4.2620245e-09
5.151282e-14 4.5710227e-09 1.509607e-09 3.6124472e-09 4.1170192e-13 3.377608e-09 2.0841548e-09 4.3686326e-09
6.182334e-13 4.669114e-09 1.4381164e-09 3.624167e-09 5.461696e-14 3.1419634e-09 2.022135e-09 4.368161e-09
4.254386e-13 4.509215e-09 1.4293171e-09 3.5645187e-09 2.84079e-13 3.097067e-09 2.25495e-09 4.3583426e-09
3.6755335e-13 4.467229e-09 1.3434153e-09 3.4982486e-09 2.7941945e-13 2.8087443e-09 2.1854276e-09 4.3324753e-09
3.7634024e-13 4.3002464e-09 1.4611475e-09 3.577368e-09 1.2868741e-13 2.649397e-09 2.1724271e-09 4.147285e-09
4.7591255e-13 4.203488e-09 1.5535958e-09 3.6929624e-09 4.32596e-14 2.6321647e-09 2.2195479e-09 4.1551758e-09
1.1563676e-13 4.1124912e-09 1.5300601e-09 3.649328e-09 4.6442047e-14 2.6025821e-09 2.2720443e-09 4.318322e-09
1.2535944e-13 3.7562042e-09 1.5755921e-09 3.5924455e-09 2.078683e-12 2.5507463e-09 2.1622544e-09 4.2296673e-09
1.4929339e-13 3.6299974e-09 1.7395841e-09 3.650976e-09 7.261764e-07 1.9592465e-09 1.7219444e-06 9.778614e-12
9.347205e-08 3.8924714e-08 9.3149765e-08 8.711186e-12 8.869552e-08 4.2891838e-08 9.262885e-08 1.3683406e-11
9.869304e-08 3.896599e-08 9.732492e-08 3.0345902e-12 8.7993385e-08 3.691428e-08 9.019592e-08 1.1165257e-11
1.02207075e-07 4.0563545e-08 9.727079e-08 6.738614e-12 8.475834e-08 4.078349e-08 9.2456155e-08 3.0818598e-11
1.00167846e-07 3.8183675e-08 9.598311e-08 9.168161e-12 9.2110255e-08 3.8818477e-08 9.3254165e-08 4.725335e-11
1.02692724e-07 3.6303657e-08 9.409256e-08 1.8047657e-11 9.4932346e-08 3.9936467e-08 9.376938e-08 1.0869869e-11
9.516076e-08 4.2022343e-08 9.4934194e-08 2.1900927e-11 9.29829e-08 3.4057177e-08 8.988091e-08 9.517699e-13
9.128306e-08 4.10432e-08 9.021728e-08 1.4575147e-11 8.5119595e-08 3.609005e-08 8.7426464e-08 1.4027395e-12
8.815192e-08 4.480853e-08 9.217153e-08 1.3743354e-11 8.527177e-08 3.696253e-08 8.830671e-08 9.139361e-12
8.714257e-08 4.2943327e-08 9.170222e-08 1.904529e-12 8.585494e-08 3.2616768e-08 8.715367e-08 4.0239717e-12
7.8026595e-08 4.6481347e-08 9.31193e-08 6.3107505e-12 8.269334e-08 3.5756983e-08 8.3958014e-08 2.2675867e-12
7.781682e-08 5.0392735e-08 9.5173185e-08 1.6430602e-11 7.617256e-08 3.2571496e-08 7.984203e-08 3.0302857e-12
7.7732196e-08 5.089922e-08 9.8476804e-08 1.13907685e-11 7.031708e-08 3.899273e-08 8.106702e-08 5.374074e-12
7.337983e-08 5.4320914e-08 1.0241101e-07 1.1230603e-11 7.071491e-08 4.3623384e-08 8.645367e-08 6.100107e-13
7.4105145e-08 4.9385093e-08 9.857356e-08 1.1399641e-11 7.3648934e-08 4.246199e-08 8.926679e-08 9.085696e-13
7.204117e-08 4.637476e-08 9.7114274e-08 3.0600557e-11 7.302852e-08 3.889303e-08 9.094344e-08 1.1723726e-12
7.152637e-08 4.5475947e-08 9.261129e-08 1.7607785e-05 4.46182e-08 3.272019e-05 2.6443062e-13 9.184495e-09

exp_avg f4 [256]
00000000: b6e1 73b6 88d1 fd36 6475 0cb8 7ed4 0d39
00000010: c4a4 3eb8 82f8 3cb7 bd2c ecb8 11bf d838
00000020: 47f8 0638 a4f4 44b8 e2d6 bb37 2273 10b8
00000030: dd89 30b8 42c8 b9b7 61d7 0c39 c481 98b7
00000040: 23f4 0039 821f 1139 c89e 30b8 68ab d4b7
00000050: 5dcb 9438 7c59 50b6 523e b0b8 18ee 0bb8
00000060: 26ee cc38 091f 1cb6 a60e 96b8 cc1f 78b6
00000070: 14a6 aab7 5c16 6337 22d0 8236 c629 a938
00000080: 278e 2db9 e0d4 50b8 44f4 82b8 160f ebb8
00000090: 6ba4 0238 1280 ad37 e0c6 9f38 d6a5 d238
000000a0: a8d5 0337 aa4e a537 2f27 8b38 1853 11b7
000000b0: e300 7638 403a 56b5 254b 2bb8 8f93 b9b8
000000c0: 43d3 7bb8 fee8 9938 2f47 05b7 9894 7337
000000d0: 2d01 beb8 46a8 02b8 1a12 1439 b87b c837
000000e0: e96c 3bb8 c689 4737 b0aa bfb8 61f8 ac38
000000f0: f010 71b7 541c 6f37 e0e0 1636 246b 2eb8
00000100: 7901 c937 52a3 d4b7 f2e4 d7b8 afb8 abb7
00000110: 2877 f2b7 feb9 1c38 f208 8738 58ae 3db8
00000120: cd34 c1b7 cee0 b936 a514 cb38 02ff 1a39
00000130: 5a8b 02b8 fce3 4636 0bd2 6eb9 0ffe 3b37
00000140: 8f74 a238 cb39 1ab9 73d8 f537 a25b 0838
00000150: 343a 23b8 daec 72b8 1d81 df37 303d bbb5
00000160: c8b6 d4b8 72f8 90b8 c757 1f39 45c5 5fb7
00000170: 603f 79b7 96fe a3b7 f7cf 0438 a187 45b7
00000180: ba42 0837 9954 d0b8 e21f 7338 1259 ac38
00000190: f32f 9638 d531 f9b8 9563 a038 de4d 0f39
000001a0: c4f8 a1b8 bf7d 82b7 21bc dc37 4ed6 2c37
000001b0: a9fa af38 a382 01b7 4b1f 99b8 bbef 1839
000001c0: 86d9 afb7 98f7 aa37 6612 3037 5872 3b38
000001d0: 3b7a 86b9 2609 c6b8 0604 0439 ea8a 9436
000001e0: 05f1 4638 59a6 78b7 a47f ca36 896c 9fb7
000001f0: 7e32 b5b7 5aec 3538 2e16 6c37 546d af38
00000200: efa9 eab7 945a a1b6 f888 15b9 9867 d238
00000210: 805d 0ab5 4804 1d39 243b 94b7 0efb b7b8
00000220: 0eaa 2839 c617 2039 c08b e2b7 fc71 7938
00000230: 89c5 e338 b8fa e6b6 c28d 31b9 b3f9 ecb7
00000240: 0f66 39b8 31f9 1e39 9a78 32b8 f256 5239
00000250: f5cb 8db8 90e2 de37 fe8b 7638 3e6e 90b8
00000260: acba cc36 101b 85b7 f23d dc38 20e3 56b8
00000270: 4a45 7338 4e33 1239 311b cab7 529e 1c37
00000280: d2a2 1b39 30c8 d5b7 d53c 14b9 4f70 94b7
00000290: da24 9cb7 1298 eab7 38b9 cab5 8269 0338
000002a0: af52 ab36 54ec a438 dc34 9137 22a8 0238
000002b0: e6f4 2139 1452 fa38 5deb 2138 39c3 4a38
000002c0: 6e0f d0b8 be57 a137 42ad d9b6 0672 1639
000002d0: 6e63 54b7 79ef bfb8 1c4a 5ab8 2030 3eb8
000002e0: add7 0bb8 e02e 33b6 9f2a a337 e99a 86b7
000002f0: 509f 2fb7 acd7 9037 35c4 a6b8 48f3 2839
00000300: 0efb 3c38 aef7 56b8 887e e837 78fc 67b7
00000310: 3922 a8b8 c323 c2b8 4418 4eb8 cfe0 bbb8
00000320: 6b0b 1437 169f 9cb8 bf2d c7b8 7eaa 30b7
00000330: 3cf2 5636 c8c0 01b8 1d02 fab8 9e37 5eb8
00000340: 2076 6936 ba9d f137 ca82 0637 c09e ae38
00000350: 802e 2f38 70f0 1d34 0f7f 4839 a404 1d37
00000360: b1a0 4239 abb8 a3b8 4e00 cf38 d9bf 58b8
00000370: e9f7 e736 80d6 a0b8 f8a9 c3b5 a5d7 0fb9
00000380: 9090 0c39 b8d3 98b6 f479 a2b8 7ff1 94b8
00000390: fcf7 33b8 88c5 8438 f976 b837 8220 9437
000003a0: 44f1 c9b8 93a7 e337 65e6 36b8 84d6 fd38
000003b0: 1008 8337 3800 f738 3757 ac36 a589 6bb8
000003c0: c231 39b7 32ad 8037 0eb2 63b9 7524 9db8
000003d0: ade5 fa37 1c0d f7b8 9f32 0038 b6a0 db38
000003e0: 92e3 f438 6ffd 87b7 d6e1 14b7 20ad 0934
000003f0: 8543 9238 872a 09b7 e70c 8238 74d7 edb8
-3.6341203e-06 7.56438e-06 -3.348793e-05 0.00013525967 -4.545298e-05 -1.1263533e-05 -0.0001126169 0.000103352715
3.2179316e-05 -4.695788e-05 2.23922e-05 -3.44395e-05 -4.2090065e-05 -2.214697e-05 0.00013431675 -1.8180239e-05
0.00012297979 0.00013840015 -4.2109546e-05 -2.5352187e-05 7.095069e-05 -3.1046502e-06 -8.403942e-05 -3.3361925e-05
9.7718366e-05 -2.3263876e-06 -7.155286e-05 -3.6973388e-06 -2.0342915e-05 1.353546e-05 3.8985318e-06 8.066329e-05
-0.00016551522 -4.978932e-05 -6.244381e-05 -0.00011208483 3.114754e-05 2.0682844e-05 7.618754e-05 0.0001004447
7.857954e-06 1.9706164e-05 6.635335e-05 -8.66202e-06 5.8651796e-05 -7.980598e-07 -4.083956e-05 -8.848972e-05
-6.0039816e-05 7.339007e-05 -7.9439915e-06 1.4518526e-05 -9.060125e-05 -3.1151132e-05 0.00014121123 2.3899469e-05
-4.4685705e-05 1.1893402e-05 -9.139383e-05 8.247863e-05 -1.4368663e-05 1.4252106e-05 2.2482636e-06 -4.1584615e-05
2.3961753e-05 -2.5348421e-05 -0.00010294643 -2.0470789e-05 -2.8904135e-05 3.7366517e-05 6.438968e-05 -4.522348e-05
-2.303198e-05 5.5396004e-06 9.68364e-05 0.00014781582 -3.1124197e-05 2.9637004e-06 -0.00022775696 1.1205221e-05
7.746473e-05 -0.00014708114 2.9307068e-05 3.2510266e-05 -3.8916434e-05 -5.791788e-05 2.6643795e-05 -1.3950394e-06
-0.000101429934 -6.9127316e-05 0.00015196121 -1.3337766e-05 -1.4856312e-05 -1.9549665e-05 3.1664935e-05 -1.1773694e-05
8.121768e-06 -9.9339704e-05 5.7965408e-05 8.21819e-05 7.1614886e-05 -0.00011882527 7.647943e-05 0.0001366655
-7.7234145e-05 -1.5555763e-05 2.6313648e-05 1.0301896e-05 8.391339e-05 -7.719415e-06 -7.301437e-05 0.00014585156
-2.0962918e-05 2.0380874e-05 1.0494701e-05 4.4690765e-05 -0.0002564954 -9.44308e-05 0.0001259 4.4269154e-06
4.7431346e-05 -1.4820683e-05 6.0349284e-06 -1.9004818e-05 -2.1600394e-05 4.3373882e-05 1.407186e-05 8.365014e-05
-2.7974105e-05 -4.8087186e-06 -0.00014260772 0.00010032876 -5.1545067e-07 0.00014974282 -1.7670514e-05 -8.7728826e-05
0.00016085079 0.00015267645 -2.7006376e-05 5.9472382e-05 0.00010860997 -6.8837217e-06 -0.00016932844 -2.8249668e-05
-4.4202487e-05 0.00015160885 -4.2550826e-05 0.0002005955 -6.761394e-05 2.6569964e-05 5.878135e-05 -6.886989e-05
6.1014052e-06 -1.5867437e-05 0.00010501956 -5.1233103e-05 5.8000245e-05 0.00013942758 -2.4092938e-05 9.335186e-06
0.00014842607 -2.5484798e-05 -0.00014137042 -1.7695273e-05 -1.861381e-05 -2.7965787e-05 -1.5104079e-06 3.1331096e-05
5.1058228e-06 7.864149e-05 1.7309962e-05 3.1151e-05 0.00015445388 0.00011936217 3.860459e-05 4.834237e-05
-9.921087e-05 1.9233554e-05 -6.487274e-06 0.00014347592 -1.2659335e-05 -9.152195e-05 -5.204427e-05 -4.534435e-05
-3.3341046e-05 -2.6700363e-06 1.9450961e-05 -1.604618e-05 -1.0467906e-05 1.7266568e-05 -7.952043e-05 0.00016112358
4.5056506e-05 -5.1252246e-05 2.7715476e-05 -1.3827455e-05 -8.017239e-05 -9.257302e-05 -4.9136826e-05 -8.958729e-05
8.824146e-06 -7.468292e-05 -9.49758e-05 -1.0530113e-05 3.2029484e-06 -3.093554e-05 -0.000119213226 -5.2980722e-05
3.4788463e-06 2.8802886e-05 8.017474e-06 8.326536e-05 4.1766558e-05 1.4709235e-07 0.0001912082 9.35901e-06
0.00018561144 -7.806843e-05 9.870586e-05 -5.1677085e-05 6.913197e-06 -7.669348e-05 -1.45781e-06 -0.00013717877
0.00013405294 -4.5546003e-06 -7.7474775e-05 -7.102172e-05 -4.290788e-05 6.3310436e-05 2.198991e-05 1.7658112e-05
-9.629366e-05 2.7138542e-05 -4.3606753e-05 0.00012103937 1.5620171e-05 0.000117779186 5.1361526e-06 -5.6156558e-05
-1.1038444e-05 1.533944e-05 -0.00021714738 -7.493134e-05 2.9909274e-05 -0.000117803196 3.0564723e-05 0.000104726685
0.00011677215 -1.6211268e-05 -8.874069e-06 1.2822102e-07 6.974399e-05 -8.175738e-06 6.201286e-05 -0.00011341172
