EcoSculptor/results/Final_1.3/Preyanimal/Preyanimal-1499962.pt (torch, 816218 bytes, 27 tensors)

network_body._body_endoder.seq_layers.0.weight f4 [256, 127]
0	0xbdf3f242	-0.119114414
1	0x3d825d95	0.063655056
2	0xbd15942d	-0.036518265
3	0xbdf20f59	-0.118193336
4	0xbd88c139	-0.06677479
5	0xbd441ef4	-0.04788108
6	0x3d059092	0.032608576
7	0xbe199149	-0.14996828
8	0x3dbb825a	0.09155722
9	0xbdec9c05	-0.11553196
10	0x3e0c567a	0.13704863
11	0xbd57c132	-0.05267448
12	0x3d2b8213	0.041872095
13	0xbdf6c237	-0.12048762
14	0x3d8740f6	0.06604187
15	0x3bbe99b1	0.0058166613
16	0xbc47d221	-0.012196095
17	0x3dbc4850	0.0919348
18	0xbe10f30f	-0.1415522
19	0xbd999551	-0.07499183
20	0xbd92d802	-0.071701065
21	0x3e0884e3	0.13331942
22	0xbcbe9870	-0.023266047
23	0x3d8f7415	0.07004563
24	0xbba668a0	-0.0050783902
25	0xbdba1ae3	-0.090871595
26	0xbdb71de3	-0.08941247
27	0x3b9c1e83	0.0047643795
28	0x3e049ecf	0.12951206
29	0x3d5fc3d9	0.054630134
30	0xbe1668a0	-0.14688349
31	0xbdaf296a	-0.08552821
32	0x3d2d2928	0.042275578
33	0x3d43a466	0.047764204
34	0xbd94c690	-0.07264435
35	0xbdcb7993	-0.09935298
36	0xbdc7c194	-0.09753719
37	0xbd7bb404	-0.061450973
38	0xbdd041c9	-0.101687975
39	0x3d6290cc	0.05531387
40	0x3e15dd31	0.14635159
41	0x3bfd3252	0.007726946
42	0xbacceefe	-0.001563519
43	0xbd97e211	-0.074161656
44	0xbd3de23b	-0.04635833
45	0xbcf5695e	-0.02995747
46	0xbcf919bc	-0.030407779
47	0xbd82e62c	-0.06391558
48	0xbcc2cd6f	-0.023779599
49	0xbe05caf7	-0.13065706
50	0x3dc955e1	0.09830833
51	0xbdb40c24	-0.08791378
52	0xbd324bc2	-0.04352928
53	0x3d9012a3	0.07034805
54	0xbd145719	-0.036215875
55	0x3dcf6c03	0.101280235
56	0xbc84690a	-0.016163368
57	0xbc7b553f	-0.0153401485
58	0x3da5c003	0.08093264
59	0xbe2ac5d9	-0.16677035
60	0x3d0c4196	0.034242235
61	0x3d4078b9	0.04699013
62	0x3e514a43	0.20438485
63	0x3bcb2e5c	0.006200595
64	0x3e12e5cf	0.14345478
65	0x3bfda517	0.0077406275
66	0xbd94b0ba	-0.072602704
67	0x3e255cfa	0.16148749
68	0xbda6a7c4	-0.081374675
69	0xbd5dd6f0	-0.05416006
70	0x3e04caea	0.1296803
71	0xbd8be631	-0.06831015
72	0xbb412da6	-0.0029476671
73	0x3cc82fa5	0.024436781
74	0x3dbe338a	0.09287174
75	0xbddced0f	-0.10787403
76	0xbd4aed43	-0.049542677
77	0xbd3a0de1	-0.045423392
78	0x3c09d24e	0.008411957
79	0x3e08a64b	0.13344686
80	0x3e1a06e2	0.15041688
81	0x3d133716	0.035941206
82	0xbe21d238	-0.15802848
83	0xbdfd691f	-0.12373566
84	0xbd1e9148	-0.03871277
85	0xbd9393fa	-0.07205959
86	0xbe32cef4	-0.17461759
87	0x3e824bd9	0.25448492
88	0x3d83a5a7	0.0642808
89	0xbde59b80	-0.112113
90	0x3d34ed17	0.04417142
91	0xbe0874ed	-0.13325854
92	0xbda6beb0	-0.081418395
93	0xbe27dcb6	-0.16392788
94	0xbe165214	-0.14679748
95	0x3d120359	0.035647724
96	0x3da7c23f	0.081913464
97	0x3e1a2672	0.15053728
98	0x3bd75ef8	0.0065726005
99	0xbd9f87e1	-0.07789589
100	0x3e229879	0.15878476
101	0xbd821598	-0.06351775
102	0x3d587a07	0.05285075
103	0xbdc28566	-0.094981
104	0xbdb02e54	-0.086025864
105	0x3d1bd0e9	0.03804103
106	0x3d21bfa2	0.039489396
107	0xbd546de6	-0.05186262
108	0xbd40604e	-0.046966843
109	0xbe684a5c	-0.22684616
110	0xbcbcc606	-0.023043644
111	0x3e37a338	0.17933357
112	0x3d8d11de	0.068881735
113	0x3d43895d	0.04773842
114	0xbd01de87	-0.03170636
115	0xbbe37907	-0.006941918
116	0xbd87c9e1	-0.06630302
117	0xbe97d264	-0.29652703
118	0x3cf89e91	0.030349048
119	0xbdef72fa	-0.11691852
120	0xbe0fa439	-0.1402749
121	0xbe30309a	-0.1720604
122	0x3baffb2d	0.0053705187
123	0xbde07f16	-0.1096174
124	0x3cefe071	0.029281827
125	0xbd0ec418	-0.03485498
126	0xbe112815	-0.14175446
127	0x3d670399	0.056399915
128	0xbbd2ed39	-0.0064369706
129	0xbc72ebf6	-0.014826765
130	0x3e7c1546	0.2461749
131	0x3e50a76e	0.2037637
132	0xbdba2f32	-0.09091033
133	0x3ce565c5	0.028002629
134	0xbd817b8e	-0.06322394
135	0xbc349616	-0.011022111
136	0x3cdbd80e	0.026836421
137	0x3b86468e	0.0040977662
138	0x3e134ea9	0.14385475
139	0xbe16c3c0	-0.1472311
140	0x3d99ef88	0.0751639
141	0xbd4968f9	-0.049172375
142	0xbdff8c57	-0.124779396
143	0x3c601e24	0.013679061
144	0x3c589c54	0.013220865
145	0x3d6f6528	0.05844608
146	0x3e0e97c1	0.13925077
147	0xbc5d567c	-0.013509389
148	0xbe0f0952	-0.13968399
149	0x3dc9511c	0.098299235
150	0x3e238544	0.15968806
151	0xbd0881d4	-0.03332694
152	0x3ddc1d29	0.10747749
153	0x3e0ac63e	0.13552186
154	0xbd3d7bb2	-0.046260543
155	0x3e19c506	0.15016565
156	0x3d5c4020	0.053772092
157	0x3c24c2f9	0.010056251
158	0xbe2316e4	-0.15926701
159	0x3dabb5d8	0.08384293
160	0x3e254675	0.16140158
161	0x3d1c296f	0.03812545
162	0x3c84aae2	0.016194765
163	0x3ded63ed	0.11591325
164	0x3e5a2cdc	0.21306175
165	0x3cf82fee	0.030296292
166	0x3d194124	0.03741564
167	0x3cab2dcb	0.02089586
168	0x3da3386a	0.079697445
169	0x3cc2bc91	0.023771556
170	0x3e21438d	0.15748425
171	0x3e5cba00	0.21555328
172	0xbda7cbd0	-0.08193171
173	0xbd42f04e	-0.047592454
174	0xbe88128f	-0.2657666
175	0xbc3564a2	-0.011071356
176	0xbd9b5170	-0.07583892
177	0xbd233baa	-0.039851822
178	0xbb957e9f	-0.0045622136
179	0x3d519508	0.051167518
180	0xbe01a540	-0.12660694
181	0x3c17bf87	0.009261972
182	0x3da1c873	0.07899561
183	0x3da5f639	0.08103604
184	0x3d1d63ae	0.03842514
185	0x3db7901c	0.089630336
186	0xbca1f3a6	-0.019769501
187	0x3d8c5b41	0.06853343
188	0xbe002ad4	-0.12516338
189	0xbcd0f4a0	-0.025507271
190	0xbdd55c82	-0.10418035
191	0xbda1d04b	-0.07901057
192	0x3da8438e	0.0821601
193	0x3c43757d	0.011929867
194	0x3d8b59b0	0.06804216
195	0xbe25b637	-0.1618279
196	0x3df64bf4	0.12026206
197	0xbe1e17bc	-0.15438741
198	0xbdb0b126	-0.086275384
199	0x3e3e2b91	0.18571307
200	0xba3732d1	-0.0006988468
201	0x3d16d452	0.03682358
202	0x3d134195	0.035951216
203	0xbb662d13	-0.0035122081
204	0xbd66e699	-0.05637226
205	0x3c31986e	0.010839565
206	0xbda42d4d	-0.08016453
207	0xbd90f1c8	-0.07077366
208	0xbe7dd2c2	-0.24787429
209	0x3cdb2abc	0.026753776
210	0x3e49223f	0.1964197
211	0x3dc529c6	0.09627108
212	0x3d81a4d0	0.063302636
213	0xbe5c8f5e	-0.21539065
214	0xbe900705	-0.28130355
215	0xbdee232a	-0.11627801
216	0x3cf8a4fe	0.030352112
217	0xbb3632e6	-0.0027801334
218	0x3e759ba7	0.23985158
219	0x3c114b3b	0.008868034
220	0xbd887774	-0.06663409
221	0xbdb9c7fe	-0.090713486
222	0x3c960411	0.018312486
223	0xbe551614	-0.20809203
224	0x3c857d96	0.016295236
225	0x3d5ab5db	0.053396087
226	0x3d697b75	0.057002503
227	0x3cb157c0	0.021648288
228	0xbe39b428	-0.1813513
229	0x3dfa41e8	0.12219602
230	0xbd7d989a	-0.06191311
231	0x3da3f2d8	0.08005303
232	0xbd82f16a	-0.06393702
233	0x3d87b668	0.06626588
234	0x3e3734fc	0.17891306
235	0x3e6fbf81	0.23412897
236	0xbd335f1e	-0.043791883
237	0x3e02ead6	0.12784895
238	0xbe3b63b1	-0.18299748
239	0xbc4f9401	-0.012669564
240	0x3e2c3636	0.16817555
241	0x3d0ddcc4	0.034634367
242	0x3d619cfb	0.05508135
243	0xb9e3f47c	-0.0004347897
244	0xbcdaf920	-0.02673012
245	0xbda77f3b	-0.08178564
246	0x3dba5095	0.09097401
247	0x3ce0a338	0.027421579
248	0x3db91042	0.09036304
249	0x3d8d6133	0.06903305
250	0xbe16162b	-0.14656894
251	0x3d866e29	0.0656398
252	0x3ce39651	0.027781637
253	0xbd32ab6d	-0.043620516
254	0xbd88069f	-0.06641888
255	0xbc8b1c61	-0.016981306

network_body._body_endoder.seq_layers.0.bias f4 [256]
0	0xbcd308b1	-0.02576098
1	0x3ca14b84	0.019689329
2	0x3c938101	0.01800585
3	0x3c3d291e	0.011545448
4	0xbc3a27d3	-0.011362034
5	0x3c958b9a	0.018255044
6	0x3d0759e0	0.033044696
7	0x3c869fb9	0.016433584
8	0xbafca38f	-0.0019274818
9	0xbba6d22d	-0.005090973
10	0x3c7c45c7	0.015397496
11	0x3c8e98d9	0.017406868
12	0x3c2b7550	0.010464981
13	0xbcc01775	-0.023448685
14	0x3caf0435	0.02136431
15	0x3c53a1b8	0.012916975
16	0x3c9831da	0.018578459
17	0x3c895e8f	0.016768722
18	0x3c8f30a2	0.017479245
19	0xbcaf3040	-0.021385312
20	0x3c28b65a	0.010297382
21	0x3d1b261f	0.037878152
22	0x3cd220d9	0.025650429
23	0x3d11d2ab	0.0356013
24	0x3c5675e0	0.013089627
25	0xbc5fc997	-0.013658903
26	0xbc1de32e	-0.009636683
27	0x3c4ae232	0.012383031
28	0x3b67bcce	0.003536034
29	0xbb1d0ca0	-0.0023963824
30	0x3c1a921a	0.009434247
31	0x3c364653	0.011125165
32	0x3cf35313	0.029702699
33	0xba653dff	-0.0008744895
34	0x3d2108a1	0.03931487
35	0x3c7f3cc4	0.0155784525
36	0x3c21c2c1	0.009873093
37	0x3d3dff1a	0.046385862
38	0x3d254e35	0.040357787
39	0x3cd128d1	0.025532158
40	0x3cf1896a	0.02948447
41	0x3c3736f8	0.011182539
42	0x3c86c0db	0.016449383
43	0x3b4a181c	0.0030837124
44	0x3d144426	0.036197804
45	0x3c860ae9	0.016362624
46	0x3d51df67	0.051238444
47	0x3ccfcbba	0.0253657
48	0x3cc187ea	0.02362438
49	0x3c854b6f	0.016271321
50	0xbb0f5895	-0.0021872867
51	0x3d401b1e	0.04690086
52	0x3c8c3673	0.017115807
53	0x3cf54926	0.029942106
54	0x3cc89b19	0.024488019
55	0x3c91670b	0.01774933
56	0x3b3c698a	0.002874943
57	0x3d06d711	0.032919947
58	0x3c665b46	0.014059847
59	0x369367b0	4.393012e-06
60	0x3c975113	0.018471276
61	0x3d12f742	0.035880335
62	0x3b799d6c	0.0038088216
63	0x3bd8598a	0.0066024708
64	0xbc50d249	-0.012745448
65	0x3b2b0c45	0.0026099843
66	0x3c5f0d4c	0.01361401
67	0xbc44edcc	-0.012019586
68	0xbcc7d364	-0.024392791
69	0xbc057bdc	-0.008147206
70	0x3ca77f24	0.020446368
71	0xbb20431f	-0.002445407
72	0x3cf7e270	0.030259341
73	0xbb123ea0	-0.002231516
74	0x3c1ffd72	0.009765016
75	0x3cac1585	0.021006355
76	0x3d2125a6	0.039342545
77	0xbb123db9	-0.0022314622
78	0x3d666a76	0.056253873
79	0xbc7cf691	-0.015439645
80	0x3c7fe3b9	0.015618258
81	0x3d6fad14	0.05851467
82	0xbbbdb644	-0.00578955
83	0xbc9e6a84	-0.0193379
84	0x3ca2c61c	0.019869857
85	0x3cf6d6de	0.030131754
86	0x3ca5fb4b	0.020261427
87	0xbc231f09	-0.00995613
88	0x3d29f95a	0.041497566
89	0x3d25ca69	0.040476236
90	0x3cf47ed5	0.029845634
91	0x3b64c32b	0.0034906368
92	0x3c437813	0.011930483
93	0x3bfd7a90	0.007735558
94	0xbc8e7028	-0.017387465
95	0x3cb703a7	0.022340609
96	0x3c324d80	0.010882735
97	0x3ca9adc8	0.020712748
98	0x3d22b8a6	0.039726876
99	0x3c3134eb	0.010815839
100	0x3c90776a	0.017635066
101	0x3d056da5	0.03257527
102	0x3c130ff7	0.008975974
103	0x3ca3b27b	0.019982567
104	0x3d2537d3	0.04033644
105	0x3c000899	0.00781455
106	0x3c0d39b1	0.008619712
107	0xb97400f8	-0.00023270014
108	0x3d0624b5	0.03274985
109	0x3a23bcf3	0.0006246112
110	0x3d2a40de	0.04156577
111	0x3c825d15	0.015913526
112	0xbc678aa3	-0.014132175
113	0x3ac53ffb	0.0015048975
114	0xbc099a7b	-0.008398647
115	0x3bad312e	0.0052854037
116	0x3d40042b	0.046878975
117	0x3c4f55cf	0.012654736
118	0x3c107acb	0.008818339
119	0x3c5420df	0.01294729
120	0x3cf00ac5	0.02930201
121	0xbbcc76f9	-0.0062397686
122	0x3cff5ea2	0.031173054
123	0xbb905214	-0.0044043157
124	0x3b7aa859	0.0038247316
125	0x3ce69c75	0.028150776
126	0xbb7d06c2	-0.0038608764
127	0x3aa27160	0.0012393408
128	0x3c943ffb	0.018096915
129	0x3b44a388	0.0030004699
130	0x3cbf3878	0.023342356
131	0x3c6f0a44	0.01458985
132	0x3c2720b2	0.010200666
133	0x3c4d8eac	0.012546223
134	0x3ce74c97	0.028234763
135	0xbb9bc395	-0.00475354
136	0x3c96b636	0.018397432
137	0x3ce24add	0.027623588
138	0xbc5400f5	-0.012939681
139	0x3c87b945	0.016567836
140	0x3c675f35	0.01412182
141	0x3cd0a521	0.025469365
142	0x3d0e62e2	0.03476227
143	0x3ce93a04	0.028470047
144	0x3cf43a77	0.029813034
145	0x3d139475	0.03603025
146	0x3c100aea	0.008791665
147	0x3c28c39f	0.010300546
148	0x3caeff83	0.021362072
149	0x3b747b93	0.0037305101
150	0x3bbdee0a	0.0057961987
151	0xbae45f71	-0.0017423463
152	0x3d33ab86	0.04386475
153	0x3b121383	0.0022289462
154	0x3ca1adc7	0.019736184
155	0x3c3f9cd9	0.01169511
156	0x3c6d580e	0.014486326
157	0x3b6ae54c	0.0035842238
158	0x3cb2de31	0.021834465
159	0x3b978656	0.0046241684
160	0x3cb8695f	0.022511182
161	0x3c162f72	0.009166585
162	0x3c327a58	0.010893427
163	0x3c1cc3ee	0.009568198
164	0x3a1f51d7	0.0006077564
165	0x3d12db3b	0.035853606
166	0x3d474bbe	0.048656218
167	0x3cd2e719	0.025744962
168	0xbb958dd2	-0.0045640254
169	0x3c3558a0	0.011068493
170	0xbb962031	-0.0045814742
171	0x3cf53ed4	0.029937185
172	0x3cbe6283	0.023240333
173	0x3c3fe9b9	0.011713439
174	0x3c4ea864	0.01261339
175	0x3cada750	0.021197945
176	0x3c9aa092	0.018875394
177	0x3c4ca309	0.0124900425
178	0x3cac2499	0.021013545
179	0x3c424883	0.011858108
180	0x3bbc735e	0.0057510575
181	0x3cbace8c	0.022803567
182	0x3d26bbf6	0.040706597
183	0x3ceda29e	0.029008206
184	0xbc10cd9e	-0.008838085
185	0x3bd93a69	0.0066292775
186	0x3d0ebfcb	0.034850877
187	0x3c9a0b39	0.01880418
188	0xbcf2ef4c	-0.029655121
189	0xbbadab26	-0.0052999435
190	0xbbc6b219	-0.0060637114
191	0x3cca0fd5	0.024665752
192	0xbb9b6c89	-0.004743163
193	0x3cf60142	0.030029897
194	0x3d2c8ad2	0.042124577
195	0x3bd5809a	0.0065155746
196	0x3b00aeb7	0.0019635388
197	0x3c9ea94a	0.019367833
198	0x3be0be0b	0.0068585924
199	0x3ca3e225	0.020005295
200	0xbcb777b0	-0.022395939
201	0xba8b3210	-0.0010619778
202	0x3c28d976	0.010305753
203	0x3ccdb288	0.025109544
204	0x3c16f63a	0.009213978
205	0x3b99911e	0.004686489
206	0x3d92b30e	0.07163058
207	0x3c263b29	0.010145941
208	0x3d33be2c	0.043882534
209	0xbc1dd4c6	-0.009633249
210	0xbb4d2a5e	-0.003130577
211	0x3d1a1976	0.037621938
212	0x3c68b3dc	0.014203038
213	0xbc6118ae	-0.013738794
214	0x3ce2d918	0.027691409
215	0x3c92cac0	0.017918944
216	0x3ca6eb7d	0.020375961
217	0x3d2a6164	0.041596785
218	0x3c90cd02	0.01767588
219	0x3c95bb67	0.018277837
220	0xbc7fa0eb	-0.015602331
221	0x3b33e2cb	0.0027448412
222	0xbc17d105	-0.009266143
223	0x3d55adf9	0.052167866
224	0x3ca734ca	0.020410914
225	0x3bbac3d0	0.005699612
226	0x3caeb5b1	0.021326872
227	0x3b860b91	0.0040907343
228	0x3c8f4537	0.017489059
229	0x3cd724ce	0.026262667
230	0x3cdf08fe	0.027225967
231	0x3cd8dffe	0.026473995
232	0x3c1a82b1	0.009430573
233	0x3b6864e0	0.0035460517
234	0xbbe6c0da	-0.0070420327
235	0x3c8125f1	0.015765162
236	0x3c644c60	0.013934225
237	0x3ced2e22	0.028952662
238	0xbcf41f8f	-0.029800205
239	0x3ca140fd	0.01968431
240	0x3cbb6d5a	0.022879291
241	0x3c487089	0.012233862
242	0x3bf47bb3	0.007461035
243	0x3cea1771	0.02857563
244	0x3c7f943f	0.0155993095
245	0x3c42c9d4	0.01188894
246	0xbb91a223	-0.004444377
247	0x3cb9f9db	0.022702148
248	0x3c9b9e5d	0.018996412
249	0x3cbb1be4	0.022840448
250	0xbcea64eb	-0.028612575
251	0x3b94134f	0.0045189033
252	0x3cc869ad	0.024464453
253	0xbbed2d17	-0.007238041
254	0xbbcfe2a2	-0.0063441554
255	0x3c5d719e	0.013515858

action_model._continuous_distribution.log_sigma f4 [1, 2]
0	0xbe2a66e5	-0.16640814
1	0xbe0042a7	-0.12525426

action_model._continuous_distribution.mu.weight f4 [2, 256]
0	0x3c6c2ebb	0.014415438
1	0xbd8dbd0f	-0.06920826
2	0x3bb608d8	0.0055552535
3	0x3c9b6f69	0.018974023
4	0xbc9c6972	-0.019093249
5	0x3d230886	0.03980305
6	0x3d04a62e	0.032385044
7	0xbd49aad4	-0.04923518
8	0x3d823ed0	0.06359637
9	0xbcbb6abc	-0.022878043
10	0xbd3ed9b3	-0.046594333
11	0x3d8db01e	0.06918357
12	0xbd3cfa58	-0.046137184
13	0xbc618edf	-0.013766973
14	0xbbcdbe05	-0.0062787556
15	0xbd015a33	-0.03158016
16	0x3db22aa0	0.08699536
17	0x3d30d70c	0.043173835
18	0x3cf742d2	0.03018323
19	0xbb92407c	-0.0044632535
20	0x3d1c6bfc	0.03818892
21	0x3d46ce90	0.048536837
22	0xbd279ba9	-0.040919933
23	0xbd67867b	-0.056524735
24	0xbc1b527b	-0.009480114
25	0x3c261610	0.010137096
26	0xbcc5eeb6	-0.024161678
27	0xbd128e7b	-0.03578041
28	0xbd0c274d	-0.034217168
29	0x3d4736bd	0.048636187
30	0xbd0d4339	-0.034487937
31	0xbcde5726	-0.027141165
32	0xbd75904c	-0.059952065
33	0x3d0669d6	0.032815777
34	0xbd3ea2ac	-0.046541855
35	0x3b9158db	0.004435641
36	0x3892d5c7	7.001642e-05
37	0x3daf0d7a	0.08547492
38	0x3dc0bb06	0.09410672
39	0xbda48d71	-0.0803479
40	0x3d61914a	0.0550702
41	0xbd0fa992	-0.035073824
42	0xbd2df5aa	-0.04247061
43	0x3cb6818e	0.022278573
44	0x3da71533	0.0815834
45	0xbd564de4	-0.052320376
46	0x3d8e7e7a	0.06957717
47	0x3be37be7	0.0069422605
48	0xbc56922a	-0.013096372
49	0x3d159ab5	0.036524493
50	0x3c88c086	0.016693365
51	0x3da6554f	0.0812174
52	0x3d2aa978	0.041665524
53	0x3d72793f	0.05919766
54	0x3d2125db	0.039342742
55	0xbd8d2f59	-0.068937965
56	0x3cba5e03	0.022749906
57	0x3d6ff118	0.058579534
58	0xbca9d1ed	-0.020729983
59	0x3c373a11	0.011183278
60	0x3cee29ae	0.029072609
61	0x3d667416	0.056263052
62	0xbc9b42e4	-0.018952794
63	0xbd578516	-0.052617155
64	0x3cd97b91	0.026548179
65	0x3bd9d75e	0.006647988
66	0xbd1a08e5	-0.03760614
67	0xbd1087a8	-0.035285622
68	0xbbdfc7b0	-0.0068292245
69	0x3c0f33e1	0.008740396
70	0xbd3f3a7c	-0.046686634
71	0xbccae8c7	-0.0247692
72	0x3d92239e	0.071357
73	0xbb2f699e	-0.0026765834
74	0xbd4773f0	-0.04869455
75	0x3d0c472d	0.034247566
76	0xbd9efe3b	-0.07763334
77	0x3c86e00f	0.016464261
78	0xbdfe3baa	-0.12413724
79	0x3c66d13b	0.01408797
80	0x3d1606db	0.03662763
81	0x3ce0f988	0.027462736
82	0xbd02b266	-0.031908415
83	0x3d16e63f	0.036840674
84	0xbd2cd802	-0.04219819
85	0x3da4b459	0.08042211
86	0xbd352ec9	-0.04423407
87	0xbbac0866	-0.0052500246
88	0x3ddfb78c	0.10923681
89	0x3d6f28c7	0.058388498
90	0xbc68536b	-0.014180045
91	0xbb973512	-0.004614481
92	0xbd68a8d5	-0.056801636
93	0x3c9e76a2	0.019343678
94	0x3c1bd25b	0.009510602
95	0x3d4dd6b5	0.05025359
96	0xbd1238db	-0.035698753
97	0xbd35d6ee	-0.044394426
98	0xbd840068	-0.0644539
99	0x3c20abb1	0.009806559
100	0x3afe060d	0.0019380465
101	0xbdd2627d	-0.102726914
102	0xbd293d2e	-0.04131811
103	0x3bb825cf	0.0056197415
104	0x3d38780c	0.04503636
105	0xbc8c3c9e	-0.017118748
106	0xbc6c1704	-0.014409784
107	0xbd0c7376	-0.0342898
108	0x3d64ecc5	0.055889864
109	0x3c1f3b34	0.009718705
110	0x3d3cd68b	0.04610304
111	0xbb3dc47e	-0.002895623
112	0xbbd65aee	-0.0065416014
113	0xbb920c6f	-0.0044570486
114	0xbc829b3d	-0.015943164
115	0xbcb9f4e1	-0.022699775
116	0xbd0de887	-0.034645583
117	0xbd884a0e	-0.0665475
118	0x3bd9195a	0.0066253366
119	0x3ce56cea	0.028006036
120	0xbd828b0c	-0.06374177
121	0xbcefc851	-0.029270323
122	0x3da27b80	0.07933712
123	0xbaf3b01b	-0.0018591912
124	0x3cee47cb	0.029086968
125	0xbd0d58d3	-0.034508538
126	0x3bb8e4ea	0.005642523
127	0x3ca201d8	0.01977627
128	0x3d2368b5	0.03989478
129	0x3c5498b6	0.012975862
130	0x3d1109ae	0.035409622
131	0x3b5ac89c	0.0033383733
132	0x3d1be75c	0.03806244
133	0x3c917bcf	0.017759232
134	0x3d57708b	0.052597564
135	0xbc8caee2	-0.017173234
136	0xbd4e9321	-0.05043328
137	0xbc26888e	-0.010164393
138	0x3abc0a3f	0.0014346315
139	0x3ccb449c	0.024812989
140	0x3c705a60	0.014669985
141	0x3db39176	0.08767979
142	0xbcb85cc8	-0.022505179
143	0x3c8caa84	0.017171152
144	0x3d077e30	0.033079326
145	0xbce0ce1d	-0.027442032
146	0x3c0cd608	0.008595951
147	0x3c9b0240	0.018921971
148	0xbc7ed7e0	-0.015554398
149	0xbcc72f98	-0.024314687
150	0xbd31129b	-0.043230634
151	0xbbd57d8a	-0.0065152096
152	0x3e075f1a	0.13219872
153	0x3c0729dd	0.008249727
154	0xbc316844	-0.0108280815
155	0x3cb15ad1	0.02164975
156	0xbca7085b	-0.020389726
157	0x3a6edc76	0.0009111831
158	0xbd5aaeb7	-0.053389277
159	0xbc94927d	-0.018136257
160	0x3d4c00b8	0.049805373
161	0x3c50c560	0.01274237
162	0xbc8fb139	-0.017540561
163	0x3cbef5ee	0.023310628
164	0x3bedf99f	0.007262423
165	0x3d609ec5	0.054838914
166	0x3d6f743d	0.058460463
167	0x3d276f4f	0.040877637
168	0xbc2d32b9	-0.010571175
169	0x3c4d34b7	0.012524775
170	0xbcfda84b	-0.030964037
171	0x3da19197	0.07889097
172	0x3c1b8455	0.009492
173	0x3cdf2ef3	0.027244067
174	0x3d54205c	0.051788673
175	0xbdab1bf0	-0.08354938
176	0xbcc636fb	-0.024196139
177	0xbd090ff6	-0.033462487
178	0x3d143e3a	0.036192156
179	0xbc755d67	-0.014975882
180	0xbd48a6da	-0.048987247
181	0xbd6bdc2f	-0.05758303
182	0x3d700759	0.058600757
183	0x3d674d51	0.05647022
184	0xbc161338	-0.009159856
185	0xbcd50145	-0.026001582
186	0xbd386599	-0.045018766
187	0x3d2b988e	0.041893534
188	0xbc1ccf4e	-0.00957091
189	0xbc9c17d6	-0.019054335
190	0xbc25b127	-0.010113037
191	0x3d9a787a	0.0754251
192	0xbd661184	-0.056169048
193	0xbcfe1623	-0.031016415
194	0xbdbf7650	-0.09348738
195	0xbd8c185a	-0.06840582
196	0xbcf346d7	-0.029696865
197	0x3b6501a7	0.0034943612
198	0xbd4411d2	-0.047868557
199	0x3c814fd0	0.015785128
200	0xbc7f461d	-0.015580681
201	0x3b749def	0.003732558
202	0xbd4005e9	-0.046880636
203	0xbba06eea	-0.0048960345
204	0x3c499adf	0.012304991
205	0xbd16fc46	-0.03686168
206	0x3e1fe045	0.15612896
207	0x3cf7153c	0.030161493
208	0x3db308a9	0.08741886
209	0x3c637f8f	0.013885393
210	0xbbd048a1	-0.0063563143
211	0x3dd8a0c2	0.10577537
212	0x3c85e1b7	0.01634298
213	0x3c20461d	0.009782341
214	0x3d96eb1d	0.07369063
215	0x3c212a4d	0.009836745
216	0x3ce067b3	0.027393198
217	0x3d9aeffe	0.07565306
218	0x3cdb0fe5	0.026740978
219	0xbd455b8c	-0.04818301
220	0xbc291ba8	-0.010321535
221	0xbd0c307a	-0.03422592
222	0xbb342423	-0.002748736
223	0xbde00df6	-0.10940163
224	0x3d6dfffa	0.058105446
225	0xbba83f62	-0.005134509
226	0xbd45b06d	-0.048263956
227	0xbd3456a3	-0.044027936
228	0xbdaf0af7	-0.08547013
229	0x3d5b371b	0.05351935
230	0x3d526111	0.0513621
231	0xbd44fc22	-0.048092015
232	0xbcf689a0	-0.030094922
233	0x3cc203e9	0.023683505
234	0xbd3b3781	-0.04570723
235	0x3c30bc53	0.0107870875
236	0x3b80c598	0.003929805
237	0xbc750902	-0.014955761
238	0x3b98fd02	0.0046688328
239	0xbc93fb71	-0.018064233
240	0x3d1d93ec	0.038471147
241	0xbd010fc1	-0.031509165
242	0xbd2d4ee9	-0.042311583
243	0x3cea476f	0.028598515
244	0xbd36378c	-0.044486567
245	0xbd5a9007	-0.05336001
246	0xbbf2ae30	-0.0074060187
247	0x3d15ad4a	0.036542214
248	0xbda75a68	-0.081715405
249	0xbcea4b89	-0.028600471
250	0x3ca89c30	0.020582289
251	0xbd18c44c	-0.03729658
252	0xbd0efc54	-0.034908608
253	0xbc76308f	-0.015026226
254	0xbb764d5d	-0.0037582733
255	0x3c70627d	0.014671919

action_model._continuous_distribution.mu.bias f4 [2]
0	0x3a2765c5	0.0006385709
1	0xbb41e175	-0.0029583846

action_model._discrete_distribution.branches.0.weight f4 [1, 256]
0	0x3b79afc2	0.0038099145
1	0x3c0a3b77	0.008437029
2	0x3b9dce27	0.004815835
3	0x3c1f6115	0.009727736
4	0x3be9b940	0.007132679
5	0x3ae94f1b	0.0017800065
6	0xba5d21fa	-0.0008435544
7	0x3b2ac28e	0.0026055905
8	0x39aae005	0.00032591834
9	0x3ba8f082	0.005155624
10	0x3be1bd43	0.006889017
11	0x3b54e675	0.0032485996
12	0xbb31616e	-0.002706613
13	0xbbcd76c2	-0.0062702606
14	0xbacaeffa	-0.0015482896
15	0xbb6418e3	-0.0034804873
16	0x3b4a92c3	0.003091023
17	0x3a3d22b6	0.000721495
18	0xbbb142d7	-0.0054095793
19	0x3c0c3d30	0.00855951
20	0xbc172961	-0.009226174
21	0xbb1211b4	-0.0022288384
22	0x3b869745	0.004107388
23	0xba91aa7f	-0.0011113434
24	0xbb9bc9ce	-0.0047542816
25	0xbb051b2a	-0.002031038
26	0x3a6c92c2	0.0009024554
27	0x3bd834a0	0.0065980703
28	0x3bd8e8d2	0.006619551
29	0x3c098903	0.008394483
30	0x3c62653a	0.01381808
31	0xbb1912d0	-0.002335716
32	0x3a4e68bb	0.00078738824
33	0xbc52aab3	-0.012858081
34	0xbbf54328	-0.0074848123
35	0x3c6c15c8	0.01440949
36	0x3b9dc1bb	0.0048143542
37	0x3bb67afb	0.0055688596
38	0xbbb18b1c	-0.0054181945
39	0x3ac7db9f	0.0015247947
40	0xbb99fcb1	-0.0046993126
41	0xbb0c28e3	-0.0021386675
42	0x3b25be6d	0.0025290505
43	0x3a86e7f5	0.0010292517
44	0x3b4c0296	0.003112947
45	0xbaa20a9a	-0.0012362779
46	0xbba56069	-0.0050468934
47	0x3b5e1117	0.0033884698
48	0x3b8ba64f	0.004261769
49	0xb9990860	-0.00029188674
50	0x3baaf1f8	0.005216833
51	0xba3155f3	-0.00067648216
52	0xbace5c63	-0.0015744086
53	0x3ac1de47	0.0014790975
54	0x3b8263d7	0.003979187
55	0x3ba39d73	0.0049931346
56	0x3b7f779a	0.00389812
57	0x3ac18608	0.0014764676
58	0xbbe41068	-0.0069599636
59	0xbbf14855	-0.007363359
60	0xba9283f3	-0.001117824
61	0x3b82f18d	0.0039960803
62	0xbb5fcc73	-0.003414896
63	0x3b81cf6e	0.003961495
64	0xbc6555c5	-0.0139975
65	0x3ba35090	0.004983969
66	0xba91493e	-0.001108445
67	0x3b46d60f	0.0030339991
68	0x3c31a9a8	0.010843672
69	0x3a6a7353	0.0008943576
70	0x3b0f3585	0.0021851968
71	0xbbac478a	-0.0052575516
72	0x3c201a07	0.00977183
73	0x35c1e75c	1.4446955e-06
74	0xbb94231b	-0.0045207865
75	0xbb1336da	-0.0022463114
76	0x3bbb95cc	0.0057246443
77	0x3b9d8def	0.0048081796
78	0xbc603e1f	-0.013686686
79	0x3b916733	0.004437351
80	0xbc1d37fb	-0.009595866
81	0x3b7ee345	0.0038892787
82	0xbb1067cf	-0.002203453
83	0xbc392ba0	-0.011301905
84	0x3ad64972	0.0016348793
85	0x3bcb62db	0.006206853
86	0x3b60a6d7	0.0034279132
87	0x3bafb9bf	0.005362719
88	0x3c1d5bb1	0.0096043805
89	0xbbaf953f	-0.0053583677
90	0x3b59fe0a	0.0033262991
91	0xbb56e8d3	-0.0032792583
92	0x3b926f4d	0.0044688345
93	0xbbfb9143	-0.0076772287
94	0x3c05bea3	0.008163127
95	0x3c0fa4a7	0.0087672835
96	0x3af30a4a	0.0018542495
97	0x3c2971ab	0.010342042
98	0x3b63a672	0.003473666
99	0x3c11dcd3	0.008902746
100	0xbbf83a9d	-0.0075753466
101	0x3bcbfd03	0.0062252297
102	0x3b514c35	0.0031936292
103	0x3a2106c2	0.00061426696
104	0xbc6926a5	-0.014230405
105	0xbb90f32f	-0.004423521
106	0xbbd05a72	-0.006358438
107	0xbc2869f7	-0.01027917
108	0xbc230db6	-0.009951999
109	0xbc2984af	-0.010346576
110	0xbb61646a	-0.0034392127
111	0x3b913cd9	0.0044323024
112	0xbb956fa9	-0.00456043
113	0x3a28b9ae	0.000643636
114	0xba2e3128	-0.0006644898
115	0xbc80557f	-0.015665768
116	0xbbaaf7d3	-0.005217531
117	0x3b82cf23	0.003991978
118	0xbbc9ba27	-0.0061562243
119	0xbb7f6cdf	-0.0038974804
120	0x3bce5488	0.006296698
121	0xbc6875db	-0.014188255
122	0x3aeb0047	0.001792916
123	0x3aca28d3	0.0015423544
124	0xbc240df3	-0.010013091
125	0xbb825335	-0.003977204
126	0xb946c1cc	-0.00018954946
127	0xbb3fed7a	-0.0029285834
128	0xbc14a8b2	-0.009073423
129	0xbbabb466	-0.005240011
130	0xb99b0d81	-0.00029573965
131	0xbc807497	-0.015680594
132	0x3ba8790f	0.0051413844
133	0x3c68e9d2	0.014215903
134	0xba59546b	-0.00082904723
135	0xba9c05e2	-0.0011903609
136	0xbb30bf46	-0.0026969477
137	0x3a5a4d3f	0.00083275506
138	0x3bd6738a	0.006544535
139	0x3b6ff507	0.0036614554
140	0x3becaccd	0.007222748
141	0xbb68bf2d	-0.003551434
142	0x3a22f966	0.0006216973
143	0xb8e0352a	-0.00010691055
144	0xbb23d5a9	-0.0024999178
145	0xbaf82d33	-0.0018934369
146	0xbb4e4dd8	-0.0031479504
147	0x3b78fc4d	0.003799218
148	0x3ad89c3b	0.0016526052
149	0xbbe16c7b	-0.006879387
150	0x3b0083cd	0.001960981
151	0xb907dcb1	-0.00012956817
152	0xbba730c7	-0.0051022503
153	0x3bfbae00	0.0076806545
154	0xbc26e291	-0.010185854
155	0xbb7feb9f	-0.0039050353
156	0x3c22f5b8	0.009946279
157	0xbb4e40d7	-0.0031471753
158	0xbc96ccfe	-0.018408295
159	0x3bc046bb	0.0058678067
160	0xbbba1183	-0.005678357
161	0xbbf62bbb	-0.0075125373
162	0x3c59dd0d	0.0132973315
163	0xbb96ca18	-0.004601728
164	0xbc438521	-0.011933596
165	0x3b5a5e6b	0.0033320438
166	0x3afadc1b	0.0019139083
167	0xbbbcdc4d	-0.0057635666
168	0x3bb7991f	0.0056029703
169	0xbc2b36ad	-0.010450047
170	0x37b5adc4	2.1657797e-05
171	0x3b88bd49	0.004172955
172	0xbb991694	-0.004671881
173	0x3a776038	0.000943664
174	0x3c26a15e	0.010170309
175	0xbc06991f	-0.008215218
176	0xbb2745e7	-0.0025523843
177	0xbb8257f1	-0.0039777686
178	0xbb546eb5	-0.003241462
179	0xbbe0dda8	-0.006862361
180	0xbb9bf4e5	-0.0047594183
181	0xbc3b0437	-0.011414579
182	0x39ca75e9	0.00038616292
183	0x3b6a090a	0.0035710954
184	0xbc321287	-0.010868675
185	0x3b35c285	0.002773435
186	0x3b05eb05	0.0020434272
187	0xbc200a5f	-0.009768098
188	0x3b28d415	0.0025761176
189	0x3a6dbec3	0.0009069258
190	0x3b1b6662	0.0023712148
191	0xbb92993b	-0.004473833
192	0x3bcdd778	0.0062817894
193	0x3c2e4bba	0.010638172
194	0xbb827c36	-0.0039820923
195	0x3b3c7c13	0.0028760477
196	0xbc163fb9	-0.009170466
197	0xbbe773a0	-0.007063344
198	0xb9a9253b	-0.0003226193
199	0x3b8d73fc	0.004316805
200	0xb9c75c6a	-0.00038025092
201	0x3bbc7266	0.005750942
202	0x3b231dd7	0.0024889612
203	0xbbb73cd1	-0.0055919667
204	0xbc0e9b06	-0.008703953
205	0x3acc60b7	0.0015592788
206	0xbb4afb7b	-0.0030972648
207	0xbb70c69b	-0.0036739472
208	0xb9fab2eb	-0.0004781702
209	0xbc1689ae	-0.009188099
210	0xbb00d46a	-0.0019657859
211	0xbba0f990	-0.0049125627
212	0x3c33a770	0.010965213
213	0x3b36d045	0.0027895134
214	0x3b299a0d	0.0025879175
215	0xbace9c62	-0.0015763158
216	0x3a85ac0e	0.0010198371
217	0xbb1ddd17	-0.0024088079
218	0xbc114993	-0.008867639
219	0x3b869c7a	0.004108009
220	0x3b0e4a49	0.0021711758
221	0xb9c60c8a	-0.00037774845
222	0xbc792ebf	-0.015208899
223	0xbb732a25	-0.0037103978
224	0x3b12198f	0.0022293066
225	0x3c7d76f7	0.015470258
226	0x3c041cf6	0.008063545
227	0xbc03c482	-0.008042457
228	0x3ac2103a	0.0014805861
229	0x3bd99840	0.006640464
230	0xbb52791f	-0.003211565
231	0xbb50b0c8	-0.003184365
232	0x3b2e64d9	0.0026610403
233	0xbb950e67	-0.004548836
234	0xbb7c8dc5	-0.003853665
235	0xbc1a3ebf	-0.009414374
236	0xbb115399	-0.0022175072
237	0x3bebe90a	0.0071994113
238	0xbb2df420	-0.0026543215
239	0x3bb28b21	0.0054487144
240	0x379948e5	1.8272965e-05
241	0xbb99cb26	-0.0046934066
242	0xbc003e4e	-0.007827355
243	0xbbe5555a	-0.0069987
244	0x3a7bcada	0.00096051174
245	0xbb6674c2	-0.0035164808
246	0x3a21fa0d	0.0006178923
247	0xbc078c9b	-0.008273269
248	0x3b0f2842	0.0021844064
249	0x3b452963	0.0030084483
250	0x3bbee5c3	0.0058257296
251	0x3b082943	0.0020776547
252	0xbb5ae8a5	-0.0033402827
253	0xbbd30b08	-0.006440524
254	0x3b023aa5	0.001987138
255	0x3c023090	0.0079461485

exp_avg f4 [256, 127]
0	0xab1490fd	-5.2781374e-13
1	0xb77f810b	-1.522923e-05
2	0x375ef75e	1.3289826e-05
3	0x36c2ede2	5.8093437e-06
4	0xb2ba8b14	-2.1716495e-08
5	0xb75f5562	-1.33117155e-05
6	0x36e39b42	6.7832016e-06
7	0x36b5b06e	5.4147595e-06
8	0xab1490fd	-5.2781374e-13
9	0xb7a4dc4d	-1.9652909e-05
10	0x37de65fe	2.6511956e-05
11	0x375787a7	1.2846583e-05
12	0xb1ba5ea2	-5.424071e-09
13	0x366bba86	3.51263e-06
14	0xb6cfba91	-6.1908e-06
15	0x370256ab	7.768783e-06
16	0xab149112	-5.278149e-13
17	0xb6ad40d9	-5.163351e-06
18	0xb5381ec8	-6.8590134e-07
19	0x376aa94f	1.3986907e-05
20	0x99875433	-1.399268e-23
21	0x35b0501c	1.3136337e-06
22	0x37de6a2f	2.6513908e-05
23	0x378c52f0	1.6727921e-05
24	0xb19ab562	-4.5026107e-09
25	0x35c281e0	1.4491925e-06
26	0xb429b854	-1.580641e-07
27	0x376102fc	1.341174e-05
28	0x334799cd	4.647318e-08
29	0x36309025	2.6309947e-06
30	0x36a3a4a6	4.876946e-06
31	0x373fc215	1.1429675e-05
32	0x300b72a4	5.073082e-10
33	0x378967f3	1.6380078e-05
34	0x372de928	1.03658895e-05
35	0x37d992cc	2.5936773e-05
36	0xb2c9183f	-2.3410506e-08
37	0x366119a9	3.3542549e-06
38	0xb752fab8	-1.257535e-05
39	0xb6963196	-4.476121e-06
40	0x1e84e7ec	1.4071964e-20
41	0x371f9db8	9.51386e-06
42	0xb6db08ae	-6.527719e-06
43	0x37735c4e	1.450542e-05
44	0xaef01a20	-1.0918577e-10
45	0x365ca374	3.2877697e-06
46	0x372ce340	1.030491e-05
47	0x360b50e4	2.0759699e-06
48	0x1e85ae67	1.4154054e-20
49	0x37185872	9.080499e-06
50	0x36868d64	4.0099712e-06
51	0x378372cb	1.5669872e-05
52	0xb1e33cec	-6.6134955e-09
53	0xb6811ef7	-3.8481044e-06
54	0x37a9fc79	2.0263937e-05
55	0x37b9ef3c	2.216512e-05
56	0x9c070be8	-4.468314e-22
57	0x374f6079	1.2360623e-05
58	0x36ed18f6	7.0660562e-06
59	0x37a2830b	1.9372927e-05
60	0xb3a67db0	-7.75284e-08
61	0xb712d775	-8.752443e-06
62	0x37c81c27	2.3854967e-05
63	0x37d214b4	2.5043591e-05
64	0x99486eda	-1.0362144e-23
65	0xb6ed8b7e	-7.0793894e-06
66	0x36fb4dcd	7.48944e-06
67	0x3700f35c	7.686056e-06
68	0x31d3e61c	6.1670686e-09
69	0x365e8ff8	3.3164379e-06
70	0xb7a90694	-2.0149433e-05
71	0x3726370b	9.907187e-06
72	0x9888a661	-3.5323176e-24
73	0xb6972c4c	-4.5053075e-06
74	0xb634b88e	-2.6929515e-06
75	0x35399178	6.9129555e-07
76	0x32ce0f95	2.3988642e-08
77	0x369d7c54	4.6934383e-06
78	0xb73a2fac	-1.1097563e-05
79	0x3587a430	1.0106069e-06
80	0x984acd7a	-2.6211627e-24
81	0x36adf0f2	5.1838515e-06
82	0x35112370	5.406828e-07
83	0x360145ae	1.9263057e-06
84	0x3310f31d	3.3748723e-08
85	0x36e81548	6.9166163e-06
86	0x37729a57	1.4460259e-05
87	0x379028d7	1.7185155e-05
88	0x984acd7a	-2.6211627e-24
89	0x3736d574	1.0897744e-05
90	0x369bdbac	4.644933e-06
91	0x374d7a82	1.2247476e-05
92	0x3310f63b	3.3751558e-08
93	0x37388a81	1.0999503e-05
94	0x35b015ee	1.3119404e-06
95	0x37a998ed	2.0217582e-05
96	0x984acd7a	-2.6211627e-24
97	0x3742cb6e	1.1610666e-05
98	0x370302df	7.808877e-06
99	0x373c855a	1.1236722e-05
100	0xb28d92e5	-1.648136e-08
101	0x36a21431	4.830327e-06
102	0x37e36ac8	2.7110233e-05
103	0x37c294ec	2.319595e-05
104	0x219740a4	1.0249268e-18
105	0x3731fe32	1.0609207e-05
106	0x3750ba3a	1.2441125e-05
107	0x3793aaa5	1.7603228e-05
108	0xb2e7e495	-2.6995886e-08
109	0x37676504	1.37921925e-05
110	0xb73a2afe	-1.1096474e-05
111	0x37151524	8.886014e-06
112	0x8d326035	-5.496629e-31
113	0x37195afc	9.140695e-06
114	0x365aae35	3.2585933e-06
115	0x37359b1c	1.0824555e-05
116	0xb21ec2cc	-9.241102e-09
117	0x3755ebf8	1.275073e-05
118	0xb75684d0	-1.2786317e-05
119	0x37411cfb	1.1510444e-05
120	0x2ed66933	9.7502804e-11
121	0xb67e73cc	-3.7916352e-06
122	0x36db8c3b	6.5430336e-06
123	0x36ccecf7	6.10726e-06
124	0xba287ce7	-0.00064273033
125	0x36bcc3fe	5.625653e-06
126	0xb92b1d60	-0.00016318774
127	0x2da6a408	1.894486e-11
128	0x388c2ed6	6.684444e-05
129	0xb90e3ead	-0.00013565524
130	0xb8d3bd0e	-0.00010096478
131	0xb4b35d5f	-3.3409285e-07
132	0x392ac68c	0.00016286428
133	0xb8db2360	-0.00010449323
134	0xb85aa592	-5.212945e-05
135	0x2da6a408	1.894486e-11
136	0x388e4970	6.7847664e-05
137	0xb920905a	-0.00015312564
138	0xb8e9634e	-0.00011128803
139	0x33832fc0	6.1088485e-08
140	0x38d65974	0.00010220977
141	0x37451ee4	1.1749307e-05
142	0x378110e2	1.538586e-05
143	0x2da6a408	1.894486e-11
144	0x3862581b	5.3964653e-05
145	0xb7db8aa6	-2.6171398e-05
146	0xb8b7add4	-8.758498e-05
147	0x19a19586	1.6707402e-23
148	0x38f15fe8	0.000115096394
149	0xb8876136	-6.4554086e-05
150	0x3827b290	3.9982202e-05
151	0x331ffa46	3.7247695e-08
152	0x385da1b7	5.2841115e-05
153	0x38240861	3.910845e-05
154	0xb8809bdc	-6.132547e-05
155	0xb38ce309	-6.5605555e-08
156	0x38280173	4.005567e-05
157	0x38d3b291	0.000100945246
158	0x38396fec	4.4211673e-05
159	0xb12e34c0	-2.5350317e-09
160	0x373a5b58	1.1107732e-05
161	0xb887895a	-6.462885e-05
162	0xb9175ec8	-0.00014435791
163	0x34682741	2.1620964e-07
164	0xb7f9cf66	-2.977969e-05
165	0x38a0a2a9	7.659692e-05
166	0x3787ec02	1.6203154e-05
167	0xa1084da6	-4.618136e-19
168	0x36e8c130	6.936629e-06
169	0xb3b8ecc0	-8.611232e-08
170	0xb8ec2948	-0.00011261046
171	0x3418bf17	1.4225621e-07
172	0x369bd93c	4.6446494e-06
173	0xb9233736	-0.00015565459
174	0xb860f36d	-5.363247e-05
175	0xa10c86ce	-4.761226e-19
176	0x372aa57c	1.0171319e-05
177	0xb7e83341	-2.7680422e-05
178	0xb8bd192c	-9.016911e-05
179	0x348fa38c	2.6754822e-07
180	0x38285e7e	4.0142324e-05
181	0xb8d46155	-0.00010127077
182	0xb8e7fba0	-0.00011061807
183	0x1d8d1d27	3.7352532e-21
184	0xb71c7904	-9.326501e-06
185	0xb8aa525b	-8.1215716e-05
186	0xb9025545	-0.00012429531
187	0x34d63fc1	3.9906993e-07
188	0x3888f0e0	6.529852e-05
189	0xb7dd0d74	-2.6351518e-05
190	0xb8a3e13e	-7.8144e-05
191	0x1b7e387c	2.1028639e-22
192	0x38da78a1	0.00010417519
193	0xb89470c1	-7.078192e-05
194	0xb8945d44	-7.074562e-05
195	0xb51ea1f2	-5.909525e-07
196	0x36c8098e	5.961577e-06
197	0x38ae0663	8.298156e-05
198	0xb7f3774a	-2.9023406e-05
199	0x1a0eccb1	2.953026e-23
200	0x38e06252	0.00010699466
201	0x379aa7c0	1.8436345e-05
202	0xb5f5ac50	-1.8304072e-06
203	0xb4578927	-2.0073331e-07
204	0xb8903fcb	-6.8783374e-05
205	0x3801f952	3.0988194e-05
206	0xb847daad	-4.7648955e-05
207	0x199797af	1.5674299e-23
208	0x376240ec	1.34857655e-05
209	0x3809a66b	3.2818334e-05
210	0xb79d645e	-1.8762596e-05
211	0xb481c587	-2.4171842e-07
212	0xb8e393a6	-0.00010851705
213	0xb8a26ed3	-7.7454046e-05
214	0xb90dcbdf	-0.00013522756
215	0x199797b6	1.567431e-23
216	0xb8a31c04	-7.777664e-05
217	0x36ac11ac	5.1280567e-06
218	0xb8a619a4	-7.920273e-05
219	0xb481c528	-2.4171572e-07
220	0xb8fb7f26	-0.00011992296
221	0xb8552d4c	-5.0825343e-05
222	0xb8f05192	-0.000114592855
223	0x199797af	1.5674299e-23
224	0xb727ed28	-1.0009193e-05
225	0xb80ff9c2	-3.4326462e-05
226	0xb86939e8	-5.560546e-05
227	0x351805d5	5.66329e-07
228	0xb74ff6fe	-1.2395669e-05
229	0xb916db01	-0.000143867
230	0xb8e77b6e	-0.00011037929
231	0x22553242	2.889349e-18
232	0x384ce9ec	4.8855247e-05
233	0xb62bbd34	-2.5591116e-06
234	0xb7e9e25a	-2.7881168e-05
235	0x34afbd14	3.2733863e-07
236	0xb7e50f42	-2.7306032e-05
237	0x3894c672	7.094153e-05
238	0x37aabe82	2.0354291e-05
239	0x10c7765f	7.867404e-29
240	0x387b3ff6	5.990263e-05
241	0x36372f60	2.72967e-06
242	0xb7bedbbd	-2.2752089e-05
243	0x3510d700	5.3957046e-07
244	0xb81284b8	-3.4932717e-05
245	0x390b6666	0.0001329422
246	0x38589678	5.1638548e-05
247	0x3080b6b0	9.365149e-10
248	0x38e30190	0.000108244945
249	0xb7c43aca	-2.3392397e-05
250	0xb6a608c8	-4.948208e-06
251	0x3b464872	0.0030255583
252	0xb79acf5e	-1.8454793e-05
253	0x398381d4	0.00025082997
254	0x2af9f6cb	4.4402532e-13
255	0x379c67cd	1.8644985e-05

exp_avg_sq f4 [256, 127]
0	0x299d900c	6.997189e-14
1	0x3215a157	8.709626e-09
2	0x310d6340	2.0574618e-09
3	0x31bf8494	5.573904e-09
4	0x29933819	6.537843e-14
5	0x3207d89f	7.907288e-09
6	0x3128c212	2.4557534e-09
7	0x31cb0285	5.908364e-09
8	0x299a658d	6.85659e-14
9	0x3222c6e6	9.474865e-09
10	0x31011d49	1.8788617e-09
11	0x31b693dc	5.313707e-09
12	0x2ae30e6b	4.0333305e-13
13	0x31fb3842	7.311457e-09
14	0x314629c3	2.883653e-09
15	0x31d98b61	6.3313768e-09
16	0x29d4e19a	9.453827e-14
17	0x32331862	1.0424715e-08
18	0x30ca6e4e	1.4728785e-09
19	0x31abf34d	5.004415e-09
20	0x2a83cdab	2.3412985e-13
21	0x31e90e43	6.782814e-09
22	0x315120b5	3.0432095e-09
23	0x31e9f0d6	6.8085724e-09
24	0x2a542eef	1.8845666e-13
25	0x3240c9ad	1.1221727e-08
26	0x30aa036b	1.2370099e-09
27	0x31a0ee1b	4.6836823e-09
28	0x2af8e151	4.4209994e-13
29	0x31cac1b1	5.900994e-09
30	0x315544c0	3.103466e-09
31	0x31f47153	7.114218e-09
32	0x2acbd665	3.620881e-13
33	0x324a75bf	1.178472e-08
34	0x308848bc	9.915975e-10
35	0x31975dd3	4.405345e-09
36	0x2ad0b7ce	3.7075762e-13
37	0x31affa1d	5.121605e-09
38	0x31831bb0	3.8157495e-09
39	0x31fea83e	7.4115e-09
40	0x2a18fbd0	1.3587677e-13
41	0x325344b8	1.2297441e-08
42	0x3074cb4a	8.9055574e-10
43	0x318d1f96	4.107231e-09
44	0x2b4a31d2	7.1833956e-13
45	0x319c4898	4.5484505e-09
46	0x3189685d	3.9990895e-09
47	0x32024fbf	7.585128e-09
48	0x29f8f563	1.105598e-13
49	0x32588ae6	1.2604437e-08
50	0x30646110	8.308385e-10
51	0x31825516	3.793171e-09
52	0x2b957fd9	1.0622572e-12
53	0x318ab53a	4.0369317e-09
54	0x31938fe2	4.2946207e-09
55	0x3207197e	7.8638305e-09
56	0x2aca8808	3.59768e-13
57	0x325b84e8	1.2777697e-08
58	0x30446cfa	7.145925e-10
59	0x31747713	3.557436e-09
60	0x2b9b8d75	1.1052675e-12
61	0x3165fc60	3.3467344e-09
62	0x31a7e8b0	4.886793e-09
63	0x320c0b24	8.151606e-09
64	0x2a051a25	1.1821844e-13
65	0x325aa500	1.2726787e-08
66	0x302cdc46	6.2886263e-10
67	0x316805b0	3.3763676e-09
68	0x2b8f7564	1.0193344e-12
69	0x3149243e	2.926995e-09
70	0x31ab56ef	4.986638e-09
71	0x320aa283	8.069608e-09
72	0x29fa984b	1.1128649e-13
73	0x3259744d	1.2657506e-08
74	0x302c845c	6.276133e-10
75	0x315e6de9	3.2367728e-09
76	0x2acc7181	3.631644e-13
77	0x3130822c	2.5685365e-09
78	0x31ac48b4	5.0141242e-09
79	0x320a5970	8.052993e-09
80	0x29f7b978	1.1001177e-13
81	0x32587f9c	1.260187e-08
82	0x300e2559	5.1712373e-10
83	0x3154d382	3.0970289e-09
84	0x2abb1c0f	3.3237342e-13
85	0x311ca067	2.2792166e-09
86	0x31aa6b0a	4.95982e-09
87	0x320a07d8	8.034441e-09
88	0x29fc6a0b	1.12094436e-13
89	0x325ab2ca	1.2729922e-08
90	0x302ab50f	6.210294e-10
91	0x315780e1	3.1359877e-09
92	0x2af2fe2e	4.3164208e-13
93	0x310cfad0	2.0515252e-09
94	0x31a96b05	4.930714e-09
95	0x320894c5	7.950068e-09
96	0x2a035936	1.1666089e-13
97	0x3255ab7c	1.2437223e-08
98	0x3047e59e	7.2722084e-10
99	0x3160a91f	3.2692424e-09
100	0x2ce5887d	6.5237247e-12
101	0x31037452	1.912913e-09
102	0x31abbecf	4.9984474e-09
103	0x320754c8	7.877311e-09
104	0x298b6791	6.190806e-14
105	0x3249be71	1.1743041e-08
106	0x30677d5c	8.4215457e-10
107	0x31667667	3.353671e-09
108	0x2c919489	4.1376386e-12
109	0x310594ad	1.943856e-09
110	0x31b3064a	5.2103006e-09
111	0x320bb4cc	8.131973e-09
112	0x28f566a4	2.7244977e-14
113	0x32464b25	1.1542203e-08
114	0x30919e60	1.0595151e-09
115	0x31772bf6	3.596822e-09
116	0x2b4583f8	7.0171603e-13
117	0x3111375c	2.1131745e-09
118	0x31b3b9d5	5.2307123e-09
119	0x320e8c1c	8.297345e-09
120	0x29029861	2.8997966e-14
121	0x323bd6c8	1.0933668e-08
122	0x30b224e2	1.2961687e-09
123	0x31853b80	3.877574e-09
124	0x35e451c7	1.7011124e-06
125	0x316b01e1	3.4198069e-09
126	0x367a87c4	3.733193e-06
127	0x2db94d60	2.1066426e-11
128	0x342e0503	1.6206836e-07
129	0x3384d64a	6.185708e-08
130	0x3420aec5	1.4964742e-07
131	0x2db46546	2.0508605e-11
132	0x341db5e5	1.4687937e-07
133	0x3396882f	7.009691e-08
134	0x34208307	1.4948829e-07
135	0x2dc059ef	2.1867811e-11
136	0x343a6676	1.7359875e-07
137	0x338017fd	5.964828e-08
138	0x341ce4a0	1.4611805e-07
139	0x2d21fd0c	9.207978e-12
140	0x34181a86	1.4165752e-07
141	0x339f8e92	7.429948e-08
142	0x3425921c	1.5419977e-07
143	0x2db08163	2.0066343e-11
144	0x344b266f	1.891983e-07
145	0x336ab52f	5.4647156e-08
146	0x341a36cd	1.4362304e-07
147	0x2d958262	1.699724e-11
148	0x340d9d0d	1.3188783e-07
149	0x33aef6dd	8.1474106e-08
150	0x342f7852	1.6341917e-07
151	0x2d87ce44	1.5439323e-11
152	0x345586c1	1.9886194e-07
153	0x3350338f	4.8475666e-08
154	0x341115bc	1.3512084e-07
155	0x2db75f8d	2.0847124e-11
156	0x34072215	1.2585254e-07
157	0x33ac9aad	8.0375095e-08
158	0x343352ee	1.6700844e-07
159	0x2ce7d373	6.5888905e-12
160	0x345e832d	2.0723083e-07
161	0x3339e3bd	4.3280796e-08
162	0x340b594f	1.2977874e-07
163	0x2d4c2bff	1.16058265e-11
164	0x33f93241	1.1604107e-07
165	0x33beea68	8.890203e-08
166	0x34397e6e	1.7275462e-07
167	0x2ca94031	4.8103956e-12
168	0x3462b79f	2.1114691e-07
169	0x3329acf6	3.9505686e-08
170	0x3403bc88	1.2268913e-07
171	0x2e01094a	2.9339454e-11
172	0x33e03a9f	1.0441476e-07
173	0x33b503e6	8.4291784e-08
174	0x343080ec	1.6438179e-07
175	0x2c904cfa	4.1012723e-12
176	0x3464f1a8	2.1322069e-07
177	0x3311b6f4	3.392684e-08
178	0x33ee327f	1.1091924e-07
179	0x2e038703	2.9905866e-11
180	0x33c39229	9.1069815e-08
181	0x33c05cfc	8.9576105e-08
182	0x342e724c	1.6246594e-07
183	0x2d6f41cb	1.3600186e-11
184	0x3467bb51	2.1581697e-07
185	0x331516ac	3.4712386e-08
186	0x33e63777	1.07202986e-07
187	0x2def4663	2.7202412e-11
188	0x33b6f495	8.5195246e-08
189	0x33c1a09f	9.01648e-08
190	0x3429acdd	1.5802239e-07
191	0x2c1f34a6	2.2624485e-12
192	0x3462a0fe	2.1106459e-07
193	0x331173af	3.3865657e-08
194	0x33df2d25	1.03924584e-07
195	0x2dc43e77	2.231036e-11
196	0x33afbda5	8.183569e-08
197	0x33abbcbb	7.997138e-08
198	0x3421cfef	1.5069939e-07
199	0x2c22ed42	2.315329e-12
200	0x345b0bf8	2.0400319e-07
201	0x3318bf2f	3.556414e-08
202	0x33ddb737	1.0324441e-07
203	0x2d787926	1.4124068e-11
204	0x339bdddd	7.258107e-08
205	0x33c2b928	9.067509e-08
206	0x3423ffdf	1.5273643e-07
207	0x2c0962ac	1.9523645e-12
208	0x34512640	1.9478557e-07
209	0x331d12af	3.6571404e-08
210	0x33d7280e	1.00190036e-07
211	0x2d468aad	1.1285789e-11
212	0x339a7b4a	7.19361e-08
213	0x33a1153b	7.5010085e-08
214	0x341b7260	1.4477109e-07
215	0x2c5d983d	3.1490498e-12
216	0x3459c796	2.0282309e-07
217	0x331bc1c3	3.6264975e-08
218	0x33dfb3d4	1.0416957e-07
219	0x2d4970fa	1.1450613e-11
220	0x338bc0b3	6.507744e-08
221	0x33b0fc8b	8.241576e-08
222	0x341fbb38	1.4876139e-07
223	0x2c1c96f1	2.2252723e-12
224	0x344cc316	1.9069952e-07
225	0x332827c9	3.9151733e-08
226	0x33de7b9b	1.0360164e-07
227	0x2e9f594a	7.246344e-11
228	0x337d4bb7	5.8975015e-08
229	0x33c8ca09	9.349976e-08
230	0x34260532	1.5461845e-07
231	0x2bd7a6ba	1.5322945e-12
232	0x344540ec	1.8370673e-07
233	0x3332610e	4.1532125e-08
234	0x33e0523f	1.0445773e-07
235	0x2e403744	4.370483e-11
236	0x3383827d	6.1238985e-08
237	0x33cfdd90	9.6794906e-08
238	0x342f10f7	1.6304317e-07
239	0x2b900206	1.0232377e-12
240	0x3444a6ae	1.831456e-07
241	0x3336a154	4.2521904e-08
242	0x33e82ca4	1.0811462e-07
243	0x2d7ffac2	1.4550751e-11
244	0x33894f9e	6.394042e-08
245	0x33cff04c	9.6828984e-08
246	0x34365c3e	1.6983628e-07
247	0x2ba666b6	1.1823517e-12
248	0x3438b75a	1.7203038e-07
249	0x3346319b	4.6145583e-08
250	0x33f0b3e0	1.120859e-07
251	0x380d6263	3.370865e-05
252	0x33999599	7.151829e-08
253	0x3864c620	5.4543954e-05
254	0x2a6a59d3	2.0814539e-13
255	0x32b629fe	2.1206684e-08

exp_avg f4 [256]
0	0x374d2e22	1.2229693e-05
1	0xb8284592	-4.0119114e-05
2	0x373855a2	1.0987193e-05
3	0x35de1e40	1.6549093e-06
4	0xb7fabbbe	-2.9889747e-05
5	0x383ed20a	4.5495144e-05
6	0xb79cd818	-1.8697276e-05
7	0xb8c23631	-9.260735e-05
8	0x37b52e3c	2.1598411e-05
9	0xb7ebd82c	-2.8114846e-05
10	0xb88d76c0	-6.745523e-05
11	0xb8192c28	-3.6519166e-05
12	0xb8ee777c	-0.0001137098
13	0xb6f49528	-7.2891307e-06
14	0xb8453810	-4.7020672e-05
15	0xb5e39200	-1.695531e-06
16	0x370ab7b0	8.268209e-06
17	0x38bff2d2	9.1528185e-05
18	0x38045be0	3.1556818e-05
19	0x372507ae	9.836554e-06
20	0x377d8f40	1.5113328e-05
21	0x38376938	4.3728593e-05
22	0xb8cc8779	-9.752712e-05
23	0xb8dc4664	-0.00010503529
24	0xb61d69a0	-2.3456305e-06
25	0xb4e8ad60	-4.3339514e-07
26	0xb7db157c	-2.6116839e-05
27	0xb7b0de6f	-2.1084414e-05
28	0xb8757b69	-5.8527487e-05
29	0xb8a2770b	-7.7469354e-05
30	0xb8339548	-4.2815955e-05
31	0xb88299a2	-6.2274994e-05
32	0xb88798cf	-6.4657645e-05
33	0xb723a1e8	-9.753254e-06
34	0x37cc622d	2.4364412e-05
35	0x383322c3	4.27093e-05
36	0x3763952a	1.3564984e-05
37	0x38254a98	3.9408536e-05
38	0x380f963c	3.4233773e-05
39	0xb9179ec5	-0.00014459628
40	0x37490938	1.198268e-05
41	0xb714da18	-8.872266e-06
42	0xb8c11062	-9.206009e-05
43	0xb6db99d1	-6.544615e-06
44	0x38a6d77a	7.9556325e-05
45	0x38db3ada	0.00010453696
46	0x38aeed88	8.34121e-05
47	0x373c1282	1.1209982e-05
48	0x368e95b6	4.2493584e-06
49	0xb7a1317e	-1.9215742e-05
50	0x3684ed68	3.9615443e-06
51	0x3781886c	1.5441525e-05
52	0xb714ffef	-8.881077e-06
53	0xb742b77c	-1.1606022e-05
54	0xb8107aee	-3.4446763e-05
55	0xb9127618	-0.00013967638
56	0xb6692018	-3.4738387e-06
57	0x38c2321c	9.2599745e-05
58	0x37d6b461	2.5594783e-05
59	0xb694a0b8	-4.429454e-06
60	0xb73c53ff	-1.122523e-05
61	0xb7608340	-1.3381999e-05
62	0xb74ae8e0	-1.2094359e-05
63	0xb850d186	-4.97862e-05
64	0x3752806c	1.2546876e-05
65	0xb55c3168	-8.202828e-07
66	0xb812980a	-3.495071e-05
67	0xb8eff7ac	-0.000114425406
68	0xb6445280	-2.9254297e-06
69	0xb48eaca0	-2.6575162e-07
70	0xb8a926fc	-8.0658094e-05
71	0xb8b55c54	-8.64795e-05
72	0xb8a74001	-7.975102e-05
73	0xb6a9bf78	-5.0588824e-06
74	0xb8ee00ca	-0.00011348871
75	0x38b0aace	8.424149e-05
76	0xb927e79f	-0.00016012647
77	0x3860d776	5.3606425e-05
78	0xb92b238b	-0.00016321072
79	0x37c0352f	2.291295e-05
80	0x37dfd248	2.6681591e-05
81	0x36fc7ba4	7.524579e-06
82	0xb7c4344a	-2.338937e-05
83	0x37fd1750	3.0170806e-05
84	0xb8b8ea85	-8.8174864e-05
85	0xb84b9fbe	-4.8547743e-05
86	0xb799707a	-1.8291397e-05
87	0x3590d2e8	1.0790218e-06
88	0x390ef173	0.00013632122
89	0x380da8be	3.3774173e-05
90	0xb80ebbf6	-3.403049e-05
91	0x38217605	3.8495305e-05
92	0xb81d96d8	-3.75722e-05
93	0xb7af8976	-2.0925636e-05
94	0xb7aba084	-2.0459534e-05
95	0xb869a5b8	-5.5705867e-05
96	0xb8846d13	-6.314567e-05
97	0xb863f3e4	-5.434816e-05
98	0xb8ab99b0	-8.182542e-05
99	0x359471e0	1.1060001e-06
100	0x3792a018	1.7479106e-05
101	0xb9825b18	-0.00024863402
102	0xb8647c18	-5.4475007e-05
103	0xb7b5862f	-2.1639366e-05
104	0x387624fe	5.8685422e-05
105	0xb7b4ae38	-2.1538799e-05
106	0xb83fb490	-4.570611e-05
107	0xb67c8a00	-3.7631253e-06
108	0x38606e9c	5.3508775e-05
109	0xb7aed274	-2.0840416e-05
110	0xb8404382	-4.583924e-05
111	0xb8357c4a	-4.3269516e-05
112	0x356f3f10	8.9126206e-07
113	0xb7c14581	-2.3039758e-05
114	0xb727015f	-9.954295e-06
115	0xb8388082	-4.39887e-05
116	0x38743112	5.8219834e-05
117	0xb9123553	-0.0001394351
118	0xb7a4abb6	-1.9630283e-05
119	0x388ad7ea	6.62057e-05
120	0xb8e599f2	-0.000109482455
121	0xb83ab712	-4.4516353e-05
122	0xb73d9178	-1.1299147e-05
123	0x37456ed0	1.1767916e-05
124	0x386c2aaa	5.630652e-05
125	0xb817a45f	-3.6154288e-05
126	0x37811d9f	1.5391792e-05
127	0x369fb098	4.7591275e-06
128	0x38880316	6.48556e-05
129	0x373f89ea	1.1416598e-05
130	0x385753ae	5.1337927e-05
131	0x36e3036e	6.7655265e-06
132	0x37d80988	2.5753645e-05
133	0x37d14324	2.4946006e-05
134	0x380c5462	3.345719e-05
135	0xb6c0b120	-5.742666e-06
136	0xb8e6587c	-0.00010983736
137	0xb851fd00	-5.0065108e-05
138	0x363a6bac	2.7778833e-06
139	0x37654dc0	1.3667566e-05
140	0x3846c074	4.7386115e-05
141	0x378b27d0	1.658863e-05
142	0x38394dcc	4.417989e-05
143	0x374dfa3f	1.2277217e-05
144	0xb73a7ce5	-1.1115543e-05
145	0xb8384ce9	-4.3940647e-05
146	0x37233284	9.727319e-06
147	0x379602c6	1.7882685e-05
148	0xb7a84466	-2.0059011e-05
149	0xb85c5f0f	-5.2540618e-05
150	0xb892465f	-6.97493e-05
151	0x37ba5e42	2.221682e-05
152	0x37524320	1.2532604e-05
153	0x369baf78	4.639787e-06
154	0xb7e5021e	-2.7299913e-05
155	0x3831f114	4.242461e-05
156	0x381bb6c5	3.7125097e-05
157	0xb7cd1324	-2.4446817e-05
158	0xb8b3034d	-8.536e-05
159	0x36926808	4.36325e-06
160	0x3882d3a2	6.238303e-05
161	0xb613ba18	-2.2013028e-06
162	0xb801412e	-3.08167e-05
163	0x37419ae0	1.1539756e-05
164	0x355667c4	7.987221e-07
165	0x38194c9c	3.654939e-05
166	0x377a77b0	1.4929028e-05
167	0x3876a1b2	5.880156e-05
168	0x3735523c	1.0807587e-05
169	0xb7b9bb2c	-2.2140877e-05
170	0x3498cf80	2.8463182e-07
171	0xb70d5490	-8.423944e-06
172	0x380a04a0	3.290607e-05
173	0xb86dcf18	-5.6698074e-05
174	0x380cdce0	3.3584307e-05
175	0xb9283b0a	-0.00016043722
176	0x3783e73e	1.5724097e-05
177	0xb85c26f3	-5.248836e-05
178	0x377db22c	1.5121459e-05
179	0xb8628c1e	-5.4013093e-05
180	0xb8a57956	-7.890414e-05
181	0xb88996ae	-6.560735e-05
182	0x37e463b8	2.7226153e-05
183	0x3812603e	3.4898745e-05
184	0xb7eb0f64	-2.802135e-05
185	0x380f3ef4	3.4152486e-05
186	0xb8a6c9a6	-7.953057e-05
187	0xb803cdac	-3.142438e-05
188	0xb6b98d68	-5.5298915e-06
189	0xb7f75e7b	-2.948869e-05
190	0xb80e7520	-3.396452e-05
191	0x3780cfa0	1.5355472e-05
192	0xb7c33908	-2.3272369e-05
193	0xb8dc5d85	-0.00010507837
194	0xb92f0035	-0.00016689378
195	0xb7d43840	-2.5298563e-05
196	0xb7e0672a	-2.675092e-05
197	0x386dc0fa	5.6684927e-05
198	0xb90c2e92	-0.00013368789
199	0x36cf71d4	6.182332e-06
200	0x3636549c	2.7169363e-06
201	0x372092d5	9.57093e-06
202	0xb80f8594	-3.421826e-05
203	0xb678cc32	-3.7073737e-06
204	0x37862bc0	1.5994417e-05
205	0xb7fb7996	-2.997815e-05
206	0xb602e080	-1.9502186e-06
207	0x37421bac	1.1569744e-05
208	0xb7c05368	-2.2927023e-05
209	0x37311d7a	1.0556885e-05
210	0xb70daad6	-8.444031e-06
211	0xb4636000	-2.1175947e-07
212	0x37bdf188	2.2643027e-05
213	0xb744ee34	-1.1737971e-05
214	0x391dc863	0.00015047337
215	0x36246c86	2.4501073e-06
216	0x38c41365	9.349621e-05
217	0x3784e9e4	1.584454e-05
218	0x378cb294	1.6772457e-05
219	0x381911d3	3.6494643e-05
220	0xb72ed415	-1.0420587e-05
221	0xb8bbaccf	-8.949043e-05
222	0x361870c9	2.2715415e-06
223	0xb923a7d2	-0.0001560741
224	0x3829d4e8	4.0491024e-05
225	0xb69296d4	-4.368698e-06
226	0xb7c863d2	-2.388834e-05
227	0xb8482bf9	-4.772467e-05
228	0xb932193c	-0.00016984803
229	0x3866054c	5.4841206e-05
230	0x38193d2a	3.6535006e-05
231	0xb8a1772d	-7.6992765e-05
232	0xb8351386	-4.3171945e-05
233	0x37c42854	2.33838e-05
234	0xb928c430	-0.00016094814
235	0xb6ec9288	-7.0504066e-06
236	0x3648834a	2.9878743e-06
237	0xb8395b44	-4.4192435e-05
238	0x3701e02a	7.741191e-06
239	0xb7f9a0e0	-2.9758026e-05
240	0x3891b592	6.947959e-05
241	0xb7342ad0	-1.0738804e-05
242	0xb836e640	-4.360662e-05
243	0xb7e075b6	-2.6757694e-05
244	0xb87b652f	-5.9937298e-05
245	0xb8aa7971	-8.128852e-05
246	0xb7071c89	-8.053271e-06
247	0x385036c8	4.9642083e-05
248	0xb91802e5	-0.00014496928
249	0x38992e1d	7.304198e-05
250	0xb585ced0	-9.969463e-07
251	0xb864f200	-5.4584816e-05
252	0xb896becc	-7.188096e-05
253	0xb85dd7af	-5.2891377e-05
254	0xb708b612	-8.148623e-06
255	0x374348fb	1.1639898e-05
