EcoSculptor/results/Final_1.3/Preyanimal/Preyanimal-1499962.onnx (onnx, 140329 bytes, 6 tensors)

network_body._body_endoder.seq_layers.0.weight f4 [256, 127]
-0.119114414 0.063655056 -0.036518265 -0.118193336 -0.06677479 -0.04788108 0.032608576 -0.14996828
0.09155722 -0.11553196 0.13704863 -0.05267448 0.041872095 -0.12048762 0.06604187 0.0058166613
-0.012196095 0.0919348 -0.1415522 -0.07499183 -0.071701065 0.13331942 -0.023266047 0.07004563
-0.0050783902 -0.090871595 -0.08941247 0.0047643795 0.12951206 0.054630134 -0.14688349 -0.08552821
0.042275578 0.047764204 -0.07264435 -0.09935298 -0.09753719 -0.061450973 -0.101687975 0.05531387
0.14635159 0.007726946 -0.001563519 -0.074161656 -0.04635833 -0.02995747 -0.030407779 -0.06391558
-0.023779599 -0.13065706 0.09830833 -0.08791378 -0.04352928 0.07034805 -0.036215875 0.101280235
-0.016163368 -0.0153401485 0.08093264 -0.16677035 0.034242235 0.04699013 0.20438485 0.006200595
0.14345478 0.0077406275 -0.072602704 0.16148749 -0.081374675 -0.05416006 0.1296803 -0.06831015
-0.0029476671 0.024436781 0.09287174 -0.10787403 -0.049542677 -0.045423392 0.008411957 0.13344686
0.15041688 0.035941206 -0.15802848 -0.12373566 -0.03871277 -0.07205959 -0.17461759 0.25448492
0.0642808 -0.112113 0.04417142 -0.13325854 -0.081418395 -0.16392788 -0.14679748 0.035647724
0.081913464 0.15053728 0.0065726005 -0.07789589 0.15878476 -0.06351775 0.05285075 -0.094981
-0.086025864 0.03804103 0.039489396 -0.05186262 -0.046966843 -0.22684616 -0.023043644 0.17933357
0.068881735 0.04773842 -0.03170636 -0.006941918 -0.06630302 -0.29652703 0.030349048 -0.11691852
-0.1402749 -0.1720604 0.0053705187 -0.1096174 0.029281827 -0.03485498 -0.14175446 0.056399915
-0.0064369706 -0.014826765 0.2461749 0.2037637 -0.09091033 0.028002629 -0.06322394 -0.011022111
0.026836421 0.0040977662 0.14385475 -0.1472311 0.0751639 -0.049172375 -0.124779396 0.013679061
0.013220865 0.05844608 0.13925077 -0.013509389 -0.13968399 0.098299235 0.15968806 -0.03332694
0.10747749 0.13552186 -0.046260543 0.15016565 0.053772092 0.010056251 -0.15926701 0.08384293
0.16140158 0.03812545 0.016194765 0.11591325 0.21306175 0.030296292 0.03741564 0.02089586
0.079697445 0.023771556 0.15748425 0.21555328 -0.08193171 -0.047592454 -0.2657666 -0.011071356
-0.07583892 -0.039851822 -0.0045622136 0.051167518 -0.12660694 0.009261972 0.07899561 0.08103604
0.03842514 0.089630336 -0.019769501 0.06853343 -0.12516338 -0.025507271 -0.10418035 -0.07901057
0.0821601 0.011929867 0.06804216 -0.1618279 0.12026206 -0.15438741 -0.086275384 0.18571307
-0.0006988468 0.03682358 0.035951216 -0.0035122081 -0.05637226 0.010839565 -0.08016453 -0.07077366
-0.24787429 0.026753776 0.1964197 0.09627108 0.063302636 -0.21539065 -0.28130355 -0.11627801
0.030352112 -0.0027801334 0.23985158 0.008868034 -0.06663409 -0.090713486 0.018312486 -0.20809203
0.016295236 0.053396087 0.057002503 0.021648288 -0.1813513 0.12219602 -0.06191311 0.08005303
-0.06393702 0.06626588 0.17891306 0.23412897 -0.043791883 0.12784895 -0.18299748 -0.012669564
0.16817555 0.034634367 0.05508135 -0.0004347897 -0.02673012 -0.08178564 0.09097401 0.027421579
0.09036304 0.06903305 -0.14656894 0.0656398 0.027781637 -0.043620516 -0.06641888 -0.016981306
00000000: 42f2 f3bd 955d 823d 2d94 15bd 590f f2bd
00000010: 39c1 88bd f41e 44bd 9290 053d 4991 19be
00000020: 5a82 bb3d 059c ecbd 7a56 0c3e 32c1 57bd
00000030: 1382 2b3d 37c2 f6bd f640 873d b199 be3b
00000040: 21d2 47bc 5048 bc3d 0ff3 10be 5195 99bd
00000050: 02d8 92bd e384 083e 7098 bebc 1574 8f3d
00000060: a068 a6bb e31a babd e31d b7bd 831e 9c3b
00000070: cf9e 043e d9c3 5f3d a068 16be 6a29 afbd
00000080: 2829 2d3d 66a4 433d 90c6 94bd 9379 cbbd
00000090: 94c1 c7bd 04b4 7bbd c941 d0bd cc90 623d
000000a0: 31dd 153e 5232 fd3b feee ccba 11e2 97bd
000000b0: 3be2 3dbd 5e69 f5bc bc19 f9bc 2ce6 82bd
000000c0: 6fcd c2bc f7ca 05be e155 c93d 240c b4bd
000000d0: c24b 32bd a312 903d 1957 14bd 036c cf3d
000000e0: 0a69 84bc 3f55 7bbc 03c0 a53d d9c5 2abe
000000f0: 9641 0c3d b978 403d 434a 513e 5c2e cb3b
00000100: cfe5 123e 17a5 fd3b bab0 94bd fa5c 253e
00000110: c4a7 a6bd f0d6 5dbd eaca 043e 31e6 8bbd
00000120: a62d 41bb a52f c83c 8a33 be3d 0fed dcbd
00000130: 43ed 4abd e10d 3abd 4ed2 093c 4ba6 083e
00000140: e206 1a3e 1637 133d 38d2 21be 1f69 fdbd
00000150: 4891 1ebd fa93 93bd f4ce 32be d94b 823e
00000160: a7a5 833d 809b e5bd 17ed 343d ed74 08be
00000170: b0be a6bd b6dc 27be 1452 16be 5903 123d
00000180: 3fc2 a73d 7226 1a3e f85e d73b e187 9fbd
00000190: 7998 223e 9815 82bd 077a 583d 6685 c2bd
000001a0: 542e b0bd e9d0 1b3d a2bf 213d e66d 54bd
000001b0: 4e60 40bd 5c4a 68be 06c6 bcbc 38a3 373e
000001c0: de11 8d3d 5d89 433d 87de 01bd 0779 e3bb
000001d0: e1c9 87bd 64d2 97be 919e f83c fa72 efbd
000001e0: 39a4 0fbe 9a30 30be 2dfb af3b 167f e0bd
000001f0: 71e0 ef3c 18c4 0ebd 1528 11be 9903 673d
00000200: 39ed d2bb f6eb 72bc 4615 7c3e 6ea7 503e
00000210: 322f babd c565 e53c 8e7b 81bd 1696 34bc
00000220: 0ed8 db3c 8e46 863b a94e 133e c0c3 16be
00000230: 88ef 993d f968 49bd 578c ffbd 241e 603c
00000240: 549c 583c 2865 6f3d c197 0e3e 7c56 5dbc
00000250: 5209 0fbe 1c51 c93d 4485 233e d481 08bd
00000260: 291d dc3d 3ec6 0a3e b27b 3dbd 06c5 193e
00000270: 2040 5c3d f9c2 243c e416 23be d8b5 ab3d
00000280: 7546 253e 6f29 1c3d e2aa 843c ed63 ed3d
00000290: dc2c 5a3e ee2f f83c 2441 193d cb2d ab3c
000002a0: 6a38 a33d 91bc c23c 8d43 213e 00ba 5c3e
000002b0: d0cb a7bd 4ef0 42bd 8f12 88be a264 35bc
000002c0: 7051 9bbd aa3b 23bd 9f7e 95bb 0895 513d
000002d0: 40a5 01be 87bf 173c 73c8 a13d 39f6 a53d
000002e0: ae63 1d3d 1c90 b73d a6f3 a1bc 415b 8c3d
000002f0: d42a 00be a0f4 d0bc 825c d5bd 4bd0 a1bd
00000300: 8e43 a83d 7d75 433c b059 8b3d 37b6 25be
00000310: f44b f63d bc17 1ebe 26b1 b0bd 912b 3e3e
00000320: d132 37ba 52d4 163d 9541 133d 132d 66bb
00000330: 99e6 66bd 6e98 313c 4d2d a4bd c8f1 90bd
00000340: c2d2 7dbe bc2a db3c 3f22 493e c629 c53d
00000350: d0a4 813d 5e8f 5cbe 0507 90be 2a23 eebd
00000360: fea4 f83c e632 36bb a79b 753e 3b4b 113c
00000370: 7477 88bd fec7 b9bd 1104 963c 1416 55be
00000380: 967d 853c dbb5 5a3d 757b 693d c057 b13c
00000390: 28b4 39be e841 fa3d 9a98 7dbd d8f2 a33d
000003a0: 6af1 82bd 68b6 873d fc34 373e 81bf 6f3e
000003b0: 1e5f 33bd d6ea 023e b163 3bbe 0194 4fbc
000003c0: 3636 2c3e c4dc 0d3d fb9c 613d 7cf4 e3b9
000003d0: 20f9 dabc 3b7f a7bd 9550 ba3d 38a3 e03c
000003e0: 4210 b93d 3361 8d3d 2b16 16be 296e 863d
000003f0: 5196 e33c 6dab 32bd 9f06 88bd 611c 8bbc

network_body._body_endoder.seq_layers.0.bias f4 [256]
-0.02576098 0.019689329 0.01800585 0.011545448 -0.011362034 0.018255044 0.033044696 0.016433584
-0.0019274818 -0.005090973 0.015397496 0.017406868 0.010464981 -0.023448685 0.02136431 0.012916975
0.018578459 0.016768722 0.017479245 -0.021385312 0.010297382 0.037878152 0.025650429 0.0356013
0.013089627 -0.013658903 -0.009636683 0.012383031 0.003536034 -0.0023963824 0.009434247 0.011125165
0.029702699 -0.0008744895 0.03931487 0.0155784525 0.009873093 0.046385862 0.040357787 0.025532158
0.02948447 0.011182539 0.016449383 0.0030837124 0.036197804 0.016362624 0.051238444 0.0253657
0.02362438 0.016271321 -0.0021872867 0.04690086 0.017115807 0.029942106 0.024488019 0.01774933
0.002874943 0.032919947 0.014059847 4.393012e-06 0.018471276 0.035880335 0.0038088216 0.0066024708
-0.012745448 0.0026099843 0.01361401 -0.012019586 -0.024392791 -0.008147206 0.020446368 -0.002445407
0.030259341 -0.002231516 0.009765016 0.021006355 0.039342545 -0.0022314622 0.056253873 -0.015439645
0.015618258 0.05851467 -0.00578955 -0.0193379 0.019869857 0.030131754 0.020261427 -0.00995613
0.041497566 0.040476236 0.029845634 0.0034906368 0.011930483 0.007735558 -0.017387465 0.022340609
0.010882735 0.020712748 0.039726876 0.010815839 0.017635066 0.03257527 0.008975974 0.019982567
0.04033644 0.00781455 0.008619712 -0.00023270014 0.03274985 0.0006246112 0.04156577 0.015913526
-0.014132175 0.0015048975 -0.008398647 0.0052854037 0.046878975 0.012654736 0.008818339 0.01294729
0.02930201 -0.0062397686 0.031173054 -0.0044043157 0.0038247316 0.028150776 -0.0038608764 0.0012393408
0.018096915 0.0030004699 0.023342356 0.01458985 0.010200666 0.012546223 0.028234763 -0.00475354
0.018397432 0.027623588 -0.012939681 0.016567836 0.01412182 0.025469365 0.03476227 0.028470047
0.029813034 0.03603025 0.008791665 0.010300546 0.021362072 0.0037305101 0.0057961987 -0.0017423463
0.04386475 0.0022289462 0.019736184 0.01169511 0.014486326 0.0035842238 0.021834465 0.0046241684
0.022511182 0.009166585 0.010893427 0.009568198 0.0006077564 0.035853606 0.048656218 0.025744962
-0.0045640254 0.011068493 -0.0045814742 0.029937185 0.023240333 0.011713439 0.01261339 0.021197945
0.018875394 0.0124900425 0.021013545 0.011858108 0.0057510575 0.022803567 0.040706597 0.029008206
-0.008838085 0.0066292775 0.034850877 0.01880418 -0.029655121 -0.0052999435 -0.0060637114 0.024665752
-0.004743163 0.030029897 0.042124577 0.0065155746 0.0019635388 0.019367833 0.0068585924 0.020005295
-0.022395939 -0.0010619778 0.010305753 0.025109544 0.009213978 0.004686489 0.07163058 0.010145941
0.043882534 -0.009633249 -0.003130577 0.037621938 0.014203038 -0.013738794 0.027691409 0.017918944
0.020375961 0.041596785 0.01767588 0.018277837 -0.015602331 0.0027448412 -0.009266143 0.052167866
0.020410914 0.005699612 0.021326872 0.0040907343 0.017489059 0.026262667 0.027225967 0.026473995
0.009430573 0.0035460517 -0.0070420327 0.015765162 0.013934225 0.028952662 -0.029800205 0.01968431
0.022879291 0.012233862 0.007461035 0.02857563 0.0155993095 0.01188894 -0.004444377 0.022702148
0.018996412 0.022840448 -0.028612575 0.0045189033 0.024464453 -0.007238041 -0.0063441554 0.013515858
00000000: b108 d3bc 844b a13c 0181 933c 1e29 3d3c
00000010: d327 3abc 9a8b 953c e059 073d b99f 863c
00000020: 8fa3 fcba 2dd2 a6bb c745 7c3c d998 8e3c
00000030: 5075 2b3c 7517 c0bc 3504 af3c b8a1 533c
00000040: da31 983c 8f5e 893c a230 8f3c 4030 afbc
00000050: 5ab6 283c 1f26 1b3d d920 d23c abd2 113d
00000060: e075 563c 97c9 5fbc 2ee3 1dbc 32e2 4a3c
00000070: cebc 673b a00c 1dbb 1a92 1a3c 5346 363c
00000080: 1353 f33c ff3d 65ba a108 213d c43c 7f3c
00000090: c1c2 213c 1aff 3d3d 354e 253d d128 d13c
000000a0: 6a89 f13c f836 373c dbc0 863c 1c18 4a3b
000000b0: 2644 143d e90a 863c 67df 513d bacb cf3c
000000c0: ea87 c13c 6f4b 853c 9558 0fbb 1e1b 403d
000000d0: 7336 8c3c 2649 f53c 199b c83c 0b67 913c
000000e0: 8a69 3c3b 11d7 063d 465b 663c b067 9336
000000f0: 1351 973c 42f7 123d 6c9d 793b 8a59 d83b
00000100: 49d2 50bc 450c 2b3b 4c0d 5f3c cced 44bc
00000110: 64d3 c7bc dc7b 05bc 247f a73c 1f43 20bb
00000120: 70e2 f73c a03e 12bb 72fd 1f3c 8515 ac3c
00000130: a625 213d b93d 12bb 766a 663d 91f6 7cbc
00000140: b9e3 7f3c 14ad 6f3d 44b6 bdbb 846a 9ebc
00000150: 1cc6 a23c ded6 f63c 4bfb a53c 091f 23bc
00000160: 5af9 293d 69ca 253d d57e f43c 2bc3 643b
00000170: 1378 433c 907a fd3b 2870 8ebc a703 b73c
00000180: 804d 323c c8ad a93c a6b8 223d eb34 313c
00000190: 6a77 903c a56d 053d f70f 133c 7bb2 a33c
000001a0: d337 253d 9908 003c b139 0d3c f800 74b9
000001b0: b524 063d f3bc 233a de40 2a3d 155d 823c
000001c0: a38a 67bc fb3f c53a 7b9a 09bc 2e31 ad3b
000001d0: 2b04 403d cf55 4f3c cb7a 103c df20 543c
000001e0: c50a f03c f976 ccbb a25e ff3c 1452 90bb
000001f0: 59a8 7a3b 759c e63c c206 7dbb 6071 a23a
00000200: fb3f 943c 88a3 443b 7838 bf3c 440a 6f3c
00000210: b220 273c ac8e 4d3c 974c e73c 95c3 9bbb
00000220: 36b6 963c dd4a e23c f500 54bc 45b9 873c
00000230: 355f 673c 21a5 d03c e262 0e3d 043a e93c
00000240: 773a f43c 7594 133d ea0a 103c 9fc3 283c
00000250: 83ff ae3c 937b 743b 0aee bd3b 715f e4ba
00000260: 86ab 333d 8313 123b c7ad a13c d99c 3f3c
00000270: 0e58 6d3c 4ce5 6a3b 31de b23c 5686 973b
00000280: 5f69 b83c 722f 163c 587a 323c eec3 1c3c
00000290: d751 1f3a 3bdb 123d be4b 473d 19e7 d23c
000002a0: d28d 95bb a058 353c 3120 96bb d43e f53c
000002b0: 8362 be3c b9e9 3f3c 64a8 4e3c 50a7 ad3c
000002c0: 92a0 9a3c 09a3 4c3c 9924 ac3c 8348 423c
000002d0: 5e73 bc3b 8cce ba3c f6bb 263d 9ea2 ed3c
000002e0: 9ecd 10bc 693a d93b cbbf 0e3d 390b 9a3c
000002f0: 4cef f2bc 26ab adbb 19b2 c6bb d50f ca3c
00000300: 896c 9bbb 4201 f63c d28a 2c3d 9a80 d53b
00000310: b7ae 003b 4aa9 9e3c 0bbe e03b 25e2 a33c
00000320: b077 b7bc 1032 8bba 76d9 283c 88b2 cd3c
00000330: 3af6 163c 1e91 993b 0eb3 923d 293b 263c
00000340: 2cbe 333d c6d4 1dbc 5e2a 4dbb 7619 1a3d
00000350: dcb3 683c ae18 61bc 18d9 e23c c0ca 923c
00000360: 7deb a63c 6461 2a3d 02cd 903c 67bb 953c
00000370: eba0 7fbc cbe2 333b 05d1 17bc f9ad 553d
00000380: ca34 a73c d0c3 ba3b b1b5 ae3c 910b 863b
00000390: 3745 8f3c ce24 d73c fe08 df3c fedf d83c
000003a0: b182 1a3c e064 683b dac0 e6bb f125 813c
000003b0: 604c 643c 222e ed3c 8f1f f4bc fd40 a13c
000003c0: 5a6d bb3c 8970 483c b37b f43b 7117 ea3c
000003d0: 3f94 7f3c d4c9 423c 23a2 91bb dbf9 b93c
000003e0: 5d9e 9b3c e41b bb3c eb64 eabc 4f13 943b
000003f0: ad69 c83c 172d edbb a2e2 cfbb 9e71 5d3c

action_model._continuous_distribution.log_sigma f4 [1, 2]
-0.16640814 -0.12525426
00000000: e566 2abe a742 00be

action_model._continuous_distribution.mu.weight f4 [2, 256]
0.014415438 -0.06920826 0.0055552535 0.018974023 -0.019093249 0.03980305 0.032385044 -0.04923518
0.06359637 -0.022878043 -0.046594333 0.06918357 -0.046137184 -0.013766973 -0.0062787556 -0.03158016
0.08699536 0.043173835 0.03018323 -0.0044632535 0.03818892 0.048536837 -0.040919933 -0.056524735
-0.009480114 0.010137096 -0.024161678 -0.03578041 -0.034217168 0.048636187 -0.034487937 -0.027141165
-0.059952065 0.032815777 -0.046541855 0.004435641 7.001642e-05 0.08547492 0.09410672 -0.0803479
0.0550702 -0.035073824 -0.04247061 0.022278573 0.0815834 -0.052320376 0.06957717 0.0069422605
-0.013096372 0.036524493 0.016693365 0.0812174 0.041665524 0.05919766 0.039342742 -0.068937965
0.022749906 0.058579534 -0.020729983 0.011183278 0.029072609 0.056263052 -0.018952794 -0.052617155
0.026548179 0.006647988 -0.03760614 -0.035285622 -0.0068292245 0.008740396 -0.046686634 -0.0247692
0.071357 -0.0026765834 -0.04869455 0.034247566 -0.07763334 0.016464261 -0.12413724 0.01408797
0.03662763 0.027462736 -0.031908415 0.036840674 -0.04219819 0.08042211 -0.04423407 -0.0052500246
0.10923681 0.058388498 -0.014180045 -0.004614481 -0.056801636 0.019343678 0.009510602 0.05025359
-0.035698753 -0.044394426 -0.0644539 0.009806559 0.0019380465 -0.102726914 -0.04131811 0.0056197415
0.04503636 -0.017118748 -0.014409784 -0.0342898 0.055889864 0.009718705 0.04610304 -0.002895623
-0.0065416014 -0.0044570486 -0.015943164 -0.022699775 -0.034645583 -0.0665475 0.0066253366 0.028006036
-0.06374177 -0.029270323 0.07933712 -0.0018591912 0.029086968 -0.034508538 0.005642523 0.01977627
0.03989478 0.012975862 0.035409622 0.0033383733 0.03806244 0.017759232 0.052597564 -0.017173234
-0.05043328 -0.010164393 0.0014346315 0.024812989 0.014669985 0.08767979 -0.022505179 0.017171152
0.033079326 -0.027442032 0.008595951 0.018921971 -0.015554398 -0.024314687 -0.043230634 -0.0065152096
0.13219872 0.008249727 -0.0108280815 0.02164975 -0.020389726 0.0009111831 -0.053389277 -0.018136257
0.049805373 0.01274237 -0.017540561 0.023310628 0.007262423 0.054838914 0.058460463 0.040877637
-0.010571175 0.012524775 -0.030964037 0.07889097 0.009492 0.027244067 0.051788673 -0.08354938
-0.024196139 -0.033462487 0.036192156 -0.014975882 -0.048987247 -0.05758303 0.058600757 0.05647022
-0.009159856 -0.026001582 -0.045018766 0.041893534 -0.00957091 -0.019054335 -0.010113037 0.0754251
-0.056169048 -0.031016415 -0.09348738 -0.06840582 -0.029696865 0.0034943612 -0.047868557 0.015785128
-0.015580681 0.003732558 -0.046880636 -0.0048960345 0.012304991 -0.03686168 0.15612896 0.030161493
0.08741886 0.013885393 -0.0063563143 0.10577537 0.01634298 0.009782341 0.07369063 0.009836745
0.027393198 0.07565306 0.026740978 -0.04818301 -0.010321535 -0.03422592 -0.002748736 -0.10940163
0.058105446 -0.005134509 -0.048263956 -0.044027936 -0.08547013 0.05351935 0.0513621 -0.048092015
-0.030094922 0.023683505 -0.04570723 0.0107870875 0.003929805 -0.014955761 0.0046688328 -0.018064233
0.038471147 -0.031509165 -0.042311583 0.028598515 -0.044486567 -0.05336001 -0.0074060187 0.036542214
-0.081715405 -0.028600471 0.020582289 -0.03729658 -0.034908608 -0.015026226 -0.0037582733 0.014671919
00000000: bb2e 6c3c 0fbd 8dbd d808 b63b 696f 9b3c
00000010: 7269 9cbc 8608 233d 2ea6 043d d4aa 49bd
00000020: d03e 823d bc6a bbbc b3d9 3ebd 1eb0 8d3d
00000030: 58fa 3cbd df8e 61bc 05be cdbb 335a 01bd
00000040: a02a b23d 0cd7 303d d242 f73c 7c40 92bb
00000050: fc6b 1c3d 90ce 463d a99b 27bd 7b86 67bd
00000060: 7b52 1bbc 1016 263c b6ee c5bc 7b8e 12bd
00000070: 4d27 0cbd bd36 473d 3943 0dbd 2657 debc
00000080: 4c90 75bd d669 063d aca2 3ebd db58 913b
00000090: c7d5 9238 7a0d af3d 06bb c03d 718d a4bd
000000a0: 4a91 613d 92a9 0fbd aaf5 2dbd 8e81 b63c
000000b0: 3315 a73d e44d 56bd 7a7e 8e3d e77b e33b
000000c0: 2a92 56bc b59a 153d 86c0 883c 4f55 a63d
000000d0: 78a9 2a3d 3f79 723d db25 213d 592f 8dbd
000000e0: 035e ba3c 18f1 6f3d edd1 a9bc 113a 373c
000000f0: ae29 ee3c 1674 663d e442 9bbc 1685 57bd
00000100: 917b d93c 5ed7 d93b e508 1abd a887 10bd
00000110: b0c7 dfbb e133 0f3c 7c3a 3fbd c7e8 cabc
00000120: 9e23 923d 9e69 2fbb f073 47bd 2d47 0c3d
00000130: 3bfe 9ebd 0fe0 863c aa3b febd 3bd1 663c
00000140: db06 163d 88f9 e03c 66b2 02bd 3fe6 163d
00000150: 02d8 2cbd 59b4 a43d c92e 35bd 6608 acbb
00000160: 8cb7 df3d c728 6f3d 6b53 68bc 1235 97bb
00000170: d5a8 68bd a276 9e3c 5bd2 1b3c b5d6 4d3d
00000180: db38 12bd eed6 35bd 6800 84bd b1ab 203c
00000190: 0d06 fe3a 7d62 d2bd 2e3d 29bd cf25 b83b
000001a0: 0c78 383d 9e3c 8cbc 0417 6cbc 7673 0cbd
000001b0: c5ec 643d 343b 1f3c 8bd6 3c3d 7ec4 3dbb
000001c0: ee5a d6bb 6f0c 92bb 3d9b 82bc e1f4 b9bc
000001d0: 87e8 0dbd 0e4a 88bd 5a19 d93b ea6c e53c
000001e0: 0c8b 82bd 51c8 efbc 807b a23d 1bb0 f3ba
000001f0: cb47 ee3c d358 0dbd eae4 b83b d801 a23c
00000200: b568 233d b698 543c ae09 113d 9cc8 5a3b
00000210: 5ce7 1b3d cf7b 913c 8b70 573d e2ae 8cbc
00000220: 2193 4ebd 8e88 26bc 3f0a bc3a 9c44 cb3c
00000230: 605a 703c 7691 b33d c85c b8bc 84aa 8c3c
00000240: 307e 073d 1dce e0bc 08d6 0c3c 4002 9b3c
00000250: e0d7 7ebc 982f c7bc 9b12 31bd 8a7d d5bb
00000260: 1a5f 073e dd29 073c 4468 31bc d15a b13c
00000270: 5b08 a7bc 76dc 6e3a b7ae 5abd 7d92 94bc
00000280: b800 4c3d 60c5 503c 39b1 8fbc eef5 be3c
00000290: 9ff9 ed3b c59e 603d 3d74 6f3d 4f6f 273d
000002a0: b932 2dbc b734 4d3c 4ba8 fdbc 9791 a13d
000002b0: 5584 1b3c f32e df3c 5c20 543d f01b abbd
000002c0: fb36 c6bc f60f 09bd 3a3e 143d 675d 75bc
000002d0: daa6 48bd 2fdc 6bbd 5907 703d 514d 673d
000002e0: 3813 16bc 4501 d5bc 9965 38bd 8e98 2b3d
000002f0: 4ecf 1cbc d617 9cbc 27b1 25bc 7a78 9a3d
00000300: 8411 66bd 2316 febc 5076 bfbd 5a18 8cbd
00000310: d746 f3bc a701 653b d211 44bd d04f 813c
00000320: 1d46 7fbc ef9d 743b e905 40bd ea6e a0bb
00000330: df9a 493c 46fc 16bd 45e0 1f3e 3c15 f73c
00000340: a908 b33d 8f7f 633c a148 d0bb c2a0 d83d
00000350: b7e1 853c 1d46 203c 1deb 963d 4d2a 213c
00000360: b367 e03c feef 9a3d e50f db3c 8c5b 45bd
00000370: a81b 29bc 7a30 0cbd 2324 34bb f60d e0bd
00000380: faff 6d3d 623f a8bb 6db0 45bd a356 34bd
00000390: f70a afbd 1b37 5b3d 1161 523d 22fc 44bd
000003a0: a089 f6bc e903 c23c 8137 3bbd 53bc 303c
000003b0: 98c5 803b 0209 75bc 02fd 983b 71fb 93bc
000003c0: ec93 1d3d c10f 01bd e94e 2dbd 6f47 ea3c
000003d0: 8c37 36bd 0790 5abd 30ae f2bb 4aad 153d
000003e0: 685a a7bd 894b eabc 309c a83c 4cc4 18bd
000003f0: 54fc 0ebd 8f30 76bc 5d4d 76bb 7d62 703c

action_model._continuous_distribution.mu.bias f4 [2]
0.0006385709 -0.0029583846
00000000: c565 273a 75e1 41bb

action_model._discrete_distribution.branches.0.weight f4 [1, 256]
0.0038099145 0.008437029 0.004815835 0.009727736 0.007132679 0.0017800065 -0.0008435544 0.0026055905
0.00032591834 0.005155624 0.006889017 0.0032485996 -0.002706613 -0.0062702606 -0.0015482896 -0.0034804873
0.003091023 0.000721495 -0.0054095793 0.00855951 -0.009226174 -0.0022288384 0.004107388 -0.0011113434
-0.0047542816 -0.002031038 0.0009024554 0.0065980703 0.006619551 0.008394483 0.01381808 -0.002335716
0.00078738824 -0.012858081 -0.0074848123 0.01440949 0.0048143542 0.0055688596 -0.0054181945 0.0015247947
-0.0046993126 -0.0021386675 0.0025290505 0.0010292517 0.003112947 -0.0012362779 -0.0050468934 0.0033884698
0.004261769 -0.00029188674 0.005216833 -0.00067648216 -0.0015744086 0.0014790975 0.003979187 0.0049931346
0.00389812 0.0014764676 -0.0069599636 -0.007363359 -0.001117824 0.0039960803 -0.003414896 0.003961495
-0.0139975 0.004983969 -0.001108445 0.0030339991 0.010843672 0.0008943576 0.0021851968 -0.0052575516
0.00977183 1.4446955e-06 -0.0045207865 -0.0022463114 0.0057246443 0.0048081796 -0.013686686 0.004437351
-0.009595866 0.0038892787 -0.002203453 -0.011301905 0.0016348793 0.006206853 0.0034279132 0.005362719
0.0096043805 -0.0053583677 0.0033262991 -0.0032792583 0.0044688345 -0.0076772287 0.008163127 0.0087672835
0.0018542495 0.010342042 0.003473666 0.008902746 -0.0075753466 0.0062252297 0.0031936292 0.00061426696
-0.014230405 -0.004423521 -0.006358438 -0.01027917 -0.009951999 -0.010346576 -0.0034392127 0.0044323024
-0.00456043 0.000643636 -0.0006644898 -0.015665768 -0.005217531 0.003991978 -0.0061562243 -0.0038974804
0.006296698 -0.014188255 0.001792916 0.0015423544 -0.010013091 -0.003977204 -0.00018954946 -0.0029285834
-0.009073423 -0.005240011 -0.00029573965 -0.015680594 0.0051413844 0.014215903 -0.00082904723 -0.0011903609
-0.0026969477 0.00083275506 0.006544535 0.0036614554 0.007222748 -0.003551434 0.0006216973 -0.00010691055
-0.0024999178 -0.0018934369 -0.0031479504 0.003799218 0.0016526052 -0.006879387 0.001960981 -0.00012956817
-0.0051022503 0.0076806545 -0.010185854 -0.0039050353 0.009946279 -0.0031471753 -0.018408295 0.0058678067
-0.005678357 -0.0075125373 0.0132973315 -0.004601728 -0.011933596 0.0033320438 0.0019139083 -0.0057635666
0.0056029703 -0.010450047 2.1657797e-05 0.004172955 -0.004671881 0.000943664 0.010170309 -0.008215218
-0.0025523843 -0.0039777686 -0.003241462 -0.006862361 -0.0047594183 -0.011414579 0.00038616292 0.0035710954
-0.010868675 0.002773435 0.0020434272 -0.009768098 0.0025761176 0.0009069258 0.0023712148 -0.004473833
0.0062817894 0.010638172 -0.0039820923 0.0028760477 -0.009170466 -0.007063344 -0.0003226193 0.004316805
-0.00038025092 0.005750942 0.0024889612 -0.0055919667 -0.008703953 0.0015592788 -0.0030972648 -0.0036739472
-0.0004781702 -0.009188099 -0.0019657859 -0.0049125627 0.010965213 0.0027895134 0.0025879175 -0.0015763158
0.0010198371 -0.0024088079 -0.008867639 0.004108009 0.0021711758 -0.00037774845 -0.015208899 -0.0037103978
0.0022293066 0.015470258 0.008063545 -0.008042457 0.0014805861 0.006640464 -0.003211565 -0.003184365
0.0026610403 -0.004548836 -0.003853665 -0.009414374 -0.0022175072 0.0071994113 -0.0026543215 0.0054487144
1.8272965e-05 -0.0046934066 -0.007827355 -0.0069987 0.00096051174 -0.0035164808 0.0006178923 -0.008273269
0.0021844064 0.0030084483 0.0058257296 0.0020776547 -0.0033402827 -0.006440524 0.001987138 0.0079461485
00000000: c2af 793b 773b 0a3c 27ce 9d3b 1561 1f3c
00000010: 40b9 e93b 1b4f e93a fa21 5dba 8ec2 2a3b
00000020: 05e0 aa39 82f0 a83b 43bd e13b 75e6 543b
00000030: 6e61 31bb c276 cdbb faef caba e318 64bb
00000040: c392 4a3b b622 3d3a d742 b1bb 303d 0c3c
00000050: 6129 17bc b411 12bb 4597 863b 7faa 91ba
00000060: cec9 9bbb 2a1b 05bb c292 6c3a a034 d83b
00000070: d2e8 d83b 0389 093c 3a65 623c d012 19bb
00000080: bb68 4e3a b3aa 52bc 2843 f5bb c815 6c3c
00000090: bbc1 9d3b fb7a b63b 1c8b b1bb 9fdb c73a
000000a0: b1fc 99bb e328 0cbb 6dbe 253b f5e7 863a
000000b0: 9602 4c3b 9a0a a2ba 6960 a5bb 1711 5e3b
000000c0: 4fa6 8b3b 6008 99b9 f8f1 aa3b f355 31ba
000000d0: 635c ceba 47de c13a d763 823b 739d a33b
000000e0: 9a77 7f3b 0886 c13a 6810 e4bb 5548 f1bb
000000f0: f383 92ba 8df1 823b 73cc 5fbb 6ecf 813b
00000100: c555 65bc 9050 a33b 3e49 91ba 0fd6 463b
00000110: a8a9 313c 5373 6a3a 8535 0f3b 8a47 acbb
00000120: 071a 203c 5ce7 c135 1b23 94bb da36 13bb
00000130: cc95 bb3b ef8d 9d3b 1f3e 60bc 3367 913b
00000140: fb37 1dbc 45e3 7e3b cf67 10bb a02b 39bc
00000150: 7249 d63a db62 cb3b d7a6 603b bfb9 af3b
00000160: b15b 1d3c 3f95 afbb 0afe 593b d3e8 56bb
00000170: 4d6f 923b 4391 fbbb a3be 053c a7a4 0f3c
00000180: 4a0a f33a ab71 293c 72a6 633b d3dc 113c
00000190: 9d3a f8bb 03fd cb3b 354c 513b c206 213a
000001a0: a526 69bc 2ff3 90bb 725a d0bb f769 28bc
000001b0: b60d 23bc af84 29bc 6a64 61bb d93c 913b
000001c0: a96f 95bb aeb9 283a 2831 2eba 7f55 80bc
000001d0: d3f7 aabb 23cf 823b 27ba c9bb df6c 7fbb
000001e0: 8854 ce3b db75 68bc 4700 eb3a d328 ca3a
000001f0: f30d 24bc 3553 82bb ccc1 46b9 7aed 3fbb
00000200: b2a8 14bc 66b4 abbb 810d 9bb9 9774 80bc
00000210: 0f79 a83b d2e9 683c 6b54 59ba e205 9cba
00000220: 46bf 30bb 3f4d 5a3a 8a73 d63b 07f5 6f3b
00000230: cdac ec3b 2dbf 68bb 66f9 223a 2a35 e0b8
00000240: a9d5 23bb 332d f8ba d84d 4ebb 4dfc 783b
00000250: 3b9c d83a 7b6c e1bb cd83 003b b1dc 07b9
00000260: c730 a7bb 00ae fb3b 91e2 26bc 9feb 7fbb
00000270: b8f5 223c d740 4ebb fecc 96bc bb46 c03b
00000280: 8311 babb bb2b f6bb 0ddd 593c 18ca 96bb
00000290: 2185 43bc 6b5e 5a3b 1bdc fa3a 4ddc bcbb
000002a0: 1f99 b73b ad36 2bbc c4ad b537 49bd 883b
000002b0: 9416 99bb 3860 773a 5ea1 263c 1f99 06bc
000002c0: e745 27bb f157 82bb b56e 54bb a8dd e0bb
000002d0: e5f4 9bbb 3704 3bbc e975 ca39 0a09 6a3b
000002e0: 8712 32bc 85c2 353b 05eb 053b 5f0a 20bc
000002f0: 15d4 283b c3be 6d3a 6266 1b3b 3b99 92bb
00000300: 78d7 cd3b ba4b 2e3c 367c 82bb 137c 3c3b
00000310: b93f 16bc a073 e7bb 3b25 a9b9 fc73 8d3b
00000320: 6a5c c7b9 6672 bc3b d71d 233b d13c b7bb
00000330: 069b 0ebc b760 cc3a 7bfb 4abb 9bc6 70bb
00000340: ebb2 fab9 ae89 16bc 6ad4 00bb 90f9 a0bb
00000350: 70a7 333c 45d0 363b 0d9a 293b 629c ceba
00000360: 0eac 853a 17dd 1dbb 9349 11bc 7a9c 863b
00000370: 494a 0e3b 8a0c c6b9 bf2e 79bc 252a 73bb
00000380: 8f19 123b f776 7d3c f61c 043c 82c4 03bc
00000390: 3a10 c23a 4098 d93b 1f79 52bb c8b0 50bb
000003a0: d964 2e3b 670e 95bb c58d 7cbb bf3e 1abc
000003b0: 9953 11bb 0ae9 eb3b 20f4 2dbb 218b b23b
000003c0: e548 9937 26cb 99bb 4e3e 00bc 5a55 e5bb
000003d0: daca 7b3a c274 66bb 0dfa 213a 9b8c 07bc
000003e0: 4228 0f3b 6329 453b c3e5 be3b 4329 083b
000003f0: a5e8 5abb 080b d3bb a53a 023b 9030 023c
