EcoSculptor/results/Final_1.2/Alphahunteranimal/Alphahunteranimal-499994.pt (torch, 325092 bytes, 27 tensors)

network_body._body_endoder.seq_layers.0.weight f4 [256, 47]
00000000: 869a d1bd 44cf 56be e32d 28bd 181b a83d
00000010: d862 7fbe 8fff 29bb 8840 96bd d100 8c3c
00000020: 1d0f 993d d383 eabd 3b2d 01be 125a 693d
00000030: 1dfb f73d 21fc 40be eb1c 56bc 4a42 55be
00000040: 8088 8b3d 3eaa 223e a73a fbbd 8346 f0bc
00000050: ab2f b3bd 9938 553d a72a 0fbe 4d6c b9bd
00000060: 8b6d 653e 7811 97bd f1be 26bd a3d4 383e
00000070: 39cc 90bd c076 733d 2b34 ae3d 69c9 35bd
00000080: 5874 f43d 63a1 88be b4be 833e 0506 6dbd
00000090: 9766 79bc 8129 66bd 5978 7a3d a594 f43d
000000a0: 1165 e53c 5f55 82be 748c 8ebe 7cd4 533e
000000b0: 8b50 11be 1b29 643c 5dbb 013d 91c8 92bc
000000c0: 5e67 0fbe 52d8 6bbd f831 b43c 3195 de3b
000000d0: 7594 49bd a868 45be a6d5 83bd ad55 d53d
000000e0: 4ddb 423e a949 98be 92cd 123e 3294 4bbd
000000f0: 5a0e bcbc 6244 8a3e 0c08 a1bc 41e6 423e
00000100: 0328 26bd 2a94 583e f60f 80bd 2809 16be
00000110: 5169 433c 43f2 31bd 0fdc a23c dccb b93e
00000120: e82a 0d3e be2e 94bc 9aff 3fbe 9ea3 8ebe
00000130: b81e 5fbd e436 8a3e 0202 01be 8114 723d
00000140: 2b43 88bd bbcc 0e3e 63df a43e a707 99be
00000150: bcba e73a ddcc 6c3e 3353 acbd 81e3 d03d
00000160: 002d 5b3e b6f3 40be 3bc1 f4bd 760d ee3c
00000170: a347 143b cc24 93bc aafb 16bc 8cde b63e
00000180: b3fb 78be fcb8 153e f31d 6cbc f277 863e
00000190: 817d 303e a6da ecbc 2093 c7bd b142 293e
000001a0: 8d86 11be 0bd4 683e af81 ebbd c8f3 b13e
000001b0: d8e5 433d 4b2d b13d fea6 fabd 1ffd 81be
000001c0: e8e8 1e3d 356b ffbd 8369 3e3e e0b9 403e
000001d0: ec66 c63a 2580 773e 3b6c 06be ed61 363e
000001e0: 2bb9 483d 7a3b bfbd bf9b 80b9 fe07 873d
000001f0: 01ce 68bc d144 0d3e f6c9 edbc 297c e13d
00000200: 98e6 1f3e 9e5b bb3d 40eb 953e 6251 d33d
00000210: 565c ecbc 3319 76bd 2d6c c5be c67c c7bd
00000220: dec2 883d a265 40bc 2706 d23e 0b0c f43c
00000230: a1ff 14bd 66ac b23e c979 92bd ba38 6d3e
00000240: c43c 5ebd 7d2b d13e 59bc 20be 2ee7 4dbd
00000250: 9df1 703d 762c d03e 581c 233b 54d0 c33c
00000260: 7a7f 2b3e 2359 72bd 4acb 893b 2f21 183d
00000270: 0186 363e 6c50 463e 936b 3dbc 0c5c 273e
00000280: 5afc 423e dd34 02be 14fd 01bd dce8 71bc
00000290: d3ae 483d b9c6 ad3e 5904 08ba 2ef0 ab3d
000002a0: 9e58 1c3d a0df c3bb 2ee2 393d a8f7 0f3e
000002b0: 9bb2 92be 9ef5 383d 4934 f03d 39cb 2cbe
000002c0: 8ee8 113e 0349 47be b467 26be 05ea b9bd
000002d0: 5049 99bd c084 8a3d 3f58 27bd 4e6a 8a3e
000002e0: 6dd2 0e3e f201 d03d 4326 833d 7fcb 893d
000002f0: 3771 a63d 8134 46be 1b24 f33d 8ca7 d33d
00000300: 1df2 6a3e 725c 073d 8748 d73d 0ffb 793d
00000310: d1af 89be 087a 40be 99bc 53be de6a 353d
00000320: fc45 1cbe b166 7f3d 8597 203e 48bb f43d
00000330: aac5 dd3e a92f 3fbe 2e8a 1bbd fc1b 833e
00000340: 4b4d b23d e9ee 643d 83fc 9bbd 78e4 a3bd
00000350: f5d9 873e 056a eebd 8858 9c3d e149 14be
00000360: 9222 67be 8698 d53d d13e 81bd f5e5 31be
00000370: 0874 7fbd 34b6 b43e ab4e 803d da10 4e3d
00000380: 031f 443e 1a6e f4bb 1fbc 063d 7efe 58be
00000390: d932 ef3d 7967 643d 2e74 353d a108 103e
000003a0: 07e1 95bd eaba 0abd 49dd 553e 432a 543c
000003b0: 326f 243e b18d 2bbd 33d7 3c3e 9684 863e
000003c0: a922 543d 8ca3 70bd d48a 6e3d 849c 803e
000003d0: d2e4 baba 59c4 793d 62a3 993e 46f5 33bb
000003e0: 75c6 7a3b 3442 30bd 6cb0 643e f5fc 663e
000003f0: 7ef8 103e 3d6e 4abe b935 8a3e 7fc5 833d
-0.10234551 -0.20977503 -0.041059386 0.08208293 -0.2494005 -0.0025939678 -0.07336527 0.017090233
0.07473586 -0.11450925 -0.1261491 0.056970663 0.12108443 -0.1884618 -0.013068418 -0.20826069
0.06813145 0.15885255 -0.122670464 -0.029330498 -0.08749326 0.05205593 -0.13981114 -0.0905386
0.22405069 -0.07376379 -0.04070944 0.18049864 -0.070702024 0.05943942 0.08506044 -0.044381533
0.11936253 -0.26685628 0.25731432 -0.05786707 -0.015222213 -0.056191925 0.06114993 0.11942414
0.028002294 -0.25455758 -0.27841532 0.20686525 -0.14190881 0.013925816 0.031672824 -0.017917903
-0.14004275 -0.057579346 0.021996483 0.0067926873 -0.049213845 -0.19278204 -0.064372346 0.10416732
0.19028969 -0.29743698 0.14336231 -0.049701877 -0.022956062 0.27005297 -0.019657157 0.19033147
-0.040565502 0.2115027 -0.06253044 -0.1465193 0.011926965 -0.04344393 0.019880323 0.36288345
0.13785899 -0.018088695 -0.18749848 -0.27859205 -0.054472655 0.26995003 -0.12598422 0.059101585
-0.06653436 0.13945286 0.3220168 -0.2988865 0.0017679553 0.23125024 -0.084143065 0.10199643
0.21403885 -0.18842968 -0.11950918 0.029059153 0.0022625707 -0.017961882 -0.009215275 0.35716665
-0.24314766 0.14621347 -0.014411437 0.26263386 0.17235376 -0.028912853 -0.09744859 0.16529347
-0.14211483 0.22737138 -0.114993446 0.34756303 0.047826618 0.08651217 -0.122388825 -0.2538843
0.038796335 -0.1247162 0.18594937 0.18820906 0.0015136874 0.24169977 -0.13127224 0.17810793
0.049004715 -0.09337516 -0.00024530102 0.06593321 -0.014209271 0.13795783 -0.029026967 0.1101001
0.15615308 0.09148334 0.29281044 0.10318257 -0.028852623 -0.060082626 -0.38559094 -0.097405955
0.06677793 -0.011742981 0.4102032 0.029790899 -0.0363766 0.34897155 -0.07152135 0.2316617
-0.05425717 0.4085349 -0.15696849 -0.0502693 0.05882417 0.4065892 0.002488872 0.02390305
0.16747847 -0.05916704 0.004205142 0.03714102 0.17824556 0.19366616 -0.011561292 0.16343707
0.19041577 -0.12715478 -0.031735495 -0.014764991 0.04899485 0.33940676 -0.0005188636 0.0839542
0.03817045 -0.005977586 0.045381717 0.14059317 -0.2865189 0.045156114 0.117287226 -0.16874398
0.14248869 -0.19461446 -0.16250497 -0.09077839 -0.074846864 0.06763601 -0.040855642 0.2703423
0.13947459 0.10156621 0.06403782 0.06728267 0.08127063 -0.19355966 0.11872121 0.103346914
0.22943921 0.033047147 0.1051188 0.061030444 -0.2689195 -0.18796551 -0.20677413 0.04429137
-0.15261072 0.062353794 0.156828 0.119497836 0.43314868 -0.18670525 -0.037973575 0.25607288
0.08706149 0.055891905 -0.07616522 -0.08002561 0.26533476 -0.11641315 0.076340735 -0.14481308
-0.22571781 0.10429482 -0.063108094 -0.17372878 -0.062366515 0.3529526 0.06265005 0.05030904
0.19152455 -0.007459414 0.03289425 -0.21190831 0.1167962 0.05576274 0.04430025 0.14065792
-0.07318311 -0.03386966 0.20885195 0.012949529 0.16058043 -0.041883174 0.18441467 0.2627303
0.051790867 -0.05874972 0.058237866 0.25119412 -0.0014258868 0.060978267 0.30007464 -0.0027459427
0.0038265262 -0.043031886 0.22332925 0.22557433 0.14157292 -0.19768615 0.26994112 0.06434154

network_body._body_endoder.seq_layers.0.bias f4 [256]
00000000: 7a7f c73c a3d1 af3c aeb6 563c 1eff 013c
00000010: e40e 3a3c c070 143d e464 e8bb 3010 853b
00000020: f639 92bc 1b22 08bc 980c df3c 58a8 b43a
00000030: db56 2f3c c3b2 f33c 6cc7 48bc 1cd9 5a3b
00000040: aa57 7d3c ba6a 4f3d 2da2 903d b82d 0e3c
00000050: 0bdb 953d e93e 213d 3cb8 873c 3839 7f3a
00000060: 65f6 563c a0e1 27bb 1fe1 813c 2c2f 6a3d
00000070: 3bf2 2fbc 1011 663c 01cb 563d 2bd1 983c
00000080: cdb0 563c cabc b83d 7a06 a4ba c4ee 9c3d
00000090: f485 6d3c 53c1 77bc 82cf fcbb a04d 213d
000000a0: 8d7f 723c ddf6 103b 6fef b73c 0d4e 123d
000000b0: 5760 1c3d 10c1 433c 208a ca3c 1e5f c4bc
000000c0: 73d5 7e3c 246e 163c 01a5 243d 1c53 2e3d
000000d0: 6e3b 303d 2e70 5c3d 8e85 6c3d dcc1 0c3d
000000e0: 0bb3 c23b d487 923c dd1a b33d 0d4b 02bc
000000f0: 801a f0bb 1ffa 303d 2cae 053d 3157 0e3d
00000100: 413c ec3b 74f2 373d 6cba 90ba 2e73 863c
00000110: 2935 623d 3d21 10bc 7bd2 d5ba 2a1e a93d
00000120: 77c0 ef3c 2d28 603c 3435 1e3d e27c 1e3c
00000130: 3fb1 5c3d 2ec6 9a3b 0370 2a3d 86aa bc3c
00000140: 8257 0d3d cefb c9bc c1c2 b9bb f095 303d
00000150: 45c7 193b 6b42 033d e220 93bc eed1 3e3d
00000160: 26d0 963c b422 00bd e510 b73c 02c5 15bc
00000170: 7029 d43c 31be 393c e04e c23c a544 8e3d
00000180: 6c2c c03b 63a4 bd3b 44e6 88bc 7a74 893b
00000190: cf09 493d 1acf 89bc a21a 7dbb 46c5 63bc
000001a0: 1cf7 e63d 83d7 0a3d cab7 2c3c 44ca 593a
000001b0: 7687 4438 8961 2c3c 272b 313d 4663 733d
000001c0: a77c 713c e036 2d3d 0baf 21bc 2075 c6bc
000001d0: ba09 b7bc 55ac 303d d0cf 513d fc61 37bc
000001e0: bf69 053d 6f1c 23bc a4ad 3e3c a5cf af3b
000001f0: 0b0b e2bb 062c 863b cdf8 093d 033d 9c3d
00000200: 6b26 363b c2c6 9b3c 16a3 0f3c e886 aa3c
00000210: 0803 a0bc 6145 eb3b 0fd4 0f3c 78e6 5a3d
00000220: 132d 0739 13ac ab3c b4d7 4f3b 4adc 933b
00000230: d7d7 18b9 2ef9 003d e949 d93b 79ce cb3c
00000240: 1f11 5d3d c085 723d 4724 6b3d a8aa fd3c
00000250: 0be1 843d 2ab3 d43c 2152 20bc 1558 773c
00000260: 50d6 c13c fee2 0b3b 45e3 f43b bad3 823d
00000270: 69cc c8b9 3496 9d3c 2a16 67bb 8e1f f23a
00000280: c886 433d fbe9 b13c de70 4e3c 7a9f 733a
00000290: 2592 85b9 fdf0 533c 1788 8a3c bc0f 373d
000002a0: 18b8 c33d 8764 ba3b 65a5 853d b710 333d
000002b0: 54c1 aa3d 0790 2fbc 98e3 c03a ad13 2dbc
000002c0: 3d5a 48bb c530 01bd 640f 37bc fe07 573d
000002d0: 23a7 ae3c 950b 273c 0e20 c13a 7d11 e73c
000002e0: 57c3 beb9 965f da3c 7d27 f9bb def2 d03b
000002f0: d722 963d 65c0 013d 298e 823d 5c54 db3c
00000300: 95aa 873d c5e6 5e3c d94a 7f3d 1f65 0cbb
00000310: a23d 123c 0a14 e93b cf34 bdbc 4b33 263c
00000320: a6b1 043d ee8a 1a3d 1637 8f3c 060e e53a
00000330: a07c 0a3d f3f4 79bc 81f7 e53c f179 3c3d
00000340: acb6 603c 6a01 7d3d 5f33 24bc 145a 9c3c
00000350: 6901 a13c aa9f 313d e328 4b3d 1b5a 883d
00000360: 69cf 5f3d cd2c b03c 2821 233c 6c44 0e3b
00000370: 7797 a93c 146c b3bb 80d8 373c 2802 0d3c
00000380: 8c80 b43d d1a4 833d 50c2 253c 2ba3 843d
00000390: 85dc 633d 5121 523d b900 35bb 664f 8939
000003a0: 119d 863c 9a88 d83b 731c 8b3d 7926 01bc
000003b0: 4702 bcbb 1929 0cbc cea1 283d 8a4f 6c3d
000003c0: 5c0c dd3c e95c a03d 2eaf c93c 8343 c73c
000003d0: 0709 c0bc eb20 b0bb ed1c 653d 8ced a03c
000003e0: 4da6 0d3d 14a8 803d a2a2 543b 3951 a13b
000003f0: 2143 98ba f947 d53c e2da 6d3c 0a5e 16bc
0.024352778 0.021462267 0.013105078 0.00793436 0.011356089 0.03624034 -0.007092105 0.0040607676
-0.017849904 -0.008308913 0.027227685 0.001378308 0.01070186 0.029748326 -0.012254577 0.0033393567
0.015462795 0.05063889 0.070621826 0.008677892 0.0731717 0.039366636 0.016567342 0.0009736004
0.0131202685 -0.002561666 0.015854416 0.057173893 -0.010738905 0.014042154 0.052439693 0.018654427
0.013103676 0.09020384 -0.0012514137 0.076627284 0.014497269 -0.015121776 -0.0077151665 0.03938067
0.014800918 0.0022119798 0.022453038 0.035718966 0.038177814 0.011947885 0.024724066 -0.023971137
0.01555382 0.009181533 0.040196422 0.042559728 0.043025427 0.05381792 0.057744555 0.034364566
0.0059417537 0.017887034 0.08745358 -0.007952464 -0.007327378 0.043207284 0.032636806 0.03475112
0.0072093313 0.044908956 -0.0011041886 0.016412344 0.05522648 -0.008796987 -0.0016313338 0.082577065
0.02926658 0.013681454 0.038624957 0.009673329 0.053879973 0.004723332 0.04161073 0.02303053
0.034507282 -0.024656203 -0.0056689684 0.04311174 0.002346472 0.032045763 -0.017960016 0.046586923
0.0184098 -0.031283095 0.022346923 -0.009141209 0.025898665 0.011336849 0.023719251 0.06946687
0.0058646705 0.0057874187 -0.016711362 0.0041947933 0.04908162 -0.016822387 -0.003862061 -0.013902014
0.11277601 0.033896934 0.010541866 0.0008308033 4.68562e-05 0.010521301 0.043254044 0.059420846
0.014739192 0.04228866 -0.009868394 -0.024225771 -0.022343505 0.0431331 0.051223576 -0.011192795
0.03257155 -0.00995551 0.011638079 0.0053653293 -0.006898289 0.0040946035 0.03368454 0.076288246
0.0027793895 0.019015674 0.00876691 0.020816281 -0.019532695 0.0071799015 0.008778586 0.05344245
0.00012891395 0.020956075 0.0031714262 0.0045123445 -0.00014576256 0.031487636 0.006631125 0.024878727
0.053971406 0.059209585 0.057407644 0.030965164 0.06488236 0.025964338 -0.009785206 0.015096684
0.023661762 0.0021345015 0.0074733817 0.0638804 -0.0003829927 0.019236661 -0.0035261014 0.0018472539
0.04773596 0.021718016 0.012600152 0.0009293478 -0.00025476623 0.012935874 0.016910596 0.04469274
0.095565975 0.0056882533 0.06525687 0.043717112 0.08337656 -0.010715491 0.0014716266 -0.010563773
-0.0030571364 -0.03154065 -0.011173103 0.052497856 0.021319931 0.010195632 0.0014734284 0.028206581
-0.00036385164 0.026656907 -0.0076035843 0.0063766083 0.07330864 0.031677622 0.06374771 0.026773624
0.06624333 0.013604824 0.06232724 -0.0021422578 0.008925827 0.0071129845 -0.02309647 0.010144065
0.03239598 0.03773015 0.017482322 0.0017475493 0.033810258 -0.015256154 0.02807212 0.04601473
0.013715427 0.061768927 -0.010022013 0.019085921 0.019653993 0.04336516 0.04959954 0.06657811
0.05464116 0.021505738 0.009956636 0.0021708263 0.020702107 -0.0054755304 0.011221051 0.008606471
0.08813581 0.064279206 0.0101171285 0.06476434 0.055630226 0.051301304 -0.002761884 0.00026189833
0.016432317 0.006608081 0.06792536 -0.007882708 -0.005737576 -0.00855472 0.041169934 0.05769304
0.026983432 0.07830221 0.024619665 0.024324184 -0.023441805 -0.005375018 0.05593579 0.019644521
0.034582425 0.06282058 0.003244557 0.0049230126 -0.0011616686 0.026035296 0.014517518 -0.009177694

action_model._continuous_distribution.log_sigma f4 [1, 2]
00000000: 1b69 a93a e0e9 10bd
0.0012925001 -0.03537929

action_model._continuous_distribution.mu.weight f4 [2, 256]
00000000: 710c fbbb a4a6 10bd 6634 903c a450 d4bc
00000010: 3963 afbc 120d fabc d692 2bbc 29e1 5a3c
00000020: d93c 043c 40ab 003d 8cf9 07bd b4d9 063d
00000030: 6a8e c8bb 0861 a2bc 93b7 f33b b064 fb3c
00000040: ad7d 7bbc daa4 4abc f578 c8bc ee43 a3bb
00000050: 1d34 92ba 3b96 823c 2acb edbc 0ec4 4b3c
00000060: 5e0c 053c cc9d 83bc 5da5 ecbc 82ef 27bb
00000070: c077 c13b ae3d 07bd 9513 2dbc 509b 22bb
00000080: 8c67 c83c a8b2 2f3c 852f 063c f5e1 82bd
00000090: fb30 ce3c eef5 e53b 5ce9 153d aa7c 14bd
000000a0: 8c41 e63c ad2d 89bc 6a20 17bc f01c c03c
000000b0: a1d8 ea3b 621b 4cbc 7330 533d a637 0fbb
000000c0: 9dd4 383d 20c7 5dbc b4c1 12bb 1a4c c63b
000000d0: 8bcd 2dbc cf17 a9bd de62 51bd 98c4 7c3c
000000e0: 5ee4 f53b d843 40bd 219b d8bb cfcc 35bc
000000f0: ecce c33b 5439 07ba 18c3 d6bc 1c29 aabc
00000100: 215e aa3c 2c79 bdbc 43ae 0dbb b875 9dbc
00000110: 76f0 c2bb c090 b43b 7992 f83c 5d38 5ebc
00000120: c3d3 53bc d445 513c e41d 97bc fdb4 e1bb
00000130: a912 f63c f8f2 5d3c c091 7c3c 28f9 14bc
00000140: 0975 2bbd b76e 6cbb 8438 b9bc f544 22bd
00000150: 472a 013c 7e21 e03b 91b6 953c 14ce c8bc
00000160: 3bd4 9e3a 19f9 a63b dad1 1c3c 93da 95bc
00000170: f000 003d c7d9 ccbc 6b13 11bd 9bef 5a3b
00000180: a070 58bb 44ec dfbc 899e 7a3c 1eb2 433c
00000190: 3995 4c3b 82d1 8dbb 56ba 963c 9bb3 233c
000001a0: 59b5 b6bb d97d 90bc e0ee 833c 40ec 9e3c
000001b0: 3310 f5bc b05d f6bc 05a1 5b3c 0e4b 163d
000001c0: a6e8 e039 b108 2bbc 94f4 6fbc 322b f53b
000001d0: 9f8e fa3b f518 51bd 9916 9c3c 464f 67bc
000001e0: 474f 46bc 1c81 ac3c 6af5 953c e6b1 b5bc
000001f0: f951 bbbc ad52 453b 6997 73bc 6d4c d8bc
00000200: b50a 90bc 901d abbc 307b 5d3b ba1b 80bc
00000210: 5dd5 ac3a 9ac0 4d3d 0595 773c 32e3 a0bc
00000220: 330d 3d3d ad8d 14bc a0a3 ae3d c159 d93a
00000230: b4ab cabc 8193 9cbc c279 59bb b1af c4bc
00000240: 2e74 f3bc 9921 a2bc c161 7f3c 0ada 193b
00000250: 24e2 e7bc 6ae5 9abc 17d3 d1bc 327b 53bc
00000260: 6c5d 3eba f166 5bbc 9dae 393d 1771 613d
00000270: f7e0 a9bc 6d3e ff3b d369 9d3c 1846 31bc
00000280: f235 57bd 41d1 9c3c ed5e e0bc 63a2 373c
00000290: d243 d23c d1a6 26bd c2ec 3d3c a8f9 ab3b
000002a0: 9599 93bb db36 353c a0c3 c0bc d0f2 a03c
000002b0: d71d 2ebc 219b 703c f0a9 c13c 8356 383c
000002c0: f39c c1bc ff5d c5bb 6f4a d3bc ff02 20bb
000002d0: 3a56 32bd e2b9 01bd 365b 113d 044b 80bc
000002e0: 5bef d13c 5b9d a5bc 9a67 413c dd9b b43c
000002f0: eab1 99bb c885 65bc a1a9 163c a34d 92bc
00000300: 2f0e 56bc 8410 f53c ffeb 563c 0258 83bc
00000310: 227f 5fbd f1fd cf3c 6a85 023c 839c 7b39
00000320: 5597 aebc 90be 7c3c f535 8a3d c34c 8a3c
00000330: 3dd4 583a 009b 5c3b c493 fa3c c43e 88bc
00000340: e77f 0a3c f0a0 643d 6c5d 3a3d fdd3 9ebc
00000350: 9e1e eabb b3c9 f9bc c184 86bc c40f 8f3a
00000360: 3562 193d c36d b9bb 7b8e c6bc 5ef3 d13c
00000370: cb26 fdbc dcf1 b2bc 2817 e03c d890 383d
00000380: ca66 e3bc 9501 c0bc b8e2 0e3b f200 113c
00000390: e1f4 a1bc ca34 adbc 701f 9a3c b14e db3c
000003a0: 0690 81bb e3e6 8f3c 904c 21bd b63a 11bb
000003b0: 24af 88bc e1f9 0c3d f09a df3b c585 36bc
000003c0: 411e de3c 4ee6 eebc 346e 093d e95f dcbc
000003d0: 0ce3 21bc bcb3 113d aa1d e7bc d80e 0cbc
000003e0: 64b6 46bd 7e26 b9bc f587 043d 7477 3f3d
000003f0: 52f2 233d bcda c4bb b27f dfbc 3a05 273d
-0.0076613952 -0.03531517 0.01760311 -0.025917359 -0.021409618 -0.03052381 -0.01047202 0.013359346
0.008071148 0.031413317 -0.03319697 0.03292246 -0.0061204927 -0.019821659 0.0074376552 0.03068766
-0.015349788 -0.012368405 -0.02447174 -0.004982463 -0.0011154447 0.015940776 -0.02902754 0.01243688
0.008120624 -0.016066454 -0.028887445 -0.0025624936 0.005904168 -0.033017807 -0.010563751 -0.0024811812
0.024463437 0.010723747 0.0081900405 -0.06390754 0.02516984 0.0070178425 0.036599502 -0.0362517
0.028107427 -0.016745413 -0.009224037 0.023451298 0.0071669375 -0.0124577 0.051559877 -0.0021853237
0.04512464 -0.013536245 -0.0022393288 0.0060515525 -0.010608087 -0.08256494 -0.051119678 0.015427731
0.00750403 -0.0469397 -0.0066102897 -0.011096193 0.0059755947 -0.0005158384 -0.026216075 -0.020771556
0.020796837 -0.023129068 -0.002161876 -0.019221172 -0.0059490753 0.0055104196 0.030343281 -0.013563243
-0.012928906 0.012772996 -0.01844687 -0.0068880306 0.030038195 0.013546698 0.015415609 -0.009092607
-0.04185966 -0.0036076733 -0.022609957 -0.039616544 0.007883615 0.00683993 0.018275531 -0.024512328
0.0012117693 0.0050956127 0.009571517 -0.0182927 0.031250894 -0.025006188 -0.03541891 0.0033406976
-0.0033026114 -0.02733434 0.015296587 0.011944322 0.0031216873 -0.004327954 0.018399399 0.009991552
-0.0055758175 -0.017638134 0.016105115 0.019399762 -0.029914951 -0.03007397 0.013405089 0.03669267
0.00042897946 -0.010439084 -0.014645714 0.007481956 0.0076463963 -0.05104919 0.019053744 -0.014118021
-0.012103862 0.021057658 0.0183055 -0.022179555 -0.022866236 0.0030109093 -0.014867642 -0.02640363
-0.01758323 -0.02088812 0.003379535 -0.015638221 0.0013186146 0.050232507 0.015111213 -0.019639585
0.046155166 -0.009066981 0.08527303 0.0016582535 -0.024740078 -0.019113304 -0.0033184146 -0.024009557
-0.029718485 -0.019791411 0.015587271 0.0023475909 -0.028306074 -0.018908221 -0.02561335 -0.01290779
-0.0007261846 -0.013391242 0.04533254 0.05503949 -0.020737154 0.007789424 0.0192155 -0.010819934
-0.05254168 0.019142749 -0.027389014 0.01120815 0.025667105 -0.040686432 0.011592092 0.005248267
-0.0045043924 0.011060442 -0.023530781 0.019647032 -0.010627232 0.014685423 0.023640603 0.011251095
-0.02363441 -0.006023168 -0.025792329 -0.0024415848 -0.043539263 -0.031671412 0.035487376 -0.01566077
0.025626829 -0.020216634 0.011804486 0.022046978 -0.0046903985 -0.014008947 0.009195716 -0.017859286
-0.013064905 0.029915102 0.013117789 -0.016033176 -0.054564603 0.025389643 0.007966379 0.0002399553
-0.021312395 0.015426293 0.06748573 0.016882306 0.0008271372 0.0033661723 0.030588038 -0.016631491
0.008453346 0.055817544 0.04549925 -0.019388193 -0.007144763 -0.030491685 -0.016420724 0.0010914733
0.037447173 -0.0056588366 -0.024237862 0.025628742 -0.030902287 -0.021843843 0.027354792 0.04506001
-0.027758975 -0.023438254 0.0021802615 0.008850323 -0.019770088 -0.021143336 0.018813819 0.026770921
-0.0039539365 0.01756615 -0.039379656 -0.0022160239 -0.016685076 0.03441799 0.00682389 -0.011140292
0.027114036 -0.029162552 0.033552364 -0.026901202 -0.009880792 0.0355718 -0.028212387 -0.008548461
-0.048513785 -0.022601362 0.03235622 0.04674478 0.040026017 -0.0060075205 -0.02728257 0.04077647

action_model._continuous_distribution.mu.bias f4 [2]
00000000: 7374 47bc 2c23 a0bc
-0.01217376 -0.019548021

action_model._discrete_distribution.branches.0.weight f4 [1, 256]
00000000: 6b60 feba 63c2 5a3b 1177 13bb 2f4c 103b
00000010: 6250 9cbb 086e 003c f0e8 88bb 63d8 f23b
00000020: 1f1b 3cba bf52 ebbb 78ef 533c eda9 d9bb
00000030: 5bd6 b1ba bfbc 0abc 26a3 97bb 9b4c 203a
00000040: f2b2 d9bb 9b21 663b e7cc ab3b 09ee bb39
00000050: d1cc 2a3c 08b6 85bc af10 edbb a7c3 5c3b
00000060: 2570 1e3c ca61 a1ba c0cc 133c d700 4fbb
00000070: d225 523c 5233 2f3a 4c3e 0d39 a5c8 2d3b
00000080: ff6d e03b b591 373b 816f a4bb 4193 47bb
00000090: 876f 85bc 55ba ef3a 630b 8dbb 93c7 ec3b
000000a0: 97b3 e43b ca4e 58ba 9b8e 26bb 18ae 28bc
000000b0: cfde ab3b bdd6 30bc 529c 4dbb 9e74 00bc
000000c0: 2e08 36bc f9ed 24bc b4e1 233c db51 89bb
000000d0: b8c9 f439 93fd 30bc bf0c fc3b 7510 413b
000000e0: 23a1 823c 9741 c2bb 663f 97bb 726e c03b
000000f0: b5a6 503c bbba 83bc 97b2 723a 3345 81bb
00000100: 7f2b 1a3b f2b0 ee3b 928f c4bb 1629 c43b
00000110: dd01 68ba 503f 89bb 4af3 fdba 8090 ddbb
00000120: 4950 ca3a c659 943b b7d7 cf3b 734f 483a
00000130: 3180 013b 65e0 55bb 2789 85bb a5a6 e43b
00000140: cee5 143c eb63 773c 8db2 81ba 8c41 35bb
00000150: d87f e0ba fdde 1fb9 ab44 3f3c a4fa a83b
00000160: dca3 c1ba 8c29 acbb 5728 0139 12a8 7dbb
00000170: 71bc 3e3b 0095 e53a 23b3 d2bb f269 ad3b
00000180: c351 28bb e77e 3dbb e78e d5bb 5453 013b
00000190: 3768 623c 8b5c d23b 2095 0abc ff60 e9bb
000001a0: 3b5e 143a 6b1a e5bb 9b2b f23b b337 53bb
000001b0: 2368 d0bb 3a24 8cba 0ac0 f1bb afcd 9b3a
000001c0: 6260 32ba d7c0 11bc b388 12bc 93bb 59bc
000001d0: 5708 d1bb 2a85 90bb 1b12 cdbb a658 883b
000001e0: e749 253b bd81 cf3b b159 163c 1d89 ecbb
000001f0: c2da 8dbb 0bc7 2d3c fd8d f2ba a3dd 893b
00000200: 4073 293c 6fbd e8ba 3f61 19ba 633d 843b
00000210: 824b 51bc 77fc cdba bdc9 8fbb ba11 c9b8
00000220: 1725 1b3c 4f10 f339 07e6 dabb 15f0 fa3b
00000230: 3749 b6bb 4f0e 9cbb 303c fdbb 0bd8 3aba
00000240: 05a6 2cbb 1ec3 2ebb 681a f43b 6786 5139
00000250: 38c6 fc3b 96b9 08ba d644 bbbb 9f49 6ebc
00000260: e3b1 12ba 8545 47bc 6534 66ba c01a 243c
00000270: 6825 54bc 2c89 93ba 72a7 153b cbe2 7e3c
00000280: fec2 0abc ea1e 54b9 fbed db3b cd20 e03b
00000290: 77cd ceba 8f7f 3b39 c8e1 eebb 9981 063c
000002a0: 8fba 563c 4b4d e9ba 9f68 bf3b 7e38 33bc
000002b0: e400 ba3b 809f f23b 8232 9e3b 5bb1 a0b9
000002c0: c885 643a 27c7 603c b3bb 5abb 06e0 253c
000002d0: 9204 57bb 78c6 c7ba 49c5 a7ba 4f6c 53ba
000002e0: ed4c e53b 3d6d 4f3c 23a5 013b a844 3139
000002f0: 3b9b f73b c780 98bb 61c3 883a 04dd 153b
00000300: 9393 49bb 8b85 313b 5dbc eebb 4788 99ba
00000310: 0f4c 6bbc 84e9 463b d4e1 b03b 831b 303c
00000320: 337f 143c b3a5 e43a df19 d23a c56e 16bc
00000330: eb9e 0d3c 1792 93bb 8839 323c 2478 bd3b
00000340: 3c86 483c 03a3 ef38 5c4a bb3b 9205 d2bb
00000350: c125 c83b 1b31 c63b e758 fbba 4842 d93b
00000360: a79f 5cbb f71f fb3b ab0a 23bb 002c 83ba
00000370: 05ea fbbb 32f7 6739 873b 8539 dbc9 713b
00000380: 22a7 e7ba 7590 a13b af5d 40bc ebfe 9b3b
00000390: 0b22 1fbc c7ac c7bb 3771 c23b a121 bd3a
000003a0: 9cb4 4339 7430 ad3b 7538 d5ba 336b 84bb
000003b0: b836 e6ba 3bce 82bb 68eb babb 180f 32bc
000003c0: 0304 80ba df7c 383a f353 bcbb 68b6 2c3b
000003d0: ea85 e5bb 27bc 9eba b52c f2bb c847 24bc
000003e0: 37a5 9abb a07a 763b 3247 13bb 6081 a8bb
000003f0: 6d7d 56bc a0c2 59bc cc33 093b 73da 40bb
-0.0019407397 0.0033380024 -0.002250139 0.0022018065 -0.0047703246 0.0078387335 -0.004178159 0.007411049
-0.0007175672 -0.007181495 0.012935512 -0.006642571 -0.0013567911 -0.008467852 -0.004627603 0.0006114931
-0.0066436464 0.0035115245 0.005242932 0.0003584477 0.010424809 -0.01632215 -0.007234655 0.0033685954
0.009670292 -0.0012312469 0.009020984 -0.0031586194 0.0128264 0.00066833675 0.00013470015 0.0026517299
0.00684905 0.0028010432 -0.005018175 -0.003045276 -0.016288532 0.0018289784 -0.004304336 0.0072259395
0.0069794166 -0.00082514866 -0.002541459 -0.010295413 0.0052450667 -0.010793385 -0.0031373692 -0.007840304
-0.011110349 -0.010066503 0.010002542 -0.004190666 0.000466896 -0.010802644 0.007691949 0.0029459272
0.015945977 -0.005928229 -0.004615712 0.005872541 0.012735059 -0.016080251 0.00092581793 -0.003945017
0.002352446 0.007284277 -0.00599856 0.005986343 -0.00088503753 -0.0041884556 -0.0019374874 -0.0067616105
0.0015435304 0.0045273034 0.006342854 0.00076412334 0.0019760246 -0.003263497 -0.0040751877 0.0069778734
0.009087993 0.015099506 -0.0009895131 -0.0027657477 -0.0017127944 -0.00015246491 0.011674087 0.005156832
-0.0014773565 -0.005253976 0.00012317426 -0.0038704914 0.002910402 0.0017515719 -0.006430046 0.0052921707
-0.00256835 -0.002891475 -0.0065172794 0.0019733505 0.013818792 0.0064197234 -0.008458406 -0.0071221585
0.00056597934 -0.0069916747 0.007390452 -0.0032229244 -0.0063600703 -0.0010691949 -0.007377629 0.001188686
-0.00068045233 -0.008896074 -0.008943724 -0.01328935 -0.006379168 -0.0044104056 -0.006258262 0.0041609583
0.0025221051 0.0063326047 0.009176658 -0.0072184936 -0.0043290565 0.010606538 -0.001850545 0.0042073294
0.010342419 -0.0017756651 -0.00058509776 0.004035638 -0.01277435 -0.0015715499 -0.0043880627 -9.587729e-05
0.009469292 0.00046360723 -0.0066802534 0.0076580145 -0.005562927 -0.004762448 -0.007728122 -0.000712753
-0.0026344073 -0.0026666592 0.007449437 0.00019981862 0.007714059 -0.0005215643 -0.005714993 -0.01454392
-0.0005595965 -0.012162571 -0.0008781611 0.010016143 -0.0129483715 -0.001125609 0.00228354 0.015557001
-0.008469341 -0.00020229412 0.006711719 0.0068398477 -0.0015777786 0.00017881229 -0.007290099 0.008209609
0.0131060025 -0.0017799524 0.005841329 -0.010938762 0.0056763757 0.007404268 0.0048277983 -0.00030649718
0.0008717445 0.013719357 -0.0033376038 0.010124212 -0.003280912 -0.0015241643 -0.0012799884 -0.00080651505
0.0069976957 0.012660322 0.0019782267 0.00016905612 0.0075563467 -0.0046540233 0.0010434204 0.0022867331
-0.0030758127 0.0027087654 -0.0072856382 -0.0011713587 -0.0143613955 0.0030351589 0.0053980146 0.010748747
0.00906353 0.0017444402 0.0016029439 -0.009181683 0.008643846 -0.0045034993 0.010877974 0.005782144
0.012239035 0.000114267714 0.0057156514 -0.0064093554 0.0061080162 0.0060483343 -0.0019176275 0.006630216
-0.0033664496 0.0076637226 -0.0024878185 -0.001000762 -0.0076878094 0.00022121964 0.00025412088 0.0036893997
-0.0017673711 0.0049305507 -0.011741086 0.004760613 -0.009712706 -0.0060935947 0.0059339064 0.0014429578
0.00018663931 0.005285317 -0.0016267436 -0.0040410995 -0.0017563915 -0.0039918697 -0.005704332 -0.010867856
-0.0009766821 0.000703765 -0.005747312 0.002635384 -0.007004489 -0.0012110517 -0.0073905834 -0.01002688
-0.004719402 0.0037609711 -0.0022472856 -0.005142376 -0.013091427 -0.013291031 0.0020935414 -0.002942708

exp_avg f4 [256, 47]
00000000: d0b7 b933 c548 5f35 2146 bb36 f4b6 a336
00000010: 4a9e 3836 cfcf 9a36 d197 a136 45b1 9336
00000020: 98bf 6e34 b42b b935 00ef ba33 504d 7e36
00000030: 81eb c736 df63 d936 aaaa 8336 737f ad36
00000040: 566a 3bb6 4495 0837 b208 ab36 2fca 9d36
00000050: 7880 2537 a856 b936 f83d 0b36 08ef 7236
00000060: 8a06 f1b4 1d64 9637 403b df36 acd5 4f37
00000070: f20b de36 9aed 5e36 108e ec34 b823 72b6
00000080: 753c 5bb6 2928 9637 dca9 2b37 a8ae 5537
00000090: 6af6 5336 0c1d 8236 9166 8db6 e86c d6b5
000000a0: 169d 8ab5 d542 2237 0421 9eb6 2242 6736
000000b0: 7f13 d1b7 3324 88af a0c1 8639 604c a3b7
000000c0: 022d b5b8 a143 4038 b076 91b7 b445 23b7
000000d0: 56a7 51b8 bc5a ee36 5a21 6db7 3f79 85b7
000000e0: 4234 fab7 e0ab 41b5 baa9 5137 6826 8db7
000000f0: 51f2 8db7 69af 1838 80fa fb36 859f 07b8
00000100: d9b4 17b8 6bd2 8f38 b54e 9837 029c 83b5
00000110: 9846 e6b6 b6c6 4037 b0ad 0937 a51a 8fb7
00000120: 6cf4 6fb7 0e84 fbb7 224e 9eb7 cb4a 2d37
00000130: 3c03 f2b6 d41c 0738 20db 3b36 fbc4 98b7
00000140: f916 1e37 199d 95b8 a8d9 29b8 50ff 4c36
00000150: 853d abb7 c08f e1b6 905e 7eb7 5ae1 f4b7
00000160: a043 13b7 49d3 46b8 0279 23b8 7c83 48ba
00000170: e0eb 352f a478 b83a 8f47 a237 3be2 7138
00000180: d6ba fbb7 6991 da37 1bb6 5e37 5bb8 b737
00000190: c4d2 67b7 46ce 3537 d0f4 9c37 71d0 1c38
000001a0: de30 1637 7986 8a37 cade aa37 8a25 9d36
000001b0: 9476 19b8 adcf 56b7 b8a8 a437 df0f 1438
000001c0: 1eec 25b8 9ecc 1b37 0441 28b6 c8f1 ef35
000001d0: 506e 5137 30d9 80b5 9da8 8736 3902 fc37
000001e0: 629d cf37 0c2a 2538 970f 7ab7 4401 8937
000001f0: b441 4e37 2e6a 9437 c663 8236 3eb4 2637
00000200: 8c68 2d38 a4e7 4138 071b acb6 b871 1538
00000210: f0ce ba35 4008 8d37 9dd6 0d37 2cf1 bc37
00000220: 2009 8538 2b85 8038 d8ab 0c3a 7cfe 9baf
00000230: 8cef 9dba cefc edb7 61f1 1ab8 8369 2538
00000240: 0e7e 93b7 2b38 26b7 3c44 8937 ae6e c237
00000250: 600d b9b5 011a 05b8 abfd 13b8 5b69 d6b7
00000260: d4e9 34b7 577d c4b7 4c56 0138 e333 8138
00000270: a132 0d38 8c97 1eb8 a140 a7b7 90a7 7b38
00000280: 005d 4537 caee c037 2af1 dc37 8f33 acb7
00000290: 885e 0137 7276 a1b6 b445 1c37 2e03 6cb7
000002a0: a06c 93b6 8460 ec37 9f68 94b7 6a88 b1b7
000002b0: 8886 14b8 584d 55b7 a4ec c237 f027 fd36
000002c0: 80df 7eb6 87e3 7937 2d51 04b8 5657 8eb7
000002d0: 9c3f c1b7 3ec7 8135 324b a6b7 c6eb a7b8
000002e0: 72bf 71b8 5b4d 77ba 0ea1 522f 72b9 0f3b
000002f0: 8f9e 48b6 02ab 9237 1269 1e38 4fcc 3338
00000300: d952 d435 64c4 b637 f254 a537 4188 2c38
00000310: fe5b 3735 cd46 7737 4c5d a137 bd1e 1638
00000320: 1431 e5b5 df57 b337 d203 f137 4c3f 3438
00000330: ae9a 33b6 ea71 a137 3945 6837 55e0 0c38
00000340: d56f 6f37 e9c9 8637 a89d 7637 2720 e637
00000350: a80a e4b5 1a8f f337 4590 a737 0d7f 4838
00000360: 048c 8137 7c79 3637 7c43 0138 ed8f e537
00000370: 10f5 b9b6 0cb0 c437 9b20 2138 f87d 5738
00000380: f061 3537 caa8 2e37 416d f537 24b3 1938
00000390: 633e 49b6 7f43 9037 34e3 2737 26db 1238
000003a0: 9caa d138 e2f4 dc2d 5873 2e3a 3301 7f36
000003b0: e71c 76b7 5902 3338 548e 7e37 4e7e 3637
000003c0: fab9 d237 efe1 9837 02e2 9037 50ff 7ab4
000003d0: 2363 0fb7 c0a9 c0b4 b890 2237 a6ed fa37
000003e0: 7845 2838 563e bc37 e9a1 df37 daa6 afb7
000003f0: be48 3838 f77e 5738 4acd ce37 6f82 6438
8.648169e-08 8.317987e-07 5.5811984e-06 4.879077e-06 2.7510273e-06 4.6137498e-06 4.8158477e-06 4.4015783e-06
2.2235179e-07 1.3796293e-06 8.704774e-08 3.7893951e-06 5.9580784e-06 6.4787305e-06 3.923972e-06 5.170639e-06
-2.7927067e-06 8.140985e-06 5.0972094e-06 4.702502e-06 9.864678e-06 5.5235178e-06 2.0748685e-06 3.6199945e-06
-4.4894506e-07 1.7928012e-05 6.6528155e-06 1.2387911e-05 6.617506e-06 3.321888e-06 4.406179e-07 -3.6081601e-06
-3.2668734e-06 1.7900094e-05 1.0231943e-05 1.2736455e-05 3.1584882e-06 3.8776834e-06 -4.2140678e-06 -1.5975938e-06
-1.0327519e-06 9.671513e-06 -4.7126105e-06 3.4460177e-06 -2.492382e-05 -2.4763977e-10 0.00025702734 -1.9466679e-05
-8.639136e-05 4.583935e-05 -1.7340615e-05 -9.731786e-06 -4.9985327e-05 7.1035156e-06 -1.4134066e-05 -1.5911295e-05
-2.9826657e-05 -7.2148214e-07 1.2496888e-05 -1.6826394e-05 -1.6921347e-05 3.6402987e-05 7.509545e-06 -3.2335072e-05
-3.6169633e-05 6.857965e-05 1.8156463e-05 -9.805665e-07 -6.8627523e-06 1.1490358e-05 8.206276e-06 -1.7059336e-05
-1.4302419e-05 -2.9983024e-05 -1.8871451e-05 1.0329018e-05 -7.2125385e-06 3.2213356e-05 2.799272e-06 -1.8211538e-05
9.422883e-06 -7.1341354e-05 -4.0495448e-05 3.054698e-06 -2.0413436e-05 -6.7222572e-06 -1.5161597e-05 -2.9192004e-05
-8.777628e-06 -4.7403653e-05 -3.8974926e-05 -0.0007648987 1.6545654e-10 0.001407404 1.9345227e-05 5.766957e-05
-3.0008534e-05 2.6055337e-05 1.3274631e-05 2.1901147e-05 -1.3817746e-05 1.08364675e-05 1.8710649e-05 3.7387425e-05
8.9520745e-06 1.65135e-05 2.0369323e-05 4.6833347e-06 -3.6588477e-05 -1.2803747e-05 1.962889e-05 3.530073e-05
-3.9558967e-05 9.286361e-06 -2.5071795e-06 1.7877255e-06 1.2483055e-05 -9.599953e-07 4.0429427e-06 3.0041776e-05
2.474961e-05 3.9378225e-05 -1.4904791e-05 1.6332262e-05 1.22938545e-05 1.7692419e-05 3.885917e-06 9.936337e-06
4.134378e-05 4.6230518e-05 -5.129146e-06 3.5630277e-05 1.3918307e-06 1.6812352e-05 8.4542235e-06 2.252365e-05
6.343634e-05 6.12832e-05 0.0005366183 -2.8375158e-10 -0.001204954 -2.8370323e-05 -3.6941263e-05 3.943733e-05
-1.7582464e-05 -9.907449e-06 1.6363447e-05 2.3178141e-05 -1.3787467e-06 -3.173389e-05 -3.5283778e-05 -2.5559848e-05
-1.0783278e-05 -2.3423387e-05 3.0836367e-05 6.160864e-05 3.366417e-05 -3.7811275e-05 -1.9938047e-05 5.9999118e-05
1.1763768e-05 2.2999378e-05 2.6338344e-05 -2.0528007e-05 7.711009e-06 -4.8119628e-06 9.314554e-06 -1.40674365e-05
-4.393587e-06 2.8178336e-05 -1.7691693e-05 -2.1163567e-05 -3.541124e-05 -1.2713797e-05 2.3236797e-05 7.544637e-06
-3.7979044e-06 1.4894532e-05 -3.1546853e-05 -1.6968388e-05 -2.3037013e-05 9.669236e-07 -1.9823758e-05 -8.007097e-05
-5.7637175e-05 -0.0009433829 1.9156607e-10 0.0021930602 -2.9894616e-06 1.7484188e-05 3.776799e-05 4.2867203e-05
1.5819343e-06 2.1787542e-05 1.9709089e-05 4.1134892e-05 6.830668e-07 1.4738832e-05 1.923614e-05 3.5791414e-05
-1.7076113e-06 2.1379381e-05 2.8731218e-05 4.2974294e-05 -2.6763114e-06 1.9245741e-05 1.3844395e-05 3.3587527e-05
1.4271548e-05 1.6068067e-05 1.469945e-05 2.7433109e-05 -1.6990425e-06 2.9034494e-05 1.9975132e-05 4.780204e-05
1.5443198e-05 1.0876331e-05 3.0818846e-05 2.7365948e-05 -5.5419587e-06 2.3446999e-05 3.8415757e-05 5.1377312e-05
1.0811244e-05 1.04105075e-05 2.9257151e-05 3.664488e-05 -2.9987648e-06 1.7197568e-05 1.00068755e-05 3.501321e-05
9.997675e-05 2.5119854e-11 0.0006654761 3.799866e-06 -1.4669472e-05 4.2679112e-05 1.5172718e-05 1.0877453e-05
2.5120553e-05 1.822502e-05 1.727138e-05 -2.3375947e-07 -8.546546e-06 -3.5886296e-07 9.689647e-06 2.9912986e-05
4.011902e-05 2.2440374e-05 2.6659067e-05 -2.0939322e-05 4.3936765e-05 5.137824e-05 2.4652709e-05 5.448091e-05

exp_avg_sq f4 [256, 47]
00000000: 6ab8 f72e 0010 d72f 3e53 2a30 f749 8330
00000010: 3fba 002f 80e3 da2f 9487 1930 407c 7930
00000020: 893c 0f2f 84b8 ee2f 3d15 1430 bab4 8130
00000030: 230f 052f c706 da2f 06dd 1c30 d329 8030
00000040: df56 f52e 9bc2 fc2f 5194 1e30 92d2 8430
00000050: 773a fb2e 5296 f62f 1113 1230 b1a6 7630
00000060: c678 032f 2132 dc2f 603a 3d30 5e1f 8c30
00000070: 1e33 b62e a6b6 ec2f 769d 2630 daec 8930
00000080: 6933 ea2e 6892 b92f 110c 3e30 051d 8f30
00000090: 131b 9a2e ace8 e22f ca8b 3330 337a 8c30
000000a0: 20a3 c22e 7241 af2f d378 3730 f496 8d30
000000b0: 5b0d 4434 9da9 8c1f fc25 4c34 00ae d730
000000c0: 9488 b431 3bb7 d831 35a9 5032 6722 d630
000000d0: 8310 9931 c3f5 0032 14c9 5532 425e 0c31
000000e0: f22a cc31 7548 dd31 945e 5d32 1e6a 8b30
000000f0: 5cf4 8231 5092 3b32 4874 8032 02a9 2431
00000100: 14cc 9e31 78c1 2932 3572 7732 4fdf 5f30
00000110: cf99 7c31 cb45 3132 cba6 8032 8800 3f31
00000120: 5ac9 a931 ff12 0b32 f463 6a32 9e47 fd2f
00000130: 75e1 4c31 eb5d 4632 6210 8732 fcbb fb30
00000140: f528 b131 72a8 1032 7f56 7032 ab1c ef2f
00000150: 72fd 3931 8e17 4d32 7762 8832 9f67 e630
00000160: fdcc b631 4420 e931 df77 6032 735e ba35
00000170: 43a2 2f21 d54c 0536 ac6f e42f 5fed 1631
00000180: 36e6 7831 ab6d d031 79cd e82f 2f8f 0931
00000190: e4d4 9e31 908c e031 accb f72f c997 0531
000001a0: 423b 7831 aea8 d731 8b05 eb2f 8dad e530
000001b0: 964e 9c31 f266 df31 ffba fa2f 8de1 cf30
000001c0: f6c6 9a31 e7f0 dc31 ab62 cf2f d57f d130
000001d0: 9712 9431 682b dd31 38d3 1030 f432 b630
000001e0: 971d 8831 1029 d731 7010 d62f 50e0 b030
000001f0: 7d56 9431 95e9 d631 7635 e52f 452d d030
00000200: bab3 8331 3c09 d231 0b7c ff2f 69e8 a630
00000210: 43a9 9731 ab46 d231 90d1 a02f 810a aa30
00000220: e36f 9431 9385 db31 1ecf cf34 d0f6 c520
00000230: 8ad4 3835 07b2 6b31 89a9 c431 7dd4 9332
00000240: c0af cb32 a801 5d31 daf9 d231 36ab 9632
00000250: d617 cd32 ac6b 6c31 c69a ca31 91c7 8f32
00000260: a5f0 d832 a4c8 1d31 0a9a bb31 4b97 9632
00000270: 1449 d332 5baf 3631 2818 be31 7f77 a532
00000280: 119e dd32 b086 0331 7a91 aa31 7874 9532
00000290: 6be5 cd32 ab91 4231 2cdb bc31 bbea 8f32
000002a0: 5adb d732 acec ed30 2fce 9e31 9122 9032
000002b0: 2309 cb32 7025 1031 6844 da31 eb29 8032
000002c0: b069 cd32 e75e d830 859c 9d31 ab31 8932
000002d0: 4ab9 c132 f8a5 c830 ea0b b231 e682 9932
000002e0: b300 d532 eb1d c235 5be8 bb21 00e4 6d36
000002f0: 3f90 b92f fa27 2831 212e a731 b02a f231
00000300: 5381 e32f 180d 2d31 7aa8 b331 1276 fc31
00000310: 9a02 cd2f b050 2c31 4c6c 9331 aeee ee31
00000320: 366f c02f ebce 2d31 f774 b031 de39 0332
00000330: 34d4 0230 93b7 1831 40ca 9f31 69bc e731
00000340: 765e 0930 2a02 1931 f4a9 9331 942b f031
00000350: 2564 1330 a459 1031 bb11 a031 8286 e531
00000360: 960e 0730 4262 1731 e684 8d31 57f3 ea31
00000370: b4ba df2f 2dcb 2131 4360 9d31 9b48 ee31
00000380: 9a0f 1330 1369 1231 7718 9c31 dd58 e931
00000390: 2c0c 9f2f 7067 fb30 6a74 ae31 9a79 f231
000003a0: d859 1735 ffb4 ce20 0bf4 b835 e25c b431
000003b0: d5c0 6932 fb72 e732 6228 2e33 1047 c231
000003c0: 06a5 6432 4ba7 e932 b5cd 2e33 0e7a b531
000003d0: 48b9 7632 f642 e132 891c 3133 96d6 a031
000003e0: 2234 6132 66ef ec32 1895 3a33 75ec 9d31
000003f0: 3439 7732 faad e532 e708 2e33 6b94 a631
1.1265018e-10 3.911964e-10 6.1963934e-10 9.552527e-10 1.17077e-10 3.9815617e-10 5.5853744e-10 9.076224e-10
1.302728e-10 4.3423054e-10 5.387227e-10 9.437351e-10 1.2101657e-10 3.9658785e-10 5.706656e-10 9.325113e-10
1.11567415e-10 4.5976808e-10 5.7690835e-10 9.664112e-10 1.1424544e-10 4.4853948e-10 5.3141586e-10 8.973116e-10
1.1957288e-10 4.0053386e-10 6.8840755e-10 1.0195256e-09 8.285482e-11 4.305793e-10 6.0614214e-10 1.0035379e-09
1.065022e-10 3.3755332e-10 6.9138745e-10 1.0412867e-09 7.0079186e-11 4.1274484e-10 6.5318473e-10 1.0221072e-09
8.8510754e-11 3.1878816e-10 6.6746714e-10 1.0302004e-09 1.8258781e-07 5.957291e-20 1.9012799e-07 1.5692763e-09
5.2542166e-09 6.3072583e-09 1.2145667e-08 1.5580327e-09 4.4547632e-09 7.50646e-09 1.2443952e-08 2.042626e-09
5.9420637e-09 6.440184e-09 1.2885398e-08 1.0143741e-09 3.8112784e-09 1.09181e-08 1.495404e-08 2.396121e-09
4.621606e-09 9.881084e-09 1.440326e-08 8.144427e-10 3.6758256e-09 1.0318625e-08 1.497701e-08 2.779446e-09
4.9414384e-09 8.095184e-09 1.3643319e-08 4.607132e-10 2.9814065e-09 1.1546471e-08 1.5723518e-08 1.8316082e-09
5.1560343e-09 8.420203e-09 1.39895056e-08 4.3494217e-10 2.706511e-09 1.1937926e-08 1.587726e-08 1.6764153e-09
5.3202016e-09 6.7848607e-09 1.3065772e-08 1.3885568e-06 5.950706e-19 1.9863267e-06 4.1552306e-10 2.1962803e-09
3.621961e-09 6.0660645e-09 4.234655e-10 2.0017514e-09 4.622608e-09 6.535238e-09 4.5073756e-10 1.9440327e-09
3.6122434e-09 6.2765e-09 4.275019e-10 1.6711269e-09 4.5491317e-09 6.5018577e-09 4.5607604e-10 1.5125338e-09
4.504609e-09 6.43023e-09 3.7723188e-10 1.5243083e-09 4.3094803e-09 6.4368813e-09 5.2687055e-10 1.3256725e-09
3.961485e-09 6.261992e-09 3.8938053e-10 1.2869439e-09 4.3171995e-09 6.254775e-09 4.1692844e-10 1.5146858e-09
3.8330343e-09 6.1128542e-09 4.6472368e-10 1.2144145e-09 4.4139212e-09 6.1198384e-09 2.9252734e-10 1.2372113e-09
4.320087e-09 6.3889245e-09 3.8707452e-07 3.3536425e-19 6.8854627e-07 3.4298198e-09 5.7236247e-09 1.720968e-08
2.3712232e-08 3.2160674e-09 6.1402092e-09 1.7540156e-08 2.387598e-08 3.4403724e-09 5.8965695e-09 1.6738143e-08
2.5255142e-08 2.2960558e-09 5.4599285e-09 1.7531098e-08 2.4596865e-08 2.6584164e-09 5.532474e-09 1.9262869e-08
2.5799666e-08 1.913957e-09 4.96419e-09 1.7398847e-08 2.3969468e-08 2.8313518e-09 5.496437e-09 1.6754134e-08
2.5129044e-08 1.7311286e-09 4.6218456e-09 1.6779525e-08 2.3636465e-08 2.0976039e-09 6.352412e-09 1.4920223e-08
2.3913202e-08 1.5743041e-09 4.5870956e-09 1.5971485e-08 2.2552417e-08 1.4599086e-09 5.1818363e-09 1.787107e-08
2.4796782e-08 1.4462834e-06 1.2733117e-18 3.5448465e-06 3.3753797e-10 2.4469942e-09 4.865584e-09 7.04798e-09
4.138295e-10 2.5182256e-09 5.228739e-09 7.3475883e-09 3.729113e-10 2.507516e-09 4.290575e-09 6.9538464e-09
3.5003617e-10 2.5292433e-09 5.1355715e-09 7.638361e-09 4.7595283e-10 2.222326e-09 4.650502e-09 6.7444046e-09
4.9974547e-10 2.226566e-09 4.2975845e-09 6.9898736e-09 5.36206e-10 2.1005713e-09 4.6586286e-09 6.680069e-09
4.913344e-10 2.2029245e-09 4.118749e-09 6.837961e-09 4.0696124e-10 2.3544076e-09 4.580245e-09 6.934966e-09
5.350046e-10 2.1305524e-09 4.542979e-09 6.791295e-09 2.893058e-10 1.8292052e-09 5.0773012e-09 7.0569515e-09
5.6382623e-07 3.501753e-19 1.3780094e-06 5.249249e-09 1.360623e-08 2.6944226e-08 4.054926e-08 5.654222e-09
1.3308869e-08 2.7200846e-08 4.069962e-08 5.2816693e-09 1.4361213e-08 2.6223898e-08 4.1236977e-08 4.6810085e-09
1.3108577e-08 2.7582882e-08 4.34421e-08 4.5961834e-09 1.4390299e-08 2.6738224e-08 4.052063e-08 4.848109e-09

exp_avg f4 [256]
00000000: 33fd 2b37 e078 2ab8 2ad7 3c38 e037 acb7
00000010: 6a04 8538 e0aa 0438 b0f5 0cb7 20e9 b9b8
00000020: 1cb3 67b7 0a38 90b8 0201 8cb7 d7d6 ab38
00000030: 4c5d 8ab6 0094 cdb8 6ee4 2bb7 e2ee 84b7
00000040: 7029 bc35 d488 7ab7 e061 c7b4 3157 00b9
00000050: 8c29 88b8 bf24 b138 ca3d 8fb6 f05c 3b38
00000060: 0c85 5b38 aeac 3fb6 4204 8737 bb90 2638
00000070: 9ede a9b7 5825 bc36 3655 6837 fca3 8737
00000080: 0efb 0cb8 105d e638 2efe f6b7 aaf1 b038
00000090: 0497 3d37 996a b3b7 9ecb a3b8 9052 25b8
000000a0: 822d eeb7 14ab 06b7 88d7 1f37 2cfc 7c37
000000b0: 17d3 8b38 0487 e936 ed6f 1439 d6fa 0cb8
000000c0: cb50 1739 e068 e1b6 ec8f 9836 69dc 9a38
000000d0: 36c0 1d37 4089 f2b8 5a66 b338 1888 9cb8
000000e0: c6fd 78b8 0c82 1eb9 f1a1 bdb8 479b 73b8
000000f0: 2088 f1b7 e049 7d36 e684 20b8 5bae 1138
00000100: e7fe dc37 a04f 01b4 f0f3 f937 da0f 64b8
00000110: 5065 89b6 7c13 b237 0422 0c37 88a9 9bb7
00000120: 28e0 71b5 b9f7 08b9 b068 40b6 29b6 3e38
00000130: 1083 e438 227a 0039 215b 3139 a4e2 93b8
00000140: 70a9 5ab6 aa0b 5538 d375 9e38 a46f 7836
00000150: bce0 0fb9 549a 9d38 0338 90b7 5cb7 9937
00000160: 40f9 4f38 7fe7 2938 3cd7 d9b7 f64b a2b8
00000170: 4a49 2139 00e8 d735 3a6b 0db7 0f2c 1cb8
00000180: 113a 2d38 017b 9c38 200e 24b7 dc86 6a37
00000190: d770 06b8 861f 70b8 51be 84b8 0cd1 c638
000001a0: 8b57 8eb8 673e bc37 e06f 02b9 e01a 5338
000001b0: 57e5 d8b7 3445 8c38 feec a538 c042 9ab8
000001c0: be31 fa37 2ca2 5fb7 fd7b 92b8 ea61 5a38
000001d0: 76e8 0c38 1f1a 3938 3cc1 7c38 d69c b338
000001e0: 230d 1eb7 c7d9 3938 9e19 de37 c08f ef37
000001f0: 820b 9337 72ac 60b7 5a66 4337 161b bbb7
00000200: b061 cab6 5b62 f836 d9aa c0b8 2e4e f038
00000210: ed3c 02b7 dcc1 2b38 86c7 c338 07aa df36
00000220: d68e 1cb8 9bd3 1cb8 bcc3 d0b8 eec3 b3b7
00000230: 0149 eeb8 176c ba37 c097 24b8 a319 5a38
00000240: bd73 4838 cf43 f7b7 fd89 80b8 e9aa 29b9
00000250: 8cde 03b7 c059 a3b6 db90 4ab8 e2f9 67b7
00000260: 2070 10b9 7002 1f37 2342 9b38 746c 0c39
00000270: 7e44 9db8 f436 1338 ccd1 6db8 3ab2 6a36
00000280: 9a72 2538 6461 7438 4b65 8338 c116 05b8
00000290: 2477 0eb8 0c7d 2e38 9646 b8b8 5489 62b7
000002a0: 8b81 9db8 040a 55b7 bc38 06b8 a0aa 9638
000002b0: 3002 90b7 94c7 ac38 f337 7238 62a4 73b8
000002c0: 5489 40b8 f59c e437 3943 d4b6 6a15 eab7
000002d0: da36 2538 401c 85b9 c46c 65b6 90f9 9f36
000002e0: df7d 3338 84a5 dfb7 7e6a c2b8 5e1e 6838
000002f0: 6669 b3b7 762c bd37 96ea 2b38 7204 95b8
00000300: d027 f737 0be9 5ab8 eb07 3138 cc29 9eb8
00000310: 398b 5038 e649 0737 eda9 b837 2e17 2638
00000320: b9d4 0838 290b 1eb8 c50b c338 154a 83b7
00000330: 9a83 c5b6 ecb9 7038 4095 5736 f697 fb36
00000340: 1cd3 2db8 41cf c838 0687 5c38 c034 27b7
00000350: 0014 3b33 5c51 ff36 7d8b d9b7 0659 9238
00000360: 3ab5 21b9 577d da37 77ca d237 b964 d6b8
00000370: 461d 9838 588a 99b7 807a 2238 2e1d 5638
00000380: d426 2437 8814 8137 b632 28b8 aff5 e4b7
00000390: 4835 6bb7 90a5 d735 1a1a d0b8 6ea5 9eb8
000003a0: 5048 7e37 3663 7d38 f4d1 b636 9e27 8bb8
000003b0: c0fd 4bb8 c607 0fb8 6a77 4db8 0a15 7fb7
000003c0: ad5b 2538 80f9 e437 4e62 e2b8 6e42 2438
000003d0: d13e 2b38 7320 bcb8 7c41 2d38 7825 2d36
000003e0: cc79 2538 d704 ce37 bc21 8238 3102 92b8
000003f0: e488 b7b8 4bbd 76b8 d060 5538 54fe 66b8
1.0251347e-05 -4.0643732e-05 4.502308e-05 -2.0530017e-05 6.3427564e-05 3.1630392e-05 -8.401854e-06 -8.86491e-05
-1.3810375e-05 -6.876893e-05 -1.668977e-05 8.1939324e-05 -4.1235817e-06 -9.802729e-05 -1.024558e-05 -1.5846865e-05
1.4019151e-06 -1.4933019e-05 -3.7137852e-07 -0.00012239513 -6.492724e-05 8.446862e-05 -4.2689253e-06 4.467083e-05
5.233758e-05 -2.856173e-06 1.6095237e-05 3.9712275e-05 -2.0250034e-05 5.607184e-06 1.3848117e-05 1.6169615e-05
-3.3612414e-05 0.00010984589 -2.9443847e-05 8.4373474e-05 1.1300439e-05 -2.1388101e-05 -7.810372e-05 -3.9415958e-05
-2.8393002e-05 -8.026855e-06 9.527321e-06 1.5079084e-05 6.667355e-05 6.959659e-06 0.00014156075 -3.361221e-05
0.0001443058 -6.7177316e-06 4.5467077e-06 7.384347e-05 9.402682e-06 -0.00011565024 8.5544496e-05 -7.464009e-05
-5.9364153e-05 -0.000151165 -9.042386e-05 -5.8080328e-05 -2.8792827e-05 3.7742939e-06 -3.8270744e-05 3.4733075e-05
2.6344742e-05 -1.2043029e-07 2.9796705e-05 -5.43742e-05 -4.0947125e-06 2.1228327e-05 8.35257e-06 -1.8556384e-05
-9.0105686e-07 -0.00013062255 -2.8671166e-06 4.546918e-05 0.000108962995 0.00012252529 0.00016913984 -7.051721e-05
-3.2583157e-06 5.079402e-05 7.5559736e-05 3.7019863e-06 -0.00013721263 7.515089e-05 -1.719222e-05 1.8324405e-05
4.9584778e-05 4.0508337e-05 -2.5968642e-05 -7.738911e-05 0.00015381459 1.6086269e-06 -8.4292205e-06 -3.723433e-05
4.1300493e-05 7.461571e-05 -9.7784505e-06 1.3978886e-05 -3.205318e-05 -5.7249817e-05 -6.3297e-05 9.480314e-05
-6.787394e-05 2.2440405e-05 -0.00012439443 5.033135e-05 -2.5856001e-05 6.68861e-05 7.911956e-05 -7.3557254e-05
2.9825485e-05 -1.3329594e-05 -6.984917e-05 5.206644e-05 3.3595097e-05 4.4131764e-05 6.0261445e-05 8.564598e-05
-9.4205925e-06 4.4310258e-05 2.6476391e-05 2.8557959e-05 1.7529124e-05 -1.3391591e-05 1.1646736e-05 -2.230475e-05
-6.0314414e-06 7.402426e-06 -9.187096e-05 0.00011458654 -7.762789e-06 4.0950123e-05 9.335489e-05 6.6657117e-06
-3.7326325e-05 -3.739037e-05 -9.954671e-05 -2.14297e-05 -0.000113623224 2.2223261e-05 -3.9241975e-05 5.1999126e-05
4.7791505e-05 -2.947627e-05 -6.129218e-05 -0.00016180765 -7.860024e-06 -4.868227e-06 -4.829546e-05 -1.3826853e-05
-0.0001377468 9.477706e-06 7.403295e-05 0.00013391842 -7.499101e-05 3.509871e-05 -5.670059e-05 3.4972459e-06
3.9445797e-05 5.8264835e-05 6.265434e-05 -3.1730862e-05 -3.3966397e-05 4.160129e-05 -8.7869514e-05 -1.3502624e-05
-7.510473e-05 -1.2698121e-05 -3.2000928e-05 7.184339e-05 -1.7167156e-05 8.2387734e-05 5.7749403e-05 -5.8088808e-05
-4.5904264e-05 2.7252807e-05 -6.325918e-06 -2.7904945e-05 3.939015e-05 -0.00025388785 -3.418697e-06 4.767622e-06
4.2794152e-05 -2.6660746e-05 -9.2704766e-05 5.5341392e-05 -2.1387543e-05 2.255126e-05 4.0988052e-05 -7.105702e-05
2.9463234e-05 -5.219229e-05 4.2207463e-05 -7.5418124e-05 4.9720726e-05 8.063833e-06 2.2013637e-05 3.9599072e-05
3.262304e-05 -3.768053e-05 9.300517e-05 -1.5650914e-05 -5.886378e-06 5.7393612e-05 3.2124372e-06 7.4980735e-06
-4.1443025e-05 9.575347e-05 5.2577838e-05 -9.9662575e-06 4.355752e-08 7.6090637e-06 -2.593337e-05 6.9784044e-05
-0.00015421669 2.6045991e-05 2.512823e-05 -0.00010223076 7.2533774e-05 -1.8303443e-05 3.8737897e-05 5.104875e-05
9.784202e-06 1.5387559e-05 -4.010155e-05 -2.7294123e-05 -1.4019497e-05 1.6066933e-06 -9.923075e-05 -7.564841e-05
1.5156416e-05 6.0412298e-05 5.4484644e-06 -6.635416e-05 -4.8635295e-05 -3.4101096e-05 -4.898702e-05 -1.5204083e-05
3.9424445e-05 2.72959e-05 -0.000107948305 3.9162514e-05 4.082808e-05 -8.970583e-05 4.13074e-05 2.5800819e-06
3.9452498e-05 2.4559367e-05 6.2051666e-05 -6.962231e-05 -8.751618e-05 -5.8827263e-05 5.087332e-05 -5.5073135e-05
