EcoSculptor/results/Final_1.2/Alphahunteranimal/Alphahunteranimal-520367.onnx (onnx, 58409 bytes, 6 tensors)

network_body._body_endoder.seq_layers.0.weight f4 [256, 47]
00000000: 6e53 d9bd 2d74 56be 69a4 25bd 9616 a53d
00000010: cfc0 80be 24f0 f7ba 5dd8 96bd 6ee1 743c
00000020: d7a7 923d f5c7 eabd 19e2 01be e898 603d
00000030: 83c8 f03d 64c8 43be ce06 40bc 847a 58be
00000040: d929 903d e1c9 223e 7386 05be 75c7 03bd
00000050: 3b54 b3bd dc4d 4e3d 90c1 14be 93e2 c4bd
00000060: b193 653e 7fa2 97bd b84d 29bd 1a12 373e
00000070: e245 92bd 9b34 693d 1d82 a43d fab3 4abd
00000080: dca5 f43d 3791 87be 4a6e 833e 5e09 6fbd
00000090: ff46 97bc 639f 63bd d074 713d 8aa8 ee3d
000000a0: 2ebf c23c 01c5 81be ecd1 8bbe c784 553e
000000b0: 9277 12be f689 663c 2d99 093d e9b6 93bc
000000c0: 9e8e 0dbe f634 5fbd 2154 cc3c bc35 0c3c
000000d0: 7097 44bd 5afc 42be d544 81bd 5f80 d33d
000000e0: 1ac1 423e 821d 96be 7ef6 143e 1de2 39bd
000000f0: 71a1 bcbc fd7e 8b3e daa8 9bbc 22f4 463e
00000100: 49ba 2bbd e778 583e 8619 7ebd 4d6a 12be
00000110: 4fe2 4a3c cdfb 2cbd b95b a53c ef19 bb3e
00000120: 87e4 0e3e b725 a0bc 7418 3fbe 5b68 8ebe
00000130: 3c76 4fbd fa6d 883e b24b 01be ad41 803d
00000140: 63d1 83bd 1903 133e e266 a63e 5b8c 9abe
00000150: 6556 053c 844d 6b3e 805c aabd 725d d93d
00000160: b9fd 5a3e 5456 3dbe 18a0 efbd b655 fb3c
00000170: 6c89 1f3b 31b3 9fbc 6b19 85bc a65a b63e
00000180: 73bb 7dbe ad25 113e edb3 9abc 4e92 863e
00000190: 3373 2f3e 7eb4 febc 9b3b c9bd ed13 2b3e
000001a0: 8c95 17be 6976 653e bf97 fabd 62ee b23e
000001b0: e070 3d3d fb6d af3d b4c2 03be a229 81be
000001c0: 4d7d 223d ea2c 01be cb39 393e d32b 413e
000001d0: da16 41ba 4132 763e e27d 07be 4569 323e
000001e0: cab9 4d3d bc44 c4bd 1c6c 68ba df0c 833d
000001f0: 9112 53bc 57fa 0b3e 299e 0bbd f1e0 da3d
00000200: 94b7 1c3e b095 b43d 5563 973e 55c3 cb3d
00000210: e074 d9bc f041 7dbd 8332 c6be be34 cabd
00000220: b0cf 803d 5c13 7abc e1a0 d03e 8e50 f33c
00000230: 93ec 0cbd d728 b53e 965d 8fbd df8f 6f3e
00000240: 7474 53bd 94a3 d23e d110 20be b66b 47bd
00000250: 0c00 773d be76 d03e b786 413b 1b85 d93c
00000260: ccf3 2c3e e707 5bbd fc3a 323b 4a4d 1e3d
00000270: 0c65 363e 9308 4c3e 86f6 34bc ed74 223e
00000280: 06f7 423e 6761 f7bd 05a5 febc 7db2 7bbc
00000290: 9b31 463d c5a9 ae3e 9322 603b dd9b aa3d
000002a0: a4b8 233d 9893 0dbb f082 413d b98c 0d3e
000002b0: 28f5 92be a857 4a3d f0a2 f83d e2bd 2bbe
000002c0: d54b 143e 69b9 47be 9c8d 22be c583 c0bd
000002d0: 3d50 98bd 436f 8b3d addf 1ebd 7890 8c3e
000002e0: 02b4 123e 2a0e d63d c5e1 833d 937b 833d
000002f0: cceb b13d 685d 43be 1f67 f03d 493d d43d
00000300: 1f6e 6d3e 0e96 153d d99e d73d 2c8d 783d
00000310: 9cd1 88be f919 3cbe 06aa 55be f734 353d
00000320: 4b7e 18be f9ad 803d 04d3 1e3e 5a20 f13d
00000330: 9c88 de3e 7902 3dbe cc92 2bbd 4a0e 833e
00000340: 598b b53d bc5c 6c3d ccbc a3bd 05ee a8bd
00000350: acdc 873e bafd e7bd f0b1 9c3d a8c5 13be
00000360: a041 69be 09c5 d83d 8b1a 87bd 59aa 33be
00000370: 056d 7dbd 6845 b63e 95df 7f3d d9cd 523d
00000380: 5587 413e 70c2 e1bb 527a 003d 6a7e 5abe
00000390: 9037 f23d 57a6 6e3d 2c3b 403d 8e17 123e
000003a0: b7b8 99bd d9b2 0abd 6d2f 553e 9fbd 533c
000003b0: 0725 253e da57 26bd 1601 3d3e e5e1 863e
000003c0: ddb3 523d e529 6dbd b20f 6c3d 858a 7f3e
000003d0: 0d84 8dba f56f 7e3d b07e 993e 5c1b 3abb
000003e0: bd70 093b 0e94 2abd 0f33 633e 61c6 6b3e
000003f0: 5a57 103e 2ea0 4fbe ad89 893e d786 863d
-0.10611616 -0.20942755 -0.040439997 0.080609486 -0.251471 -0.0018916172 -0.07365487 0.014946325
0.07160919 -0.1146392 -0.12683906 0.054833323 0.117569946 -0.19119412 -0.011720372 -0.21140486
0.07039232 0.15897323 -0.1303957 -0.03217264 -0.087563 0.05036722 -0.14526963 -0.09613528
0.22419621 -0.074040405 -0.041333884 0.17877999 -0.07142235 0.056934934 0.0803263 -0.049488045
0.11945698 -0.26477978 0.2567008 -0.058358543 -0.01846647 -0.055571925 0.05894929 0.1165324
0.023772802 -0.25345615 -0.27308595 0.20851432 -0.14303425 0.014070978 0.033593345 -0.018031554
-0.13823935 -0.054493867 0.02494246 0.008557733 -0.047995985 -0.19041577 -0.06311957 0.10327219
0.19018975 -0.29319388 0.14547154 -0.045381654 -0.0230262 0.27245322 -0.019001413 0.19429067
-0.041925702 0.2113987 -0.06203606 -0.14298363 0.012383058 -0.042232323 0.020185338 0.36543223
0.13954364 -0.019549234 -0.18661672 -0.27813992 -0.050649866 0.26646405 -0.12626532 0.06262527
-0.06436422 0.1435665 0.32500368 -0.30185208 0.008138274 0.22978789 -0.08318424 0.106135264
0.2138585 -0.18489963 -0.11700457 0.030680519 0.0024343384 -0.019494625 -0.016247472 0.35616034
-0.24778537 0.14174528 -0.018884623 0.26283497 0.17133789 -0.031091925 -0.09825822 0.1670682
-0.14803141 0.22408451 -0.122359745 0.34947497 0.046250224 0.08565899 -0.12867242 -0.25227076
0.039670277 -0.1261479 0.18088453 0.18864374 -0.0007365771 0.24042608 -0.13231614 0.1742297
0.05022601 -0.095834225 -0.0008866207 0.06398939 -0.012882845 0.13669716 -0.03408638 0.106874354
0.15304404 0.08817613 0.29567972 0.09949366 -0.026544988 -0.06183046 -0.38710412 -0.09873341
0.06289613 -0.015263405 0.4074774 0.029701497 -0.034405302 0.3538272 -0.07000272 0.23394726
-0.05162473 0.41140425 -0.15631415 -0.048686706 0.06030278 0.40715593 0.002952976 0.026552727
0.16889876 -0.053474333 0.0027195802 0.038647927 0.17811984 0.19925146 -0.011045104 0.15864916
0.19039544 -0.12079125 -0.031084547 -0.015362379 0.04838715 0.341139 0.0034200295 0.0833051
0.03997101 -0.0021602865 0.047244012 0.13823213 -0.28702664 0.0494 0.12140453 -0.16771653
0.14482053 -0.19504322 -0.15874332 -0.09400133 -0.07437179 0.06808331 -0.038787533 0.2745397
0.1432648 0.1045192 0.064395465 0.06420054 0.08687553 -0.190786 0.11738419 0.10363252
0.23186539 0.036520056 0.10528345 0.060681507 -0.2672242 -0.18369283 -0.2086564 0.044239964
-0.14891927 0.06283183 0.15510184 0.11773749 0.434636 -0.18457974 -0.041888043 0.2559684
0.08864469 0.057705626 -0.079949945 -0.082485236 0.26535547 -0.113276914 0.076511264 -0.14430869
-0.2277894 0.105844565 -0.065968595 -0.17545451 -0.061871547 0.35599828 0.062469084 0.051465843
0.18899281 -0.006889634 0.031366654 -0.21337286 0.11827004 0.058264103 0.04693143 0.14266798
-0.07505935 -0.03386197 0.20818873 0.012923627 0.16127406 -0.040611126 0.18457446 0.2634422
0.051441062 -0.057901282 0.057632156 0.24955185 -0.00107968 0.06211849 0.29979467 -0.0028397655
0.0020971738 -0.041645102 0.22187446 0.23024894 0.14095822 -0.20275947 0.2686285 0.065686874

network_body._body_endoder.seq_layers.0.bias f4 [256]
00000000: 45f5 b53c afdc be3c 8428 323c b358 193c
00000010: 8360 3b3c a89a 133d 24fd dabb 8133 593b
00000020: cf4f 99bc f90f 11bc 8985 e53c 3a94 513a
00000030: 7fe3 2a3c 880f ef3c 64da 5abc 758e f93a
00000040: 6e93 913c effb 563d 175c 923d ea12 0c3c
00000050: 1554 9b3d 9f33 233d f7b4 8c3c 366b 7fb9
00000060: fd66 483c eb49 7eba ff54 8a3c 2ab1 713d
00000070: 96eb 28bc ab22 6b3c 512f 5c3d 9cd9 9a3c
00000080: 2ccf 6e3c 5cb5 bb3d 8e4d 5739 9afa 9e3d
00000090: 677b 593c 7d55 8cbc a41b 09bc 1712 293d
000000a0: 81f5 683c 686d 5a3b 6855 be3c 3398 0a3d
000000b0: 73c3 1a3d eefd 423c 75bc b93c 7b7e c2bc
000000c0: 853e 643c 8880 373c a51f 2a3d 624d 2e3d
000000d0: 9ee1 303d 8e44 663d c999 7a3d abcc 113d
000000e0: efdd d63b cf5d 963c 4302 b63d 9f5b c3bb
000000f0: 15b8 08bc 20f9 323d 87d9 0f3d 1624 123d
00000100: 0272 b53b e0e1 3d3d a571 1dba 9f8b a53c
00000110: 732e 663d ddfb 24bc 0423 36bb 5406 ae3d
00000120: 6d89 fe3c fade 603c 02f0 233d 02a7 223c
00000130: 7872 5c3d d6aa 613b 6ef7 2c3d b0db be3c
00000140: 0ced 0c3d f7b5 c3bc 533b dabb 4fef 333d
00000150: 8798 093b d805 033d 5c6d 9fbc 6a24 443d
00000160: 6130 953c 4c57 fdbc 3ed4 bb3c 19f0 04bc
00000170: 0aae d13c 96e7 333c 844d c53c 1216 913d
00000180: 1e0d cb3b 4400 d33b 3f43 8dbc 7fb0 a13b
00000190: 2754 4f3d c4a5 7bbc e19d 98bb 57b7 6bbc
000001a0: a8e5 e93d a9a3 083d 3c52 203c d1b9 a6b9
000001b0: dda0 b63a ed24 423c a2a9 2c3d 3d44 773d
000001c0: 33e9 7d3c 6099 2e3d 86d3 f6bb 26e5 cdbc
000001d0: 2bcc c1bc 6752 373d b46e 463d b675 2ebc
000001e0: 4edf 0b3d 1a3d 28bc 921d 2d3c c93c b23b
000001f0: a26b bfbb 38fb 813b 611f 0a3d 078a a13d
00000200: 6b03 1a3b d476 a03c 28d8 0c3c add5 b23c
00000210: 5c04 a6bc 885b dc3b 565a 013c 2885 5b3d
00000220: afd7 92ba ee10 ad3c 8fc3 4e3b e907 5c3b
00000230: 4ebc 5d3b 0383 023d b811 c73b 3529 c73c
00000240: f0ee 5f3d 9336 7c3d ed9c 713d 8d4c 013d
00000250: 099c 863d 01e5 e53c e132 dabb 4c31 933c
00000260: 021c c43c 770a bd3a aa56 c13b dd30 823d
00000270: fad9 e93a 8b83 9d3c 73c9 9ebb 3949 783b
00000280: 2c9c 483d fe5a 9e3c 096a 463c 57ed 7d3a
00000290: 4ba3 5fb9 56b3 6f3c 3397 893c af71 393d
000002a0: 84f3 c83d daa3 b93b 12f5 893d f83d 2c3d
000002b0: d032 af3d da97 38bc 5bac 40ba 0cd3 33bc
000002c0: 0095 9cba 64b5 fabc 684b 24bc c4c7 5b3d
000002d0: 8f74 b03c c868 303c 8968 fc39 d058 ef3c
000002e0: 92d0 c6ba 3c51 dc3c f5ab 02bc 961b a43b
000002f0: f023 983d a66e 063d 23d8 833d 788a e93c
00000300: fbd9 8b3d c131 523c cfde 803d 9a5e 25bb
00000310: 3699 243c f06a ac3b 31d7 c8bc 1430 2a3c
00000320: acbe 053d f79d 223d f518 893c ffe5 043a
00000330: ac40 103d a8f0 6cbc c238 de3c 6b1f 3d3d
00000340: 68f6 6c3c c845 783d a4c6 34bc 1dd7 9c3c
00000350: 1005 ac3c 9897 393d b8a3 563d 94da 873d
00000360: 159c 623d 388f b53c a097 483c 9ce7 163b
00000370: 3f4c ab3c 473e 7dbb 60e4 143c fb6f ea3b
00000380: 2808 bb3d 6787 853d 1b79 203c 7881 853d
00000390: 1f28 673d 4539 543d 2c24 44bb 8e0b 04ba
000003a0: f432 8a3c 2e79 9a3b 517b 8d3d af47 e7bb
000003b0: 7739 7dbb 6a21 26bc d036 353d bed6 703d
000003c0: bc8d ce3c 53ea a13d c54b c83c 4611 c63c
000003d0: e45b cabc 8edc a0bb 1d57 6a3d b32d b63c
000003e0: 9e92 0f3d b216 813d 68e2 103b 20dc 863b
000003f0: 4072 d4ba 9f41 da3c d19a 683c 1670 1fbc
0.02221168 0.02329859 0.0108739175 0.009359526 0.011436584 0.036036164 -0.0066830087 0.003314227
-0.018714814 -0.008853906 0.028017776 0.0007994805 0.010430216 0.02918221 -0.013357732 0.0019039648
0.017770495 0.052486356 0.07146471 0.008549431 0.07584397 0.03984415 0.017176135 -0.00024358634
0.012231586 -0.00097003457 0.016886232 0.059006847 -0.010310074 0.014351527 0.053756062 0.018902592
0.014575761 0.09165451 0.00020532889 0.07762642 0.01327405 -0.017130608 -0.008368406 0.041277017
0.014218689 0.0033329371 0.023234084 0.033836555 0.03778405 0.011901362 0.022672871 -0.023741951
0.013930921 0.011200078 0.041534085 0.042554267 0.043183915 0.056217723 0.061181817 0.035595577
0.0065572183 0.018355278 0.0888715 -0.00596185 -0.00834467 0.043694615 0.03511956 0.035678945
0.0055372724 0.04635799 -0.0006006009 0.020208178 0.05619664 -0.0100698145 -0.0027791867 0.08497301
0.03107139 0.013725037 0.04002381 0.009927513 0.053820103 0.0034434102 0.042228155 0.023298115
0.034405753 -0.023890479 -0.006659904 0.043929394 0.0020995454 0.031987995 -0.019461326 0.04788629
0.018211545 -0.030925415 0.022928353 -0.008113884 0.025595684 0.010980507 0.024084814 0.07084288
0.006196632 0.0064392406 -0.01724398 0.00493437 0.050617363 -0.015359346 -0.0046574925 -0.014386973
0.114207566 0.033359203 0.009785231 -0.0003180043 0.0013933439 0.011849624 0.042153962 0.06036781
0.015497494 0.04262674 -0.00753254 -0.02513368 -0.023656925 0.04475632 0.04844542 -0.010648182
0.034148507 -0.010268474 0.010566132 0.005439375 -0.0058416883 0.003966715 0.03372133 0.07887655
0.0023500572 0.019587912 0.008596458 0.021830404 -0.02026575 0.0067247786 0.007895073 0.053593785
-0.0011203195 0.021126237 0.0031549667 0.003357405 0.0033834162 0.031863224 0.0060751103 0.024311641
0.054671228 0.061575484 0.058987547 0.031567145 0.0657273 0.0280633 -0.0066588973 0.017967843
0.023939136 0.0014422674 0.0059002237 0.06356976 0.0017841451 0.019227764 -0.004845792 0.003788544
0.048977062 0.019330498 0.012110242 0.00096865505 -0.00021327769 0.014630159 0.01679573 0.045274433
0.09812072 0.0056652846 0.067361966 0.042051286 0.085546136 -0.011266673 -0.0007349902 -0.01097561
-0.0011946261 -0.030604072 -0.010027744 0.05365731 0.021539954 0.010767169 0.0004814307 0.029217154
-0.001516836 0.026894204 -0.007975568 0.0050081713 0.074287295 0.032820366 0.06437709 0.02850841
0.06828686 0.012829245 0.06292497 -0.002523339 0.010046294 0.0052617714 -0.024516674 0.010387439
0.032652542 0.03970143 0.016735533 0.00050696725 0.035217926 -0.014461674 0.027126674 0.04617254
0.014463045 0.060613424 -0.011033688 0.019145543 0.020998508 0.045310587 0.052402228 0.06633487
0.055324633 0.022163019 0.0122431815 0.0023026234 0.02091038 -0.0038641857 0.009087652 0.0071544624
0.09132415 0.065199666 0.009794499 0.06518835 0.056434747 0.05181243 -0.0029928787 -0.0005037122
0.01687 0.004714153 0.06908286 -0.007058106 -0.0038638988 -0.0101398025 0.044241726 0.058798544
0.025214069 0.07906022 0.024450192 0.024178158 -0.02470202 -0.0049091047 0.057211984 0.022238588
0.035051934 0.06303157 0.0022107605 0.0041155964 -0.0016208366 0.026642619 0.014197067 -0.009731313

action_model._continuous_distribution.log_sigma f4 [1, 2]
00000000: 0db2 70bb 1013 1ebd
-0.003672722 -0.0385924

action_model._continuous_distribution.mu.weight f4 [2, 256]
00000000: f5b2 0cbc a48c 15bd 7d7a 7e3c ac41 debc
00000010: 7452 b0bc 68b5 fcbc f578 30bc 3cbe 343c
00000020: 1c45 0c3c 17d6 fb3c 5fd0 07bd 0a39 0b3d
00000030: 47d9 e0bb f801 a4bc 1e8c e43b 908c f03c
00000040: 1bfc 7ebc e7f7 43bc 273d cabc bd62 afbb
00000050: a256 54ba 131f 813c 0126 f1bc 617a 383c
00000060: e800 fe3b e1ab 89bc 683c fabc 5aef 88bb
00000070: 02f9 be3b 85b6 04bd 60e2 3fbc bec3 3abb
00000080: ce86 ce3c 006d 393c 8694 0c3c 6f7e 85bd
00000090: a7f3 c93c b3cd f13b fb5c 163d 4ac1 14bd
000000a0: 3011 ec3c c8b8 93bc 2767 1cbc b06a b23c
000000b0: 820a cb3b 3eaa 5abc 3c87 513d dd49 9fbb
000000c0: 01d8 383d 41b6 75bc ffd5 89bb e771 8c3b
000000d0: bbcd 4abc 4935 aebd 33a3 52bd b542 7a3c
000000e0: 2258 f63b fbee 46bd ddbb afbb ebff 56bc
000000f0: e80b c13b f991 94ba 30b1 ebbc 623b aebc
00000100: 6e6d b23c 3bec cabc c678 f0ba 27d1 b5bc
00000110: 8dc7 f4bb 210d 9a3b c32c f73c ab9d 52bc
00000120: 18c2 3cbc eb12 493c b8d0 a5bc ffb0 fdbb
00000130: 85e8 023d b668 5b3c e454 833c 9bc2 0cbc
00000140: f75b 30bd e9ec 2dbb 5e5d bcbc 929a 2abd
00000150: 270d 043c 88a2 a13b 8682 923c d0ce cabc
00000160: e259 163b f4d7 cc3b fac5 2f3c bd7a a6bc
00000170: a42b 043d b699 d3bc 7638 13bd 8a3c 883b
00000180: cb0f 5fbb 34e9 ddbc 0fec 7b3c f45e 4d3c
00000190: 1b4d 613b 0b18 e7bb 4484 933c ab06 2a3c
000001a0: de17 afbb 6117 98bc e648 793c 0898 a63c
000001b0: 5ba0 eebc a6df f8bc 6a40 433c 5457 193d
000001c0: b780 fa3a 3e7d 40bc a242 8bbc 03ff 0a3c
000001d0: 5916 0c3c 2e17 59bd 3453 8c3c 271d 5dbc
000001e0: dd4d 69bc 58f4 ac3c 38ba a03c 7841 bbbc
000001f0: 1fbe c0bc 2a48 653b 66a4 83bc f3ca e1bc
00000200: 20ec 93bc 5d9b aabc b135 ad3a b872 80bc
00000210: ff96 4f3a 0c6a 553d d9f4 833c 07c8 a8bc
00000220: ee12 383d 8eaf 15bc 0092 b53d d6a5 cb3a
00000230: ae79 e1bc d332 a1bc 05e4 61bb e2c5 cabc
00000240: 7a8c f8bc cd4c 9cbc 520c 833c c82a 003b
00000250: d3ae f2bc b8f8 a1bc 036b ebbc d7ff 70bc
00000260: 8f69 86ba 22cd 6abc 10bb 373d 28b0 613d
00000270: fa38 ccbc 31b0 ed3b 14bd 973c 58b0 42bc
00000280: 8bd9 5fbd 8a3a 8c3c efca dfbc 4442 4b3c
00000290: 45a9 d83c 757f 2bbd cfc4 203c 44d5 943b
000002a0: 2794 82bb b40d 403c c78d c1bc 0ea2 913c
000002b0: 7fd1 2dbc bfb1 713c f7e6 b93c 9677 133c
000002c0: b278 d4bc 97cd a0bb 891d d0bc 0d13 0fbb
000002d0: f34d 34bd 1c10 10bd 67f6 0d3d a177 91bc
000002e0: ddb4 cc3c 10da a7bc c2af 2f3c 53a4 bd3c
000002f0: 2688 5bbb a8cb 67bc 6b9b fd3b 81e2 99bc
00000300: ba86 6cbc b9c7 f13c ed8a 523c 8013 90bc
00000310: 122f 61bd 9730 d43c c052 b13b 6faa b1b8
00000320: 62ed b7bc 098d 7e3c 9f96 883d 743e 8d3c
00000330: 6bac 0f3a 6d59 813b d175 ec3c 0229 8fbc
00000340: 1e75 083c e520 5f3d eaa8 3c3d eec7 a4bc
00000350: c66c 0abc a03a 02bd 6325 8cbc 1fb7 9cb8
00000360: 85eb 1b3d 2f66 bcbb eef7 c4bc 4757 d13c
00000370: 0ae8 febc 8be6 acbc 195a cb3c e0ce 363d
00000380: 59d4 e3bc 4907 c7bc b969 ef3a bfd0 103c
00000390: 88ba b4bc 740e b6bc 7046 9a3c 89f0 cc3c
000003a0: d1cd 5fbb e759 8f3c 4074 23bd 3b87 9dbb
000003b0: 695f 93bc 3b15 0c3d c94b 0f3c 3866 38bc
000003c0: 56e3 d23c 7e6b 00bd 5280 fd3c d76a e6bc
000003d0: 2022 20bc 5c92 0c3d e2eb f0bc bef0 38bc
000003e0: 2f92 49bd c9a0 bfbc 4c58 093d dfa5 463d
000003f0: 9d9f 283d 1e62 b4bb c7d3 e4bc ba26 263d
-0.008587589 -0.03651108 0.015532133 -0.027130924 -0.021523692 -0.03084822 -0.010771026 0.011031684
0.008561399 0.030741734 -0.033157703 0.033989944 -0.006861839 -0.02002047 0.006974711 0.0293639
-0.015563036 -0.01196096 -0.024687363 -0.0053523467 -0.00081000675 0.015761888 -0.029437067 0.011259646
0.007751573 -0.016805591 -0.030546382 -0.0041789236 0.005828024 -0.032400627 -0.011711687 -0.002849802
0.025210764 0.0113174915 0.008580333 -0.06518256 0.024652315 0.0073792576 0.036709767 -0.036317147
0.02881679 -0.018032447 -0.009546078 0.021779388 0.006196321 -0.013346253 0.05115436 -0.0048611
0.045127872 -0.014997066 -0.0042064185 0.004286039 -0.0123781515 -0.08506257 -0.05142517 0.015274693
0.0075178305 -0.048567753 -0.005362971 -0.013122539 0.005891312 -0.0011335007 -0.028771013 -0.02126855
0.021780696 -0.024770847 -0.001834654 -0.022194458 -0.0074700774 0.004701272 0.030172711 -0.012854974
-0.011520885 0.012272577 -0.020241126 -0.007742047 0.03196003 0.013391664 0.01603169 -0.008591319
-0.043056455 -0.0026538915 -0.02299374 -0.041651316 0.008059776 0.0049327053 0.017884504 -0.024756819
0.0022941758 0.0062513296 0.010728354 -0.020322198 0.03226818 -0.025830131 -0.035942517 0.0041576074
-0.0034036513 -0.027088739 0.015376105 0.012534846 0.0034378234 -0.0070524267 0.018007405 0.010377566
-0.0053434214 -0.018565835 0.015215134 0.020336166 -0.029129198 -0.030380081 0.011917213 0.0374368
0.0019111846 -0.01174861 -0.016999546 0.008483651 0.00855025 -0.05300062 0.017129518 -0.01349572
-0.014239755 0.021112606 0.019620046 -0.022858366 -0.023528157 0.003498564 -0.016069602 -0.027562594
-0.01805693 -0.020826036 0.0013214854 -0.015679702 0.00079189235 0.052103087 0.016107963 -0.020603193
0.044939928 -0.009136094 0.08865738 0.0015537094 -0.027523842 -0.019677555 -0.0034468186 -0.024752561
-0.030340422 -0.01907959 0.015997086 0.001955675 -0.029624378 -0.019771919 -0.02873755 -0.0147094345
-0.0010254848 -0.014331134 0.04485613 0.055099636 -0.024929512 0.0072536697 0.018522777 -0.011882864
-0.054650825 0.017117757 -0.027318446 0.012405936 0.026447902 -0.0418696 0.009812548 0.004542025
-0.0039849463 0.011722017 -0.023627175 0.017777469 -0.01060903 0.014751851 0.02269314 0.0090006795
-0.025936458 -0.0049073207 -0.025404708 -0.0021831424 -0.04401965 -0.035171613 0.034658816 -0.017757239
0.024988586 -0.020489722 0.010723056 0.023149645 -0.00334979 -0.0141476765 0.0077394745 -0.018784763
-0.014436418 0.02951418 0.012850505 -0.017587423 -0.05497653 0.025902076 0.005411476 -8.4717634e-05
-0.02245206 0.015536555 0.06669354 0.017241694 0.00054807094 0.003947428 0.028864773 -0.017475609
0.008328704 0.05447473 0.046059527 -0.020114865 -0.008448785 -0.03179419 -0.017107671 -7.4727686e-05
0.038066406 -0.005749486 -0.024044003 0.025554312 -0.031116504 -0.021106025 0.024823235 0.044630885
-0.027811216 -0.024295466 0.0018265761 0.008838831 -0.022061601 -0.022223689 0.018832415 0.02501704
-0.0034149776 0.017498923 -0.039905787 -0.0048073805 -0.017989831 0.034199934 0.008746096 -0.01125484
0.025743168 -0.031352513 0.030944977 -0.028127117 -0.009773761 0.034319267 -0.029409353 -0.011287866
-0.049211677 -0.023392098 0.033531472 0.04849803 0.041167844 -0.0055048605 -0.027933015 0.040564276

action_model._continuous_distribution.mu.bias f4 [2]
00000000: a85d 5bbc 95dc a5bc
-0.013389029 -0.020246783

action_model._discrete_distribution.branches.0.weight f4 [1, 256]
00000000: 6b60 feba 63c2 5a3b 1177 13bb 2f4c 103b
00000010: 6250 9cbb 086e 003c f0e8 88bb 63d8 f23b
00000020: 1f1b 3cba bf52 ebbb 78ef 533c eda9 d9bb
00000030: 5bd6 b1ba bfbc 0abc 26a3 97bb 9b4c 203a
00000040: f2b2 d9bb 9b21 663b e7cc ab3b 09ee bb39
00000050: d1cc 2a3c 08b6 85bc af10 edbb a7c3 5c3b
00000060: 2570 1e3c ca61 a1ba c0cc 133c d700 4fbb
00000070: d225 523c 5233 2f3a 4c3e 0d39 a5c8 2d3b
00000080: ff6d e03b b591 373b 816f a4bb 4193 47bb
00000090: 876f 85bc 55ba ef3a 630b 8dbb 93c7 ec3b
000000a0: 97b3 e43b ca4e 58ba 9b8e 26bb 18ae 28bc
000000b0: cfde ab3b bdd6 30bc 529c 4dbb 9e74 00bc
000000c0: 2e08 36bc f9ed 24bc b4e1 233c db51 89bb
000000d0: b8c9 f439 93fd 30bc bf0c fc3b 7510 413b
000000e0: 23a1 823c 9741 c2bb 663f 97bb 726e c03b
000000f0: b5a6 503c bbba 83bc 97b2 723a 3345 81bb
00000100: 7f2b 1a3b f2b0 ee3b 928f c4bb 1629 c43b
00000110: dd01 68ba 503f 89bb 4af3 fdba 8090 ddbb
00000120: 4950 ca3a c659 943b b7d7 cf3b 734f 483a
00000130: 3180 013b 65e0 55bb 2789 85bb a5a6 e43b
00000140: cee5 143c eb63 773c 8db2 81ba 8c41 35bb
00000150: d87f e0ba fdde 1fb9 ab44 3f3c a4fa a83b
00000160: dca3 c1ba 8c29 acbb 5728 0139 12a8 7dbb
00000170: 71bc 3e3b 0095 e53a 23b3 d2bb f269 ad3b
00000180: c351 28bb e77e 3dbb e78e d5bb 5453 013b
00000190: 3768 623c 8b5c d23b 2095 0abc ff60 e9bb
000001a0: 3b5e 143a 6b1a e5bb 9b2b f23b b337 53bb
000001b0: 2368 d0bb 3a24 8cba 0ac0 f1bb afcd 9b3a
000001c0: 6260 32ba d7c0 11bc b388 12bc 93bb 59bc
000001d0: 5708 d1bb 2a85 90bb 1b12 cdbb a658 883b
000001e0: e749 253b bd81 cf3b b159 163c 1d89 ecbb
000001f0: c2da 8dbb 0bc7 2d3c fd8d f2ba a3dd 893b
00000200: 4073 293c 6fbd e8ba 3f61 19ba 633d 843b
00000210: 824b 51bc 77fc cdba bdc9 8fbb ba11 c9b8
00000220: 1725 1b3c 4f10 f339 07e6 dabb 15f0 fa3b
00000230: 3749 b6bb 4f0e 9cbb 303c fdbb 0bd8 3aba
00000240: 05a6 2cbb 1ec3 2ebb 681a f43b 6786 5139
00000250: 38c6 fc3b 96b9 08ba d644 bbbb 9f49 6ebc
00000260: e3b1 12ba 8545 47bc 6534 66ba c01a 243c
00000270: 6825 54bc 2c89 93ba 72a7 153b cbe2 7e3c
00000280: fec2 0abc ea1e 54b9 fbed db3b cd20 e03b
00000290: 77cd ceba 8f7f 3b39 c8e1 eebb 9981 063c
000002a0: 8fba 563c 4b4d e9ba 9f68 bf3b 7e38 33bc
000002b0: e400 ba3b 809f f23b 8232 9e3b 5bb1 a0b9
000002c0: c885 643a 27c7 603c b3bb 5abb 06e0 253c
000002d0: 9204 57bb 78c6 c7ba 49c5 a7ba 4f6c 53ba
000002e0: ed4c e53b 3d6d 4f3c 23a5 013b a844 3139
000002f0: 3b9b f73b c780 98bb 61c3 883a 04dd 153b
00000300: 9393 49bb 8b85 313b 5dbc eebb 4788 99ba
00000310: 0f4c 6bbc 84e9 463b d4e1 b03b 831b 303c
00000320: 337f 143c b3a5 e43a df19 d23a c56e 16bc
00000330: eb9e 0d3c 1792 93bb 8839 323c 2478 bd3b
00000340: 3c86 483c 03a3 ef38 5c4a bb3b 9205 d2bb
00000350: c125 c83b 1b31 c63b e758 fbba 4842 d93b
00000360: a79f 5cbb f71f fb3b ab0a 23bb 002c 83ba
00000370: 05ea fbbb 32f7 6739 873b 8539 dbc9 713b
00000380: 22a7 e7ba 7590 a13b af5d 40bc ebfe 9b3b
00000390: 0b22 1fbc c7ac c7bb 3771 c23b a121 bd3a
000003a0: 9cb4 4339 7430 ad3b 7538 d5ba 336b 84bb
000003b0: b836 e6ba 3bce 82bb 68eb babb 180f 32bc
000003c0: 0304 80ba df7c 383a f353 bcbb 68b6 2c3b
000003d0: ea85 e5bb 27bc 9eba b52c f2bb c847 24bc
000003e0: 37a5 9abb a07a 763b 3247 13bb 6081 a8bb
000003f0: 6d7d 56bc a0c2 59bc cc33 093b 73da 40bb
-0.0019407397 0.0033380024 -0.002250139 0.0022018065 -0.0047703246 0.0078387335 -0.004178159 0.007411049
-0.0007175672 -0.007181495 0.012935512 -0.006642571 -0.0013567911 -0.008467852 -0.004627603 0.0006114931
-0.0066436464 0.0035115245 0.005242932 0.0003584477 0.010424809 -0.01632215 -0.007234655 0.0033685954
0.009670292 -0.0012312469 0.009020984 -0.0031586194 0.0128264 0.00066833675 0.00013470015 0.0026517299
0.00684905 0.0028010432 -0.005018175 -0.003045276 -0.016288532 0.0018289784 -0.004304336 0.0072259395
0.0069794166 -0.00082514866 -0.002541459 -0.010295413 0.0052450667 -0.010793385 -0.0031373692 -0.007840304
-0.011110349 -0.010066503 0.010002542 -0.004190666 0.000466896 -0.010802644 0.007691949 0.0029459272
0.015945977 -0.005928229 -0.004615712 0.005872541 0.012735059 -0.016080251 0.00092581793 -0.003945017
0.002352446 0.007284277 -0.00599856 0.005986343 -0.00088503753 -0.0041884556 -0.0019374874 -0.0067616105
0.0015435304 0.0045273034 0.006342854 0.00076412334 0.0019760246 -0.003263497 -0.0040751877 0.0069778734
0.009087993 0.015099506 -0.0009895131 -0.0027657477 -0.0017127944 -0.00015246491 0.011674087 0.005156832
-0.0014773565 -0.005253976 0.00012317426 -0.0038704914 0.002910402 0.0017515719 -0.006430046 0.0052921707
-0.00256835 -0.002891475 -0.0065172794 0.0019733505 0.013818792 0.0064197234 -0.008458406 -0.0071221585
0.00056597934 -0.0069916747 0.007390452 -0.0032229244 -0.0063600703 -0.0010691949 -0.007377629 0.001188686
-0.00068045233 -0.008896074 -0.008943724 -0.01328935 -0.006379168 -0.0044104056 -0.006258262 0.0041609583
0.0025221051 0.0063326047 0.009176658 -0.0072184936 -0.0043290565 0.010606538 -0.001850545 0.0042073294
0.010342419 -0.0017756651 -0.00058509776 0.004035638 -0.01277435 -0.0015715499 -0.0043880627 -9.587729e-05
0.009469292 0.00046360723 -0.0066802534 0.0076580145 -0.005562927 -0.004762448 -0.007728122 -0.000712753
-0.0026344073 -0.0026666592 0.007449437 0.00019981862 0.007714059 -0.0005215643 -0.005714993 -0.01454392
-0.0005595965 -0.012162571 -0.0008781611 0.010016143 -0.0129483715 -0.001125609 0.00228354 0.015557001
-0.008469341 -0.00020229412 0.006711719 0.0068398477 -0.0015777786 0.00017881229 -0.007290099 0.008209609
0.0131060025 -0.0017799524 0.005841329 -0.010938762 0.0056763757 0.007404268 0.0048277983 -0.00030649718
0.0008717445 0.013719357 -0.0033376038 0.010124212 -0.003280912 -0.0015241643 -0.0012799884 -0.00080651505
0.0069976957 0.012660322 0.0019782267 0.00016905612 0.0075563467 -0.0046540233 0.0010434204 0.0022867331
-0.0030758127 0.0027087654 -0.0072856382 -0.0011713587 -0.0143613955 0.0030351589 0.0053980146 0.010748747
0.00906353 0.0017444402 0.0016029439 -0.009181683 0.008643846 -0.0045034993 0.010877974 0.005782144
0.012239035 0.000114267714 0.0057156514 -0.0064093554 0.0061080162 0.0060483343 -0.0019176275 0.006630216
-0.0033664496 0.0076637226 -0.0024878185 -0.001000762 -0.0076878094 0.00022121964 0.00025412088 0.0036893997
-0.0017673711 0.0049305507 -0.011741086 0.004760613 -0.009712706 -0.0060935947 0.0059339064 0.0014429578
0.00018663931 0.005285317 -0.0016267436 -0.0040410995 -0.0017563915 -0.0039918697 -0.005704332 -0.010867856
-0.0009766821 0.000703765 -0.005747312 0.002635384 -0.007004489 -0.0012110517 -0.0073905834 -0.01002688
-0.004719402 0.0037609711 -0.0022472856 -0.005142376 -0.013091427 -0.013291031 0.0020935414 -0.002942708
