EcoSculptor/results/Final_1.2/Alphahunteranimal/Alphahunteranimal-499994.onnx (onnx, 58409 bytes, 6 tensors)

network_body._body_endoder.seq_layers.0.weight f4 [256, 47]
0	0xbdd19a86	-0.10234551
1	0xbe56cf44	-0.20977503
2	0xbd282de3	-0.041059386
3	0x3da81b18	0.08208293
4	0xbe7f62d8	-0.2494005
5	0xbb29ff8f	-0.0025939678
6	0xbd964088	-0.07336527
7	0x3c8c00d1	0.017090233
8	0x3d990f1d	0.07473586
9	0xbdea83d3	-0.11450925
10	0xbe012d3b	-0.1261491
11	0x3d695a12	0.056970663
12	0x3df7fb1d	0.12108443
13	0xbe40fc21	-0.1884618
14	0xbc561ceb	-0.013068418
15	0xbe55424a	-0.20826069
16	0x3d8b8880	0.06813145
17	0x3e22aa3e	0.15885255
18	0xbdfb3aa7	-0.122670464
19	0xbcf04683	-0.029330498
20	0xbdb32fab	-0.08749326
21	0x3d553899	0.05205593
22	0xbe0f2aa7	-0.13981114
23	0xbdb96c4d	-0.0905386
24	0x3e656d8b	0.22405069
25	0xbd971178	-0.07376379
26	0xbd26bef1	-0.04070944
27	0x3e38d4a3	0.18049864
28	0xbd90cc39	-0.070702024
29	0x3d7376c0	0.05943942
30	0x3dae342b	0.08506044
31	0xbd35c969	-0.044381533
32	0x3df47458	0.11936253
33	0xbe88a163	-0.26685628
34	0x3e83beb4	0.25731432
35	0xbd6d0605	-0.05786707
36	0xbc796697	-0.015222213
37	0xbd662981	-0.056191925
38	0x3d7a7859	0.06114993
39	0x3df494a5	0.11942414
40	0x3ce56511	0.028002294
41	0xbe82555f	-0.25455758
42	0xbe8e8c74	-0.27841532
43	0x3e53d47c	0.20686525
44	0xbe11508b	-0.14190881
45	0x3c64291b	0.013925816
46	0x3d01bb5d	0.031672824
47	0xbc92c891	-0.017917903
48	0xbe0f675e	-0.14004275
49	0xbd6bd852	-0.057579346
50	0x3cb431f8	0.021996483
51	0x3bde9531	0.0067926873
52	0xbd499475	-0.049213845
53	0xbe4568a8	-0.19278204
54	0xbd83d5a6	-0.064372346
55	0x3dd555ad	0.10416732
56	0x3e42db4d	0.19028969
57	0xbe9849a9	-0.29743698
58	0x3e12cd92	0.14336231
59	0xbd4b9432	-0.049701877
60	0xbcbc0e5a	-0.022956062
61	0x3e8a4462	0.27005297
62	0xbca1080c	-0.019657157
63	0x3e42e641	0.19033147
64	0xbd262803	-0.040565502
65	0x3e58942a	0.2115027
66	0xbd800ff6	-0.06253044
67	0xbe160928	-0.1465193
68	0x3c436951	0.011926965
69	0xbd31f243	-0.04344393
70	0x3ca2dc0f	0.019880323
71	0x3eb9cbdc	0.36288345
72	0x3e0d2ae8	0.13785899
73	0xbc942ebe	-0.018088695
74	0xbe3fff9a	-0.18749848
75	0xbe8ea39e	-0.27859205
76	0xbd5f1eb8	-0.054472655
77	0x3e8a36e4	0.26995003
78	0xbe010202	-0.12598422
79	0x3d721481	0.059101585
80	0xbd88432b	-0.06653436
81	0x3e0eccbb	0.13945286
82	0x3ea4df63	0.3220168
83	0xbe9907a7	-0.2988865
84	0x3ae7babc	0.0017679553
85	0x3e6cccdd	0.23125024
86	0xbdac5333	-0.084143065
87	0x3dd0e381	0.10199643
88	0x3e5b2d00	0.21403885
89	0xbe40f3b6	-0.18842968
90	0xbdf4c13b	-0.11950918
91	0x3cee0d76	0.029059153
92	0x3b1447a3	0.0022625707
93	0xbc9324cc	-0.017961882
94	0xbc16fbaa	-0.009215275
95	0x3eb6de8c	0.35716665
96	0xbe78fbb3	-0.24314766
97	0x3e15b8fc	0.14621347
98	0xbc6c1df3	-0.014411437
99	0x3e8677f2	0.26263386
100	0x3e307d81	0.17235376
101	0xbcecdaa6	-0.028912853
102	0xbdc79320	-0.09744859
103	0x3e2942b1	0.16529347
104	0xbe11868d	-0.14211483
105	0x3e68d40b	0.22737138
106	0xbdeb81af	-0.114993446
107	0x3eb1f3c8	0.34756303
108	0x3d43e5d8	0.047826618
109	0x3db12d4b	0.08651217
110	0xbdfaa6fe	-0.122388825
111	0xbe81fd1f	-0.2538843
112	0x3d1ee8e8	0.038796335
113	0xbdff6b35	-0.1247162
114	0x3e3e6983	0.18594937
115	0x3e40b9e0	0.18820906
116	0x3ac666ec	0.0015136874
117	0x3e778025	0.24169977
118	0xbe066c3b	-0.13127224
119	0x3e3661ed	0.17810793
120	0x3d48b92b	0.049004715
121	0xbdbf3b7a	-0.09337516
122	0xb9809bbf	-0.00024530102
123	0x3d8707fe	0.06593321
124	0xbc68ce01	-0.014209271
125	0x3e0d44d1	0.13795783
126	0xbcedc9f6	-0.029026967
127	0x3de17c29	0.1101001
128	0x3e1fe698	0.15615308
129	0x3dbb5b9e	0.09148334
130	0x3e95eb40	0.29281044
131	0x3dd35162	0.10318257
132	0xbcec5c56	-0.028852623
133	0xbd761933	-0.060082626
134	0xbec56c2d	-0.38559094
135	0xbdc77cc6	-0.097405955
136	0x3d88c2de	0.06677793
137	0xbc4065a2	-0.011742981
138	0x3ed20627	0.4102032
139	0x3cf40c0b	0.029790899
140	0xbd14ffa1	-0.0363766
141	0x3eb2ac66	0.34897155
142	0xbd9279c9	-0.07152135
143	0x3e6d38ba	0.2316617
144	0xbd5e3cc4	-0.05425717
145	0x3ed12b7d	0.4085349
146	0xbe20bc59	-0.15696849
147	0xbd4de72e	-0.0502693
148	0x3d70f19d	0.05882417
149	0x3ed02c76	0.4065892
150	0x3b231c58	0.002488872
151	0x3cc3d054	0.02390305
152	0x3e2b7f7a	0.16747847
153	0xbd725923	-0.05916704
154	0x3b89cb4a	0.004205142
155	0x3d18212f	0.03714102
156	0x3e368601	0.17824556
157	0x3e46506c	0.19366616
158	0xbc3d6b93	-0.011561292
159	0x3e275c0c	0.16343707
160	0x3e42fc5a	0.19041577
161	0xbe0234dd	-0.12715478
162	0xbd01fd14	-0.031735495
163	0xbc71e8dc	-0.014764991
164	0x3d48aed3	0.04899485
165	0x3eadc6b9	0.33940676
166	0xba080459	-0.0005188636
167	0x3dabf02e	0.0839542
168	0x3d1c589e	0.03817045
169	0xbbc3dfa0	-0.005977586
170	0x3d39e22e	0.045381717
171	0x3e0ff7a8	0.14059317
172	0xbe92b29b	-0.2865189
173	0x3d38f59e	0.045156114
174	0x3df03449	0.117287226
175	0xbe2ccb39	-0.16874398
176	0x3e11e88e	0.14248869
177	0xbe474903	-0.19461446
178	0xbe2667b4	-0.16250497
179	0xbdb9ea05	-0.09077839
180	0xbd994950	-0.074846864
181	0x3d8a84c0	0.06763601
182	0xbd27583f	-0.040855642
183	0x3e8a6a4e	0.2703423
184	0x3e0ed26d	0.13947459
185	0x3dd001f2	0.10156621
186	0x3d832643	0.06403782
187	0x3d89cb7f	0.06728267
188	0x3da67137	0.08127063
189	0xbe463481	-0.19355966
190	0x3df3241b	0.11872121
191	0x3dd3a78c	0.103346914
192	0x3e6af21d	0.22943921
193	0x3d075c72	0.033047147
194	0x3dd74887	0.1051188
195	0x3d79fb0f	0.061030444
196	0xbe89afd1	-0.2689195
197	0xbe407a08	-0.18796551
198	0xbe53bc99	-0.20677413
199	0x3d356ade	0.04429137
200	0xbe1c45fc	-0.15261072
201	0x3d7f66b1	0.062353794
202	0x3e209785	0.156828
203	0x3df4bb48	0.119497836
204	0x3eddc5aa	0.43314868
205	0xbe3f2fa9	-0.18670525
206	0xbd1b8a2e	-0.037973575
207	0x3e831bfc	0.25607288
208	0x3db24d4b	0.08706149
209	0x3d64eee9	0.055891905
210	0xbd9bfc83	-0.07616522
211	0xbda3e478	-0.08002561
212	0x3e87d9f5	0.26533476
213	0xbdee6a05	-0.11641315
214	0x3d9c5888	0.076340735
215	0xbe1449e1	-0.14481308
216	0xbe672292	-0.22571781
217	0x3dd59886	0.10429482
218	0xbd813ed1	-0.063108094
219	0xbe31e5f5	-0.17372878
220	0xbd7f7408	-0.062366515
221	0x3eb4b634	0.3529526
222	0x3d804eab	0.06265005
223	0x3d4e10da	0.05030904
224	0x3e441f03	0.19152455
225	0xbbf46e1a	-0.007459414
226	0x3d06bc1f	0.03289425
227	0xbe58fe7e	-0.21190831
228	0x3def32d9	0.1167962
229	0x3d646779	0.05576274
230	0x3d35742e	0.04430025
231	0x3e1008a1	0.14065792
232	0xbd95e107	-0.07318311
233	0xbd0abaea	-0.03386966
234	0x3e55dd49	0.20885195
235	0x3c542a43	0.012949529
236	0x3e246f32	0.16058043
237	0xbd2b8db1	-0.041883174
238	0x3e3cd733	0.18441467
239	0x3e868496	0.2627303
240	0x3d5422a9	0.051790867
241	0xbd70a38c	-0.05874972
242	0x3d6e8ad4	0.058237866
243	0x3e809c84	0.25119412
244	0xbabae4d2	-0.0014258868
245	0x3d79c459	0.060978267
246	0x3e99a362	0.30007464
247	0xbb33f546	-0.0027459427
248	0x3b7ac675	0.0038265262
249	0xbd304234	-0.043031886
250	0x3e64b06c	0.22332925
251	0x3e66fcf5	0.22557433
252	0x3e10f87e	0.14157292
253	0xbe4a6e3d	-0.19768615
254	0x3e8a35b9	0.26994112
255	0x3d83c57f	0.06434154

network_body._body_endoder.seq_layers.0.bias f4 [256]
0	0x3cc77f7a	0.024352778
1	0x3cafd1a3	0.021462267
2	0x3c56b6ae	0.013105078
3	0x3c01ff1e	0.00793436
4	0x3c3a0ee4	0.011356089
5	0x3d1470c0	0.03624034
6	0xbbe864e4	-0.007092105
7	0x3b851030	0.0040607676
8	0xbc9239f6	-0.017849904
9	0xbc08221b	-0.008308913
10	0x3cdf0c98	0.027227685
11	0x3ab4a858	0.001378308
12	0x3c2f56db	0.01070186
13	0x3cf3b2c3	0.029748326
14	0xbc48c76c	-0.012254577
15	0x3b5ad91c	0.0033393567
16	0x3c7d57aa	0.015462795
17	0x3d4f6aba	0.05063889
18	0x3d90a22d	0.070621826
19	0x3c0e2db8	0.008677892
20	0x3d95db0b	0.0731717
21	0x3d213ee9	0.039366636
22	0x3c87b83c	0.016567342
23	0x3a7f3938	0.0009736004
24	0x3c56f665	0.0131202685
25	0xbb27e1a0	-0.002561666
26	0x3c81e11f	0.015854416
27	0x3d6a2f2c	0.057173893
28	0xbc2ff23b	-0.010738905
29	0x3c661110	0.014042154
30	0x3d56cb01	0.052439693
31	0x3c98d12b	0.018654427
32	0x3c56b0cd	0.013103676
33	0x3db8bcca	0.09020384
34	0xbaa4067a	-0.0012514137
35	0x3d9ceec4	0.076627284
36	0x3c6d85f4	0.014497269
37	0xbc77c153	-0.015121776
38	0xbbfccf82	-0.0077151665
39	0x3d214da0	0.03938067
40	0x3c727f8d	0.014800918
41	0x3b10f6dd	0.0022119798
42	0x3cb7ef6f	0.022453038
43	0x3d124e0d	0.035718966
44	0x3d1c6057	0.038177814
45	0x3c43c110	0.011947885
46	0x3cca8a20	0.024724066
47	0xbcc45f1e	-0.023971137
48	0x3c7ed573	0.01555382
49	0x3c166e24	0.009181533
50	0x3d24a501	0.040196422
51	0x3d2e531c	0.042559728
52	0x3d303b6e	0.043025427
53	0x3d5c702e	0.05381792
54	0x3d6c858e	0.057744555
55	0x3d0cc1dc	0.034364566
56	0x3bc2b30b	0.0059417537
57	0x3c9287d4	0.017887034
58	0x3db31add	0.08745358
59	0xbc024b0d	-0.007952464
60	0xbbf01a80	-0.007327378
61	0x3d30fa1f	0.043207284
62	0x3d05ae2c	0.032636806
63	0x3d0e5731	0.03475112
64	0x3bec3c41	0.0072093313
65	0x3d37f274	0.044908956
66	0xba90ba6c	-0.0011041886
67	0x3c86732e	0.016412344
68	0x3d623529	0.05522648
69	0xbc10213d	-0.008796987
70	0xbad5d27b	-0.0016313338
71	0x3da91e2a	0.082577065
72	0x3cefc077	0.02926658
73	0x3c60282d	0.013681454
74	0x3d1e3534	0.038624957
75	0x3c1e7ce2	0.009673329
76	0x3d5cb13f	0.053879973
77	0x3b9ac62e	0.004723332
78	0x3d2a7003	0.04161073
79	0x3cbcaa86	0.02303053
80	0x3d0d5782	0.034507282
81	0xbcc9fbce	-0.024656203
82	0xbbb9c2c1	-0.0056689684
83	0x3d3095f0	0.04311174
84	0x3b19c745	0.002346472
85	0x3d03426b	0.032045763
86	0xbc9320e2	-0.017960016
87	0x3d3ed1ee	0.046586923
88	0x3c96d026	0.0184098
89	0xbd0022b4	-0.031283095
90	0x3cb710e5	0.022346923
91	0xbc15c502	-0.009141209
92	0x3cd42970	0.025898665
93	0x3c39be31	0.011336849
94	0x3cc24ee0	0.023719251
95	0x3d8e44a5	0.06946687
96	0x3bc02c6c	0.0058646705
97	0x3bbda463	0.0057874187
98	0xbc88e644	-0.016711362
99	0x3b89747a	0.0041947933
100	0x3d4909cf	0.04908162
101	0xbc89cf1a	-0.016822387
102	0xbb7d1aa2	-0.003862061
103	0xbc63c546	-0.013902014
104	0x3de6f71c	0.11277601
105	0x3d0ad783	0.033896934
106	0x3c2cb7ca	0.010541866
107	0x3a59ca44	0.0008308033
108	0x38448776	4.68562e-05
109	0x3c2c6189	0.010521301
110	0x3d312b27	0.043254044
111	0x3d736346	0.059420846
112	0x3c717ca7	0.014739192
113	0x3d2d36e0	0.04228866
114	0xbc21af0b	-0.009868394
115	0xbcc67520	-0.024225771
116	0xbcb709ba	-0.022343505
117	0x3d30ac55	0.0431331
118	0x3d51cfd0	0.051223576
119	0xbc3761fc	-0.011192795
120	0x3d0569bf	0.03257155
121	0xbc231c6f	-0.00995551
122	0x3c3eada4	0.011638079
123	0x3bafcfa5	0.0053653293
124	0xbbe20b0b	-0.006898289
125	0x3b862c06	0.0040946035
126	0x3d09f8cd	0.03368454
127	0x3d9c3d03	0.076288246
128	0x3b36266b	0.0027793895
129	0x3c9bc6c2	0.019015674
130	0x3c0fa316	0.00876691
131	0x3caa86e8	0.020816281
132	0xbca00308	-0.019532695
133	0x3beb4561	0.0071799015
134	0x3c0fd40f	0.008778586
135	0x3d5ae678	0.05344245
136	0x39072d13	0.00012891395
137	0x3cabac13	0.020956075
138	0x3b4fd7b4	0.0031714262
139	0x3b93dc4a	0.0045123445
140	0xb918d7d7	-0.00014576256
141	0x3d00f92e	0.031487636
142	0x3bd949e9	0.006631125
143	0x3ccbce79	0.024878727
144	0x3d5d111f	0.053971406
145	0x3d7285c0	0.059209585
146	0x3d6b2447	0.057407644
147	0x3cfdaaa8	0.030965164
148	0x3d84e10b	0.06488236
149	0x3cd4b32a	0.025964338
150	0xbc205221	-0.009785206
151	0x3c775815	0.015096684
152	0x3cc1d650	0.023661762
153	0x3b0be2fe	0.0021345015
154	0x3bf4e345	0.0074733817
155	0x3d82d3ba	0.0638804
156	0xb9c8cc69	-0.0003829927
157	0x3c9d9634	0.019236661
158	0xbb67162a	-0.0035261014
159	0x3af21f8e	0.0018472539
160	0x3d4386c8	0.04773596
161	0x3cb1e9fb	0.021718016
162	0x3c4e70de	0.012600152
163	0x3a739f7a	0.0009293478
164	0xb9859225	-0.00025476623
165	0x3c53f0fd	0.012935874
166	0x3c8a8817	0.016910596
167	0x3d370fbc	0.04469274
168	0x3dc3b818	0.095565975
169	0x3bba6487	0.0056882533
170	0x3d85a565	0.06525687
171	0x3d3310b7	0.043717112
172	0x3daac154	0.08337656
173	0xbc2f9007	-0.010715491
174	0x3ac0e398	0.0014716266
175	0xbc2d13ad	-0.010563773
176	0xbb485a3d	-0.0030571364
177	0xbd0130c5	-0.03154065
178	0xbc370f64	-0.011173103
179	0x3d5707fe	0.052497856
180	0x3caea723	0.021319931
181	0x3c270b95	0.010195632
182	0x3ac1200e	0.0014734284
183	0x3ce7117d	0.028206581
184	0xb9bec357	-0.00036385164
185	0x3cda5f96	0.026656907
186	0xbbf9277d	-0.0076035843
187	0x3bd0f2de	0.0063766083
188	0x3d9622d7	0.07330864
189	0x3d01c065	0.031677622
190	0x3d828e29	0.06374771
191	0x3cdb545c	0.026773624
192	0x3d87aa95	0.06624333
193	0x3c5ee6c5	0.013604824
194	0x3d7f4ad9	0.06232724
195	0xbb0c651f	-0.0021422578
196	0x3c123da2	0.008925827
197	0x3be9140a	0.0071129845
198	0xbcbd34cf	-0.02309647
199	0x3c26334b	0.010144065
200	0x3d04b1a6	0.03239598
201	0x3d1a8aee	0.03773015
202	0x3c8f3716	0.017482322
203	0x3ae50e06	0.0017475493
204	0x3d0a7ca0	0.033810258
205	0xbc79f4f3	-0.015256154
206	0x3ce5f781	0.02807212
207	0x3d3c79f1	0.04601473
208	0x3c60b6ac	0.013715427
209	0x3d7d016a	0.061768927
210	0xbc24335f	-0.010022013
211	0x3c9c5a14	0.019085921
212	0x3ca10169	0.019653993
213	0x3d319faa	0.04336516
214	0x3d4b28e3	0.04959954
215	0x3d885a1b	0.06657811
216	0x3d5fcf69	0.05464116
217	0x3cb02ccd	0.021505738
218	0x3c232128	0.009956636
219	0x3b0e446c	0.0021708263
220	0x3ca99777	0.020702107
221	0xbbb36c14	-0.0054755304
222	0x3c37d880	0.011221051
223	0x3c0d0228	0.008606471
224	0x3db4808c	0.08813581
225	0x3d83a4d1	0.064279206
226	0x3c25c250	0.0101171285
227	0x3d84a32b	0.06476434
228	0x3d63dc85	0.055630226
229	0x3d522151	0.051301304
230	0xbb3500b9	-0.002761884
231	0x39894f66	0.00026189833
232	0x3c869d11	0.016432317
233	0x3bd8889a	0.006608081
234	0x3d8b1c73	0.06792536
235	0xbc012679	-0.007882708
236	0xbbbc0247	-0.005737576
237	0xbc0c2919	-0.00855472
238	0x3d28a1ce	0.041169934
239	0x3d6c4f8a	0.05769304
240	0x3cdd0c5c	0.026983432
241	0x3da05ce9	0.07830221
242	0x3cc9af2e	0.024619665
243	0x3cc74383	0.024324184
244	0xbcc00907	-0.023441805
245	0xbbb020eb	-0.005375018
246	0x3d651ced	0.05593579
247	0x3ca0ed8c	0.019644521
248	0x3d0da64d	0.034582425
249	0x3d80a814	0.06282058
250	0x3b54a2a2	0.003244557
251	0x3ba15139	0.0049230126
252	0xba984321	-0.0011616686
253	0x3cd547f9	0.026035296
254	0x3c6ddae2	0.014517518
255	0xbc165e0a	-0.009177694

action_model._continuous_distribution.log_sigma f4 [1, 2]
0	0x3aa9691b	0.0012925001
1	0xbd10e9e0	-0.03537929

action_model._continuous_distribution.mu.weight f4 [2, 256]
0	0xbbfb0c71	-0.0076613952
1	0xbd10a6a4	-0.03531517
2	0x3c903466	0.01760311
3	0xbcd450a4	-0.025917359
4	0xbcaf6339	-0.021409618
5	0xbcfa0d12	-0.03052381
6	0xbc2b92d6	-0.01047202
7	0x3c5ae129	0.013359346
8	0x3c043cd9	0.008071148
9	0x3d00ab40	0.031413317
10	0xbd07f98c	-0.03319697
11	0x3d06d9b4	0.03292246
12	0xbbc88e6a	-0.0061204927
13	0xbca26108	-0.019821659
14	0x3bf3b793	0.0074376552
15	0x3cfb64b0	0.03068766
16	0xbc7b7dad	-0.015349788
17	0xbc4aa4da	-0.012368405
18	0xbcc878f5	-0.02447174
19	0xbba343ee	-0.004982463
20	0xba92341d	-0.0011154447
21	0x3c82963b	0.015940776
22	0xbcedcb2a	-0.02902754
23	0x3c4bc40e	0.01243688
24	0x3c050c5e	0.008120624
25	0xbc839dcc	-0.016066454
26	0xbceca55d	-0.028887445
27	0xbb27ef82	-0.0025624936
28	0x3bc177c0	0.005904168
29	0xbd073dae	-0.033017807
30	0xbc2d1395	-0.010563751
31	0xbb229b50	-0.0024811812
32	0x3cc8678c	0.024463437
33	0x3c2fb2a8	0.010723747
34	0x3c062f85	0.0081900405
35	0xbd82e1f5	-0.06390754
36	0x3cce30fb	0.02516984
37	0x3be5f5ee	0.0070178425
38	0x3d15e95c	0.036599502
39	0xbd147caa	-0.0362517
40	0x3ce6418c	0.028107427
41	0xbc892dad	-0.016745413
42	0xbc17206a	-0.009224037
43	0x3cc01cf0	0.023451298
44	0x3bead8a1	0.0071669375
45	0xbc4c1b62	-0.0124577
46	0x3d533073	0.051559877
47	0xbb0f37a6	-0.0021853237
48	0x3d38d49d	0.04512464
49	0xbc5dc720	-0.013536245
50	0xbb12c1b4	-0.0022393288
51	0x3bc64c1a	0.0060515525
52	0xbc2dcd8b	-0.010608087
53	0xbda917cf	-0.08256494
54	0xbd5162de	-0.051119678
55	0x3c7cc498	0.015427731
56	0x3bf5e45e	0.00750403
57	0xbd4043d8	-0.0469397
58	0xbbd89b21	-0.0066102897
59	0xbc35cccf	-0.011096193
60	0x3bc3ceec	0.0059755947
61	0xba073954	-0.0005158384
62	0xbcd6c318	-0.026216075
63	0xbcaa291c	-0.020771556
64	0x3caa5e21	0.020796837
65	0xbcbd792c	-0.023129068
66	0xbb0dae43	-0.002161876
67	0xbc9d75b8	-0.019221172
68	0xbbc2f076	-0.0059490753
69	0x3bb490c0	0.0055104196
70	0x3cf89279	0.030343281
71	0xbc5e385d	-0.013563243
72	0xbc53d3c3	-0.012928906
73	0x3c5145d4	0.012772996
74	0xbc971de4	-0.01844687
75	0xbbe1b4fd	-0.0068880306
76	0x3cf612a9	0.030038195
77	0x3c5df2f8	0.013546698
78	0x3c7c91c0	0.015415609
79	0xbc14f928	-0.009092607
80	0xbd2b7509	-0.04185966
81	0xbb6c6eb7	-0.0036076733
82	0xbcb93884	-0.022609957
83	0xbd2244f5	-0.039616544
84	0x3c012a47	0.007883615
85	0x3be0217e	0.00683993
86	0x3c95b691	0.018275531
87	0xbcc8ce14	-0.024512328
88	0x3a9ed43b	0.0012117693
89	0x3ba6f919	0.0050956127
90	0x3c1cd1da	0.009571517
91	0xbc95da93	-0.0182927
92	0x3d0000f0	0.031250894
93	0xbcccd9c7	-0.025006188
94	0xbd11136b	-0.03541891
95	0x3b5aef9b	0.0033406976
96	0xbb5870a0	-0.0033026114
97	0xbcdfec44	-0.02733434
98	0x3c7a9e89	0.015296587
99	0x3c43b21e	0.011944322
100	0x3b4c9539	0.0031216873
101	0xbb8dd182	-0.004327954
102	0x3c96ba56	0.018399399
103	0x3c23b39b	0.009991552
104	0xbbb6b559	-0.0055758175
105	0xbc907dd9	-0.017638134
106	0x3c83eee0	0.016105115
107	0x3c9eec40	0.019399762
108	0xbcf51033	-0.029914951
109	0xbcf65db0	-0.03007397
110	0x3c5ba105	0.013405089
111	0x3d164b0e	0.03669267
112	0x39e0e8a6	0.00042897946
113	0xbc2b08b1	-0.010439084
114	0xbc6ff494	-0.014645714
115	0x3bf52b32	0.007481956
116	0x3bfa8e9f	0.0076463963
117	0xbd5118f5	-0.05104919
118	0x3c9c1699	0.019053744
119	0xbc674f46	-0.014118021
120	0xbc464f47	-0.012103862
121	0x3cac811c	0.021057658
122	0x3c95f56a	0.0183055
123	0xbcb5b1e6	-0.022179555
124	0xbcbb51f9	-0.022866236
125	0x3b4552ad	0.0030109093
126	0xbc739769	-0.014867642
127	0xbcd84c6d	-0.02640363
128	0xbc900ab5	-0.01758323
129	0xbcab1d90	-0.02088812
130	0x3b5d7b30	0.003379535
131	0xbc801bba	-0.015638221
132	0x3aacd55d	0.0013186146
133	0x3d4dc09a	0.050232507
134	0x3c779505	0.015111213
135	0xbca0e332	-0.019639585
136	0x3d3d0d33	0.046155166
137	0xbc148dad	-0.009066981
138	0x3daea3a0	0.08527303
139	0x3ad959c1	0.0016582535
140	0xbccaabb4	-0.024740078
141	0xbc9c9381	-0.019113304
142	0xbb5979c2	-0.0033184146
143	0xbcc4afb1	-0.024009557
144	0xbcf3742e	-0.029718485
145	0xbca22199	-0.019791411
146	0x3c7f61c1	0.015587271
147	0x3b19da0a	0.0023475909
148	0xbce7e224	-0.028306074
149	0xbc9ae56a	-0.018908221
150	0xbcd1d317	-0.02561335
151	0xbc537b32	-0.01290779
152	0xba3e5d6c	-0.0007261846
153	0xbc5b66f1	-0.013391242
154	0x3d39ae9d	0.04533254
155	0x3d617117	0.05503949
156	0xbca9e0f7	-0.020737154
157	0x3bff3e6d	0.007789424
158	0x3c9d69d3	0.0192155
159	0xbc314618	-0.010819934
160	0xbd5735f2	-0.05254168
161	0x3c9cd141	0.019142749
162	0xbce05eed	-0.027389014
163	0x3c37a263	0.01120815
164	0x3cd243d2	0.025667105
165	0xbd26a6d1	-0.040686432
166	0x3c3decc2	0.011592092
167	0x3babf9a8	0.005248267
168	0xbb939995	-0.0045043924
169	0x3c3536db	0.011060442
170	0xbcc0c3a0	-0.023530781
171	0x3ca0f2d0	0.019647032
172	0xbc2e1dd7	-0.010627232
173	0x3c709b21	0.014685423
174	0x3cc1a9f0	0.023640603
175	0x3c385683	0.011251095
176	0xbcc19cf3	-0.02363441
177	0xbbc55dff	-0.006023168
178	0xbcd34a6f	-0.025792329
179	0xbb2002ff	-0.0024415848
180	0xbd32563a	-0.043539263
181	0xbd01b9e2	-0.031671412
182	0x3d115b36	0.035487376
183	0xbc804b04	-0.01566077
184	0x3cd1ef5b	0.025626829
185	0xbca59d5b	-0.020216634
186	0x3c41679a	0.011804486
187	0x3cb49bdd	0.022046978
188	0xbb99b1ea	-0.0046903985
189	0xbc6585c8	-0.014008947
190	0x3c16a9a1	0.009195716
191	0xbc924da3	-0.017859286
192	0xbc560e2f	-0.013064905
193	0x3cf51084	0.029915102
194	0x3c56ebff	0.013117789
195	0xbc835802	-0.016033176
196	0xbd5f7f22	-0.054564603
197	0x3ccffdf1	0.025389643
198	0x3c02856a	0.007966379
199	0x397b9c83	0.0002399553
200	0xbcae9755	-0.021312395
201	0x3c7cbe90	0.015426293
202	0x3d8a35f5	0.06748573
203	0x3c8a4cc3	0.016882306
204	0x3a58d43d	0.0008271372
205	0x3b5c9b00	0.0033661723
206	0x3cfa93c4	0.030588038
207	0xbc883ec4	-0.016631491
208	0x3c0a7fe7	0.008453346
209	0x3d64a0f0	0.055817544
210	0x3d3a5d6c	0.04549925
211	0xbc9ed3fd	-0.019388193
212	0xbbea1e9e	-0.007144763
213	0xbcf9c9b3	-0.030491685
214	0xbc8684c1	-0.016420724
215	0x3a8f0fc4	0.0010914733
216	0x3d196235	0.037447173
217	0xbbb96dc3	-0.0056588366
218	0xbcc68e7b	-0.024237862
219	0x3cd1f35e	0.025628742
220	0xbcfd26cb	-0.030902287
221	0xbcb2f1dc	-0.021843843
222	0x3ce01728	0.027354792
223	0x3d3890d8	0.04506001
224	0xbce366ca	-0.027758975
225	0xbcc00195	-0.023438254
226	0x3b0ee2b8	0.0021802615
227	0x3c1100f2	0.008850323
228	0xbca1f4e1	-0.019770088
229	0xbcad34ca	-0.021143336
230	0x3c9a1f70	0.018813819
231	0x3cdb4eb1	0.026770921
232	0xbb819006	-0.0039539365
233	0x3c8fe6e3	0.01756615
234	0xbd214c90	-0.039379656
235	0xbb113ab6	-0.0022160239
236	0xbc88af24	-0.016685076
237	0x3d0cf9e1	0.03441799
238	0x3bdf9af0	0.00682389
239	0xbc3685c5	-0.011140292
240	0x3cde1e41	0.027114036
241	0xbceee64e	-0.029162552
242	0x3d096e34	0.033552364
243	0xbcdc5fe9	-0.026901202
244	0xbc21e30c	-0.009880792
245	0x3d11b3bc	0.0355718
246	0xbce71daa	-0.028212387
247	0xbc0c0ed8	-0.008548461
248	0xbd46b664	-0.048513785
249	0xbcb9267e	-0.022601362
250	0x3d0487f5	0.03235622
251	0x3d3f7774	0.04674478
252	0x3d23f252	0.040026017
253	0xbbc4dabc	-0.0060075205
254	0xbcdf7fb2	-0.02728257
255	0x3d27053a	0.04077647

action_model._continuous_distribution.mu.bias f4 [2]
0	0xbc477473	-0.01217376
1	0xbca0232c	-0.019548021

action_model._discrete_distribution.branches.0.weight f4 [1, 256]
0	0xbafe606b	-0.0019407397
1	0x3b5ac263	0.0033380024
2	0xbb137711	-0.002250139
3	0x3b104c2f	0.0022018065
4	0xbb9c5062	-0.0047703246
5	0x3c006e08	0.0078387335
6	0xbb88e8f0	-0.004178159
7	0x3bf2d863	0.007411049
8	0xba3c1b1f	-0.0007175672
9	0xbbeb52bf	-0.007181495
10	0x3c53ef78	0.012935512
11	0xbbd9a9ed	-0.006642571
12	0xbab1d65b	-0.0013567911
13	0xbc0abcbf	-0.008467852
14	0xbb97a326	-0.004627603
15	0x3a204c9b	0.0006114931
16	0xbbd9b2f2	-0.0066436464
17	0x3b66219b	0.0035115245
18	0x3babcce7	0.005242932
19	0x39bbee09	0.0003584477
20	0x3c2accd1	0.010424809
21	0xbc85b608	-0.01632215
22	0xbbed10af	-0.007234655
23	0x3b5cc3a7	0.0033685954
24	0x3c1e7025	0.009670292
25	0xbaa161ca	-0.0012312469
26	0x3c13ccc0	0.009020984
27	0xbb4f00d7	-0.0031586194
28	0x3c5225d2	0.0128264
29	0x3a2f3352	0.00066833675
30	0x390d3e4c	0.00013470015
31	0x3b2dc8a5	0.0026517299
32	0x3be06dff	0.00684905
33	0x3b3791b5	0.0028010432
34	0xbba46f81	-0.005018175
35	0xbb479341	-0.003045276
36	0xbc856f87	-0.016288532
37	0x3aefba55	0.0018289784
38	0xbb8d0b63	-0.004304336
39	0x3becc793	0.0072259395
40	0x3be4b397	0.0069794166
41	0xba584eca	-0.00082514866
42	0xbb268e9b	-0.002541459
43	0xbc28ae18	-0.010295413
44	0x3babdecf	0.0052450667
45	0xbc30d6bd	-0.010793385
46	0xbb4d9c52	-0.0031373692
47	0xbc00749e	-0.007840304
48	0xbc36082e	-0.011110349
49	0xbc24edf9	-0.010066503
50	0x3c23e1b4	0.010002542
51	0xbb8951db	-0.004190666
52	0x39f4c9b8	0.000466896
53	0xbc30fd93	-0.010802644
54	0x3bfc0cbf	0.007691949
55	0x3b411075	0.0029459272
56	0x3c82a123	0.015945977
57	0xbbc24197	-0.005928229
58	0xbb973f66	-0.004615712
59	0x3bc06e72	0.005872541
60	0x3c50a6b5	0.012735059
61	0xbc83babb	-0.016080251
62	0x3a72b297	0.00092581793
63	0xbb814533	-0.003945017
64	0x3b1a2b7f	0.002352446
65	0x3beeb0f2	0.007284277
66	0xbbc48f92	-0.00599856
67	0x3bc42916	0.005986343
68	0xba6801dd	-0.00088503753
69	0xbb893f50	-0.0041884556
70	0xbafdf34a	-0.0019374874
71	0xbbdd9080	-0.0067616105
72	0x3aca5049	0.0015435304
73	0x3b9459c6	0.0045273034
74	0x3bcfd7b7	0.006342854
75	0x3a484f73	0.00076412334
76	0x3b018031	0.0019760246
77	0xbb55e065	-0.003263497
78	0xbb858927	-0.0040751877
79	0x3be4a6a5	0.0069778734
80	0x3c14e5ce	0.009087993
81	0x3c7763eb	0.015099506
82	0xba81b28d	-0.0009895131
83	0xbb35418c	-0.0027657477
84	0xbae07fd8	-0.0017127944
85	0xb91fdefd	-0.00015246491
86	0x3c3f44ab	0.011674087
87	0x3ba8faa4	0.005156832
88	0xbac1a3dc	-0.0014773565
89	0xbbac298c	-0.005253976
90	0x39012857	0.00012317426
91	0xbb7da812	-0.0038704914
92	0x3b3ebc71	0.002910402
93	0x3ae59500	0.0017515719
94	0xbbd2b323	-0.006430046
95	0x3bad69f2	0.0052921707
96	0xbb2851c3	-0.00256835
97	0xbb3d7ee7	-0.002891475
98	0xbbd58ee7	-0.0065172794
99	0x3b015354	0.0019733505
100	0x3c626837	0.013818792
101	0x3bd25c8b	0.0064197234
102	0xbc0a9520	-0.008458406
103	0xbbe960ff	-0.0071221585
104	0x3a145e3b	0.00056597934
105	0xbbe51a6b	-0.0069916747
106	0x3bf22b9b	0.007390452
107	0xbb5337b3	-0.0032229244
108	0xbbd06823	-0.0063600703
109	0xba8c243a	-0.0010691949
110	0xbbf1c00a	-0.007377629
111	0x3a9bcdaf	0.001188686
112	0xba326062	-0.00068045233
113	0xbc11c0d7	-0.008896074
114	0xbc1288b3	-0.008943724
115	0xbc59bb93	-0.01328935
116	0xbbd10857	-0.006379168
117	0xbb90852a	-0.0044104056
118	0xbbcd121b	-0.006258262
119	0x3b8858a6	0.0041609583
120	0x3b2549e7	0.0025221051
121	0x3bcf81bd	0.0063326047
122	0x3c1659b1	0.009176658
123	0xbbec891d	-0.0072184936
124	0xbb8ddac2	-0.0043290565
125	0x3c2dc70b	0.010606538
126	0xbaf28dfd	-0.001850545
127	0x3b89dda3	0.0042073294
128	0x3c297340	0.010342419
129	0xbae8bd6f	-0.0017756651
130	0xba19613f	-0.00058509776
131	0x3b843d63	0.004035638
132	0xbc514b82	-0.01277435
133	0xbacdfc77	-0.0015715499
134	0xbb8fc9bd	-0.0043880627
135	0xb8c911ba	-9.587729e-05
136	0x3c1b2517	0.009469292
137	0x39f3104f	0.00046360723
138	0xbbdae607	-0.0066802534
139	0x3bfaf015	0.0076580145
140	0xbbb64937	-0.005562927
141	0xbb9c0e4f	-0.004762448
142	0xbbfd3c30	-0.007728122
143	0xba3ad80b	-0.000712753
144	0xbb2ca605	-0.0026344073
145	0xbb2ec31e	-0.0026666592
146	0x3bf41a68	0.007449437
147	0x39518667	0.00019981862
148	0x3bfcc638	0.007714059
149	0xba08b996	-0.0005215643
150	0xbbbb44d6	-0.005714993
151	0xbc6e499f	-0.01454392
152	0xba12b1e3	-0.0005595965
153	0xbc474585	-0.012162571
154	0xba663465	-0.0008781611
155	0x3c241ac0	0.010016143
156	0xbc542568	-0.0129483715
157	0xba93892c	-0.001125609
158	0x3b15a772	0.00228354
159	0x3c7ee2cb	0.015557001
160	0xbc0ac2fe	-0.008469341
161	0xb9541eea	-0.00020229412
162	0x3bdbedfb	0.006711719
163	0x3be020cd	0.0068398477
164	0xbacecd77	-0.0015777786
165	0x393b7f8f	0.00017881229
166	0xbbeee1c8	-0.007290099
167	0x3c068199	0.008209609
168	0x3c56ba8f	0.0131060025
169	0xbae94d4b	-0.0017799524
170	0x3bbf689f	0.005841329
171	0xbc33387e	-0.010938762
172	0x3bba00e4	0.0056763757
173	0x3bf29f80	0.007404268
174	0x3b9e3282	0.0048277983
175	0xb9a0b15b	-0.00030649718
176	0x3a6485c8	0.0008717445
177	0x3c60c727	0.013719357
178	0xbb5abbb3	-0.0033376038
179	0x3c25e006	0.010124212
180	0xbb570492	-0.003280912
181	0xbac7c678	-0.0015241643
182	0xbaa7c549	-0.0012799884
183	0xba536c4f	-0.00080651505
184	0x3be54ced	0.0069976957
185	0x3c4f6d3d	0.012660322
186	0x3b01a523	0.0019782267
187	0x393144a8	0.00016905612
188	0x3bf79b3b	0.0075563467
189	0xbb9880c7	-0.0046540233
190	0x3a88c361	0.0010434204
191	0x3b15dd04	0.0022867331
192	0xbb499393	-0.0030758127
193	0x3b31858b	0.0027087654
194	0xbbeebc5d	-0.0072856382
195	0xba998847	-0.0011713587
196	0xbc6b4c0f	-0.0143613955
197	0x3b46e984	0.0030351589
198	0x3bb0e1d4	0.0053980146
199	0x3c301b83	0.010748747
200	0x3c147f33	0.00906353
201	0x3ae4a5b3	0.0017444402
202	0x3ad219df	0.0016029439
203	0xbc166ec5	-0.009181683
204	0x3c0d9eeb	0.008643846
205	0xbb939217	-0.0045034993
206	0x3c323988	0.010877974
207	0x3bbd7824	0.005782144
208	0x3c48863c	0.012239035
209	0x38efa303	0.000114267714
210	0x3bbb4a5c	0.0057156514
211	0xbbd20592	-0.0064093554
212	0x3bc825c1	0.0061080162
213	0x3bc6311b	0.0060483343
214	0xbafb58e7	-0.0019176275
215	0x3bd94248	0.006630216
216	0xbb5c9fa7	-0.0033664496
217	0x3bfb1ff7	0.0076637226
218	0xbb230aab	-0.0024878185
219	0xba832c00	-0.001000762
220	0xbbfbea05	-0.0076878094
221	0x3967f732	0.00022121964
222	0x39853b87	0.00025412088
223	0x3b71c9db	0.0036893997
224	0xbae7a722	-0.0017673711
225	0x3ba19075	0.0049305507
226	0xbc405daf	-0.011741086
227	0x3b9bfeeb	0.004760613
228	0xbc1f220b	-0.009712706
229	0xbbc7acc7	-0.0060935947
230	0x3bc27137	0.0059339064
231	0x3abd21a1	0.0014429578
232	0x3943b49c	0.00018663931
233	0x3bad3074	0.005285317
234	0xbad53875	-0.0016267436
235	0xbb846b33	-0.0040410995
236	0xbae636b8	-0.0017563915
237	0xbb82ce3b	-0.0039918697
238	0xbbbaeb68	-0.005704332
239	0xbc320f18	-0.010867856
240	0xba800403	-0.0009766821
241	0x3a387cdf	0.000703765
242	0xbbbc53f3	-0.005747312
243	0x3b2cb668	0.002635384
244	0xbbe585ea	-0.007004489
245	0xba9ebc27	-0.0012110517
246	0xbbf22cb5	-0.0073905834
247	0xbc2447c8	-0.01002688
248	0xbb9aa537	-0.004719402
249	0x3b767aa0	0.0037609711
250	0xbb134732	-0.0022472856
251	0xbba88160	-0.005142376
252	0xbc567d6d	-0.013091427
253	0xbc59c2a0	-0.013291031
254	0x3b0933cc	0.0020935414
255	0xbb40da73	-0.002942708
