EcoSculptor/results/Final_1.2/Preyanimal/Preyanimal-499929.onnx (onnx, 140329 bytes, 6 tensors)

network_body._body_endoder.seq_layers.0.weight f4 [256, 127]
00000000: 98f9 593d 25f0 a4bd fef5 2abc c896 e0bd
00000010: 564a e03c b3bc a6bc 90db cfbd 271a 4e3d
00000020: 38ed d6bc 67b3 e33d be0c 92bd 694c 02be
00000030: ee7e e93c 1ab6 8fbd 8103 8ebd 448c 72be
00000040: 33d8 953d 0dc9 fa3c 6d14 043e 1ecc 31bd
00000050: 764d 0dbe 301f e33d 81a7 2cba 3e6c 26bd
00000060: 540c 7f3d 8cc3 3e3e 444d eebd 7eaa 84bd
00000070: 38d3 633d b68a e43b af0c b1bb 4ead 03be
00000080: f522 253c d9e5 04bd adf6 bfbd c54e eebd
00000090: 2f40 dbbc 5480 0b3d 46fb ddbc 94f2 c4bd
000000a0: 6e27 0dbd 7d89 613e 9d93 9c3c 441a a8bd
000000b0: bda2 93bd 37e8 fc3b 7ed9 d6ba c669 f2bd
000000c0: a779 73bd 7f8c 7b3e 04a6 0cbe 385d d5bd
000000d0: 473a 4bbd f954 2a3e 31e7 8a3d ddc6 203d
000000e0: 8924 cbbd bfc4 bdba 9c52 923d 49d7 e5bd
000000f0: 4953 6c3d 8c7a 76bc db6e 673a d338 2bbe
00000100: 52a4 7e3d 724d bf3d 8ed4 d4bc fe0b febc
00000110: af1a 6b3e b719 9a3c bcbf 4a3d f463 183c
00000120: 62ee 6e38 12c3 e83d 188c 923d 7c80 c13c
00000130: c6de abbc edfa f73c 0593 2ebe d0f1 e23c
00000140: 2eea febd 0c84 743d 2ac7 a7bd df02 4a3d
00000150: aef5 1a3d 1eec bebd e651 c63d 38b3 6cbe
00000160: 0022 7c3d 29da efbd 0ac2 0cbe 86bc d9bc
00000170: 7d4c 353d 6a5b b4bd a64d d53b 0f26 a8bc
00000180: a9b6 b4bd 9544 efbc 178a 4e3d 43f4 b43c
00000190: 0c83 a93d e1b9 28be 684a bcbc ccf3 283e
000001a0: e0af 923c 1ce4 1b3b 8c89 e9bd 187d e33d
000001b0: 6ab9 323d 284e 42bc b2e4 1b3e 0173 fbbd
000001c0: bb94 103d c124 763d a221 53bd fb7e 073e
000001d0: 7a28 e53d f6fb 6ebd eb83 143e 9398 06be
000001e0: a778 1d3e ade8 8dbc d1ef 3e3e 8c5f 5cbe
000001f0: 6d84 49ba 106c 463d 18f2 163e 0f58 c0bd
00000200: 47b7 0ebe 8b81 9f3d a411 913c 3547 cf3b
00000210: d155 3f3d 32f1 cbbd 11e1 2dbe 47ca 96bc
00000220: 382e 5e3c 16eb 9a3c e58a af3c 90ec c83c
00000230: 3012 f13d be2a dd3c 43db e9bd ad4f 18bd
00000240: b59a 053d 34d4 97bd c0e1 103e 9cd2 223e
00000250: 5ef3 ef3c fb66 1e3c a72f 8dbc 4e31 8dbd
00000260: d259 513e adc0 20be 0903 8abd 75f3 1ebe
00000270: 14f8 5eba 033b 02bc 7a4f 0fbe 5ba2 ddbc
00000280: d998 583d d05a 383d 0f7f c83c 4517 4abc
00000290: f69a 30bd cc11 343c 0ab8 0abe 1bbb 75bd
000002a0: 4c07 0cbd 3b90 96bd 5347 70bd c9b6 b13d
000002b0: 5b91 c5bd 6756 2a3c 5b47 46bd de7d 573d
000002c0: 8d04 033e 60fc bfbc bbf0 293e a164 30bb
000002d0: be1a 803c 88d4 be3b c9f0 e4bc d7a9 e33d
000002e0: 9656 063d 8d30 af3d f305 f93d 380e 47bd
000002f0: 8b42 a6bd 3a66 8cbd 7c53 e7bd 302a 263e
00000300: 37f4 ee3d 6fcb 88bd 54ac 823c c8a4 013c
00000310: 7098 12be 6239 503d c40c adbd 9449 493e
00000320: 2623 c23c f6e1 54bd 9f0c e63d bca7 c73d
00000330: 8405 d83c 5a1e 4e3d 9f38 38be e882 eb3d
00000340: 3b99 213d 4392 8e3d d83e 243d 6cc8 e5bd
00000350: 6138 44bd af22 8b3d 9df0 c1bc 99b7 d73c
00000360: 9e56 393d 7180 a33d 8a56 143e c6c9 ae3d
00000370: d473 0ebd fd69 4abe 89bc 37bd c597 833d
00000380: ae24 ad3d 63ad eb3b 37c4 fd3d c886 5cbc
00000390: 273e d23d 6b65 6c3e 737f 903c 1333 01be
000003a0: 8be9 3cbb 1783 6b3c 622e 1abd b729 5f3e
000003b0: 81f1 56be a61d 7f3c a63b 75bb 77bd 553c
000003c0: 2ecc 87bd 4373 d93d 387b 25bd aa43 b9bd
000003d0: 7f25 993c 15f4 b33d dac4 fb3c fa18 793b
000003e0: ea93 0dbc e5f1 0b3e 9f2d 853e e608 033d
000003f0: 089e 9e3d 13ac eebd c268 debc b8b6 2e3d
0.053216547 -0.080536164 -0.010434626 -0.10966259 0.027379196 -0.02035365 -0.101493 0.05031791
-0.026236162 0.11118203 -0.07131337 -0.1272446 0.028502908 -0.07017155 -0.06934262 -0.2368632
0.07316627 0.030613447 0.12898417 -0.043407552 -0.1379908 0.11089933 -0.00065862393 -0.04063057
0.062267616 0.18629283 -0.11635831 -0.06477831 0.055621356 0.0069745434 -0.0054031233 -0.12859079
0.010079135 -0.032445762 -0.093732215 -0.11636118 -0.026764004 0.03405793 -0.027097356 -0.096165806
-0.03446143 0.22025104 0.019113356 -0.08208135 -0.07208774 0.007718112 -0.0016391722 -0.11836581
-0.05944219 0.24565314 -0.13735205 -0.10418171 -0.049616124 0.16633977 0.067823775 0.03925215
-0.09919078 -0.001447819 0.07144663 -0.11222703 0.057696614 -0.015043866 0.00088284694 -0.16720895
0.062168427 0.093409434 -0.02598026 -0.031011578 0.22959398 0.01881109 0.04949926 0.009301174
5.6965633e-05 0.11365332 0.07155627 0.023620836 -0.02098025 0.030271018 -0.17048271 0.027703196
-0.1244701 0.059696242 -0.081922844 0.049319144 0.037831955 -0.093223795 0.0968359 -0.23115242
0.061555862 -0.117115326 -0.13745895 -0.026579153 0.044262398 -0.08806498 0.0065095006 -0.02052596
-0.08823902 -0.029207507 0.05042466 0.02208913 0.08276948 -0.16477157 -0.022984698 0.16499251
0.01790613 0.0023787087 -0.11403188 0.11107844 0.043633856 -0.011859454 0.15223959 -0.12277795
0.03529809 0.060093645 -0.051545747 0.13232033 0.11189361 -0.058345757 0.14503448 -0.1314414
0.15378056 -0.017322863 0.1864617 -0.21520823 -0.00076872745 0.0484429 0.14740789 -0.09391796
-0.13937102 0.0778838 0.017708607 0.006325627 0.0467127 -0.09958114 -0.16980387 -0.018407
0.013560824 0.018910926 0.021428535 0.024526864 0.11771047 0.02699792 -0.11418774 -0.03718536
0.032618243 -0.074135214 0.14148617 0.15900654 0.029290851 0.009668107 -0.017234636 -0.0689417
0.2044442 -0.156985 -0.0673886 -0.15522559 -0.00085055945 -0.00794864 -0.13995162 -0.027054956
0.052880142 0.04500848 0.024474649 -0.012334649 -0.043116532 0.010990571 -0.13546768 -0.05999289
-0.034186646 -0.073517285 -0.05866177 0.086774416 -0.09646865 0.0103965765 -0.048407894 0.05261027
0.12794705 -0.023435771 0.16595738 -0.0026915448 0.015637752 0.0058236755 -0.027946847 0.11116379
0.03279742 0.08554182 0.12159338 -0.048597544 -0.08118161 -0.06855436 -0.1129522 0.16227031
0.11667674 -0.06679427 0.015951313 0.007912822 -0.14315963 0.050835975 -0.084497005 0.19656974
0.0236984 -0.051973306 0.11232876 0.0974879 0.026369818 0.050321914 -0.17990349 0.11499578
0.039452773 0.06961491 0.040098995 -0.11219868 -0.04790533 0.06793725 -0.023674304 0.026332663
0.04524862 0.07983483 0.14486137 0.08534579 -0.03477843 -0.19766994 -0.044857536 0.06425432
0.08454262 0.0071923 0.12390941 -0.013459869 0.10265761 0.23085563 0.017638898 -0.1261714
-0.0028825726 0.014374516 -0.03764189 0.21793257 -0.20990564 0.015571034 -0.0037419586 0.01304566
-0.06630741 0.106176876 -0.040400714 -0.09046109 0.018694637 0.08786789 0.030733515 0.0038009272
-0.0086412225 0.13666494 0.2601137 0.031990908 0.07744986 -0.11653914 -0.027149562 0.042654723

network_body._body_endoder.seq_layers.0.bias f4 [256]
00000000: 133f 943b 4fed d53c 1bc4 1a3b 1978 f33b
00000010: d8e0 d43c c238 5dbc 6d08 ec3b f1d7 a43b
00000020: 2c63 2b3c 96a1 dd3c 8498 363c 6c18 893c
00000030: afe1 d73b 97dd 59bc 91e1 cb3c 775d 88bc
00000040: 208f 4b3c 9528 8bbc 2c40 f83b 72ff 003c
00000050: b57f 31bb fb61 d5bb 93d2 dd3c f56e 13bc
00000060: cf9e 1b3b fdd6 90ba 7a91 9f3b df90 3e3c
00000070: 91ae ee3c 0b2c 71bc 50c4 b23a 494e 823c
00000080: 2c49 9dbc 58ab 2f3b 7320 db3c 75f9 8b3c
00000090: 5949 8d3c bd20 b43c 48b8 9f3b 25ae e93a
000000a0: 69f5 ce3c 1444 893b 651d 72bc 56d4 5f3c
000000b0: 13ba 96bb 138a e9b9 83b9 f0bb 585b 393c
000000c0: c484 443c 8a7b 923b 736c 723c a973 9a3c
000000d0: 15cd 573b 8d88 d43b 57bf 0b3c 0534 e63c
000000e0: 7ade 503c cfb3 f7bc 5fca 993b 8952 393a
000000f0: 6e9e 0e3d a05b db3b 366a 1b3d cb62 2d3d
00000100: 2317 34ba b658 003c 9ee8 be3c f507 a53b
00000110: 031f f53c 53d8 353c e226 1b3c 2672 8b3c
00000120: 9323 923b 6341 ae3c a6a4 71ba 0965 023c
00000130: 2cd1 c43c 5194 08bb aa80 9439 a0d7 153c
00000140: 0b1c 2bbb a827 433c 8fed f33b 087d 9abb
00000150: d813 80bc c37a 943c 1788 143c dd56 993b
00000160: afc8 d33c 067a 7f3c 4c1d f83c 7f02 b43c
00000170: c1b1 323d 9228 0b3d b1af 2a3b 4d58 b13c
00000180: 1b82 363c 1490 18bd 959d 8d3c 816b abbc
00000190: 34a7 ca3b 6d44 c63a 4290 883c e529 563c
000001a0: ef4b e13c a08e 3abb 1063 473c 41f2 813c
000001b0: e0b7 e83b c9d5 af3c 868c 0f3d 2733 953c
000001c0: 404e f2ba 36ad 203c dff1 c53c a9e4 893d
000001d0: b84c 563a d3bc 283d 9b4f 19bb b29d 013c
000001e0: fbe8 2f3d 2a90 113c b4a0 a1bb c07f 4837
000001f0: 63b2 613c 2f51 fc3c 3551 463c af52 b23c
00000200: 46ab b83c 5c9e 823c 9810 703c 990f 11bb
00000210: c15b 873c 9bb8 ff3c 2f6f 5e3c 1f02 d03c
00000220: 8014 a83c 3c23 6c3c af38 693c 8974 2a3d
00000230: 5452 b33c cbeb 643c 0e01 a33c dc6d bbbb
00000240: a55a 173d c14c d93b 4fe9 8d3d 5ddd 6e3c
00000250: 0445 48bc 7828 d83c 63f3 253c 7b6f a73c
00000260: be17 803b dc0a 083c ce01 c93b e22c 003d
00000270: 559f f0bc df67 7e3b 167d 993c 61f9 663a
00000280: 304b a53a 0b8b 2a3d 25a0 fc3b 5dd3 bd3c
00000290: 228a 853a f364 343d 5a08 513c edd6 c83c
000002a0: a07d 99bc c4e0 f73b 10c9 c53c abf0 6c3c
000002b0: 4223 253a b2cc ec3c e808 a03c de76 983b
000002c0: d7d7 713b 6465 c1bc 8597 42bb 6726 813c
000002d0: da1c e33c 3c54 33bc a19b 8d3c 33ab 4b3b
000002e0: bf2e 483c 5723 923c 545f 413c 57fb 943c
000002f0: f0d2 ab3c 2a1c b33c ee5e b33c f88d 983c
00000300: 03b4 9abb 3f80 60bb 467e 2c3c 34af ed3c
00000310: 8b8a ef3c 9a7d a33c 6963 b63b df10 273d
00000320: 2a0b 443c d164 513d 1861 24bb 9a78 f2bb
00000330: 06f2 b63c cf23 7a3b 0204 323c 56ef db3c
00000340: 89ae 553c c371 203c c30b ae3b 12f7 993c
00000350: f9a5 163c 0a9d f33b 6b47 493d fe98 b53a
00000360: 70a6 6c3c 2c2f e43c 98b7 1c3a bb02 563c
00000370: 7360 813b ef77 8e3c 03bb 1b3c e40f 493c
00000380: 06da 613c e5ea 1f3d c57e a23c cc3a 023c
00000390: 2f10 c23c 9484 963b a678 8f3c 48b6 3b3d
000003a0: 8507 ca3b c091 053c 2aee f03c ee5c c8bb
000003b0: 61f9 e53b dc66 c43a 00d9 513b c0b0 eb3c
000003c0: 3abc 6939 ee11 b33c 6a05 933c 7421 df3c
000003d0: 4fde e63c df21 2b3b 6b0c 543c 3d20 073d
000003e0: d98f f03c 48f6 d23c 4bcd 9bbb 845f 923c
000003f0: cd9d 763b 80d2 a63c 428a e33b cbb8 243c
0.0045241206 0.026114134 0.0023615423 0.0074300882 0.02598612 -0.013502302 0.007203153 0.005030625
0.010460656 0.02705459 0.011144761 0.016735278 0.006588183 -0.01329746 0.024887832 -0.01664613
0.01242426 -0.016987124 0.0075760093 0.007873403 -0.0027084176 -0.0065119243 0.027077949 -0.008998622
0.002374578 -0.00110504 0.004869637 0.01163122 0.029135974 -0.014719973 0.0013638828 0.01590647
-0.01919993 0.002680501 0.026748871 0.017086724 0.017246889 0.021988267 0.004874263 0.0017828388
0.025263505 0.0041890237 -0.014777516 0.013661465 -0.0045998185 -0.00044544096 -0.0073463335 0.011313282
0.011994544 0.0044702934 0.014796364 0.01885398 0.0032928635 0.0064860047 0.008529506 0.028100977
0.012748355 -0.030237107 0.004693314 0.00070694886 0.03481906 0.006694272 0.037943088 0.042330544
-0.0006869903 0.00783365 0.02330428 0.005036349 0.029922014 0.011098939 0.00946972 0.017022204
0.004459807 0.021271413 -0.0009217955 0.007958659 0.024025522 -0.0020840357 0.00028324622 0.009145647
-0.0026109244 0.01191131 0.0074440907 -0.004714612 -0.015634462 0.018124944 0.0090656495 0.0046795444
0.02585253 0.0155930575 0.030287407 0.021973846 0.04362655 0.033974238 0.0026044662 0.02164855
0.011139418 -0.03724678 0.017287055 -0.020925285 0.006184483 0.0015126594 0.01667035 0.013071512
0.027502028 -0.0028466359 0.012169614 0.015862586 0.0071019977 0.021464245 0.035046123 0.018212868
-0.0018486455 0.009806922 0.024163185 0.067330666 0.0008174884 0.0411957 -0.0023393396 0.007911133
0.042946797 0.008884469 -0.0049324874 1.1950673e-05 0.013775441 0.03080043 0.012104322 0.021767942
0.022542607 0.015944652 0.014652394 -0.002213454 0.016523244 0.031215956 0.013576313 0.025391636
0.020517588 0.014412697 0.014234706 0.041615043 0.021889843 0.013972233 0.019897964 -0.0057198834
0.03695168 0.006631464 0.06929266 0.014579144 -0.012223486 0.026386485 0.010128829 0.0204389
0.0039090803 0.00830337 0.0061342483 0.031292804 -0.02937285 0.0038819236 0.018736403 0.0008810964
0.0012610909 0.041636508 0.0077095204 0.023172075 0.0010188262 0.044041585 0.012758339 0.024516547
-0.01873666 0.007564636 0.024143726 0.014461677 0.00062995043 0.0289062 0.019535497 0.004652842
0.0036902332 -0.023607917 -0.0029692363 0.015765382 0.027723718 -0.010945376 0.017286124 0.0031077384
0.012218176 0.017839117 0.011802513 0.018186254 0.020974606 0.021864016 0.021895852 0.018622383
-0.004721166 -0.0034256128 0.010528153 0.029014207 0.029240867 0.019957352 0.00556605 0.040787574
0.011965552 0.051121537 -0.0025082286 -0.0073996307 0.022332203 0.0038168316 0.010865213 0.026847523
0.013042101 0.009792748 0.0053114607 0.01879457 0.009194844 0.007434492 0.049140375 0.0013854799
0.014443979 0.027854525 0.00059782853 0.013062174 0.003948265 0.017391173 0.009505036 0.012271855
0.013784891 0.039042372 0.019835839 0.007948589 0.023689358 0.0045934413 0.017513584 0.045828134
0.006165447 0.008152425 0.02941044 -0.0061145937 0.0070182537 0.0014984268 0.0032020211 0.028770804
0.00022290731 0.021859135 0.017946918 0.027237631 0.028182177 0.0026112718 0.012942414 0.03298973
0.029365467 0.025752202 -0.0047546974 0.017867811 0.0037630678 0.020364046 0.006943972 0.010053824

action_model._continuous_distribution.log_sigma f4 [1, 2]
00000000: fb0f 42bd e872 52bd
-0.04737852 -0.051379114

action_model._continuous_distribution.mu.weight f4 [2, 256]
00000000: 76eb 073c 8d1a 07bd 02a6 183c 8b58 0f3d
00000010: 7659 4dbd 775c 7f3c b878 173d 6512 9fbc
00000020: 1ed4 e6bc cfb2 0c3c 4bd1 3c3d c56b 643d
00000030: ba45 05bd 331c 9dbb 4825 80bc 0271 f83c
00000040: 1922 1a3d 1bdd 903c 413c e1bc 1fd6 e6bc
00000050: cd75 cbbc 435d 5c3c 64be c1bb 9e6a cabc
00000060: e598 e2bb e5bb e0bc 0b2f 26bd 9c6f 85bc
00000070: 46e5 9ebd 23f5 073d 5e89 61bd fc7e 13bd
00000080: b382 2ebd 0c20 d63c 3f6d 933c ef84 e6bc
00000090: d720 d9bc 26d5 5d3a 52df 083d ec6b b93b
000000a0: dad1 2ebb 55e8 083c 980d 6ebc 0310 113d
000000b0: dc12 373d 4ed8 3c3d 7141 9c3b 1cf3 7c3c
000000c0: f7a5 88bb 0f08 053d 9b37 cf3c 0cce 633d
000000d0: 1f54 d43a 862a c73c fc91 3ebc 2a8c a2bc
000000e0: 8def 51ba b8d9 31bb f5e4 be3a 89bb 8bbc
000000f0: bbda 833d 37ca b0bc 41ba 13bd 89cc 2c3c
00000100: 3b73 47bc 6fce fdbc 59f3 c8bc f4f9 afbc
00000110: edbe 7bbd 36eb 06bd 36c7 ec3b a633 96bc
00000120: 6c58 083c 008a 0dbd 7771 b2bc db64 f2bc
00000130: 7d86 2f3d 8cf7 bebc 449c 093d 2dae 32bd
00000140: c8b6 a53c b338 15bd e65d d5bc 3bbe 933c
00000150: 68eb a3bc dc8f 3f3d 99ba 633c 357a bb3c
00000160: 3168 8c3d 0e0b cc3c 3647 ac3c b14a 06bd
00000170: b424 9c3d 4b3b 49bd 15b7 e13c ba7f 92bc
00000180: 7480 c0bc a35d 2c3c dab8 eebc 7cdf 233c
00000190: 89f2 b93c fa4d d1bc 141f a73c f04f e2bc
000001a0: 343a 383c db6c d6bc f169 c8bb 090c 053d
000001b0: 5fa6 23bd fa5c 2dbd 1346 79bd 6dba 4f3c
000001c0: 1489 d43c e967 2abc 6ced 723b 51fb 06be
000001d0: d40a 943c c4f1 91bc 89fe f5bc b738 43bc
000001e0: bcf0 e9bd 26f0 b13c 9096 483c 361c a9bc
000001f0: 81a1 24bd 7874 51bd 9542 18bd 50cd aebb
00000200: dafe 043d b97e 59bb 9807 9c3c 8c6c 613c
00000210: 3f84 86bc 1ec0 c6bc ca85 d13c 32b0 623d
00000220: 23ac 39bc f85a f4bb 3031 fcbc 2309 863d
00000230: 4bce 4fbc b4b5 313d 354b 39bd 043e e43b
00000240: 5a4a 52bc 7922 053c 62fa c33d 30c3 ed3c
00000250: 2a6a 113d 0101 33bc 821a c73c 1cce 513d
00000260: 6e8f 9f3c d730 f8bc 834e 30bd 3df9 a63d
00000270: 4d99 53bc 4861 d5bb 37da ec3c e636 753c
00000280: f1eb f13b 16ad 1ebc 7100 a6bc d90e 43bd
00000290: 7217 643c f19b ba3d e1e4 8c3d 91b6 bf3c
000002a0: 1642 0dbb cc7b e0bc 5696 51bc 6bb3 293d
000002b0: 96f1 c7bb c91a 66bd acca 543c 05ae 84bb
000002c0: 27b9 703c 0fe0 5f3b 31ad 573c fe60 173d
000002d0: dc39 573d cc50 dc3c 230d c5ba 195f 01bc
000002e0: 657a a93c 36c9 813c fbf8 76bb 9b3b 903c
000002f0: 9b46 7a3c ef97 ba39 0e63 593d 22e8 3abd
00000300: fd32 0dbc b05f d4bb 5c6b 14bd dc98 e03c
00000310: 51ee a83b 76a5 8fba b160 953a 642d 98bd
00000320: 263d 25bb b64d c63d 6563 3a3b 16a9 923c
00000330: 31c2 e23c 465d 23bb e991 bd3c f63e 49bd
00000340: 9c88 a3bc f88e 55bc 3884 0bbc f75a 653c
00000350: eafe 143d 7cae 363d 13f6 cfbd 843c 463c
00000360: a4b0 33bd 105c 933b 47de 423c 59c8 6ebd
00000370: 9efe b43b 69a5 48bd 7eae 523c 6b34 bb3c
00000380: 8754 3ebb af32 083d e71b af3c 5b85 05bd
00000390: 8774 ebba 727c febc 2003 753c 82b6 60bb
000003a0: b136 ea3c 3138 d1bc 422b 0abd 143b 523c
000003b0: b60a 2d3d 0bc7 e63c 290a e8bc e805 fd3b
000003c0: 9cf6 863c ee4a 5c3c 6477 e83c 14f9 553d
000003d0: a3f3 9d3b 6676 9fbc 481e 90b8 0528 593d
000003e0: 1ace 6f3d 8c88 50bd 9032 1dbd 7d82 bb3d
000003f0: 1fc6 1bbc 0b55 283d c510 333d 8df5 273d
0.008295884 -0.032984305 0.009316923 0.03499655 -0.050134145 0.01558601 0.03698036 -0.01941795
-0.028177317 0.008587553 0.046098035 0.05576684 -0.0325372 -0.0047946214 -0.015642777 0.030327324
0.037630174 0.017683556 -0.027494552 -0.028178273 -0.024836445 0.01344997 -0.005912589 -0.024709042
-0.006915199 -0.027433345 -0.040572207 -0.016288571 -0.07758574 0.033192765 -0.055062644 -0.036009774
-0.042605113 0.026138328 0.017996429 -0.02813956 -0.026504917 0.00084622425 0.0334161 0.0056586172
-0.0026675374 0.0083561735 -0.014529608 0.03541566 0.04469572 0.04610472 0.0047685434 0.015438821
-0.004170175 0.03247839 0.02529507 0.055616423 0.0016199386 0.024312269 -0.011631485 -0.019842226
-0.0008008413 -0.0027137827 0.0014564084 -0.017057197 0.06438204 -0.021580799 -0.036066297 0.010546812
-0.012173469 -0.030982224 -0.0245301 -0.021481492 -0.061461378 -0.03293916 0.007225896 -0.018335175
0.008321863 -0.034555435 -0.02178262 -0.029589107 0.042852867 -0.023311399 0.033596292 -0.04362314
0.020228758 -0.036431026 -0.02604575 0.018035045 -0.020009711 0.046768054 0.013899469 0.022885421
0.068558104 0.024907615 0.02103005 -0.032786075 0.07624188 -0.04912881 0.02755312 -0.01788317
-0.023498751 0.010520372 -0.029140878 0.010002013 0.022698658 -0.025549877 0.020400561 -0.027626008
0.011244345 -0.026174953 -0.006116145 0.03248218 -0.039953586 -0.042324997 -0.060857844 0.012678725
0.02594427 -0.010400751 0.0037067784 -0.13181807 0.01807157 -0.017815478 -0.030028598 -0.011915377
-0.114228696 0.021720957 0.012242928 -0.020643335 -0.040193085 -0.051136464 -0.037172873 -0.0053345338
0.032469608 -0.0033187105 0.01904659 0.01375879 -0.016420482 -0.02426153 0.02557649 0.055343814
-0.0113325445 -0.0074571334 -0.030785173 0.065447114 -0.012683461 0.043386176 -0.04523774 0.0069654007
-0.01283511 0.008125895 0.09569241 0.029023737 0.035501637 -0.010925532 0.024304632 0.05122195
0.019477572 -0.030296726 -0.043043625 0.08153007 -0.012914968 -0.006511841 0.028912647 0.014966702
0.0073828627 -0.009684822 -0.020263882 -0.04762158 0.013921605 0.09111775 0.06879593 0.023402484
-0.0021554283 -0.027402781 -0.012792191 0.041430872 -0.0061017973 -0.056177888 0.012987774 -0.004049065
0.014692581 0.003416065 0.013163851 0.036957733 0.052545413 0.026893996 -0.0015033822 -0.007896208
0.020688245 0.015843015 -0.0037685025 0.017606547 0.015275623 0.00035589884 0.05307298 -0.045631535
-0.008618114 -0.0064811334 -0.0362352 0.027416639 0.0051553627 -0.0010959345 0.0011396614 -0.074305326
-0.002521345 0.09682791 0.0028440591 0.017902892 0.027680488 -0.0024927421 0.023140864 -0.04913231
-0.019962601 -0.013034575 -0.00851541 0.0139987385 0.036375917 0.044599995 -0.10154357 0.012099389
-0.04386963 0.0044970587 0.011893815 -0.058296535 0.005523517 -0.048985872 0.012858985 0.022852143
-0.0029042081 0.03325146 0.02137561 -0.03259788 -0.0017963805 -0.0310652 0.014954358 -0.003428847
0.028590532 -0.02553949 -0.03373266 0.012831468 0.042246543 0.028171083 -0.028325157 0.0077216513
0.016475014 0.013445599 0.028377242 0.052239493 0.0048203035 -0.019465636 -6.8720954e-05 0.05301668
0.058546163 -0.05091147 -0.0383783 0.09155748 -0.009507685 0.04109673 0.043717165 0.04100566

action_model._continuous_distribution.mu.bias f4 [2]
00000000: 87bf ddba 1b95 34bc
-0.0016918042 -0.011021878

action_model._discrete_distribution.branches.0.weight f4 [1, 256]
00000000: c44f 35bb d921 bfbb 6b73 6c3c 6fb6 81ba
00000010: 827b 25ba 1660 9d3b b4c9 1c3b 50df 0a3c
00000020: 2d9d 7c3b 3053 ea3b 6af4 133c 0a33 8cbb
00000030: d0b8 9b3b 64b0 a8ba 905f 58bb 81f6 aabb
00000040: 2608 033c c317 7f3a e669 b03b bd39 5abb
00000050: 0edb 2eb9 48c4 313a 3be9 8abb 30de fabb
00000060: b024 133c dda1 113b 780f 9cba 6295 c7ba
00000070: f303 5cbb 56d8 a2bb 5a9c ea3b 33ab e53a
00000080: 83f7 023c bbbb 2dbc 4b69 973b 0f11 dcbb
00000090: a39c f43b 4067 77bb 059c f7bb e5d8 eb3b
000000a0: 0819 6dbb b1be 88bb e748 6d3b 40d6 e53b
000000b0: e8fe a63b 6b10 603c 9cd3 94ba 6a65 1e3c
000000c0: 89e0 10bb 6f7d bcbb 9596 32bc 5f01 79bb
000000d0: 2b95 463b 75d9 56bc bebf 833a 200a 053a
000000e0: 8825 2bbb f25b 6dbb 4db3 b1bb 1ebb 0fbc
000000f0: 78e1 05bc ef77 1f3c 5e90 23bb c470 223a
00000100: 3b92 eabb 0f55 773b 2fd6 043c df4c 5dbb
00000110: aaf2 d0ba 98a4 a1bb 1f6d a03b bd64 0a3b
00000120: 8a5d 823b 3098 13bb c5e1 fc3a 2277 46bc
00000130: 756c e8ba f3ed 12bc ffb2 a0bb 68b2 8eba
00000140: 9212 ed3b 6217 c8ba 28d3 ea3b 5c6e 003c
00000150: 558c 113b d544 55bc df8e ef36 3ca7 2e3c
00000160: c934 06bc e343 c2ba 8295 a03b d761 b33a
00000170: 73cc b93b be68 a739 f7f9 5bba 4bfb d63a
00000180: 980a 043c a918 213b cf75 c53b 0b30 38bb
00000190: 4d95 08bc 4c83 a4bb ea7d e43b 0b4a 1cbb
000001a0: efe2 deb9 f918 97bb 18e0 4bbc aaa7 15bc
000001b0: 97f7 6bbb 0f6b da3b 6771 95bb 0510 113c
000001c0: 3b35 8fbb 5424 b33b 61b7 3d3c f065 9ebb
000001d0: cb9d 653b 4708 cfbb 79c3 37bc df0f cfbb
000001e0: eb24 e2bb 500e 99bb 29f9 47bb 9b02 853c
000001f0: d74f fabb 5386 353b 8d00 af3a 4953 a03b
00000200: 3710 4a38 cd84 36bc 3874 09bb ff4b 5ebb
00000210: 8f73 20bb b4f1 353b fb82 ec3b 6fb5 fcba
00000220: 5f0c 993a e703 c43a 7f85 dcbb 6489 923b
00000230: c016 053c 5054 d2bb b555 1b3c 9d08 51bc
00000240: f775 4fbc 4a99 76bc a30c 0a3b 5d90 aa3b
00000250: b2a7 613b 7a4d 8138 4720 8d3b e7b0 9f3c
00000260: f8e3 d1ba 2020 eabb af57 cabb 43bb 09bc
00000270: 2b77 1cbb 938c c5bb 22a1 adba d3f8 0e3c
00000280: 3a4e 00ba c524 5bbb 2c4e ba3b 1b40 463a
00000290: aef0 16bc 267f c43b 78e8 3ebb 2b46 1d3b
000002a0: 9775 82ba 0f5b 15ba 30cf 82bb 0202 723a
000002b0: 7fd6 263a f885 76bc 780b d13b 4f0b cbb9
000002c0: d9f7 8a3b 4d73 13bc e350 603c 9329 a7bb
000002d0: b023 b2bb db78 e73b a7f8 b8bb 76a1 993b
000002e0: cf1b ab3a 75a4 2ebb e538 273b 5869 713c
000002f0: 21da 003c 5759 d83b af65 f73b ce06 073b
00000300: b557 51ba 7a6c 853b 7353 1f3c d3f0 dabb
00000310: 02de f43a 9309 023b 3058 18bb f35d 25bc
00000320: ebcf a5ba d70d 27bb aa89 acba 8f56 c0bb
00000330: b3f8 4c3c cd55 4dbb af60 adbb 8b69 3abb
00000340: e70b 8a3b 1577 6eba ea30 f9ba 530f 64bb
00000350: cdaf a83b d4d3 143c 8d0a 1a3c 232c 2fbc
00000360: 7d11 583b 3713 94bb 634d 723b 777c c2ba
00000370: 4ab9 823b 225a fe3b e1c4 4a3c 2814 1dbc
00000380: 9308 1ebc d3a9 7e3b 55e5 8a3b 78fb ee3b
00000390: b608 09bc d73a a5bb e78f f8bb d8fe ecbb
000003a0: 87f6 b0ba 75ee 113c daee e43b 68f5 cd3b
000003b0: a3e2 353b 1355 033c 2b8f 28bb 5ab3 4a3c
000003c0: 5860 17bc 4d16 423b 806c 7b3a 4303 dc3b
000003d0: f470 203c b5ea 4d3c c275 07bc f902 18bc
000003e0: 2daa da3b 87c2 babb 56f5 0fbc 6212 2f3c
000003f0: 23a1 8f39 f944 c23a ccbf a1bb 7a54 0f3c
-0.0027665952 -0.0058328924 0.014431815 -0.0009896288 -0.00063126546 0.004802714 0.0023923935 0.008476093
0.0038545833 0.00715103 0.009030441 -0.0042785453 0.004752256 -0.0012869951 -0.0033015944 -0.005217374
0.007997548 0.0009731019 0.005383718 -0.0033298575 -0.00016675537 0.00067812623 -0.004239229 -0.0076558813
0.008980915 0.0022221722 -0.0011906466 -0.0015227015 -0.003357169 -0.004969637 0.007159752 0.0017522335
0.007993582 -0.01060384 0.004620706 -0.0067159007 0.0074649616 -0.003775075 -0.007556441 0.0071974867
-0.003617825 -0.004173123 0.0036206783 0.007014066 0.005096305 0.013675789 -0.0011354568 0.009667734
-0.002210649 -0.0057522575 -0.010900159 -0.0037995202 0.0030301313 -0.013113369 0.001005165 0.0005075056
-0.00261149 -0.0036218134 -0.0054229856 -0.00877264 -0.008171432 0.009733184 -0.0024957876 0.0006196613
-0.0071585453 0.0037739908 0.008107706 -0.0033767743 -0.001594146 -0.004932951 0.0048958207 0.0021117174
0.003978436 -0.002252113 0.0019293359 -0.012113364 -0.0017732518 -0.008967864 -0.0049041505 -0.001088691
0.00723488 -0.0015265758 0.007166285 0.007838812 0.0022208889 -0.013016899 7.1393874e-06 0.010659989
-0.008191296 -0.0014821257 0.004900635 0.0013685775 0.005670124 0.0003193076 -0.00083914347 0.0016401795
0.008059166 0.002458135 0.006026007 -0.0028104808 -0.008336377 -0.0050205346 0.006973018 -0.0023847844
-0.00042512218 -0.0046111313 -0.012443565 -0.0091342125 -0.003600573 0.0066655944 -0.0045606378 0.008853917
-0.0043703592 0.005466977 0.0115793655 -0.0048339292 0.003503668 -0.0063181254 -0.011216038 -0.0063190307
-0.0069013736 -0.0046708956 -0.0030513501 0.016236594 -0.007638912 0.0027698472 0.0013351605 0.004892741
4.8175654e-05 -0.011140061 -0.0020973813 -0.003391981 -0.002448294 0.0027762474 0.0072177625 -0.0019280146
0.001167666 0.0014954776 -0.006729781 0.0044719446 0.0081231 -0.0064187422 0.009480883 -0.012758401
-0.012662402 -0.015051195 0.002106466 0.0052051977 0.003443223 6.1656305e-05 0.0043068263 0.019493533
-0.0016013375 -0.007144943 -0.0061750035 -0.008406463 -0.002387474 -0.0060287206 -0.0013246874 0.0087263165
-0.0004894469 -0.0033438664 0.0056855883 0.0007562653 -0.009212656 0.0059966026 -0.0029130261 0.0023998122
-0.0009953257 -0.0005697468 -0.003991984 0.00092318666 0.000636436 -0.015046589 0.006379541 -0.00038727603
0.0042409715 -0.008999658 0.01369116 -0.0051013916 -0.005436383 0.0070639676 -0.005644876 0.004688437
0.0013054552 -0.0026648317 0.002551609 0.014734589 0.007864506 0.006602447 0.0075499634 0.002060342
-0.00079857867 0.0040717693 0.009724486 -0.0066815405 0.0018681886 0.0019842132 -0.0023245923 -0.0100932
-0.0012650465 -0.0025490427 -0.0013163586 -0.0058696936 0.012510466 -0.0031331659 -0.0052910666 -0.0028444256
0.0042128447 -0.0009096724 -0.001901177 -0.0034799173 0.00514791 0.009083707 0.00940193 -0.010691675
0.0032969408 -0.004518892 0.0036972396 -0.0014838119 0.0039893733 0.0077622095 0.012376041 -0.009587325
-0.009645599 0.0038858547 0.0042387643 0.007293161 -0.008363893 -0.0050424146 -0.007585514 -0.007232528
-0.0013501205 0.00890695 0.006986481 0.006285358 0.0027753494 0.008015889 -0.00257201 0.012371862
-0.009239279 0.0029615343 0.0009591058 0.006714256 0.009792555 0.012568166 -0.008267822 -0.0092780525
0.0066731186 -0.005699459 -0.00878652 0.010685535 0.00027395142 0.0014821581 -0.004936194 0.008748168
