EcoSculptor/results/MultiTraining1/Hunter Animal.onnx (onnx, 140329 bytes, 6 tensors)

network_body._body_endoder.seq_layers.0.weight f4 [256, 127]
0.0027337174 -0.023345852 0.032185968 0.16029754 -0.063485906 0.07445979 -0.20553671 0.10078911
-0.011435142 -0.094026476 -0.1284768 0.12565264 0.21020465 0.16886193 0.05665659 -0.081482686
0.0017608042 -0.09995067 -0.009177446 0.0234971 0.15889981 -0.06393998 -0.032834444 -0.021507204
-0.13410862 0.0069830436 -0.14821613 0.13851601 -0.104047194 0.048935946 -0.0017972939 0.10726449
-0.11587512 0.069789164 0.10568354 -0.09206029 -0.048528846 0.0060584173 0.08977753 -0.005938465
-0.1171536 0.037998304 0.090996325 -0.0013268031 -0.11258748 -0.08251894 -0.068319984 0.07940892
0.015673604 0.11905865 0.09413095 0.010848568 -0.017713627 0.0026776737 0.032039132 0.034057386
-0.0169522 0.010859903 -0.006847936 0.26283658 -0.020881929 -0.19398856 0.052235506 0.05879097
-0.060168892 0.09827243 -0.005560136 0.090565324 -0.16366863 -0.027825875 0.09535634 -0.032873664
-0.18078542 0.08295823 0.1368935 -0.07085229 -0.03968013 0.055866152 -0.13180293 -0.1169492
-0.06580453 0.12047776 -0.002074138 0.017065488 0.03026744 0.07086279 -0.052596617 0.021097703
-0.08066008 0.102647506 0.1404575 -0.0801615 -0.13573483 -0.07019016 0.07645508 0.023233848
0.08234094 0.101368465 0.05634589 0.17268117 0.04476378 -0.012178627 0.029598365 -0.023915393
0.019855114 0.1310827 0.0012066824 -0.059840135 -0.15630361 -0.16035213 -0.07196569 0.06327483
0.041049287 0.042989574 -0.001878432 0.07758335 0.064795636 0.048560567 0.027763762 0.012747407
0.0016533453 -0.0011782411 -0.04031603 -0.01745203 0.16762426 -0.05065812 0.06081173 0.15230581
0.06981716 -0.19248891 0.18737991 0.014735121 0.16553499 -0.037743267 -0.012070215 0.07456554
-0.1862494 0.09797606 -0.17641486 -0.048086394 -0.06834377 -0.014956277 -0.049420726 0.06275713
0.04243457 -0.027642783 -0.14397088 0.1089832 0.18773337 0.053965725 0.0777764 -0.09083606
0.034823686 0.23893633 0.161742 -0.06913286 -0.08424134 -0.045847144 0.11873347 -0.05153988
-0.09063565 -0.025788875 0.08879532 0.017792063 0.10561309 0.063860446 -0.0931793 -0.010531579
0.05733794 -0.01626746 0.23747759 -0.0014349789 0.08776409 -0.08075909 -0.040133346 0.032386295
-0.05793715 -0.014885005 0.02940222 0.024842614 0.14322196 -0.19258422 0.012300061 0.06670274
-0.1928043 -0.057449542 -0.008506575 -0.108532436 0.019211933 0.0242987 -0.02178086 0.024403973
-0.01727124 0.026879221 0.0555966 -0.18869185 -0.063782796 0.14352228 0.069407 0.045700084
0.09092734 0.13695806 -0.21850829 0.058715187 0.10059046 -0.013503395 0.037658468 -0.07478885
0.015448356 -0.07476236 -0.07496854 0.06421521 -0.025515802 0.02874412 0.1387953 -0.047749914
-0.038631596 0.07208958 0.06243975 0.039251998 0.1277823 -0.0967846 0.06940973 0.013487361
-0.025579486 -0.11015487 -0.02016918 0.053103387 0.018208236 -0.049275134 0.03487611 0.07641212
-0.0053207004 -0.12994176 -0.03745419 -0.02158344 0.103257604 0.11495752 -0.024470655 -0.016085727
-0.04289519 -0.035161264 0.23836516 -0.040429134 0.005496356 0.038151324 0.0257757 0.046795353
-0.11309769 -0.046567738 0.03597094 0.0044676457 -0.004833983 0.06334284 -0.11383961 -0.12953977
00000000: 2b28 333b cd3f bfbc 6fd5 033d 0a25 243e
00000010: e604 82bd 607e 983d 3778 52be 856a ce3d
00000020: 765a 3bbc f490 c0bd 6c8f 03be 16ab 003e
00000030: e33f 573e 24ea 2c3e be10 683d 65e0 a6bd
00000040: c9ca e63a f0b2 ccbd 005d 16bc fe7c c03c
00000050: a2b6 223e f7f2 82bd 697d 06bd e02f b0bc
00000060: c553 09be 04d2 e43b f8c5 17be 24d7 0d3e
00000070: b216 d5bd 0f71 483d 2d93 ebba 7cad db3d
00000080: ef4f edbd 9fed 8e3d 9d70 d83d 1b8a bcbd
00000090: 2fc6 46bd b085 c63b 48dd b73d 7497 c2bb
000000a0: 3aee efbd 1ca4 1b3d 485c ba3d 20e8 adba
000000b0: 4494 e6bd b1ff a8bd 59eb 8bbd 25a1 a23d
000000c0: ee65 803c 06d5 f33d bac7 c03d 31be 313c
000000d0: 2b1c 91bc e97b 2f3b 773b 033d c27f 0b3d
000000e0: 57df 8abc bced 313c a764 e0bb 8492 863e
000000f0: 9410 abbc f0a4 46be e6f4 553d cdce 703d
00000100: a873 76bd 0e43 c93d cd31 b6bb 507a b93d
00000110: c098 27be 17f3 e3bc 2f4a c33d 89a6 06bd
00000120: d01f 39be 01e6 a93d cf2d 0c3e 011b 91bd
00000130: a287 22bd e8d3 643d 59f7 06be 1083 efbd
00000140: 87c4 86bd 0bbd f63d 43ee 07bb eccc 8b3c
00000150: 6cf3 f73c 8320 913d 8d6f 57bd 17d5 ac3c
00000160: 1d31 a5bd db38 d23d 17d4 0f3e b62b a4bd
00000170: 12fe 0abe dcbf 8fbd 7b94 9c3d e954 be3c
00000180: 5ea2 a83d 459a cf3d f3ca 663d 55d3 303e
00000190: 3a5a 373d dd88 47bc 4578 f23c 37ea c3bc
000001a0: 31a7 a23c 8b3a 063e 8b29 9e3a ee1a 75bd
000001b0: 0e0e 20be 5933 24be bf62 93bd 3c96 813d
000001c0: 4c23 283d d615 303d b835 f6ba 05e4 9e3d
000001d0: 93b3 843d 72e7 463d d470 e33c 80da 503c
000001e0: 10b5 d83a 366f 9aba 6c22 25bd 8ff7 8ebc
000001f0: b2a5 2b3e e47e 4fbd b815 793d 0ef6 1b3e
00000200: 4dfc 8e3d d01b 45be 85e0 3f3e 946b 713c
00000210: 0182 293e af98 1abd 27c2 45bc d1b5 983d
00000220: 2ab8 3ebe aca7 c83d 19a6 34be 3df6 44bd
00000230: d2f7 8bbd 2c0b 75bc 636d 4abd cf86 803d
00000240: dfcf 2d3d 1e73 e2bc 1a6d 13be 9532 df3d
00000250: 2d3d 403e 2a0b 5d3d 3c49 9f3d 4208 babd
00000260: 48a3 0e3d baab 743e b29f 253e 8795 8dbd
00000270: b986 acbd 37ca 3bbd 892a f33d 7b1b 53bd
00000280: 2f9f b9bd 3143 d3bc 52da b53d a9c0 913c
00000290: ad4b d83d 44c9 823d cad4 bebd a58c 2cbc
000002a0: 30db 6a3d 5643 85bc 532d 733e e715 bcba
000002b0: a9bd b33d 0665 a5bd dd62 24bd 7ea7 043d
000002c0: 814f 6dbd 3ce0 73bc eddc f03c bd82 cb3c
000002d0: c7a8 123e cc34 45be 3286 493c 729b 883d
000002e0: 7e6e 45be 3650 6bbd 295f 0bbc 4146 debd
000002f0: 5862 9d3c 110e c73c c66d b2bc d7ea c73c
00000300: 6a7c 8dbc d031 dc3c 43b9 633d 7038 41be
00000310: 8ea0 82bd 81f7 123e 4225 8e3d 0330 3b3d
00000320: 1d38 ba3d bc3e 0c3e a3c0 5fbe 567f 703d
00000330: 5f02 ce3d 583d 5dbc c43f 1a3d e62a 99bd
00000340: 1a1b 7d3c 021d 99bd 1b89 99bd 4483 833d
00000350: 8406 d1bc ca78 eb3c 5b20 0e3e 6a95 43bd
00000360: 2a3c 1ebd b4a3 933d d3c0 7f3d b4c6 203d
00000370: 5dd9 023e 0137 c6bd b026 8e3d 18fa 5c3c
00000380: 128c d1bc e098 e1bd d639 a5bc f082 593d
00000390: 7029 953c b9d4 49bd 40da 0e3d f57d 9c3d
000003a0: 4559 aebb 740f 05be 9169 19bd c1cf b0bc
000003b0: b978 d33d d96e eb3d af76 c8bc 37c6 83bc
000003c0: deb2 2fbd 4205 10bd ff15 743e 0599 25bd
000003d0: c71a b43b 9044 1c3d 9027 d33c 7cac 3f3d
000003e0: c39f e7bd d0bd 3ebd 4456 133d 5465 923b
000003f0: 6366 9ebb e4b9 813d be24 e9bd 13a6 04be

network_body._body_endoder.seq_layers.0.bias f4 [256]
0.020113189 0.02348639 -0.006252688 0.0029539596 0.014502071 0.005547023 -0.006572216 0.0037379842
0.029042758 -0.01352661 0.020274917 0.014247416 -0.01982604 0.029336093 0.017490236 0.016692987
0.013128767 -0.01625878 0.0015771519 0.03348757 0.030308371 0.003587549 0.0007146472 -0.011030703
0.004978469 0.016671618 0.019984 0.021643536 0.030647576 -0.019898405 -0.0032905468 0.04699538
-0.020224795 0.032269124 0.00021676767 0.03403786 0.015800055 0.024168337 -0.0008523713 0.0217288
0.04452906 0.009895644 0.017959628 0.028902628 -0.0006680993 -0.0022832542 0.0132059 0.008823427
0.01634223 0.03305254 -0.0072024297 0.016853949 -0.0013511351 0.018873753 0.015890956 0.0023286173
0.024042245 0.031478114 -0.035979953 0.011802562 0.023256516 0.033639755 0.0060290955 -0.008642928
-0.010833836 -0.00059814134 -0.0015841268 -0.008596481 0.016499586 0.0070893406 0.016662821 0.024743121
-0.0018079475 0.046913147 0.0050861295 0.022895271 -0.005920604 -0.0058577843 -0.0040326663 -0.0110754175
0.02673309 0.048008107 0.0031372628 0.025863921 0.022675345 0.020424116 0.03431171 -0.018854802
-0.013615072 0.04378083 -0.0092213005 0.031284496 0.034233063 0.033382516 -0.0009767545 0.02102578
0.016114468 -0.007555251 0.032686822 -0.0047840374 0.000111981004 0.02640847 -0.0053914334 0.014980487
0.014740272 0.006182441 0.012369737 0.013771257 -0.01658942 0.019191397 0.026187565 0.03831351
0.034751233 0.03687813 0.009763895 -0.025073685 -0.002091593 0.034819137 0.040125668 -0.011297033
0.0181958 0.015495916 0.024511555 -0.016096368 0.033559013 0.030499201 0.0325336 0.016949626
0.0063588633 0.035909425 -0.020446025 -0.00093690533 0.002149397 0.03758943 0.03296931 0.0075868648
0.062045433 0.015298947 0.008592002 0.050739333 0.0010829477 0.019580716 0.008527857 0.046143904
0.03154112 0.04777929 0.012253761 0.0008398129 0.00082608673 0.030050658 -0.010492398 0.02635972
0.009344663 0.003385175 0.046563808 0.019614346 0.009744177 0.025144385 0.008047904 0.041046984
-0.013876485 0.041227963 0.011810194 -0.01337081 -0.010478467 0.03313834 -0.00018057192 0.015837908
0.011974803 0.015036985 0.03037301 0.010131377 0.0029493591 0.026892496 0.015011531 0.029016392
0.01637847 0.023809267 -0.007817449 0.02778089 0.03645182 -0.008703533 0.040984433 0.016840639
-0.009606743 -0.015683027 0.0007591517 -0.010293239 -0.016926862 -0.013086898 0.02749389 0.02769195
0.005095731 0.011317852 0.021391023 0.003745481 0.00013773178 0.03083 0.014093688 -0.0077964505
0.0101246005 0.03313951 0.02268094 0.013939145 -0.014462288 0.03766229 0.010542374 0.039733965
-0.0037343674 -0.014645515 -0.0035467646 0.026254827 0.022435162 0.034374073 0.026014036 -0.0036334759
0.026355647 0.0014918874 0.028908454 0.01600688 -0.009089102 0.023657745 0.020331731 0.037850518
0.032548103 0.01524693 0.0356102 0.04563694 -0.008142723 0.046968132 0.0062078596 0.040569343
0.034722053 0.016144298 0.0052799108 -0.011384244 0.01185307 -0.014872462 0.003907499 0.0013149529
0.035262253 0.03742263 0.0070720552 0.0408907 0.014704624 0.029587766 0.033506807 0.009372906
0.012555004 0.015271854 -0.025589487 -0.01437186 0.016909344 -0.0033799775 0.020189412 0.013386767
00000000: 6ac4 a43c 8866 c03c 59e3 ccbb 3897 413b
00000010: 189a 6d3c cdc3 b53b be5b d7bb f8f8 743b
00000020: 14eb ed3c b79e 5dbc 9517 a63c fe6d 693c
00000030: 386a a2bc 3f52 f03c af47 8f3c bbbf 883c
00000040: 0a1a 573c 2231 85bc 70b8 ce3a 432a 093d
00000050: 4349 f83c 161d 6b3b 2957 3b3a 1fba 34bc
00000060: 6d22 a33b eb92 883c 7cb5 a33c c94d b13c
00000070: a010 fb3c fb01 a3bc 37a6 57bb 3a7e 403d
00000080: 78ae a5bc a12c 043d 214c 6339 486b 0b3d
00000090: 1e6f 813c adfc c53c ab71 5fba 9900 b23c
000000a0: 1b64 363d 5721 223c 1220 933c 34c5 ec3c
000000b0: 6323 2fba a6a2 15bb 8f5d 583c 2390 103c
000000c0: 24e0 853c 1a62 073d 5c02 ecbb 4b11 8a3c
000000d0: 9218 b1ba 219d 9a3c c02d 823c b79b 183b
000000e0: 3ef4 c43c 32ef 003d b75f 13bd 885f 413c
000000f0: 7384 be3c d7c9 093d b88f c53b 119b 0dbc
00000100: 6780 31bc 96cc 1cba 7aa2 cfba 41d8 0cbc
00000110: 242a 873c b34d e83b 7880 883c 16b2 ca3c
00000120: a7f8 ecba 0028 403d 8ca9 a63b dd8e bb3c
00000130: a001 c2bb a8f2 bfbb 7524 84bb ab75 35bc
00000140: 5aff da3c 26a4 443d 899a 4d3b 93e0 d33c
00000150: a5c1 b93c 7a50 a73c 708a 0c3d 6375 9abc
00000160: c011 5fbc 8753 333d f014 17bc 2c24 003d
00000170: f837 0c3d 1bbc 083d 7106 80ba 423e ac3c
00000180: 7d02 843c 0a92 f7bb 9ee2 053d 6ac3 9cbb
00000190: 58d7 ea38 9356 d83c 9faa b0bb b770 753c
000001a0: 2f81 713c 1396 ca3b 70aa 4a3c d7a0 613c
000001b0: 89e6 87bc 4737 9d3c 4e87 d63c a1ee 1c3d
000001c0: 4f57 0e3d 860d 173d bef8 1f3c 5467 cdbc
000001d0: 1c13 09bb 839e 0e3d d05a 243d 3117 39bc
000001e0: 5c0f 953c 95e2 7d3c 75cc c83c 88dc 83bc
000001f0: 2d75 093d 76d9 f93c f441 053d f1d9 8a3c
00000200: 035e d03b c315 133d 6c7e a7bc a79a 75ba
00000210: e6dc 0c3b 60f7 193d d40a 073d 3c9b f83b
00000220: 5a23 7e3d 6fa8 7a3c 78c5 0c3c 0cd4 4f3d
00000230: b2f1 8d3a bd67 a03c 6db8 0b3c 6401 3d3d
00000240: 4331 013d 37b4 433d 00c4 483c e426 5c3a
00000250: be8d 583a cc2c f63c 4fe8 2bbc 57f0 d73c
00000260: 5b1a 193c d0d9 5d3b b1b9 3e3d 44ae a03c
00000270: 0aa6 1f3c 99fb cd3c 5bdb 033c e220 283d
00000280: 325a 63bc a7de 283d 8b7f 413c 3e11 5bbc
00000290: e0ad 2bbc 11bc 073d e857 3db9 80be 813c
000002a0: f731 443c b05d 763c d2d0 f83c 13fe 253c
000002b0: 094a 413b a74d dc3c edf2 753c c9b3 ed3c
000002c0: 242c 863c a70b c33c c214 00bc c094 e33c
000002d0: 814e 153d 4399 0ebc 4bdf 273d 61f5 893c
000002e0: 9a65 1dbc b179 80bc cf01 473a f9a4 28bc
000002f0: 34aa 8abc 6e6a 56bc de3a e13c 3ada e23c
00000300: 17fa a63b 836e 393c 3a3c af3c be76 753b
00000310: 186c 1039 328f fc3c 36e9 663c 5e79 ffbb
00000320: a7e1 253c 4bbd 073d 61cd b93c 0361 643c
00000330: 3bf3 6cbc c643 1a3d ecb9 2c3c 15c0 223d
00000340: 4abc 74bb bef3 6fbc d670 68bb 5d14 d73c
00000350: f2c9 b73c d4cb 0c3d 631b d53c 9c1f 6ebb
00000360: cce7 d73c 6f8b c33a 6cd1 ec3c dc20 833c
00000370: 75ea 14bc e3cd c13c bb8e a63c 2509 1b3d
00000380: 2951 053d 42ce 793c 00dc 113d cded 3a3d
00000390: 0e69 05bc a861 403d 4d6b cb3b 0a2c 263d
000003a0: b638 0e3d 0c41 843c 1a03 ad3b fb84 3abc
000003b0: 6133 423c a0ab 73bc 7a0a 803b 7f5a ac3a
000003c0: 276f 103d 7948 193d b3bc e73b 027d 273d
000003d0: aaeb 703c 0b62 f23c 6f3e 093d d190 193c
000003e0: 81b3 4d3c cc36 7a3c 0ba1 d1bc f377 6bbc
000003f0: 7785 8a3c 9d82 5dbb 4464 a53c 2c54 5b3c

action_model._continuous_distribution.log_sigma f4 [1, 2]
0.014829292 -0.10935523
00000000: 8ff6 723c a3f5 dfbd

action_model._continuous_distribution.mu.weight f4 [2, 256]
-0.04261769 0.03169708 0.016896086 0.028287608 0.022349184 -0.06043633 8.806081e-05 -0.062642306
-0.038807243 -0.023079062 -0.018723726 -0.028835064 -0.016898872 -0.025573293 0.03723239 -0.01582038
-0.03001896 -0.0073429854 0.015275625 0.06322951 -0.009857878 0.0173538 -0.014238869 -0.00096181204
0.002895888 -0.019179992 -0.023082385 -0.014139983 -0.04714051 -0.008811176 -0.028216459 0.060297716
-0.012068145 -0.04864845 -0.012898942 0.04785228 0.007587088 -0.011372025 -0.062491745 -0.01897579
0.08629259 -0.03906024 -0.018521052 0.011537187 -0.032482993 -0.030275809 0.033915557 -0.019072577
0.010818621 0.055145252 -0.010029537 0.054925285 -0.049073413 -0.048725836 -0.02474782 -0.043254748
-0.03143821 -0.06368774 -0.015499409 -0.0069440277 0.01253846 -0.0389271 -0.042556275 -0.005267535
-0.026647285 -0.027227914 0.009181195 -0.005691009 -0.008582255 -0.008169935 -0.03085462 0.069288455
-0.017413756 -0.0009694628 -0.043818243 0.039839096 -0.047257714 -0.026908785 -0.050766166 -0.042295832
0.01078738 0.05970419 0.027388154 0.00519242 -0.043053314 0.05796032 0.035692245 -0.02635588
-0.013516901 0.0742213 -0.050126232 0.063650325 -0.030086018 0.034790613 -0.03502473 0.049259663
-0.07490442 -0.027117157 0.046209116 -0.03693642 -0.037418153 0.047605194 0.0062172 -0.040460378
-0.00058773346 -0.021439314 -0.025728099 0.04057879 -0.02753676 0.0031477609 -0.05498269 0.035716865
0.0034030096 0.020388216 -0.038785227 -0.025345411 -0.02340468 -0.016809046 0.07549157 -8.386651e-05
0.004807462 0.05847515 -0.024926737 -0.022202587 0.056164734 -0.003828156 -0.06611985 0.018306052
-0.02983986 -0.08465918 -0.023352278 0.003937558 0.017908806 0.032041922 0.026161306 0.0009058668
0.0565203 0.013643233 -0.02527267 0.034134813 -0.0493215 0.0046646665 -0.050236836 0.074668765
-0.05233781 0.018786166 -0.08834749 -0.03932299 0.023594981 -0.07185958 -0.009361757 -0.08636708
-0.027464952 -0.040895075 0.030981757 -0.042575356 -0.06649264 -0.008065688 0.0042392975 0.012254371
-0.03372431 -0.015718967 0.017251905 -0.019127464 -0.054010864 0.05521671 -0.08126863 -0.060144864
-0.07652218 -0.039022766 0.042988233 -0.027931387 0.0104394965 0.0067546703 -0.06174476 -0.020453295
0.019277938 -0.031342417 -0.035039987 0.020576585 -0.061595157 -0.01901239 0.07024489 -0.07336822
-0.035555005 -0.045264196 -0.045314487 -0.027645865 -0.02536098 -0.044831388 0.015542941 0.021764647
-0.041167293 -0.024529384 -0.07145723 -0.022860933 0.01056567 0.0149488235 -0.034637094 -0.029730361
-0.058597576 0.028821947 0.040490445 -0.008261339 -0.02280057 0.00831196 -0.04933887 0.042166762
-0.049485218 0.0006116358 -0.052670043 0.041260187 0.035102412 0.012946896 0.031146972 -0.00084949046
-0.049274895 -0.008057574 0.083089836 -0.0026411612 -0.03773538 0.00044944554 0.0019119632 -0.013685527
0.030478664 0.021260148 0.02040041 0.06912552 -0.054344516 -0.059828084 -0.037035227 0.04459932
-0.019809477 0.02465918 -0.061892256 -0.037359383 -0.079121225 -0.018880075 -0.01832788 -0.042543147
0.028327154 0.04616159 0.013354159 0.047438826 -0.072040044 0.06287225 0.04562732 -0.025586657
-0.019060684 0.026019154 -0.01288132 -0.015013143 -0.031050619 -0.012445347 0.0004773911 -0.05409362
00000000: e38f 2ebd ccd4 013d a969 8a3c 6abb e73c
00000010: a315 b73c 168c 77bd 4aad b838 9c4a 80bd
00000020: 58f4 1ebd 4d10 bdbc 8062 99bc 8337 ecbc
00000030: 816f 8abc 157f d1bc fe80 183d be99 81bc
00000040: 52ea f5bc 6d9d f0bb 9d46 7a3c 797e 813d
00000050: f082 21bc 8e29 8e3c 254a 69bc 1d22 7cba
00000060: f0c8 3d3b 5c1f 9dbc 4517 bdbc 63ab 67bc
00000070: 6816 41bd c05c 10bc 3426 e7bc bdfa 763d
00000080: 78b9 45bc 9943 47bd 1656 53bc c100 443d
00000090: 1b9d f83b bb51 3abc 58f7 7fbd 1e73 9bbc
000000a0: 2bba b03d a1fd 1fbd 76b9 97bc 7806 3d3c
000000b0: e30c 05bd f904 f8bc 0aeb 0a3d 183e 9cbc
000000c0: 9640 313c fddf 613d ed52 24bc 56f9 603d
000000d0: 3401 49bd be94 47bd f1bb cabc e42b 31bd
000000e0: 5ac5 00bd b86e 82bd 3cf1 7dbc ba8a e3bb
000000f0: 1d6e 4d3c 0672 1fbd 7d4f 2ebd 499b acbb
00000100: 684b dabc 130d dfbc b96c 163c a57b babb
00000110: 969c 0cbc 31db 05bc d4c2 fcbc 1be7 8d3d
00000120: 4ba7 8ebc 8c23 7eba c27a 33bd 522e 233d
00000130: 4e91 41bd d06f dcbc 2ff0 4fbd 653e 2dbd
00000140: 8dbd 303c 618c 743d 1f5d e03c 2d25 aa3b
00000150: ac58 30bd cd67 6d3d 0832 123d 49e8 d7bc
00000160: fe75 5dbc 5601 983d 2a51 4dbd 1a5b 823d
00000170: f476 f6bc 9a80 0e3d 1776 0fbd 80c4 493d
00000180: 7d67 99bd cd24 debc c545 3d3d a54a 17bd
00000190: c743 19bd aafd 423d a7b9 cb3b c8b9 25bd
000001a0: 2012 1aba 80a1 afbc bcc3 d2bc f235 263d
000001b0: c594 e1bc aa4a 4e3b 8735 61bd d94b 123d
000001c0: 0705 5f3b 3005 a73c 42dd 1ebd 2ea1 cfbc
000001d0: 2cbb bfbc 20b3 89bc 539b 9a3d 7de1 afb8
000001e0: ea87 9d3b a483 6f3d 2833 ccbc 33e2 b5bc
000001f0: fe0c 663d cde1 7abb d869 87bd 93f6 953c
00000200: b972 f4bc cb61 adbd 474d bfbc a106 813b
00000210: 7db5 923c 643e 033d 3c50 d63c b177 6d3a
00000220: d581 673d de87 5f3c a108 cfbc f2d0 0b3d
00000230: 5705 4abd 0fda 983b 24c5 4dbd f0eb 983d
00000240: 2c60 56bd 72e5 993c 87ef b4bd 2511 21bd
00000250: 434a c13c 1e2b 93bd 0e62 19bc 39e1 b0bd
00000260: 2efe e0bc 9881 27bd 74cd fd3c 7f63 2ebd
00000270: 4b2d 88bd f325 04bc cee9 8a3b 8fc6 483c
00000280: 8122 0abd 10c5 80bc de53 8d3c 33b1 9cbc
00000290: 7f3a 5dbd eb2a 623d 2b70 a6bd 765a 76bd
000002a0: a9b7 9cbd 56d6 1fbd 6e14 303d 5dd0 e4bc
000002b0: 6c0a 2b3c 4856 dd3b 13e8 7cbd ab8d a7bc
000002c0: c4ec 9d3c e860 00bd 1786 0fbd 3a90 a83c
000002d0: 344b 7cbd dfbf 9bbc 8edc 8f3d 1442 96bd
000002e0: 20a2 11bd f366 39bd af9b 39bd 9579 e2bc
000002f0: d4c1 cfbc 1ea1 37bd d2a7 7e3c c64b b23c
00000300: 099f 28bd d9f1 c8bc 2b58 92bd da46 bbbc
00000310: a21b 2d3c e9eb 743c a0df 0dbd 168d f3bc
00000320: 0304 70bd 011c ec3c 4fd9 253d 915a 07bc
00000330: 43c8 babc e32e 083c 8e17 4abd 0eb7 2c3d
00000340: 03b1 4abd 2f56 203a 8bbc 57bd 7100 293d
00000350: 8cc7 0f3d 381f 543c ef27 ff3c 57b0 5eba
00000360: 79d4 49bd ea03 04bc 012b aa3d 5517 2dbb
00000370: 6a90 1abd 8fa3 eb39 d79a fa3a 4339 60bc
00000380: 64ae f93c c329 ae3c c31e a73c ae91 8d3d
00000390: 5b98 5ebd 4b0e 75bd 40b2 17bd c7ad 363d
000003a0: 7c47 a2bc 0c02 ca3c bc82 7dbd 2706 19bd
000003b0: 4f0a a2bd 63aa 9abc 5a24 96bc b941 2ebd
000003c0: 590e e83c ef13 3d3d 67cb 5a3c 374f 423d
000003d0: bb89 93bd 2bc3 803d b6e3 3a3d 1c9b d1bc
000003e0: 2725 9cbc 1f26 d53c 2c0c 53bc b0f9 75bc
000003f0: de5d febc 92e7 4bbc 594a fa39 4691 5dbd

action_model._continuous_distribution.mu.bias f4 [2]
0.015334967 0.019701589
00000000: 833f 7b3c 3a65 a13c

action_model._discrete_distribution.branches.0.weight f4 [1, 256]
-0.0071227164 5.861224e-05 0.0021892504 0.0025819845 0.0015246294 0.0012853484 -0.0016748516 -0.011454385
0.014557846 -0.00093247986 0.005847681 0.0010846884 -0.013906143 -0.0044652233 0.0007051886 -0.0075620757
-0.011252745 -0.009157847 0.005955814 -0.004847328 -0.001606311 -0.010663868 -0.0031950024 5.7444006e-05
0.010358044 0.0031818764 0.00594984 0.0036121767 -0.0029900863 0.000847502 0.0050798 -3.9105544e-05
0.0029834176 0.0005832344 0.0034724586 0.001583109 0.0010227844 0.0036008444 -0.0019162704 -0.008132304
-0.0031130863 0.00016385307 0.0067027654 -0.01151883 -0.0036962477 0.0019383443 -0.0018010599 0.004101233
-0.0035789676 0.009306561 -0.014760243 4.9975126e-05 0.0057029515 0.0044455403 0.0074858763 -0.000320237
0.0018860508 0.0032399308 -0.006395021 0.006147295 0.0010552224 -0.007368778 -0.0048914314 -0.0073516504
0.009744872 -0.0039148927 -0.0030309437 0.013776024 0.0020125369 0.0023864885 -0.011301576 0.0006544471
-0.0020313808 0.0044600456 7.6063465e-05 0.0076316036 -0.0039131413 0.001323849 -0.0052505652 0.0022864135
0.0062605846 -0.009286237 0.004460929 -0.01141549 0.007682425 0.009238784 -0.0060558864 -0.001764506
0.00058490154 -0.008001226 -0.0063306238 0.0013738191 -0.0010427509 -0.0055348193 0.0016175138 -0.0005476733
-0.0069351643 0.004650014 -0.00025081166 0.0017544682 -0.005360413 0.013237357 0.0032220688 -0.00788234
-0.009891759 0.010773256 0.0045168344 -0.0058757863 -0.0010626268 -0.000784044 -0.00410649 0.00096872955
-0.0059402245 0.0024974865 -2.0527454e-05 -0.009206421 0.007425293 -0.0054715923 -0.004703834 -0.0026857534
-0.00042028516 -0.0003550352 -0.0013131703 0.0052095205 0.00017159349 0.0031822734 -0.0077233925 -0.009342913
0.0034085594 -0.008573351 0.0028429118 0.00072450406 -0.0038687524 -0.012232407 0.011218921 -0.0030870016
-0.005784367 0.00047949803 -2.1113454e-05 -0.0023430095 0.0067760455 0.006913637 -0.006932899 0.009417122
0.004718001 0.0015662296 0.0114611965 0.004652125 -0.006593273 0.0009013535 0.0035026593 -0.00488734
-0.00033404268 -0.008028021 0.011135498 0.0082667675 0.009053234 -0.010757712 -0.0011150218 -0.0045364504
0.004324998 0.002054046 -0.004151387 0.00071333215 0.00451366 -0.008330243 0.009842361 0.0013616303
9.00804e-05 -0.00061918976 -0.0017261303 -0.0015161474 -0.0015492627 -0.00048866816 -0.0041339262 0.0036114198
0.008238931 -0.005479609 0.013361561 0.00740035 0.0043016537 0.0011086384 -0.0009290225 -0.0027161536
-0.0020998768 0.0009509271 -0.0055656624 0.008001513 0.0065953056 0.008333299 -0.004635589 -0.010009925
0.0023896203 0.0017671079 -0.0022308703 -0.0028461514 0.010460144 -0.0033411924 -0.004924375 -0.002203332
0.009126397 0.0035446577 0.0033931409 0.005141932 5.486757e-05 -0.008808577 -0.0057155467 -0.0017742489
-0.012213639 0.0022230633 -0.009059896 0.00033621656 0.0014806143 -0.00073458184 -0.014584258 0.0042676246
0.0023676248 -0.001615071 0.0076527162 0.0008266838 -0.010329281 0.011709221 0.008327204 0.003966163
-0.0046079378 0.007930814 0.0037626808 0.00011908894 -0.0106790885 -0.014160521 -0.009375023 -0.006303993
-0.0039992626 0.004787754 0.004893022 -0.001614917 0.007475098 0.010144743 -0.007006111 -0.0059509943
0.008364121 -0.008243098 0.006641096 0.00030322024 -0.0012405271 0.0049560335 -0.010837118 -0.009337094
-0.005729779 -0.0027248003 -0.007638467 0.0012584176 -0.009843714 0.0023718174 -0.0013313349 0.0010824355
00000000: ad65 e9bb 6ad6 7538 8779 0f3b 8336 293b
00000010: 13d6 c73a 2379 a83a b286 dbba 2cab 3bbc
00000020: 0884 6e3c aa71 74ba e79d bf3b 1a2c 8e3a
00000030: 97d6 63bc 0251 92bb 68dc 383a 4acb f7bb
00000040: 6f5d 38bc cb0a 16bc fd28 c33b 56d6 9ebb
00000050: da8a d2ba 81b7 2ebc 3f63 51bb 08f0 7038
00000060: c9b4 293c 0787 503b e0f6 c23b 45ba 6c3b
00000070: 53f5 43bb e52a 5e3a 7374 a63b 4205 24b8
00000080: 7185 433b 33e4 183a 3092 633b 5380 cf3a
00000090: f30e 863a 25fc 6b3b 5d2b fbba 5b3d 05bc
000000a0: ec04 4cbb f9cf 2b39 dfa2 db3b 7ab9 3cbc
000000b0: bf3c 72bb 0b10 fe3a 8b11 ecba a363 863b
000000c0: 1d8d 6abb 8c7a 183c f2d4 71bc 629c 5138
000000d0: d3df ba3b e5ab 913b 154c f53b 7ce5 a7b9
000000e0: 5d35 f73a 0555 543b 538d d1bb 3f6f c93b
000000f0: 634f 8a3a ca75 f1bb 4d48 a0bb 1de6 f0bb
00000100: f5a8 1f3c 8048 80bb cca2 46bb d5b4 613c
00000110: c4e4 033b a266 1c3b 3f2a 39bc 348f 2b3a
00000120: ea20 05bb 9325 923b 4384 9f38 8812 fa3b
00000130: cf39 80bb 0085 ad3a ef0c acbb a7d7 153b
00000140: 9725 cd3b 4d25 18bc fc2c 923b 0908 3bbc
00000150: dabc fb3b 455e 173c 7570 c6bb ff46 e7ba
00000160: 1454 193a 9317 03bc 1f71 cfbb b811 b43a
00000170: eaac 88ba 6e5d b5bb c202 d43a bc91 0fba
00000180: 6040 e3bb 255f 983b 5f7f 83b9 2ff6 e53a
00000190: 67a6 afbb 80e1 583c 5829 533b ee24 01bc
000001a0: 0b11 22bc 5082 303c f401 943b ab89 c0bb
000001b0: d747 8bba 4d88 4dba bc8f 86bb 57f2 7d3a
000001c0: 37a6 c2bb dfac 233b 5f32 acb7 87d6 16bc
000001d0: df4f f33b 0b4b b3bb 9f22 9abb 7703 30bb
000001e0: b859 dcb9 0524 bab9 af1e acba a0b4 aa3b
000001f0: c7ed 3339 b08d 503b 8314 fdbb 0413 19bc
00000200: 2362 5f3b 3e77 0cbc 2550 3a3b a5ec 3d3a
00000210: e58a 7dbb 6f6a 48bc 91cf 373c 4b4f 4abb
00000220: ca8a bdbb 2365 fb39 cc1c b1b7 2d8d 19bb
00000230: 9709 de3b ca8b e23b 5f2d e3bb 464a 1a3c
00000240: 7699 9a3b f249 cd3a bec7 3b3c da70 983b
00000250: 620c d8bb cf48 6c3a df8c 653b fb25 a0bb
00000260: 7322 afb9 f687 03bc aa71 363c 5671 073c
00000270: 0454 143c 1d41 30bc ec25 92ba 81a6 94bb
00000280: b6b8 8d3b 2c9d 063b 5c08 88bb e9fe 3a3a
00000290: 53e7 933b 927b 08bc db41 213c bb78 b23a
000002a0: 8ce9 bc38 1f51 22ba 523f e2ba 77b9 c6ba
000002b0: a110 cbba f719 00ba e375 87bb 92ad 6c3b
000002c0: 95fc 063c 4b8e b3bb 73ea 5a3c a37e f23b
000002d0: e3f4 8c3b bb4f 913a a589 73ba 7f01 32bb
000002e0: 169e 09bb a347 793a 2960 b6bb c718 033c
000002f0: 6f1d d83b 6488 083c 24e6 97bb ab00 24bc
00000300: 2d9b 1c3b 4d9e e73a cb33 12bb 7f86 3abb
00000310: 0661 2b3c e8f7 5abb a75c a1bb c765 10bb
00000320: e286 153c 7d4d 683b 755f 5e3b a77d a83b
00000330: 9b21 6638 da51 10bc 7b49 bbbb ea8d e8ba
00000340: b71b 48bc d0b0 113b f56f 14bc 3946 b039
00000350: 2c11 c23a f490 40ba d0f2 6ebc 6ed7 8b3b
00000360: 272a 1b3b cab0 d3ba a3c3 fa3b d0b5 583a
00000370: 253c 29bc 08d8 3f3c d36e 083c 96f6 813b
00000380: 2ffe 96bb 3ff0 013c 4f97 763b 63bf f938
00000390: 58f7 2ebc 8801 68bc b299 19bc ba91 cebb
000003a0: 3f0c 83bb 97e2 9c3b a555 a03b 9fab d3ba
000003b0: abf1 f43b 2336 263c 8593 e5bb 8f00 c3bb
000003c0: ab09 093c 0f0e 07bc 8d9d d93b 88f9 9e39
000003d0: 2f99 a2ba 3966 a23b 2b8e 31bc 9cfa 18bc
000003e0: dfc0 bbbb 9092 32bb 1b4c fabb 7df1 a43a
000003f0: 8747 21bc 7e70 1b3b 3080 aeba 82e0 8d3a
