EcoSculptor/results/Final_1.1/Alphahunteranimal.onnx (onnx, 58409 bytes, 6 tensors)

network_body._body_endoder.seq_layers.0.weight f4 [256, 47]
0.16714463 -0.20535056 0.035362165 -0.017857669 -0.040468466 0.04478185 -0.07404492 -0.08629017
-0.12805878 0.06790896 0.28557515 -0.078414105 0.14457868 -0.37551832 -0.23031627 -0.10492829
-0.117582805 -0.093645334 0.07290342 -0.051909667 0.042266034 -0.094211966 0.14795497 0.07593194
0.091218375 -0.062126454 0.1025417 -0.13804917 -0.16602512 0.14567304 -0.18570589 0.095046185
-0.06946678 -0.22293228 0.09120482 -0.016536336 -0.024111945 -0.022637656 -0.25906336 -0.1428905
0.010330582 0.09715979 0.11969686 -0.0417371 0.080822095 -0.15124063 -0.004691009 -0.19813831
-0.15979308 -0.047201328 0.027640598 -0.0836383 0.14691092 0.016555002 0.14147171 0.09377554
0.53069764 0.31107423 0.041474793 -0.10870688 0.05601577 0.019303728 -0.14255565 0.002989585
-0.017902916 -0.12307132 -0.08494011 -0.17972389 -0.22472705 0.06380752 0.120960966 0.118948296
-0.046784014 0.055731133 -0.16673987 0.0270878 0.16299386 0.110720135 -0.1903504 0.08268183
0.31712967 -0.016702166 0.17840579 0.0335775 0.18016794 -0.19790663 -0.033226896 0.19361137
0.0045821234 -0.00021287253 -0.030184137 0.018519593 -0.45782563 0.11926166 -0.09175328 -0.007538928
-0.033531055 0.11903046 -0.0111562135 0.2259447 0.12285975 -0.13283294 0.16022259 0.07540119
-0.039913975 -0.08839717 0.08742126 0.03332507 -0.20310545 0.12400473 0.016204523 -0.12923473
-0.09651226 0.4569689 0.1954722 -0.11706383 -0.23766816 0.008213945 -0.015124557 0.29099798
-0.015804073 0.12633854 -0.13279033 -0.032173786 0.18719521 0.05280269 -0.26975647 0.14723605
-0.16877335 0.11082428 -0.042676136 -0.07520775 0.10212288 -0.111051984 0.14065093 -0.0029684757
0.06874249 -0.16044529 -0.11083117 -0.17781824 -0.01667482 -0.123145744 0.06557106 -0.17865725
0.088854015 -0.37282142 0.048014235 -0.28990006 -0.08664317 0.2971519 0.107239306 0.11995631
0.048269384 0.32700983 0.100426026 0.023281213 -0.0078069083 0.1042319 -0.19877529 0.07441772
-0.09284237 -0.0061618392 0.18261226 -0.093242034 -0.09969242 0.15598416 -0.17678198 0.023944514
-0.2781331 -0.033094123 -0.10736358 0.3112019 -0.13842204 -0.1731517 -0.18168956 -0.09255433
-0.086965114 0.017014721 -0.0684219 -0.054590683 -0.30340904 -0.008888931 0.056162152 0.11510167
0.092999704 0.07135895 0.046575982 0.056490093 0.07084695 -0.13500956 0.011675103 -0.10509402
-0.050089084 -0.12040096 0.015045208 0.050986953 0.28032333 0.15309301 -0.10654592 0.1325977
-0.037016496 -0.0031309428 0.15816166 -0.051700898 -0.120527506 0.0423055 -0.043629188 0.17703134
-0.1013585 -0.12858869 -0.10422507 -0.005683434 0.036212113 0.063764736 -0.296968 0.19563095
0.028685322 -0.132213 0.17673662 0.121108614 0.19797121 -0.122995056 -0.069547616 0.17027633
0.12800685 -0.19734725 -0.041920345 0.034637406 0.2665318 -0.091055885 0.1598662 -0.050759126
-0.02581271 0.0015000526 0.17439681 -0.0042543337 -0.1661502 -0.35462156 0.08041999 0.07571098
-0.051804904 -0.11282574 -0.0017216225 0.019470867 -0.019103201 -0.29870293 -0.16058926 0.11436125
-0.10672816 -0.047795385 -0.15386795 -0.04535105 -0.18209332 0.051796105 0.004295025 -0.02891355
00000000: f627 2b3e 6b47 52be ebd7 103d 3f4a 92bc
00000010: 43c2 25bd 2c6d 373d dda4 97bd e7b8 b0bd
00000020: d721 03be da13 8b3d e836 923e 9397 a0bd
00000030: 6f0c 143e f043 c0be 07d8 6bbe a5e4 d6bd
00000040: 41cf f0bd 20c9 bfbd 634e 953d 3b9f 54bd
00000050: 261f 2d3d 34f2 c0bd 8281 173e 3482 9b3d
00000060: b3d0 ba3d 4f78 7ebd 6201 d23d c35c 0dbe
00000070: 7d02 2abe 502b 153e af29 3ebe 93a7 c23d
00000080: 9944 8ebd 5c48 64be 98c9 ba3d 3677 87bc
00000090: 6a86 c5bc 9b72 b9bc f4a3 84be e351 12be
000000a0: 9a41 293c b6fb c63d a123 f53d 85f4 2abd
000000b0: 0e86 a53d d3de 1abe 09b7 99bb c5e4 4abe
000000c0: cca0 23be 2e56 41bd 896e e23c 8f4a abbd
000000d0: d16f 163e 5b9e 873c f6dd 103e 640d c03d
000000e0: cddb 073f 1f45 9f3e 79e1 293d b6a1 debd
000000f0: cb70 653d da22 9e3c 1cfa 11be eaec 433b
00000100: 23a9 92bc d10c fcbd 15f5 adbd 8a09 38be
00000110: d91e 66be 84ad 823d 62ba f73d 2a9b f33d
00000120: 98a0 3fbd 5446 643d dbbd 2abe 3ce7 dd3c
00000130: dde7 263e 3dc1 e23d 37eb 42be 1755 a93d
00000140: d25e a23e fbd2 88bc 02b0 363e 9088 093d
00000150: f27d 383e 09a8 4abe ed18 08bd 0f42 463e
00000160: a325 963b 8936 5fb9 b944 f7bc 67b6 973c
00000170: 1f68 eabe 753f f43d 25e9 bbbd 1d09 f7bb
00000180: dc57 09bd 3ec6 f33d 8dc8 36bc 0c5e 673e
00000190: e59d fb3d 5c05 08be 6411 243e f06b 9a3d
000001a0: d67c 23bd 9309 b5bd eb09 b33d de7f 083d
000001b0: e0fa 4fbe 31f6 fd3d 59bf 843c 1c56 04be
000001c0: 38a8 c5bd d4f7 e93e dd29 483e 29bf efbd
000001d0: 485f 73be c893 063c fdcc 77bc b0fd 943e
000001e0: 8b77 81bc e45e 013e 30fa 07be a9c8 03bd
000001f0: 1ab0 3f3e a247 583d 851d 8abe 0cc5 163e
00000200: ecd2 2cbe d7f7 e23d 2ccd 2ebd 8506 9abd
00000210: cd25 d13d 396f e3bd cc06 103e c28a 42bb
00000220: ddc8 8c3d c54b 24be 74fb e2bd fc15 36be
00000230: a299 88bc d633 fcbd 1f4a 863d edf1 36be
00000240: 18f9 b53d 73e2 bebe 93aa 443d c86d 94be
00000250: f971 b1bd 4b24 983e 48a0 db3d a7ab f53d
00000260: 1eb6 453d d56d a73e 29ac cd3d 3eb8 be3c
00000270: 18d1 ffbb 8977 d53d c08b 4bbe 5168 983d
00000280: 2424 bebd 41e9 c9bb b5fe 3a3e aef5 bebd
00000290: 8a2b ccbd 50ba 1f3e 5606 35be 4927 c43c
000002a0: 7667 8ebe b48d 07bd 70e1 dbbd db55 9f3e
000002b0: 82be 0dbe ae4e 31be d40c 3abe 208d bdbd
000002c0: c41a b2bd 7562 8b3c c820 8cbd 7b9a 5fbd
000002d0: 6e58 9bbe e1a2 11bc 490a 663d 6dba eb3d
000002e0: a176 be3d a424 923d 75c6 3e3d 2862 673d
000002f0: 3518 913d f23f 0abe ee48 3f3c 893b d7bd
00000300: 362a 4dbd c794 f6bd 2d80 763c b2d7 503d
00000310: 8a86 8f3e 6ac4 1c3e bf34 dabd b1c7 073e
00000320: 9c9e 17bd 8130 4dbb 21f5 213e 52c4 53bd
00000330: 20d7 f6bd 8848 2d3d 85b4 32bd b447 353e
00000340: 0c95 cfbd c1ac 03be f473 d5bd 1a3c babb
00000350: 2753 143d 1697 823d 310c 98be 7b53 483e
00000360: 7bfd ea3c d862 07be 72fa 343e cb07 f83d
00000370: f7b8 4a3e d5e4 fbbd fb6e 8ebd eb5c 2e3e
00000380: 3a14 033e 6615 4abe abb4 2bbd f4df 0d3d
00000390: db76 883e 827b babd f7b3 233e cde8 4fbd
000003a0: 2d75 d3bc 6a9d c43a 1495 323e f067 8bbb
000003b0: 4723 2abe f590 b5be 3cb3 a43d 5c0e 9b3d
000003c0: 6131 54bd 2e11 e7bd 11a8 e1ba 5e81 9f3c
000003d0: 517e 9cbc 97ef 98be 8371 24be 3b36 ea3d
000003e0: 4b94 dabd 18c5 43bd 8f8f 1dbe 06c2 39bd
000003f0: ac76 3abe 2728 543d 48bd 8c3b 1cdc ecbc

network_body._body_endoder.seq_layers.0.bias f4 [256]
0.0 0.0 0.0 0.0 0.0 0.0 0.0 0.0
0.0 0.0 0.0 0.0 0.0 0.0 0.0 0.0
0.0 0.0 0.0 0.0 0.0 0.0 0.0 0.0
0.0 0.0 0.0 0.0 0.0 0.0 0.0 0.0
0.0 0.0 0.0 0.0 0.0 0.0 0.0 0.0
0.0 0.0 0.0 0.0 0.0 0.0 0.0 0.0
0.0 0.0 0.0 0.0 0.0 0.0 0.0 0.0
0.0 0.0 0.0 0.0 0.0 0.0 0.0 0.0
0.0 0.0 0.0 0.0 0.0 0.0 0.0 0.0
0.0 0.0 0.0 0.0 0.0 0.0 0.0 0.0
0.0 0.0 0.0 0.0 0.0 0.0 0.0 0.0
0.0 0.0 0.0 0.0 0.0 0.0 0.0 0.0
0.0 0.0 0.0 0.0 0.0 0.0 0.0 0.0
0.0 0.0 0.0 0.0 0.0 0.0 0.0 0.0
0.0 0.0 0.0 0.0 0.0 0.0 0.0 0.0
0.0 0.0 0.0 0.0 0.0 0.0 0.0 0.0
0.0 0.0 0.0 0.0 0.0 0.0 0.0 0.0
0.0 0.0 0.0 0.0 0.0 0.0 0.0 0.0
0.0 0.0 0.0 0.0 0.0 0.0 0.0 0.0
0.0 0.0 0.0 0.0 0.0 0.0 0.0 0.0
0.0 0.0 0.0 0.0 0.0 0.0 0.0 0.0
0.0 0.0 0.0 0.0 0.0 0.0 0.0 0.0
0.0 0.0 0.0 0.0 0.0 0.0 0.0 0.0
0.0 0.0 0.0 0.0 0.0 0.0 0.0 0.0
0.0 0.0 0.0 0.0 0.0 0.0 0.0 0.0
0.0 0.0 0.0 0.0 0.0 0.0 0.0 0.0
0.0 0.0 0.0 0.0 0.0 0.0 0.0 0.0
0.0 0.0 0.0 0.0 0.0 0.0 0.0 0.0
0.0 0.0 0.0 0.0 0.0 0.0 0.0 0.0
0.0 0.0 0.0 0.0 0.0 0.0 0.0 0.0
0.0 0.0 0.0 0.0 0.0 0.0 0.0 0.0
0.0 0.0 0.0 0.0 0.0 0.0 0.0 0.0
00000000: 0000 0000 0000 0000 0000 0000 0000 0000
00000010: 0000 0000 0000 0000 0000 0000 0000 0000
00000020: 0000 0000 0000 0000 0000 0000 0000 0000
00000030: 0000 0000 0000 0000 0000 0000 0000 0000
00000040: 0000 0000 0000 0000 0000 0000 0000 0000
00000050: 0000 0000 0000 0000 0000 0000 0000 0000
00000060: 0000 0000 0000 0000 0000 0000 0000 0000
00000070: 0000 0000 0000 0000 0000 0000 0000 0000
00000080: 0000 0000 0000 0000 0000 0000 0000 0000
00000090: 0000 0000 0000 0000 0000 0000 0000 0000
000000a0: 0000 0000 0000 0000 0000 0000 0000 0000
000000b0: 0000 0000 0000 0000 0000 0000 0000 0000
000000c0: 0000 0000 0000 0000 0000 0000 0000 0000
000000d0: 0000 0000 0000 0000 0000 0000 0000 0000
000000e0: 0000 0000 0000 0000 0000 0000 0000 0000
000000f0: 0000 0000 0000 0000 0000 0000 0000 0000
00000100: 0000 0000 0000 0000 0000 0000 0000 0000
00000110: 0000 0000 0000 0000 0000 0000 0000 0000
00000120: 0000 0000 0000 0000 0000 0000 0000 0000
00000130: 0000 0000 0000 0000 0000 0000 0000 0000
00000140: 0000 0000 0000 0000 0000 0000 0000 0000
00000150: 0000 0000 0000 0000 0000 0000 0000 0000
00000160: 0000 0000 0000 0000 0000 0000 0000 0000
00000170: 0000 0000 0000 0000 0000 0000 0000 0000
00000180: 0000 0000 0000 0000 0000 0000 0000 0000
00000190: 0000 0000 0000 0000 0000 0000 0000 0000
000001a0: 0000 0000 0000 0000 0000 0000 0000 0000
000001b0: 0000 0000 0000 0000 0000 0000 0000 0000
000001c0: 0000 0000 0000 0000 0000 0000 0000 0000
000001d0: 0000 0000 0000 0000 0000 0000 0000 0000
000001e0: 0000 0000 0000 0000 0000 0000 0000 0000
000001f0: 0000 0000 0000 0000 0000 0000 0000 0000
00000200: 0000 0000 0000 0000 0000 0000 0000 0000
00000210: 0000 0000 0000 0000 0000 0000 0000 0000
00000220: 0000 0000 0000 0000 0000 0000 0000 0000
00000230: 0000 0000 0000 0000 0000 0000 0000 0000
00000240: 0000 0000 0000 0000 0000 0000 0000 0000
00000250: 0000 0000 0000 0000 0000 0000 0000 0000
00000260: 0000 0000 0000 0000 0000 0000 0000 0000
00000270: 0000 0000 0000 0000 0000 0000 0000 0000
00000280: 0000 0000 0000 0000 0000 0000 0000 0000
00000290: 0000 0000 0000 0000 0000 0000 0000 0000
000002a0: 0000 0000 0000 0000 0000 0000 0000 0000
000002b0: 0000 0000 0000 0000 0000 0000 0000 0000
000002c0: 0000 0000 0000 0000 0000 0000 0000 0000
000002d0: 0000 0000 0000 0000 0000 0000 0000 0000
000002e0: 0000 0000 0000 0000 0000 0000 0000 0000
000002f0: 0000 0000 0000 0000 0000 0000 0000 0000
00000300: 0000 0000 0000 0000 0000 0000 0000 0000
00000310: 0000 0000 0000 0000 0000 0000 0000 0000
00000320: 0000 0000 0000 0000 0000 0000 0000 0000
00000330: 0000 0000 0000 0000 0000 0000 0000 0000
00000340: 0000 0000 0000 0000 0000 0000 0000 0000
00000350: 0000 0000 0000 0000 0000 0000 0000 0000
00000360: 0000 0000 0000 0000 0000 0000 0000 0000
00000370: 0000 0000 0000 0000 0000 0000 0000 0000
00000380: 0000 0000 0000 0000 0000 0000 0000 0000
00000390: 0000 0000 0000 0000 0000 0000 0000 0000
000003a0: 0000 0000 0000 0000 0000 0000 0000 0000
000003b0: 0000 0000 0000 0000 0000 0000 0000 0000
000003c0: 0000 0000 0000 0000 0000 0000 0000 0000
000003d0: 0000 0000 0000 0000 0000 0000 0000 0000
000003e0: 0000 0000 0000 0000 0000 0000 0000 0000
000003f0: 0000 0000 0000 0000 0000 0000 0000 0000

action_model._continuous_distribution.log_sigma f4 [1, 2]
0.0 0.0
00000000: 0000 0000 0000 0000

action_model._continuous_distribution.mu.weight f4 [2, 256]
-0.015530347 -0.0101831565 0.0059155202 -0.0038951074 0.00772839 0.016678937 0.0008138974 0.0068661715
0.0032016211 -0.0046346555 -0.024050185 0.017184328 -0.005860811 -0.012908493 -0.0051458897 -0.0074375123
-0.00272936 0.006929066 0.00272949 0.021083167 0.008268814 -0.0007640742 0.01865482 0.006980362
-0.006934434 -0.0002064663 0.027750585 -0.016719822 -0.0010183173 0.0076991543 0.021714 -0.0009027673
-0.016249893 -0.005745662 -0.008464589 -0.009424284 0.026887035 0.007949432 0.016098833 0.019071057
0.00217876 -0.009737907 0.0079026045 -0.019787222 -0.020566566 -0.009229854 -0.009903855 0.0048790975
-0.013830559 0.0084308395 -0.0028308383 0.015121932 -0.018922327 -0.02015192 0.0016067432 0.0036414086
0.020068627 -0.013721189 0.020079156 0.0023072385 0.015235919 0.0019708972 -0.018980013 -0.004286164
-0.013201483 -0.00053034833 -0.0051607643 -0.0013452243 0.010909236 -0.0021679038 0.005847586 -0.027082382
-0.014098518 -0.009004781 -0.012382574 0.0016763099 0.018462313 0.00027963388 0.0026904265 -0.0003397135
0.010793071 0.002239425 0.0048526744 0.017648008 0.0024103092 0.011690188 0.012555653 -0.014225373
-2.2704668e-05 0.004535733 -0.0018896934 -0.0040518907 0.0013156524 0.0036497812 0.0033462127 -0.005289158
-0.020173758 0.0051027075 -0.007984361 -0.018192766 0.0019775413 0.014151919 0.011023688 0.0097135
0.011052438 -0.014095107 -0.024139132 -0.0013036652 0.0014988183 0.0036532804 -0.008258465 -0.0338816
0.00059787644 0.014733088 -0.01705431 -0.012771472 -0.023242528 0.022125196 0.0069872104 -0.012201178
-0.0063060606 0.00010341891 0.001868504 -0.0010171216 0.009018421 -0.008677322 0.015387798 -0.0021202562
0.005405541 0.0013670953 0.01614921 -0.0057745404 -0.004428588 -0.0060239914 -0.006526408 0.012140594
-0.0077771503 -0.024196832 -0.014533618 -0.0045695896 0.0020299011 0.011598757 -0.015012527 -0.040269185
0.009519802 0.011299313 0.007724014 -0.0033224009 0.025737107 -0.0017654544 0.029920131 0.010851279
-0.004389663 0.020517092 -0.0029361923 0.011940041 0.006121359 0.026116703 0.0022440774 0.0025766238
-0.0007396677 0.014915853 0.026007771 0.003946171 -0.0021082356 -0.019819558 -0.014744172 0.008811018
0.0141872885 0.002071427 0.008054666 0.02094049 -0.0033067812 -0.012309975 0.015983462 0.012714788
0.010515847 0.018651476 0.020089632 0.019323694 -0.005132414 0.001952282 0.008734073 -0.009824189
-0.016107244 -0.013617299 0.023184968 0.0031875472 0.01944495 0.0077763894 0.0011373784 -0.01758957
-0.007809741 0.02650076 -0.013178833 0.007202163 -0.00842576 0.015202479 0.008389064 -0.003292054
-0.0073552467 0.01492923 0.015227494 -0.019703288 0.017047988 0.010934301 0.0009934087 -0.00088623766
-0.003559668 0.0066603953 -0.0035482831 0.03016162 -0.0114534 0.002104177 0.02347884 0.011999118
0.005774185 -0.0026253944 0.016971674 -0.004822915 0.004521439 0.00040278464 0.014139138 0.009465157
0.0019898003 0.0011900928 0.023011506 -0.0052231764 -0.0043958738 0.013550055 0.0008693345 -0.004683173
-0.023805289 0.0027686476 0.0050663026 0.012599438 -0.0012427996 0.004919146 -0.010813786 0.0035946374
0.015582773 -0.014823459 0.0041727354 0.013369759 -0.010488132 -0.01750264 0.01419144 -0.011639432
-0.0024284138 0.0017265892 -0.006030449 -0.019547066 0.006517242 0.002474937 -0.0045664026 -0.0073348894
00000000: ff72 7ebc 41d7 26bc fbd6 c13b 0f45 7fbb
00000010: 6f3e fd3b 44a2 883c bb5b 553a 9ffd e03b
00000020: 4ad2 513b 4fde 97bb e504 c5bc 26c6 8c3c
00000030: 0c0c c0bb 257e 53bc da9e a8bb 60b6 f3bb
00000040: 10df 32bb 380d e33b 3ee1 323b 9bb6 ac3c
00000050: eb79 073c 274c 48ba fed1 983c 85bb e43b
00000060: 403a e3bb e07e 58b9 3255 e33c 02f8 88bc
00000070: 0f79 85ba 3049 fc3b 8fe1 b13c b0a7 6cba
00000080: 7f1e 85bc 1b46 bcbb 0faf 0abc 5068 1abc
00000090: 3342 dc3c 563e 023c b3e1 833c e83a 9c3c
000000a0: 87c9 0e3b be8b 1fbc ed79 013c d018 a2bc
000000b0: 377b a8bc d038 17bc c743 22bc d6e0 9f3b
000000c0: 9299 62bc 8121 0a3c 9685 39bb fbc1 773c
000000d0: ff02 9bbc a415 a5bc 5b99 d23a b3a4 6e3b
000000e0: f666 a43c d7ce 60bc 0b7d a43c 0a35 173b
000000f0: 13a0 793c 2b2a 013b f97b 9bbc f372 8cbb
00000100: 084b 58bc 1307 0bba a11b a9bb 3d52 b0ba
00000110: a7bc 323c 6413 0ebb 1b9d bf3b dfdb ddbc
00000120: 78fd 66bc ca88 13bc 48e0 4abc a0b7 db3a
00000130: 473e 973c d39b 9239 de51 303b 931b b2b9
00000140: 6cd5 303c 51c3 123b 2f03 9f3b 8e92 903c
00000150: 47f6 1d3b 3488 3f3c 3ab6 4d3c 8a11 69bc
00000160: e775 beb7 7ca0 943b 97af f7ba b9c5 84bb
00000170: f871 ac3a 2b31 6f3b 224c 5b3b ac50 adbb
00000180: 7043 a5bc 9d34 a73b d6d0 02bc ff08 95bc
00000190: a399 013b 73dd 673c b39c 343c 5f25 1f3c
000001a0: 4915 353c 2aef 66bc 6ebf c5bc bfdf aaba
000001b0: ff73 c43a e06b 6f3b 834e 07bc 6fc7 0abd
000001c0: cfba 1c3a 0d63 713c 7bb5 8bbc 703f 51bc
000001d0: 1d67 bebc e63f b53c f8f4 e43b 73e7 47bc
000001e0: 12a3 cebb 9be2 d838 97e8 f43a f050 85ba
000001f0: 00c2 133c 542b 0ebc 1a1d 7c3c fff3 0abb
00000200: f720 b13b 1b30 b33a 594b 843c 5b38 bdbb
00000210: b01d 91bb e764 c5bb 7adb d5bb 58e9 463c
00000220: 77d7 febb 6f38 c6bc 6a1e 6ebc 7fbc 95bb
00000230: 1708 053b b608 3e3c 1af7 75bc 4df1 24bd
00000240: f2f8 1b3c c120 393c ba19 fd3b a3bc 59bb
00000250: a0d6 d23c d266 e7ba 101b f53c 90c9 313c
00000260: 2ad7 8fbb 7613 a83c 226d 40bb 29a0 433c
00000270: ae95 c83b b2f2 d53c 5f11 133b 93dc 283b
00000280: 42e6 41ba 9f61 743c 400e d53c e24e 813b
00000290: 532a 0abb a05c a2bc 8a91 71bc 175c 103c
000002a0: cd71 683c c7c0 073b b8f7 033c 648b ab3c
000002b0: 95b6 58bb c7af 49bc c0ef 823c b051 503c
000002c0: a94a 2c3c fbca 983c 0393 a43c b94c 9e3c
000002d0: cf2d a8bb b7e3 ff3a 5b19 0f3c a3f5 20bc
000002e0: 57f3 83bc 171b 5fbc 67ee bd3c 2be6 503b
000002f0: 044b 9f3c 15d1 fe3b 1614 953a 0018 90bc
00000300: dbe8 ffbb 1f18 d93c 08ec 57bc 1f00 ec3b
00000310: 330c 0abc d213 793c 4972 093c 80bf 57bb
00000320: 4804 f1bb bb99 743c bd7c 793c ca68 a1bc
00000330: 39a8 8b3c c825 333c 4435 823a 6752 68ba
00000340: 5249 69bb 723f da3b 508a 68bb 8015 f73c
00000350: 0ba7 3bbc 3be6 093b b256 c03c f397 443c
00000360: 6035 bd3b cf0e 2cbb 2e08 8b3c 8b09 9ebb
00000370: 9428 943b d72c d339 d8a7 673c bf13 1b3c
00000380: 4f67 023b e3fc 9b3a a082 bc3c 2e27 abbb
00000390: 430b 90bb 0d01 5e3c 0de4 633a 4d75 99bb
000003a0: 4f03 c3bc 3372 353b 3a03 a63b e06d 4e3c
000003b0: 6fe5 a2ba ca30 a13b 4e2c 31bc 0294 6b3b
000003c0: e34e 7f3c 18de 72bc 71bb 883b d50c 5b3c
000003d0: 6ad6 2bbc b261 8fbc 3783 683c 51b3 3ebc
000003e0: 0626 1fbb b84e e23a 139b c5bb 2b21 a0bc
000003f0: 978e d53b 8d32 223b c3a1 95bb 8359 f0bb

action_model._continuous_distribution.mu.bias f4 [2]
0.0 0.0
00000000: 0000 0000 0000 0000

action_model._discrete_distribution.branches.0.weight f4 [1, 256]
-0.0033089132 0.008241807 0.007536184 0.0062974617 0.0022710857 0.0010545457 -0.0001766302 0.0026153717
0.000489825 0.0031145983 -0.00655486 -0.0049661896 -0.0032196962 -0.004071971 -0.005744707 0.0031687655
0.004605552 -0.0016271782 -0.014519355 0.019149998 0.007047334 -0.007761698 0.004775341 -0.0024226082
0.009549696 8.923608e-05 0.0014268118 -0.00061253173 0.0039019485 -0.010275947 0.0043535274 0.0046446524
-0.004377432 0.007137666 0.00808753 0.005805922 -0.0019192136 -0.010993261 0.0038568154 -0.00484802
0.0117678465 -0.0016315602 0.0011836261 0.00059170235 -0.0036918998 0.0049255313 0.0023967486 0.0005374843
0.010981526 -0.004441225 0.006921593 0.0009279701 -0.013867331 0.0016538593 0.0008774673 -0.0011443977
0.008650636 -0.004393923 0.0013081488 -0.0022920584 0.009279924 0.0098862825 0.009713378 -0.00020135616
0.0012616899 -0.0011046298 -0.0004128913 -0.00078154186 -0.0011331682 0.0041444446 0.00063160725 0.0013065868
0.00093253254 -0.0127162775 -0.00033883852 -0.007721265 -0.0068918914 0.01258896 0.007937392 0.00290039
-0.0014443536 0.0067148167 0.0016348169 -0.0073551126 0.0026596056 -0.0014707019 -0.007904114 -0.0072131874
-0.0015479489 0.0031879735 0.0037895031 -0.003402626 0.00023957717 0.0043208925 -4.157099e-05 0.0031467006
2.7886888e-05 0.0065185474 -0.0064635286 -0.0042821034 0.0008544265 -0.0037560933 0.006233699 0.004234704
-0.0034447596 -0.00029808583 -0.0024577465 0.013102295 0.0007208746 -0.0014408291 0.0058928183 -0.008759948
-0.012673231 0.00597424 0.009648222 0.00027049318 0.00014100426 0.013737045 0.004751866 -0.0011848044
0.0062996014 0.0024024246 0.0059010847 -0.00046482706 0.00801593 -0.0006988849 0.000429354 -0.0044211103
-0.0011222827 0.010057724 0.001908875 0.0015969115 0.007139794 0.003844183 -0.004101613 -0.0058479547
-0.0018119973 0.0053668357 0.007455248 -0.0061309156 0.00024075583 -0.0008080622 0.0028856208 0.011496673
0.00021545927 -0.008381881 -0.0038096549 -0.00079382554 -0.0027457937 0.0058175763 0.0037670494 -0.0050131674
-0.009158992 0.005986294 0.0009713643 -0.00415305 -0.0033806784 0.0009517308 0.009964839 0.0067259455
0.009232112 -0.005285317 -0.0035350032 0.0039540897 0.005621283 0.0021827247 0.0033711658 -0.011681727
0.005774351 0.007295482 -0.010959222 -0.003136331 0.0030035179 -0.003302635 0.010367345 0.0032909203
0.0023578133 0.0030058443 -0.007298534 -0.009323128 -0.0024727287 -0.013112425 0.0107488 0.006386933
0.011459748 -0.004451649 -0.009415613 -0.009363751 0.0070007527 -0.0017452112 -0.00029500976 0.0021858786
-0.0033870891 -0.007737271 -0.0057596373 0.0027895737 0.0071072103 0.00017311999 0.0020333666 -0.005354135
0.0018993237 0.0018436961 -0.0038086262 -0.001984108 0.00830292 0.0063437335 -0.009359802 -0.0044301352
-0.0051533473 -0.009866252 -0.0094122235 -0.0051207156 -0.0054514315 -0.006554586 -0.0022072978 0.0059320736
0.0022026948 0.010583881 -0.001246534 0.009917323 -0.0034594815 0.004712621 -0.00027648613 -0.0048868298
-0.0060479105 0.010222913 -0.0018145513 0.010913552 -0.0036205966 0.0026383349 0.009223768 0.0014484151
0.0024580848 -0.0031028509 -0.0043079006 -0.00509992 0.0041775187 -0.0048943353 -0.0025436236 -0.001846063
-0.010239044 -0.0016430052 -0.010402999 0.0019813466 0.0008437355 -0.003151837 -0.0012805656 0.0003025088
-0.0068967375 0.0059862966 -0.0032577098 -0.002709847 -0.011174888 -0.014775405 0.011353101 -0.011927762
00000000: 5ada 58bb a508 073c 18f2 f63b f05a ce3b
00000010: 7fd6 143b af38 8a3a cf35 39b9 a866 2b3b
00000020: 9967 003a 4a1e 4c3b 27ca d6bb 6bbb a2bb
00000030: 8a01 53bb 2b6e 85bb 183e bcbb 10ab 4f3b
00000040: 2cea 963b 0a47 d5ba 97e2 6dbc 75e0 9c3c
00000050: 53ed e63b d855 febb 777a 9c3b 9fc4 1ebb
00000060: 5476 1c3c 4124 bb38 dc03 bb3a 4f92 20ba
00000070: d5b7 7f3b 725c 28bc 09a8 8e3b 2b32 983b
00000080: 9070 8fbb 15e3 e93b 8f81 043c 9b3f be3b
00000090: 1f8e fbba 141d 34bc a0c2 7c3b 24dc 9ebb
000000a0: edcd 403c 13da d5ba e723 9b3a 791c 1b3a
000000b0: cdf3 71bb 5a66 a13b c512 1d3b f6e5 0c3a
000000c0: dceb 333c b287 91bb 88ce e23b 0543 733a
000000d0: cd33 63bc 4fc6 d83a d505 663a 9dff 95ba
000000e0: 66bb 0d3c e6fa 8fbb 3176 ab3a 5c36 16bb
000000f0: d30a 183c 13fa 213c dc24 1f3c 2223 53b9
00000100: 4a5f a53a 3ac9 90ba 5579 d8b9 63e0 4cba
00000110: d186 94ba 1fce 873b 7292 253a c741 ab3a
00000120: 3375 743a ef57 50bc 23a6 b1b9 aa02 fdbb
00000130: 60d5 e1bb ed41 4e3c d60b 023c 7814 3e3b
00000140: 7750 bdba f707 dc3b 5a47 d63a 2803 f1bb
00000150: c74c 2e3b 91c4 c0ba 4280 01bc 9a5c ecbb
00000160: 8ce4 caba 52ed 503b 5059 783b 97fe 5ebb
00000170: 0237 7b39 4696 8d3b 835c 2eb8 e038 4e3b
00000180: a3ee e937 8a99 d53b 02cc d3bb e350 8cbb
00000190: 97fb 5f3a ca28 76bb 0f44 cc3b 46c3 8a3b
000001a0: 7ac1 61bb 6748 9cb9 2512 21bb 02ab 563c
000001b0: 13f9 3c3a 34da bcba 8b18 c13b e385 0fbc
000001c0: 62a3 4fbc 8fc3 c33b 9313 1e3c fbd0 8d39
000001d0: 8bda 1339 5811 613c 8bb5 9b3b 704b 9bba
000001e0: e36c ce3b ff71 1d3b e35d c13b 08b4 f3b9
000001f0: 3f55 033c 5f35 37ba eb1a e139 f6de 90bb
00000200: 8f19 93ba 27c9 243c 3733 fa3a 754f d13a
00000210: eff4 e93b b0ee 7b3b d366 86bb 33a0 bfbb
00000220: 8a80 edba 48dc af3b 274b f43b d9e5 c8bb
00000230: 6773 7c39 23d4 53ba af1c 3d3b 8b5c 3c3c
00000240: e8ec 6139 2854 09bc 67ab 79bb bb18 50ba
00000250: c6f2 33bb 5ea1 be3b 9ae0 763b 7f45 a4bb
00000260: 990f 16bc ac28 c43b 28a3 7e3a 4f16 88bb
00000270: 5f8e 5dbb 937d 793a 9043 233c 5265 dc3b
00000280: 4942 173c 7430 adbb 83ab 67bb 4f91 813b
00000290: bd32 b83b 0b0c 0f3b c7ee 5c3b b764 3fbc
000002a0: c436 bd3b f00e ef3b 4f8e 33bc e78a 4dbb
000002b0: abd6 443b 0571 58bb ccdb 293c 7bac 573b
000002c0: 8b85 1a3b b3fd 443b 8a28 efbb 08c0 18bc
000002d0: 810d 22bb 7fd5 56bc bc1b 303c 7a49 d13b
000002e0: abc1 3b3c 23df 91bb f143 1abc 6b6a 19bc
000002f0: 9266 e53b 92bf e4ba 8aab 9ab9 f540 0f3b
00000300: edf9 5dbb ef88 fdbb 57bb bcbb 48d1 363b
00000310: 9ae3 e83b 8b87 3539 3b42 053b bd71 afbb
00000320: baf2 f83a 2da8 f13a 259a 79bb cf07 02bb
00000330: f808 083c 18df cf3b db59 19bc ab2a 91bb
00000340: 69dd a8bb 0fa6 21bc ba35 1abc adcb a7bb
00000350: eca1 b2bb dac7 d6bb 50a8 10bb d761 c23b
00000360: 165b 103b 0468 2d3c be62 a3ba 447c 223c
00000370: 78b8 62bb 556c 9a3b 57f5 90b9 b321 a0bb
00000380: 8d2d c6bb 017e 273c 3dd6 edba c1ce 323c
00000390: 8847 6dbb eae7 2c3b 491f 173c bfd8 bd3a
000003a0: d217 213b 3359 4bbb 4a29 8dbb 3b1d a7bb
000003b0: 91e3 883b a960 a0bb ecb2 26bb 98f7 f1ba
000003c0: aac1 27bc 1b5a d7ba 5771 2abc 7bd9 013b
000003d0: 222e 5d3a 0d8f 4ebb a7d8 a7ba 0b9a 9e39
000003e0: 07fe e1bb b228 c43b 4d7f 55bb b097 31bb
000003f0: e116 37bc 8a14 72bc 5b02 3a3c a96c 43bc
