EcoSculptor/results/Final_1.3/Alphahunteranimal/Alphahunteranimal-999933.onnx (onnx, 58409 bytes, 6 tensors)

network_body._body_endoder.seq_layers.0.weight f4 [256, 47]
000000 f2 db 92 bd 6d df ae 3e 40 e7 97 be c6 16 e3 3d
       -0.071708575 0.34154835 -0.29668617 0.11088328
000010 7a 96 07 be 7e 6a 89 3d 93 e5 93 be a5 5c bb be
       -0.13240996 0.06709765 -0.2888609 -0.3659412
000020 ea 9e 5e bd 8f 5a 60 be df de 23 3e 48 7e 62 bc
       -0.05435077 -0.21909545 0.16002987 -0.013824053
000030 07 04 45 be 90 17 dd 3d 86 e2 a6 bd b0 71 c5 bd
       -0.19239818 0.1079551 -0.08148675 -0.09640825
000040 0b 2a c3 be ab 4f 32 3e ae 34 9a bb 4d d5 2e bd
       -0.38118014 0.17413203 -0.004705987 -0.04268389
000050 bc 7a 81 be de 58 03 3e dd 31 a5 bd 4b da b5 bc
       -0.2528895 0.12826869 -0.08066151 -0.022198817
000060 0d 15 7b be 3f c9 c1 bc 7d d5 e1 bc 93 fb ad bc
       -0.24519749 -0.023655532 -0.02756762 -0.021238124
000070 a4 69 ee 38 c1 ed 25 3e 34 5b 42 3e 22 7b 12 3e
       0.000113684015 0.16203977 0.18980104 0.14304784
000080 5a dc aa 3d 60 7e 57 3d 46 0b 3b bd 40 3c 1b bd
       0.0834281 0.052610755 -0.045665048 -0.037899256
000090 bf 85 a7 bd 69 bf dd 3d 82 f6 44 be 84 88 80 3d
       -0.08179807 0.10827524 -0.1923466 0.06276038
0000a0 bb 8f a1 bd bb a8 3c 3e c7 1a bc 3e 19 2a 3f be
       -0.078887425 0.1842374 0.3673918 -0.18668403
0000b0 87 21 37 bd 09 48 e8 bd 07 b6 77 3d c1 d4 c5 bd
       -0.04470971 -0.113418646 0.06047633 -0.0965972
0000c0 11 c7 91 3d b3 4a 4d 3b b6 b6 43 3e fc 55 ee be
       0.07118047 0.0031325042 0.19112667 -0.46549976
0000d0 a8 9a bc 3d 60 69 5b 3e 2d 9d 82 3e d4 aa bb bc
       0.09209186 0.21426916 0.2551054 -0.022908606
0000e0 24 83 05 3e f9 36 19 3d 12 0b 05 3e c0 5d b2 be
       0.13038307 0.03740594 0.12992504 -0.3483715
0000f0 13 76 42 3e 83 4f 7c bd b3 24 27 3e fc 54 d9 be
       0.18990354 -0.061599266 0.16322593 -0.4244765
000100 02 51 c1 bd 51 ba 56 bd 90 37 50 3e 03 0a 6a be
       -0.09439279 -0.05242378 0.20333695 -0.22855382
000110 8f d7 63 bc c2 39 04 be bb 69 3d be 36 3b 25 be
       -0.013906374 -0.12912658 -0.18497364 -0.16135868
000120 ae 7a 8f be c7 77 02 be 50 bd 14 be ae 2f ee bd
       -0.28023285 -0.12741004 -0.14525342 -0.11630188
000130 cc 52 c9 be b8 a5 fe bd b6 dd 3b bd 5e c5 c5 be
       -0.39320982 -0.12433952 -0.045865737 -0.38627142
000140 81 4f ed 3b 47 4d 91 3e 6a 71 ae 3e 50 bc 1b bc
       0.0072421436 0.2837927 0.34070903 -0.009505346
000150 e6 0e de 3d 75 90 f4 3c 55 66 74 3e 01 87 8e be
       0.108426854 0.029854039 0.23867162 -0.27837375
000160 57 87 28 3d 75 32 b7 3d 16 ac 86 bd 9d a9 76 bd
       0.041144695 0.08945171 -0.065757915 -0.06022035
000170 f7 d6 42 be 16 38 9c bc 26 66 12 3e ae d0 67 be
       -0.19027315 -0.019069713 0.14296779 -0.22638199
000180 54 08 dc bc 9c ac 57 bd 05 1e e3 bd a1 96 33 3e
       -0.02685944 -0.052654848 -0.1108971 0.17537929
000190 67 58 62 3e 04 22 b5 bd ad e3 0e be 12 cf ae 3e
       0.22104035 -0.088443786 -0.13954039 0.34142357
0001a0 32 12 59 3e 55 0f 18 3e de 80 95 3d 1a c1 5b 3e
       0.21198347 0.14849599 0.0729997 0.21460381
0001b0 7a 5a 26 3b 75 fb 29 be 9e c8 6f 3e 8e c1 44 3e
       0.0025383518 -0.1659983 0.23416373 0.1921446
0001c0 97 43 12 3e 80 ca e1 3d f9 76 fd bd a4 f4 0e be
       0.14283596 0.11024952 -0.12376208 -0.1396051
0001d0 0e 12 39 3e b9 84 50 3e 41 75 c8 3e 62 d2 fc bd
       0.18073294 0.2036313 0.39151958 -0.12344815
0001e0 1f 44 42 3d 13 8a 0c 3e b4 ac 82 3d f6 4f 84 3d
       0.047428247 0.13724546 0.06380597 0.06460564
0001f0 2f 69 37 3e 30 fb fa 3c ab 11 40 3e cf d8 b6 bc
       0.17911218 0.030637354 0.1875674 -0.02232018
000200 d4 72 23 bd f5 45 ce 3d 14 09 97 bd 36 e2 e3 bd
       -0.03990443 0.10071937 -0.073747784 -0.11127131
000210 76 77 9c 3d a8 50 99 3d 20 fb 0a 3e f3 a3 69 bd
       0.07639973 0.07486087 0.13572359 -0.05704112
000220 75 6d 28 3e c5 97 2f be cc 4f 9c bc 1b a8 df 3c
       0.16448005 -0.17147739 -0.019081019 0.027301839
000230 8a 8c a0 3d 68 a7 1b be d7 18 bf bd 17 12 90 3e
       0.07839306 -0.15200579 -0.0933091 0.281388
000240 74 35 22 bc 2a be 9e be c7 91 e4 bd 5f b9 ab 3d
       -0.0099004395 -0.3100446 -0.11160617 0.08384966
000250 ad 1b c0 3d e4 fc 19 be c2 16 ce 3c 15 d9 18 be
       0.09380279 -0.15037876 0.025157336 -0.1492656
000260 a3 10 38 3e 67 e9 ee 3b ff e2 4f 3e 67 a9 73 3d
       0.17975096 0.0072910073 0.20301436 0.059487727
000270 12 48 ee 3e 3c 26 d1 be d0 1a 0a 3d 5d 0e 2b be
       0.4653936 -0.40849483 0.033716977 -0.16704698
000280 fb d9 ed bd f6 68 8f 3c 0f 5e 11 bd 9c d1 1f be
       -0.11613842 0.017506104 -0.035490092 -0.15607303
000290 48 c0 a7 3e 3d f9 be be 79 ce 69 3d 7e d9 88 3c
       0.32763886 -0.3729953 0.057081673 0.01670527
0002a0 c0 74 be bd b7 94 89 3d 04 2c 37 3e e4 62 89 3c
       -0.09299612 0.06717818 0.17887884 0.016770788
0002b0 3a 6a b0 3d 51 49 0e bf a7 e7 61 3e 98 3e a8 bd
       0.08614011 -0.5558062 0.22061025 -0.08215064
0002c0 9b 2e e0 3d 55 b0 56 3e c1 74 53 3d 60 20 94 3d
       0.10946389 0.20965703 0.051625017 0.072327375
0002d0 63 7a 12 3e c7 1b bc be fb ce 1d 3e 57 ee 80 be
       0.143045 -0.36739942 0.15410988 -0.2518184
0002e0 95 e1 f8 bd de 25 95 3c 12 b1 af bc 71 b9 c6 3d
       -0.12152401 0.018206533 -0.021446738 0.09703339
0002f0 7e 24 92 bd 1b 7b 3a 3d c6 6d 4e 3d 7d 62 7d bd
       -0.071358666 0.04552756 0.050397657 -0.061861504
000300 72 64 2f be 51 25 04 3e 68 01 e9 3b 86 b4 27 3d
       -0.1712816 0.1290486 0.0071107633 0.040943645
000310 39 8b a0 be 10 78 d1 3d 65 cb 22 bd e8 19 b6 bd
       -0.31356218 0.10227978 -0.039744753 -0.0889166
000320 db ba 44 be 6a c8 53 3d a5 13 85 3d 11 e0 3e bb
       -0.19211905 0.0517048 0.064978875 -0.0029125253
000330 40 0c ec 3c 86 8c bd bd 85 93 99 bd 39 1d fb 3d
       0.028814435 -0.09255318 -0.0749884 0.12261433
000340 33 d1 49 bd fe 25 1e 3e 1a 7c 8c be 4e 63 a1 3d
       -0.049271774 0.1544418 -0.27438432 0.07880269
000350 a2 18 56 be 18 fa 7c bd 3c 57 b3 3e 8f b1 18 3d
       -0.20907834 -0.061761945 0.35027492 0.037278708
000360 1c 18 bc bd 88 fd a8 bd 1c d9 4a 3d 36 45 ad bd
       -0.09184286 -0.08251482 0.049523458 -0.084604666
000370 62 43 27 be cf 98 d0 3c 17 84 7e bd 7c 6d 29 3d
       -0.16334298 0.02546349 -0.06213769 0.041364178
000380 89 98 af be 43 93 30 be 99 c6 61 be f5 3a 8c be
       -0.34296063 -0.17243676 -0.22048415 -0.2738873
000390 2b 5f a5 3d e5 a6 33 be 99 79 a1 bd c6 8b c6 bc
       0.080747925 -0.17544134 -0.07884521 -0.024236571
0003a0 a6 09 9f bd c2 92 d6 3e c7 a3 1c 3e 30 49 88 3d
       -0.07765512 0.41908842 0.15296851 0.066545844
0003b0 11 38 86 bd 2a 19 93 bd 04 2d e0 3d 42 03 77 bc
       -0.065536626 -0.07182534 0.10946086 -0.01507646
0003c0 07 08 80 bc c3 b2 1f 3e 41 eb da bd 58 2a 2a bd
       -0.015628828 0.15595536 -0.10689402 -0.04154429
0003d0 56 d2 20 be e1 77 f4 bd d1 e4 67 3e 7a 08 50 bc
       -0.15705237 -0.119369276 0.2264588 -0.0126973335
0003e0 94 94 72 3e 4a 65 0d 3e 7b 0a 85 3c af 2a 43 3d
       0.2368949 0.1380817 0.016240349 0.047648128
0003f0 42 43 a6 3e 99 ad 39 3d c2 99 25 bd 4e e8 45 be
       0.3247319 0.04533157 -0.040429838 -0.19326898

network_body._body_endoder.seq_layers.0.bias f4 [256]
000000 84 f4 74 3d 9e 92 83 3d 48 05 3b bd 84 2e e1 3d
       0.0598035 0.064244494 -0.045659333 0.109952
000010 91 c1 ed 3c e7 d0 c0 bc 14 bf 27 3d 75 30 a8 3d
       0.029022964 -0.023537112 0.04095371 0.082123674
000020 a6 da 36 3d 3e fb de bc 1a 28 1f 3d 92 46 f8 3d
       0.044642113 -0.027219411 0.038856603 0.12122835
000030 3b e0 95 3c d7 b3 a7 3b 57 9e 79 3d fe c9 0e 3d
       0.018295398 0.005117874 0.06094202 0.034860604
000040 f1 62 1c 3d 6d 57 3f 3d 2c 45 5e 3d d7 54 f7 bc
       0.038180295 0.046714235 0.054265186 -0.030191822
000050 91 c5 6e bc 13 60 08 bc c3 19 85 3d c6 1b 75 3d
       -0.014573471 -0.008323687 0.06499054 0.05984094
000060 3e 45 b5 3b bd 6e 53 bc 0a 7e b4 3a 64 0e 64 3c
       0.005531936 -0.01290482 0.0013770473 0.013919447
000070 77 91 b6 3d df 61 b9 3b dc c4 d5 bc 51 b7 e2 3d
       0.08914464 0.005657419 -0.026094846 0.11070121
000080 3e 04 7d 3d 8c d2 4f 3d 3b 88 ca 3d 96 c4 a2 bc
       0.061771624 0.050737903 0.09889265 -0.01986913
000090 fa e7 31 bc 03 6a 75 bc a8 b0 f8 bc 5c b2 c6 bb
       -0.01085853 -0.014978888 -0.030357674 -0.0060637426
0000a0 e9 1d d7 3a 04 5b 65 3c d4 8a 28 bc 87 c9 f1 3d
       0.0016412112 0.013998751 -0.010287005 0.118060164
0000b0 41 85 41 3d fc 7e 30 3c bf ae 22 3d 9c 09 9c 3d
       0.04724622 0.010772463 0.039717432 0.0761902
0000c0 4e d7 9c bb fc 53 aa 3d cd 50 06 3d d6 90 19 3d
       -0.0047864085 0.083168 0.0327919 0.037491642
0000d0 14 7b b5 3d b2 2d 7c 3d 3b 95 37 3d 9e a7 fa bb
       0.08861366 0.061567016 0.04482005 -0.007649376
0000e0 83 b4 e4 3d f6 ae 24 bb 2f ab ac bc e0 d2 b2 3c
       0.111672424 -0.00251287 -0.02107772 0.021829069
0000f0 65 16 68 3d 04 55 b5 3d b8 a2 c3 3d 21 e4 d0 3c
       0.056661982 0.08854106 0.095525205 0.025499405
000100 2e 6b 10 3e 13 6c ac 3d 47 37 42 3d 10 33 d0 3c
       0.14103386 0.08419051 0.047415998 0.025414973
000110 e0 a4 a0 3c ee c2 cd 3d 8f 54 07 bc 64 b1 db bc
       0.019609869 0.100469455 -0.008259906 -0.026817985
000120 50 fc 8f 3d 20 ea 51 bd 48 4f 5c 3d ea 0a 72 3d
       0.07030547 -0.05124867 0.053786546 0.05909244
000130 2a cb aa 3d dc 5a 22 3d 4c 53 21 3d 66 6d d4 3b
       0.08339532 0.03963743 0.03938608 0.006482768
000140 a8 c4 a6 3d 98 df 0e bd 62 34 b5 3d 30 da 48 bb
       0.08142978 -0.034881204 0.08847882 -0.0030647628
000150 a5 b0 fa bc 90 10 47 3d 8a ef 1a 3d f8 20 4b 3d
       -0.030601809 0.04859978 0.0378261 0.04959199
000160 01 13 a5 3d d4 29 db 3c 8c 56 bb 3d a7 d8 47 bc
       0.08060265 0.026753344 0.09147367 -0.01219765
000170 59 72 b2 3b d8 20 d1 3b c3 f0 91 3c 8a b4 1c bd
       0.00544576 0.006382089 0.017815 -0.038258113
000180 08 79 b5 3d 92 8e b9 3d 17 a9 1f 39 ea a9 3d 3d
       0.088609755 0.09060396 0.00015226413 0.04630462
000190 94 ad 64 bc 27 90 ae 3d 77 1b 42 bd 31 8b 2f bc
       -0.0139574 0.08523589 -0.047389474 -0.010714338
0001a0 c3 23 3f 3d af 4f 41 3c 6d b9 f4 bb 4d ef 36 3d
       0.046664964 0.011798783 -0.0074683935 0.04466181
0001b0 18 40 90 bc 7a a5 dc bc 7c 66 f0 3b 7f 33 00 3e
       -0.017608687 -0.026934374 0.007336436 0.12519644
0001c0 42 9f 90 3d 53 8b 87 3d b8 de 69 3c 90 af cb 3c
       0.07061626 0.06618371 0.014274292 0.024863988
0001d0 2a be ba bc 91 1c ee 3d db f6 0f 3d 5f 42 88 3b
       -0.022795755 0.11626542 0.03514753 0.0041583027
0001e0 2b 60 01 bd ac b8 4e bc 1c fd 3b 3d 17 a2 9e 3d
       -0.031585854 -0.012617271 0.04589568 0.0774576
0001f0 39 a8 38 bc 8b ea 16 bb 44 94 70 bd 32 9b 24 3d
       -0.011270576 -0.0023027982 -0.058735147 0.04018707
000200 26 f2 dd 3d fc 5d 99 3d 99 48 66 3c 95 45 64 3d
       0.10837202 0.07488629 0.014055395 0.05573042
000210 56 63 96 3d aa a3 20 bd a8 de 5a bc 38 02 6e 3d
       0.073431656 -0.039218582 -0.013358749 0.058107585
000220 fb 74 f9 bc 66 28 9c bc c3 db 3e 3d 96 1c 5f 3b
       -0.030451288 -0.019062232 0.0465963 0.0034044138
000230 39 62 84 3d aa 22 1b 3d d6 c8 01 3c 84 d3 9a 3c
       0.06464047 0.037874855 0.007921418 0.018899687
000240 74 76 0d 3d 48 07 1f 3d f3 92 cf 3c 74 0f a1 3d
       0.034536794 0.038825303 0.025338626 0.078642756
000250 50 d3 fe 39 8c 2c 3a 3d 1e 94 fc 3b ad 36 b3 3d
       0.00048604095 0.04545264 0.0077080866 0.08750663
000260 70 02 ce bc f9 af da bc 2b a4 ca bc d1 10 1c 3d
       -0.025147647 -0.026695238 -0.024736485 0.038101975
000270 3d 40 db 3d 94 ea 51 bd 2b 05 7e 3d b9 fd 88 3d
       0.10705612 -0.0512491 0.062016647 0.06689019
000280 3e e5 fa 3d 49 21 af bc a5 b2 64 3d 56 a4 1b bb
       0.12250756 -0.021378176 0.05583443 -0.0023749075
000290 5f 8e 1e 3d fb 51 37 bd 42 5c 2d bd 09 cf 99 3c
       0.038709994 -0.044755917 -0.042324312 0.01877548
0002a0 ef ec c3 3d 32 08 fd bb 0b eb 2f bd a1 56 97 3d
       0.09566676 -0.007721924 -0.042948764 0.0738957
0002b0 fa 77 06 3c 5d 9c d4 3d e3 24 f6 3d b7 b3 1e 3d
       0.008207316 0.103813864 0.12018754 0.03874561
0002c0 b5 d9 ad 3d 07 58 05 bb 75 72 48 bd 4c 24 c2 3d
       0.0848879 -0.0020346658 -0.04893728 0.09479579
0002d0 59 07 a8 3d 6e 8c 6e bd 87 05 16 3d 8b d5 ad 3c
       0.082045265 -0.058239393 0.036626365 0.02121999
0002e0 56 b4 0f 3d 8b 27 32 bd 80 e6 29 bc 1f 9f 54 bc
       0.03508409 -0.043494742 -0.010369897 -0.012977391
0002f0 c3 56 e4 3c 45 9d f1 bc 2a 35 03 3e 19 0f f6 3d
       0.027873402 -0.029493937 0.12813249 0.120145984
000300 83 7d de 3b 5a c9 5f 3b a5 b6 28 b8 be 74 23 3d
       0.0067898645 0.0034147114 -4.0224422e-05 0.039906256
000310 82 b2 0d 3e a6 78 80 3d 90 b4 80 3d e1 2d 6d bc
       0.13837627 0.06273012 0.062844396 -0.01447627
000320 3c ea 51 3c fe 3c ce 3c 74 a5 80 bc ae f9 68 bc
       0.0128121935 0.025175568 -0.015703894 -0.0142196845
000330 e0 a6 01 3c 5f 62 cf 3c af c8 fe 3d 05 b1 fe 3c
       0.007913321 0.025315462 0.12440621 0.031090269
000340 85 26 9e bc d4 0a 85 3d e4 b0 82 bc 0b 7b 81 3d
       -0.019305477 0.06496206 -0.015953489 0.06322297
000350 8c 3f ba 3d d1 62 37 3d ae af bf 3c 6c 6e 53 bb
       0.09094152 0.044771973 0.0233992 -0.0032261861
000360 17 1c df 3d 6b 1b ae 3d b8 6b a7 3d 25 16 4e 3d
       0.108940296 0.08501323 0.081748426 0.050314087
000370 cb 44 11 3d 3f 62 08 3c d3 f2 09 3c 45 d9 fb bc
       0.035465997 0.008324205 0.00841971 -0.03074325
000380 b5 c6 53 3d 0f 9c f4 3b cc df 1b 3d e5 b9 ab 3d
       0.051703174 0.0074648927 0.038055226 0.08385066
000390 4c bd 17 3d 27 a4 27 bd de 31 bd bc a4 69 7e 3d
       0.037045762 -0.040928032 -0.023095068 0.062112466
0003a0 d7 89 72 3d 70 4d c6 3d fe 0e bb bb 12 52 3f 3d
       0.059213486 0.09682739 -0.0057085743 0.046709128
0003b0 0c 7b 0a bc 88 82 cb bc 57 93 68 3d bb 9d be 3d
       -0.008452188 -0.024842516 0.05678114 0.093074284
0003c0 73 ac cb bc de 6a 2d 3d 27 12 b3 3d c3 c4 af 3d
       -0.024862504 0.042338245 0.08743697 0.08582451
0003d0 13 6e b4 3d 93 0f e7 3d 16 0b cb 3b 19 f5 c2 3d
       0.088100575 0.112822674 0.00619639 0.09519405
0003e0 98 ac b1 3d 38 e3 d1 3d 6e c9 cb 3d 5d 8e d4 3d
       0.08675498 0.10248417 0.09950529 0.10378716
0003f0 f8 cc 0c 3d 86 d3 49 bc 42 f5 80 3c 39 cf e5 3d
       0.03437516 -0.0123184975 0.015741948 0.11221165

action_model._continuous_distribution.log_sigma f4 [1, 2]
000000 dd 6a 8b bd fc 9f 4f bb
       -0.06807492 -0.0031681051

action_model._continuous_distribution.mu.weight f4 [2, 256]
000000 a5 d3 95 bb e0 91 07 3d ed 7f 82 bc 97 e7 bd 3d
       -0.004572349 0.0330981 -0.01593014 0.09272688
000010 c1 a4 39 bc 4f 6f 92 bd 11 6a 08 bc 75 b4 a4 3c
       -0.011330784 -0.07150137 -0.008326069 0.02010558
000020 35 b0 3f 3d 89 ec 47 bd e3 6a 05 3d da e6 0d 3d
       0.046798903 -0.048809562 0.03257264 0.034643985
000030 a7 bd 03 3d 71 39 68 bc 67 32 28 3d f3 a9 bc 3c
       0.03216329 -0.014173851 0.041063692 0.023030257
000040 af ee 8d bc 1d d6 7d 3c b3 b7 9b 3b e8 45 72 39
       -0.017325727 0.015492943 0.0047521233 0.0002310496
000050 6d d4 0f bd 84 42 f7 bc a9 95 23 bb 24 e1 21 3c
       -0.035114694 -0.030183084 -0.002496103 0.009880338
000060 3f 5b e4 bb f4 a5 9a 3b 08 a7 46 3b 2c e5 33 bc
       -0.006968885 0.00471949 0.003031196 -0.010979932
000070 7f f5 b6 3d 6f 2e 8e bc e6 1c dc bc c5 f5 2e 3c
       0.089335434 -0.017356126 -0.026869249 0.010678713
000080 ed e8 7c 3c 28 78 4b 3d 78 95 29 3b 32 87 0c bd
       0.015436393 0.049675137 0.0025876444 -0.03430862
000090 cd ff 9b 3c 99 3c 3b bd cd fc 2f 3c af d5 32 bb
       0.019042874 -0.045712087 0.010741425 -0.002728801
0000a0 f3 f1 99 3c b1 3e cd 3b 6a 14 1b bc 94 74 39 3d
       0.018792128 0.006263577 -0.009465316 0.045277193
0000b0 bd 0d 40 3d 42 67 70 bd 3a dc 24 3d ad e6 4e 3d
       0.0468881 -0.058692224 0.040249087 0.05051296
0000c0 00 c2 0d bd 5b 33 e1 3c 2a 8b 23 3d 5e 6d ca 3c
       -0.03460884 0.027490309 0.03992764 0.024710353
0000d0 09 84 13 3c c9 60 45 3c 78 e7 ad 3c 1c 54 96 bc
       0.009003648 0.012047001 0.021228537 -0.018350653
0000e0 fc 0b d2 3c 6c 77 fb ba 1c b8 fd bc 8c 74 48 3c
       0.02564048 -0.0019185371 -0.03097158 0.012234818
0000f0 91 b9 8b 3d 49 32 8a 3d 4a 10 84 3d 68 3d bb bc
       0.06822503 0.067478724 0.064484194 -0.02285643
000100 63 a8 8f 3d ae 68 41 3d f4 12 83 3c aa 2d 7f bb
       0.07014539 0.04721897 0.016000248 -0.003893713
000110 53 d5 d1 ba 61 77 5d 3b 8b ff 0f bc bb 55 e7 bc
       -0.001600901 0.003379308 -0.008788954 -0.028239122
000120 e0 57 3a 3d 4f 4e 7b 3b ad 87 08 3d e9 54 3d 3d
       0.04549396 0.0038346236 0.033332516 0.046223555
000130 9f 3b 94 3d 9c 1b 23 3c cd 1d 06 3d 85 82 b7 bc
       0.07237934 0.009955313 0.032743264 -0.022401104
000140 1b 93 37 3c 61 c9 84 bc 80 12 04 3d 7d 40 f4 3b
       0.011204506 -0.016209306 0.032244205 0.0074539767
000150 eb e1 39 bd 67 8e d3 3c 6d 13 4e bc 35 69 74 3c
       -0.045381468 0.025824739 -0.012577874 0.014917661
000160 92 c4 54 3d 26 bd 07 3d 5b d0 66 3d 9d a2 8a bd
       0.051945277 0.03313937 0.056351047 -0.06769297
000170 30 f0 89 3c c6 78 97 bb 24 be 5e 3c 10 69 14 bd
       0.016838163 -0.0046225516 0.013595138 -0.036233008
000180 42 49 3d 3d 05 d4 0a 3d 33 d5 08 bd 35 b8 cd 3c
       0.046212442 0.033893604 -0.033406448 0.02511225
000190 80 50 50 bd 02 14 16 3d f4 ba 9d bb c0 0d 1d bd
       -0.05085802 0.036640175 -0.0048135463 -0.03834319
0001a0 85 0f f1 bb 67 b9 a8 3c 98 cc 6a bb 3a 5b c1 3c
       -0.0073565864 0.02059622 -0.0035827514 0.02360307
0001b0 06 83 dd bb 81 aa 06 bd 09 af 01 bc 91 d2 7b 3d
       -0.006760004 -0.03287745 -0.007915267 0.06148011
0001c0 d8 4b cc 3c 2c f9 83 3d 43 42 12 3c 17 cf f5 bb
       0.024938509 0.0644401 0.008926931 -0.0075014937
0001d0 c0 8e 76 bd ba a7 3a 3c 46 4b e8 3c e2 fb cb 3c
       -0.06019473 0.011392528 0.028356206 0.02490038
0001e0 1d 96 d7 3b ef 2b 07 bc 44 68 23 3d 71 bb 57 bc
       0.006579174 -0.008250221 0.039894357 -0.013167248
0001f0 c3 58 d9 bc fb 0b 43 bd e1 9f fe bc 67 e6 b4 3c
       -0.026531583 -0.047618847 -0.031082096 0.02208252
000200 52 ed 11 3e 0e e9 25 bd 28 82 9c ba 52 3d 91 3c
       0.14250687 -0.04050546 -0.0011940645 0.017729435
000210 0a c1 34 3d d6 35 8b 3b ab 79 7c bd b8 13 ef 3b
       0.04412941 0.004248361 -0.06163947 0.007296052
000220 26 bf 32 bd 92 df 11 bd c5 b0 ed 3c 2e 6f 97 bc
       -0.043639325 -0.035613604 0.029014954 -0.018485632
000230 11 e5 90 3c 38 33 e3 3c 50 92 48 3c 4c 6f 08 3d
       0.017687352 0.027734384 0.012241915 0.033309266
000240 1b 86 e9 3b 9b d1 09 bb 09 29 17 3a 22 2b 98 3d
       0.0071265823 -0.0021029476 0.00057663076 0.07430102
000250 2d e5 5a bd 8a 94 d8 3c df 8d a1 bd bd cb 6a 3d
       -0.053441215 0.026438016 -0.07888388 0.057323206
000260 1a 2b 9e bc 63 a2 15 be c3 14 16 bd db 09 af 3c
       -0.019307662 -0.14612727 -0.036640894 0.021367004
000270 42 9f 4b bc 91 0b e7 bb 12 49 ca 3a 1c 3a fc 3c
       -0.012428107 -0.0070509394 0.0015433154 0.030789427
000280 ae e7 6b 3d 75 9a f3 bc 57 7b 8a 3b 01 58 68 bd
       0.057593994 -0.029736737 0.004226129 -0.056724552
000290 e8 e2 ff 3c 24 7c 0b bc c2 7b 33 bd f0 4b 55 bd
       0.031236127 -0.008513484 -0.043819197 -0.052074373
0002a0 7a a5 a8 3b 1d bc 2b bb bc 95 98 bb c2 22 10 3c
       0.0051466795 -0.0026204654 -0.0046565216 0.008797349
0002b0 f1 51 69 bc 19 49 df 3c 98 ef a6 3c 38 d0 a6 bc
       -0.014240728 0.027256535 0.02037792 -0.020362958
0002c0 b8 59 59 3d 78 d0 21 bd 54 9e 54 bc 9b eb 14 3d
       0.053064078 -0.039505452 -0.0129772015 0.036357503
0002d0 26 35 e9 3b 29 e1 11 bc 3b 88 0d 3d 19 d3 19 3d
       0.0071169315 -0.00890378 0.034553748 0.037554834
0002e0 60 6b 03 3d 14 88 20 bc b6 6e 06 bd 4d b5 bd ba
       0.032084823 -0.009798069 -0.032820426 -0.0014473588
0002f0 2e 4a 29 3c e2 0d 01 bc 85 9b 18 3d cb 4e dd 3c
       0.010332627 -0.007876845 0.03725769 0.02701511
000300 98 26 81 3c 83 12 38 bc 8a b0 3f bb 91 c8 ff bc
       0.015765473 -0.011234882 -0.0029249513 -0.031223567
000310 1e 14 16 3d 03 4b 2f 3d dc 73 13 3d 2c 2c 21 bd
       0.03664028 0.042796146 0.035999164 -0.039348766
000320 b1 ec b2 bb e5 b6 fa 3c 9e 55 db bc 5d 52 5e bd
       -0.0054603447 0.030604789 -0.026774224 -0.054277766
000330 56 b4 79 3c da 69 88 bd 1a 62 49 3d 8c a6 94 3c
       0.015240749 -0.066608146 0.049165823 0.018145822
000340 3f cf ea bc 38 30 7e 3c 17 72 ee bc 8d 20 94 bb
       -0.028663276 0.015514426 -0.029107137 -0.004520482
000350 98 da 74 3d 3c f5 e0 bc de 95 05 3c 9a 2f 9e ba
       0.05977878 -0.027460687 0.008153407 -0.001206863
000360 cd dd 6a 3d 4c a1 e7 3c 79 73 0c 3c 6d f2 41 3c
       0.057340432 0.028275155 0.008572453 0.011837584
000370 cd 17 bf ba bb 45 cf bc ca 50 07 bd ca 7a ab bc
       -0.0014579237 -0.025301805 -0.03303603 -0.020932574
000380 61 3c 0a 3c 29 e4 cd 3c 26 7e e1 3c 18 a5 55 3d
       0.008437247 0.02513321 0.027525973 0.0521594
000390 28 aa 11 3d bf 7c 3b bd 30 a0 06 bc 84 c6 32 3d
       0.035562664 -0.045773264 -0.008216903 0.04364635
0003a0 d7 f3 11 3d 3f 5e 1a bb 03 22 82 bc 84 84 84 3b
       0.035632934 -0.002355471 -0.015885359 0.0040441174
0003b0 be b4 6e bd b5 d6 4c bd 9d 3e 63 bb 31 30 ac 3d
       -0.058277838 -0.050009448 -0.0034674772 0.08407629
0003c0 ab fe 3b bc 24 18 55 3b cc 09 e7 3d f1 a1 24 3d
       -0.011474292 0.003251561 0.112811655 0.0401935
0003d0 7c 8e ad 3c fd a7 ce 3d bc b6 c4 bc 29 ef 0a 3d
       0.021186106 0.10090635 -0.024012916 0.033919487
0003e0 0b d6 05 3e 78 22 2e 3d 90 4f 8c 3d c0 43 23 3a
       0.13069932 0.04251334 0.06851113 0.0006228052
0003f0 d5 12 f4 3b 5a 09 ce bc 3e d2 a2 3c 38 39 09 3c
       0.007448534 -0.025150944 0.019875642 0.008375458

action_model._continuous_distribution.mu.bias f4 [2]
000000 ff a3 5b 3d df e5 e4 bc
       0.053623196 -0.027941642

action_model._discrete_distribution.branches.0.weight f4 [1, 256]
000000 32 82 da 39 ad b9 18 3c ff 8b 40 bc 2c ce 37 bc
       0.00041677203 0.009321612 -0.011752128 -0.011218589
000010 5f 86 89 39 97 8a d4 3a c3 50 fc 3b d6 b4 46 bb
       0.0002623079 0.0016215619 0.0077000572 -0.003032019
000020 81 62 b6 39 d6 a1 1c 3b e5 3e 6c bb a7 22 07 bc
       0.00034787136 0.0023900173 -0.003604823 -0.008248008
000030 03 d2 ef bb fe 03 85 bb 40 4e a4 3b 5b 2b 8b 3a
       -0.0073187365 -0.004059314 0.005014211 0.0010617779
000040 35 1d 88 bb b8 90 67 3b 35 b4 33 3b 7f f8 35 bc
       -0.0041538724 0.0035334062 0.0027420644 -0.011106609
000050 a8 9f 09 bc bf 9e 57 bc 67 b3 b2 bb 50 09 8d 3a
       -0.008399881 -0.013160407 -0.0054535153 0.0010760222
000060 f5 5f 0e 3c f9 0d c9 bb 21 91 87 3c 52 5b 5a 3b
       0.00868987 -0.006135699 0.016548695 0.0033318591
000070 e3 0e 0a bc 6f fd 2d ba 98 80 b6 3b 6c 28 29 39
       -0.008426401 -0.0006637191 0.005569529 0.00016132154
000080 73 22 99 bb 7d 84 6f 3b 82 ba a0 bb a2 d0 60 bb
       -0.004673296 0.0036547475 -0.004905046 -0.0034304042
000090 e9 02 1b bb 1b 27 63 3b 22 bc 1b bc d3 07 0d 3c
       -0.0023652858 0.003466076 -0.009505304 0.0086078225
0000a0 ef 70 e8 3a a5 01 6f 3b 3b bd 20 bc f5 1e d5 3b
       0.0017733852 0.0036469486 -0.009810741 0.0065039345
0000b0 0a b4 e5 3a 90 ed e1 ba 4e a6 03 3c d5 bf 32 bb
       0.0017524969 -0.0017236937 0.008035256 -0.0027274985
0000c0 35 fb f3 bb db c2 94 bb ee 72 13 3c ed 22 21 3b
       -0.0074457177 -0.00453983 0.008999569 0.0024587468
0000d0 7d 20 43 bc 47 71 f2 3a 55 97 31 bc 79 e0 39 3b
       -0.011909601 0.0018496894 -0.010839303 0.0028362556
0000e0 b5 32 d0 3b cb 56 6c 3b 53 2b 4d bb d7 b5 fa 3b
       0.006353701 0.0036062475 -0.003130634 0.0076510715
0000f0 5d d5 ed 3a f5 64 dc 3a 67 d2 d4 3a c5 cc 67 3b
       0.0018145252 0.0016814756 0.0016237021 0.0035369855
000100 86 a0 b5 3a 19 8a 01 bc 99 47 bc 3b 0d 2d 24 ba
       0.0013857044 -0.00790646 0.00574584 -0.00062628166
000110 c9 ca c2 3b 71 98 03 bc 73 57 66 bb 74 d8 43 ba
       0.005944584 -0.00803195 -0.0035147339 -0.00074709137
000120 47 d5 de 3a 3f 47 93 3b 52 4c 64 bb bc cf 3e bb
       0.0017000817 0.004494577 -0.003483553 -0.0029115519
000130 0e 5c 07 bc 0d d7 1a b9 4f 3c 46 bc 15 d7 d3 bb
       -0.008261694 -0.00014766697 -0.01209934 -0.0064648488
000140 bf 3a 46 3c 0f df 3e 3c 7d 2d f0 b9 28 87 d9 bb
       0.012098967 0.011649861 -0.0004581026 -0.0066384263
000150 ec b8 aa b9 40 44 e7 ba 0b 85 54 3c 5e 32 25 3c
       -0.00032562704 -0.0017644241 0.012971173 0.010082809
000160 b7 22 cf bb 4d 50 ef 3b 4b 6c c2 3b d9 93 35 bc
       -0.006321277 0.007303274 0.0059333197 -0.011082613
000170 a7 92 54 3b aa ba d6 bb f1 02 85 bb 55 fe e6 bb
       0.0032436044 -0.006553014 -0.0040591885 -0.0070493617
000180 40 7b e9 bb 79 1c 05 bc 0b 3e 52 ba e2 72 7a 3b
       -0.0071252882 -0.008124464 -0.00080201094 0.0038215448
000190 e3 49 f8 3a b8 1b 4c 3c 9b e0 a5 ba da c5 e6 bb
       0.0018942918 0.012457781 -0.0012655439 -0.0070426287
0001a0 3b 82 16 3b b1 e8 11 3b bf ea b6 b7 02 75 1b bb
       0.0022965807 0.002226394 -2.1805403e-05 -0.0023720865
0001b0 0b 17 c8 3b 30 77 d1 bb d3 e2 a3 bb e2 b3 00 3c
       0.0061062626 -0.006392382 -0.005001405 0.007855387
0001c0 b2 61 16 bb 8b e4 83 ba cd 53 e1 ba 78 d7 90 3b
       -0.0022946415 -0.0010062618 -0.0017191112 0.004420217
0001d0 52 0c 29 bc 5a 2c 33 3c 48 65 65 3b 88 9d 6f 3b
       -0.010317879 0.010935867 0.0035002995 0.0036562402
0001e0 67 e8 f0 3a 77 37 c4 3a f1 40 86 3a 5d 51 1e bb
       0.0018379808 0.0014970143 0.0010242743 -0.0024157383
0001f0 27 ef 39 bb 9a c1 14 bc 0b 14 a1 bb 1b 81 7c bb
       -0.0028371306 -0.009079361 -0.0049157194 -0.0038529101
000200 a3 37 54 bb 29 78 03 bb 68 bd ee bb 7f dd b4 3b
       -0.0032381795 -0.0020060635 -0.0072857626 0.0055195685
000210 1f 50 a2 bb 07 6a 3d bc 34 f6 bc 3b 10 7d 90 bb
       -0.004953399 -0.011560923 0.0057666544 -0.00440944
000220 5b 55 20 3b ea 52 26 3b fb 3e 07 bc b6 21 8c 3c
       0.0024464938 0.002537901 -0.008254762 0.017105918
000230 1f b3 32 3c 38 d4 57 3c 49 33 af 3b eb 7e 2c 3c
       0.010906964 0.0131731555 0.00534669 0.0105283065
000240 90 99 58 3b c9 b3 1d 3c df 08 e2 bb 7e 1a ca 3b
       0.0033050515 0.009625384 -0.00689803 0.006167709
000250 1a ab 10 3c ff 4b b8 b9 7c 12 31 ba 2a 0c 9a 3a
       0.008829856 -0.00035151836 -0.00067547685 0.0011752893
000260 8f 3d 0d ba be 5f 28 bc e7 b5 85 ba 9a 6d 27 bc
       -0.0005387896 -0.010276733 -0.0010201306 -0.010219002
000270 5d 7c de 3b 70 b9 fe bb 3f da 0c 3c eb 37 b8 3b
       0.0067897276 -0.0077735707 0.008596956 0.0056219003
000280 36 86 96 bb 85 23 40 3c 4a fa 71 3b ff fe 64 bb
       -0.004593636 0.0117272185 0.0036922866 -0.0034942029
000290 9b e8 ab 3b b4 56 b3 b9 d6 22 b9 bb 3b c3 fb 39
       0.0052462346 -0.0003420614 -0.0056499047 0.0004801991
0002a0 0d 1e 92 bb 95 1c 27 bb 0a 41 5a bb 5b 2d fa bb
       -0.0044591487 -0.0025499214 -0.0033302926 -0.0076348013
0002b0 47 0f 65 ba 6a 54 ec 3a 78 89 78 ba b3 8d 91 bb
       -0.0008737933 0.0018030528 -0.00094809337 -0.0044419407
0002c0 6a b6 df bb 0e e7 0d 3a c6 b0 25 bc 7c 47 22 3b
       -0.0068271654 0.0005413153 -0.010112947 0.0024761846
0002d0 17 c0 e7 3a 13 d7 00 bc 13 64 0c bb 72 56 78 3a
       0.0017681149 -0.007863778 -0.0021421954 0.00094733306
0002e0 a8 09 e4 3b e0 50 6c ba 15 a1 c9 3b 9b c1 2c 3c
       0.006959159 -0.0009014737 0.0061532357 0.010544206
0002f0 87 99 af 3b fe 89 0e 3c 0b df 60 bb a9 cd 25 bb
       0.005358878 0.008699892 -0.0034312631 -0.0025299585
000300 13 11 30 3c 6c c1 af bb 87 d1 b2 bb 7f c9 c6 3b
       0.010746258 -0.005363634 -0.0054571065 0.0060665007
000310 5f f1 11 bb 25 1a 35 bc b0 87 fe bb 0b 88 9d bb
       -0.0022269113 -0.011053597 -0.00776764 -0.0048074774
000320 0d e9 1d 3c 57 73 b4 ba f0 7b 58 bc 10 9a 86 bc
       0.009638083 -0.0013767284 -0.013213143 -0.016430885
000330 c8 9c 53 3b 20 99 aa ba ff 92 2a bb 35 d5 d2 bb
       0.0032289494 -0.0013015606 -0.0026027558 -0.0064341077
000340 1f d6 ab 39 f3 58 cf ba 73 ac ac bb 73 be 7d bb
       0.00032775194 -0.0015819356 -0.005269581 -0.0038718253
000350 b7 1e 0b bc 6f 39 d1 3a 78 70 d0 3a 8f 66 b3 3b
       -0.00849121 0.0015962551 0.0015902659 0.0054748724
000360 de 95 8c 3b 39 3a b0 bb 50 f8 b1 bb f7 09 37 b9
       0.0042903265 -0.0053780344 -0.0054312125 -0.00017455952
000370 bb 2e fb ba 27 58 43 3b 8b db 01 3c 5b 93 fe 39
       -0.0019163707 0.0029807182 0.007925878 0.00048556444
000380 42 55 da 3b d6 44 1e 3b cd dc 5e bb 88 8f 2f 3b
       0.0066629956 0.0024149916 -0.003400612 0.0026788432
000390 ff 03 eb 3b f7 da ec 3b 14 67 ac bb bc 16 81 3b
       0.007172107 0.007228251 -0.0052613113 0.0039394777
0003a0 f6 07 33 ba 91 af 07 3c 52 12 1f 3b 2f 6f a7 3b
       -0.00068294944 0.008281604 0.0024272394 0.0051096897
0003b0 85 c3 4d bc 7e d8 3f ba 01 68 c7 b9 51 67 ca bb
       -0.0125588225 -0.00073183316 -0.00038033727 -0.006176867
0003c0 4b 1f f1 bb d5 8d 36 bb 17 14 34 bc ab 76 8e ba
       -0.0073584667 -0.0027855535 -0.010991118 -0.0010869106
0003d0 68 1d cf ba 1e 57 07 bc 6c 49 cb 3a 3a 0e 17 3b
       -0.001580161 -0.008260516 0.0015509552 0.0023049251
0003e0 c7 54 36 bc 6b dc 70 bb 0a e6 fe 37 e2 5c 6e bb
       -0.011128611 -0.0036752473 3.038628e-05 -0.003637128
0003f0 09 35 1d 3c a8 a6 d6 bb 87 e5 14 bc 9b 8a 3f 3c
       0.009595164 -0.0065506287 -0.009087927 0.011690761
