EcoSculptor/results/Final_1.3/Alphahunteranimal/Alphahunteranimal-1999975.pt (torch, 325147 bytes, 27 tensors)

network_body._body_endoder.seq_layers.0.weight f4 [256, 47]
00000000: 3da8 93bd b24a ad3e 3df1 9abe 791f cf3d
00000010: 87d0 03be 5bf3 843d 6400 98be 343e c0be
00000020: 0b0a 75bd 19b1 67be bea8 233e 6e2a c5bc
00000030: acd5 55be d8de d93d 0c2c bfbd 997e debd
00000040: c835 ccbe 149b 303e 5650 89bc d460 5dbd
00000050: b2b1 8abe bce2 013e 1503 bdbd adb3 12bd
00000060: 272a 83be 57db 05bd 7636 2abd ecc4 16bd
00000070: 33e8 42bc 4dfc 243e fd6a 343e d035 043e
00000080: 211b 923d 8dce 3c3d 77b7 41bd 4a12 45bd
00000090: 69f4 b4bd 6781 e03d af54 4cbe 9011 4d3d
000000a0: 01b1 c4bd 4cb0 3a3e 6c2c bd3e 212a 45be
000000b0: ab93 2abd 7396 e8bd a39a 843d c568 f8bd
000000c0: 8c4e 823d e443 2b3c d0b6 413e 993c fabe
000000d0: 0d83 b43d 1275 5e3e db1b 823e e7f0 28bd
000000e0: 0c0e 013e 7030 303d 3e9b 063e cd55 bfbe
000000f0: cdb5 333e cdb5 7fbd 144e 223e 2ae2 e2be
00000100: ec7b d0bd a8f1 41bd 2d57 503e 336a 78be
00000110: 9186 d3bc 3a77 01be c40c 41be eee7 40be
00000120: d361 98be 0f25 fcbd c4a2 14be d570 03be
00000130: 3758 cabe c1d6 08be ca8d 5ebd 3f55 cdbe
00000140: 5360 e0bb cfcf 943e 29ef ae3e 7d50 89bb
00000150: 3807 d23d 7d32 463c ad58 633e 8b2b a0be
00000160: 8b75 2d3d c9ef c33d 5c3f 81bd 57c9 87bd
00000170: 7075 42be 9c96 a0bc 807f 153e fc40 5bbe
00000180: e124 01bd 7038 33bd e142 ecbd 26d1 3f3e
00000190: 7845 613e 437d a7bd 5a50 0dbe fe6c b33e
000001a0: 337c 5d3e 5f24 223e ac40 b03d e038 6b3e
000001b0: 60d6 c13b 2b46 21be e5bc 743e 7165 4f3e
000001c0: dec8 183e 3530 f83d ade8 f5bd b7df 01be
000001d0: 3e8b 3e3e 2975 5a3e 7594 ce3e 9544 cfbd
000001e0: 2bb7 603d c28e 183e 94eb 923d 858d 923d
000001f0: d69f 453e 52cb 333d 295d 4d3e b8e7 c1bb
00000200: 7381 2bbd 67ee dd3d 392d a0bd ab57 cbbd
00000210: e354 b53d 28b0 bb3d b28c 2d3e 0155 47bd
00000220: 0aff 223e ba67 2cbe 27b3 9ebc fd21 e13c
00000230: fc59 8f3d cedf 2ebe f0f7 b6bd 8fbe 923e
00000240: c370 f4bb 26ac a8be 3a4d dcbd 8530 b83d
00000250: 2dc6 ca3d 60e2 2abe c1bc be3c 2c24 11be
00000260: d7a0 3c3e 7be9 4ebc 0a55 493e ea26 7a3d
00000270: 3e17 ef3e bf5c e0be 985e ec3c 111f 22be
00000280: 2e32 e6bd 0098 293c 05f3 23bd b711 1dbe
00000290: 1b73 a83e 0419 d4be 532d 2b3d 6bc4 9f3c
000002a0: 087f bbbd d69b 813d 8e7b 393e 8bf1 1b3c
000002b0: 0bee ac3d 8622 15bf dc87 513e 64dd a0bd
000002c0: 35a6 e23d cafe 613e 2bf1 233d e5f5 743d
000002d0: 3b99 073e 50a0 cfbe 8bd8 153e 0a26 7bbe
000002e0: 7c18 f3bd 06ff 9d3c d97f a5bc 3aae e83d
000002f0: 2cdb 87bd 829d 2a3d 6eec 2e3d 0a3b 95bd
00000300: 3a43 27be 3c58 033e 7c7d 4eba 94af f93c
00000310: 1e3e a2be b08e d23d 3cf8 37bd 073f cbbd
00000320: 1d5b 4fbe 5569 4f3d aad5 633d 944d 61bc
00000330: 0bcc 8c3c 5ef7 afbd 9315 b1bd 8df3 ea3d
00000340: e150 53bd aa85 1e3e 3fa5 93be 23cf 883d
00000350: c2f5 5ebe ccbb 72bd 37c4 ad3e d150 e23c
00000360: e3df d8bd 6d78 9ebd 7eb1 283d 7140 bcbd
00000370: d857 2cbe 6e5c c13c 425b 76bd dc27 123d
00000380: 1df4 b3be 4b80 2abe c07a 66be 2e95 8fbe
00000390: cb05 933d ee27 33be ff01 9ebd 48ec dabc
000003a0: 7623 96bd 0274 d63e 2f7b 1a3e f3df 8e3d
000003b0: 0fdc 64bd 1d60 9ebd 4920 e63d 9f17 55bc
000003c0: 13cd 1bbc b010 1a3e d8c6 d9bd c316 21bd
000003d0: e5bf 1dbe b3b5 f8bd e0cc 663e fa1a 69bc
000003e0: fbe5 7e3e 6ec0 083e 6567 943c ef94 573d
000003f0: 74a5 a93e bcce 323d c20e 20bd fadb 49be
-0.07209823 0.3384605 -0.30262175 0.10113425 -0.12872516 0.06491729 -0.29687798 -0.37547457
-0.05982403 -0.22626151 0.15982339 -0.024068084 -0.2088229 0.10638207 -0.09334573 -0.1086399
-0.39884782 0.17246658 -0.01676194 -0.05404742 -0.27088696 0.12684149 -0.092291035 -0.035815883
-0.25618097 -0.032679882 -0.041555844 -0.036808893 -0.011896181 0.1611187 0.17618938 0.12911153
0.07134081 0.04609542 -0.047294106 -0.048113145 -0.0883568 0.109621815 -0.19954179 0.050065577
-0.09604073 0.18231314 0.36947954 -0.19254352 -0.041644733 -0.11356821 0.06474807 -0.12129358
0.06362638 0.010453198 0.18917394 -0.48874357 0.088140585 0.21724346 0.25411877 -0.041245367
0.12603015 0.043014944 0.13145158 -0.37370148 0.1754982 -0.062429238 0.15850097 -0.44313174
-0.10179886 -0.047349602 0.20345755 -0.24259262 -0.025821002 -0.12643138 -0.18852526 -0.18838474
-0.29762134 -0.12311756 -0.14515215 -0.12836011 -0.39520428 -0.13363172 -0.05433444 -0.401041
-0.0068474202 0.29064795 0.3416684 -0.004190503 0.10255283 0.012096998 0.22201796 -0.3128322
0.042348426 0.0956722 -0.06310913 -0.066301994 -0.18990111 -0.019603066 0.14599419 -0.21411508
-0.03152931 -0.043754995 -0.11536194 0.18732128 0.21999156 -0.08178189 -0.13800183 0.35044092
0.2162941 0.15834187 0.08606085 0.22970915 0.005915448 -0.15749423 0.23900183 0.2025354
0.14920375 0.1211857 -0.1200727 -0.12682997 0.18607804 0.21333756 0.4034764 -0.10120503
0.054862183 0.14898208 0.07173839 0.07155899 0.19299254 0.043895073 0.20055069 -0.0059175156
-0.0418715 0.10836487 -0.078211255 -0.09928831 0.088540815 0.091644585 0.16948202 -0.04866505
0.15917602 -0.16836444 -0.019372536 0.027482027 0.06999585 -0.17077562 -0.08934009 0.2866101
-0.0074597313 -0.3294384 -0.10756917 0.08993629 0.0990108 -0.16687918 0.023283364 -0.14173955
0.1842073 -0.012628908 0.19661346 0.061072268 0.4669742 -0.4382076 0.0288537 -0.15832163
-0.1124004 0.010351181 -0.040026683 -0.15338789 0.32900319 -0.41425335 0.04179127 0.01950284
-0.09155089 0.063285515 0.18113539 0.009518038 0.084438406 -0.58255804 0.20461982 -0.07854727
0.11066858 0.2206985 0.040024918 0.059804816 0.13242047 -0.40551996 0.14633386 -0.2452623
-0.118699044 0.019286644 -0.020202564 0.11361356 -0.066336006 0.041654117 0.042705946 -0.072866514
-0.16334239 0.12826627 -0.0007876975 0.03047923 -0.31688017 0.10281122 -0.04491447 -0.09924131
-0.202496 0.05063756 0.055623688 -0.013751406 0.017187139 -0.085921034 -0.08646693 0.11472235
-0.051590804 0.15480676 -0.2883701 0.06680133 -0.21773437 -0.05926113 0.33938763 0.027626427
-0.10589578 -0.07737813 0.041184895 -0.09191979 -0.16830385 0.023603644 -0.060145624 0.035682544
-0.3514718 -0.16650502 -0.22507763 -0.28043503 0.07178839 -0.174957 -0.077152245 -0.026723996
-0.073309824 0.41885382 0.15086053 0.06976309 -0.055873927 -0.07733176 0.11236627 -0.01300612
-0.009509343 0.15045428 -0.106336296 -0.039328348 -0.15405233 -0.121440314 0.22539091 -0.014227623
0.24892418 0.13354656 0.018115709 0.05263227 0.33134043 0.04365419 -0.039076574 -0.1971282

network_body._body_endoder.seq_layers.0.bias f4 [256]
00000000: 813d 4d3d 94cc 833d 7753 16bd 7f81 e23d
00000010: f734 a53c ac48 d0bc e936 243d b2ba ae3d
00000020: d629 5d3d 5794 b3bc 0ad5 433d e7a6 f63d
00000030: 52a0 d63c 130c 333b f879 5f3d cf65 e13c
00000040: de50 433d 4dc6 5e3d 0716 5b3d f967 26bd
00000050: f904 04bc 00be 84bb 8f74 723d a571 863d
00000060: 1231 823c b405 acbc e41d fabb 42a2 3b3c
00000070: 5bc2 c13d f1b5 31bb eeca 0bbd dd4a ef3d
00000080: 0773 713d 4d72 6d3d 939a c33d f95f 0abd
00000090: 3ee7 84bb d30d 52bc f595 d2bc dd9e 743a
000000a0: 614d 8abb 3fa3 0a3c 8206 4cbc e5bd 033e
000000b0: e584 3e3d dd2c 883c f202 353d 6b81 a93d
000000c0: 134c 383a db5e aa3d 878e 203d f698 023d
000000d0: 240e b83d 096c 803d b585 533d 3dc1 4cbb
000000e0: 9c08 f13d b19a a03b de67 8dbc 269b a33c
000000f0: f922 6a3d 6752 c73d ccfb c63d d1ef 983c
00000100: 3a16 103e 834f b93d 8748 663d 8429 093d
00000110: 57f1 e83c 3851 bf3d a51b 8fbc 7a41 f6bc
00000120: 5491 983d 84f1 28bd 6f1e 503d 0223 793d
00000130: b0df b83d b023 053d c589 303d 5950 6b3c
00000140: 72a3 b63d 6146 22bd a508 c43d 2fd7 2f3c
00000150: 8028 ccbc 13ae 3d3d 348b fd3c 7a38 343d
00000160: d1e7 b03d 4eae 9b3c a5ef c93d c398 a5bc
00000170: 2461 71bb 67a5 3fbb f57c e33c 570b f8bc
00000180: 23e4 be3d 8950 cf3d e4fa 083c 2b54 3e3d
00000190: 2c07 c3bc 92c4 b73d a92f 31bd f36f 34bb
000001a0: b16a 6e3d e226 9b3c f9f7 913b 4d1d 283d
000001b0: 2951 09bc 2045 29bd e8ff c2ba 1f4d 013e
000001c0: 0e7d 8c3d 4114 963d 67cc b03c cc88 103d
000001d0: 4150 d6bc ce2a fd3d 0055 403d 99c4 9c3b
000001e0: cc4b b5bc 6089 b2ba 614a 5b3d c53b 8d3d
000001f0: a5c5 87bc 840d 1b3b 8fe3 7bbd e0f9 413d
00000200: 5136 f03d 9ddc 8f3d 6b12 bb3c cfde 743d
00000210: 6a6d a63d f636 0fbd e7a1 48bc 0902 573d
00000220: 23d1 0ebd 7c7d 38bc 825a 313d 02db 1f3a
00000230: af07 773d e8d7 3c3d 2b27 033b 5097 4f3c
00000240: 5119 ec3c a653 123d f4b5 0c3d 0045 ac3d
00000250: 3e38 f13b b57d 333d b00f 673c b6a5 b83d
00000260: 675f 02bd e704 dbbc 2867 01bd 5dfb 2f3d
00000270: 863f d13d 2c58 65bd e64b 863d 3f8e 993d
00000280: 302e 013e b12e 5dbc 405c 743d e164 d1bb
00000290: c121 3c3d 1d99 51bd 80be 1fbd e09e c33c
000002a0: ef18 cf3d e255 063b d7ef 33bd 6a30 933d
000002b0: d30d 893c b1af e13d 3160 003e d85d 473d
000002c0: 17f7 b43d f694 11bc ece4 20bd f997 c73d
000002d0: df79 aa3d dc87 8dbd 3487 1b3d ccd0 783c
000002e0: 643f 363d 222e 5bbd bcc6 12bb d1f4 77ba
000002f0: 7dfa c83c caf9 abbc abb6 0b3e 9a5d 043e
00000300: 95f7 86bb 4c05 213c ccbd 213c 522f 423d
00000310: 41e5 153e f3aa 833d b079 933d e0b8 d2bb
00000320: db6b 653b 886f 0a3d fee8 76bc ebf1 0dbc
00000330: 5140 953c 98a0 5e3c e33f 0e3e 6ea0 da3c
00000340: 085a c3bc a622 903d 4bd8 96bc 2c2f 7c3d
00000350: db52 bd3d f529 593d cb0f 873c 2cc9 2cbc
00000360: 3949 fc3d 315c b73d f72a ab3d bf4c 493d
00000370: a025 e03c 8a79 6c3c 28fe 8c3c 1afe 21bd
00000380: 6e48 4e3d 4865 703c ddc5 1b3d db29 b13d
00000390: 9070 1f3d a1f9 41bd 91bd 94bc 9902 8e3d
000003a0: 6252 863d cd98 bf3d eaf6 17bb bf5a 553d
000003b0: b04a cfbb 7e46 e6bc 69de 563d 4673 c73d
000003c0: 2ea3 97bc 2254 1a3d f11d bc3d 47d1 a63d
000003d0: 4981 ca3d 0717 f23d 5e10 5d3c 3cd1 cf3d
000003e0: f43b bf3d cad4 e43d c7c1 d53d 4fda cd3d
000003f0: aa8a dc3c 7f58 54bb e870 cc3c 11f2 ee3d
0.050107483 0.064355046 -0.036700692 0.11059856 0.020166857 -0.025425278 0.04009143 0.08531703
0.053994976 -0.02192132 0.04781059 0.12043553 0.026199494 0.002732043 0.054559678 0.027514366
0.047684543 0.054388333 0.053487804 -0.0406265 -0.008057826 -0.00405097 0.05919319 0.06564645
0.01589254 -0.020998813 -0.007632958 0.0114522595 0.094608985 -0.0027116502 -0.034129076 0.11684201
0.05894759 0.057970334 0.09550967 -0.033782933 -0.0040558865 -0.012820679 -0.02570627 0.0009331534
-0.00422065 0.008461772 -0.012452723 0.12865408 0.046513457 0.016622955 0.044192262 0.08276638
0.0007030379 0.083188735 0.039198425 0.031884156 0.08987072 0.06270606 0.051641185 -0.0031243109
0.1176922 0.004901253 -0.017261442 0.019971441 0.05716226 0.09732514 0.09715995 0.01866904
0.14070979 0.09048369 0.05622151 0.033486858 0.028435392 0.09341663 -0.017469237 -0.030060519
0.07449594 -0.041245952 0.050810274 0.0608244 0.0902704 0.032504737 0.043100137 0.014362418
0.089178935 -0.0396179 0.09571961 0.010732456 -0.024921656 0.04630859 0.030950166 0.043999173
0.086379655 0.019004013 0.09860162 -0.020214444 -0.0036831582 -0.0029242875 0.027769545 -0.030278845
0.093208574 0.10122783 0.008360598 0.046466988 -0.02380713 0.0897304 -0.043258343 -0.0027532547
0.058207218 0.01893944 0.0044546095 0.04104357 -0.0083811665 -0.04132569 -0.0014877291 0.12627076
0.0685979 0.07328082 0.021581842 0.03528671 -0.026161315 0.1236168 0.046956062 0.0047841785
-0.02213087 -0.0013621263 0.05353773 0.06896166 -0.016573736 0.002365918 -0.061496314 0.04735744
0.1172911 0.070245005 0.02283593 0.0597828 0.08126338 -0.034964524 -0.012245632 0.052492175
-0.034867417 -0.011260387 0.043299206 0.00060980034 0.060310062 0.04610434 0.002001236 0.012670353
0.028820666 0.035724305 0.03435321 0.08411598 0.007361441 0.043821055 0.014102861 0.09015982
-0.031829264 -0.026735736 -0.031592518 0.042964328 0.10217194 -0.05599229 0.06557445 0.074978344
0.12615275 -0.013499902 0.05965829 -0.0063901995 0.045930628 -0.05117141 -0.039000034 0.023879468
0.101121776 0.0020497967 -0.0439299 0.071869686 0.016730225 0.110198386 0.12536694 0.04867348
0.08836191 -0.008885613 -0.039280817 0.09745783 0.08324026 -0.06910679 0.037970737 0.0151865
0.044494048 -0.053510793 -0.0022396287 -0.0009458783 0.024533505 -0.020993132 0.13643901 0.12926331
-0.0041188695 0.009827923 0.009871911 0.04740841 0.14638235 0.0642909 0.072009444 -0.00643073
0.0035006914 0.03379777 -0.015070198 -0.008663635 0.018219145 0.013588093 0.13891558 0.026687827
-0.023846641 0.07037859 -0.018413683 0.061568424 0.09244319 0.05301853 0.016487023 -0.01054601
0.123186536 0.08953131 0.08357804 0.049145456 0.027361691 0.014433274 0.017211035 -0.03954897
0.050362043 0.014672585 0.038030494 0.086505614 0.038925707 -0.047357205 -0.018156799 0.06934089
0.06558682 0.09355316 -0.0023187944 0.052088495 -0.006326042 -0.028109785 0.0524582 0.097387835
-0.018510427 0.03767789 0.09185398 0.08145385 0.098879404 0.11820798 0.013492672 0.1014733
0.09337607 0.11173399 0.10437351 0.10051405 0.026921589 -0.003240138 0.024956182 0.11667264

action_model._continuous_distribution.log_sigma f4 [1, 2]
00000000: 8d2e cbbd 0827 4fbc
-0.09920988 -0.012643583

action_model._continuous_distribution.mu.weight f4 [2, 256]
00000000: dbcd 1fbc 7664 283d ecf9 98bc a118 d53d
00000010: 6f10 c7bb fcf4 9bbd a023 a8ba bfee c03c
00000020: 94cb 353d 85d3 4dbd 09cc 113d eb29 183d
00000030: 9e03 143d 2714 52bc 1811 333d 7e5b 123d
00000040: 65ed 92bc e624 893c 8133 0a3c 81f9 893b
00000050: 8acc 17bd 6a91 02bd d170 3239 b409 783c
00000060: 7073 25bc 06a2 133c f14d be3b db1a 2dbc
00000070: 9d40 c73d b0d2 98bc 9934 d8bc 073d 8a3c
00000080: 9f91 f83c 8ba6 553d d3e6 843b 0cf9 0abd
00000090: a41c e43c 0b14 4ebd d4cb 953c 5029 2bb8
000000a0: 665a ba3c 662e 393c 8a0a 31bc f315 563d
000000b0: ecb5 4b3d fd1e 6ebd da48 213d dba7 733d
000000c0: c8e7 0ebd 42bc fe3c c030 4c3d 0a1e e63c
000000d0: 65dd 5b3c c244 a93c bdcc b23c fa59 74bc
000000e0: 07d7 043d 0fc9 8bba 4f23 05bd 978a 863c
000000f0: 5d23 963d ed3c 963d 50ed 983d 6215 c5bc
00000100: 4e67 9f3d e615 503d 52b2 9c3c 579c eb39
00000110: a743 8d39 79a1 b73b d80d 0cbc b33f 06bd
00000120: b7c3 503d d045 283c 2e8e 0c3d 5755 5b3d
00000130: d96d 903d f415 633c 5465 253d 548a bbbc
00000140: f94a 7d3c b30d 5ebc 19f5 2a3d 28ab d33b
00000150: d61b 43bd 9df0 0c3d ca7c 3ebc ce32 fc3c
00000160: 3c2e 5e3d 4fc5 203d 0850 863d 5577 85bd
00000170: 9c5b 8e3c 5f39 98ba 40df 1b3c 3de1 27bd
00000180: 354b 693d fbc3 473d 82ff 0fbd 4ab6 f23c
00000190: dcc5 52bd 00d9 3f3d 51a7 fbbb 240e 29bd
000001a0: a512 f4bb df46 b23c c08e 1bbc 6885 e23c
000001b0: 724a 14bc 47a7 09bd daeb 9ebb 2ddd 9c3d
000001c0: 40b2 083d 4ab3 8e3d fd78 043c 541d 29bc
000001d0: d020 81bd f4a9 b13c 558f 113d 9f89 243d
000001e0: 8ca6 273c da84 7bbc 14ef 413d edaf 4bbc
000001f0: 5bfe d9bc fc2d 4fbd 5263 05bd 4be6 053d
00000200: a1d0 1a3e 6d81 28bd c6c3 e7ba d07d 9e3c
00000210: 8965 4a3d ba3a c93b d75c 81bd 0783 6c3c
00000220: f749 35bd 4f5b 24bd b76a 0d3d c14a 48bc
00000230: 2b22 963c 011c ec3c e258 963c c790 103d
00000240: f460 e73b f112 8b3b fa25 05ba e5dc 9e3d
00000250: d277 6fbd 6a77 e73c ee1e adbd 3e1d 8a3d
00000260: 690c 6abc 1520 1fbe 9852 0abd 5341 b33c
00000270: 4b23 35bc 0eaf 6dbb 47d0 673b f58e fd3c
00000280: a368 873d efca 0dbd bb0f 113c d9bb 78bd
00000290: 21c1 063d 8d69 09bb 19e0 3cbd 6f0f 58bd
000002a0: 41bc 113c d789 98bb 6e02 c9bb 79d0 7a3c
000002b0: 43dc 52bc 107e 113d cb67 bf3c 16ae afbc
000002c0: a28e 863d 49cd 24bd a7e2 66bc adc1 563d
000002d0: a5ec 203c c1d6 eebb 6f6d 123d 06c1 283d
000002e0: 2f86 fb3c 2a98 9bbb 42e3 14bd ac2f 60bb
000002f0: 0a88 443c 0971 15bc 0b99 333d 8bd3 0a3d
00000300: d1de 9c3c 2ee1 3abc 6ace a5bb c9da fbbc
00000310: c5cf 383d 112d 4e3d 1f7b 283d 8642 2fbd
00000320: 8694 d6bb b3d4 fe3c 3d7f e0bc b6d4 65bd
00000330: f6f5 5c3c 02d8 8bbd 4dc8 673d 63b2 b83c
00000340: 7408 06bd 3bc8 be3c 54d1 ddbc 76f1 b7bb
00000350: 4711 953d 2acb edbc 0f54 7c3c 493a 9d3b
00000360: 5800 8c3d 9325 1a3d 091c 1a3c b595 d53c
00000370: c1f9 2b3b 631a d7bc a7a3 1dbd a472 90bc
00000380: 46ca 5e3c e177 ff3c 9e56 1f3d b02e 5e3d
00000390: 59f2 153d b3f2 46bd 5500 c6bb 0064 433d
000003a0: 34e8 263d b9bf f1bb 3ba8 01bc 8a08 153c
000003b0: b524 76bd 0327 5ebd 0c3b acbb 1683 c93d
000003c0: 72d2 0fbc 759d c23b 94a8 f93d bf00 2c3d
000003d0: 24c6 f23c ee54 db3d d658 f3bc 812e 313d
000003e0: 96e3 073e dd70 533d 4845 9e3d 6d4c ac3b
000003f0: 56c7 f23b c64b d4bc 9167 dd3c 3a16 0d3c
-0.00975367 0.041111432 -0.01867386 0.10405088 -0.006074957 -0.076150864 -0.0012828 0.023551343
0.0443836 -0.05025055 0.035594974 0.03714935 0.036136262 -0.0128221875 0.043717474 0.035731785
-0.017935464 0.016741227 0.008435131 0.0042106514 -0.037060298 -0.03187696 0.0001701743 0.015139032
-0.010098323 0.009010797 0.005807631 -0.010565485 0.09729121 -0.018655151 -0.026392268 0.016874803
0.030342875 0.05216078 0.0040558367 -0.033928916 0.027845688 -0.050312083 0.01828567 -4.0808052e-05
0.022748183 0.011302566 -0.010805735 0.052267026 0.04973404 -0.05813502 0.039376117 0.05948625
-0.034889013 0.031095628 0.04985118 0.028090496 0.013419484 0.02066267 0.021826142 -0.01491403
0.03243163 -0.0010664779 -0.032504376 0.016423507 0.07330964 0.073358394 0.07467139 -0.024058048
0.07783376 0.050802134 0.019127999 0.00044939175 0.0002694402 0.005603966 -0.0085482225 -0.032775592
0.0509679 0.010270551 0.03431528 0.053548183 0.07052202 0.0138602145 0.040379837 -0.022893108
0.015459769 -0.013553071 0.04173765 0.0064596124 -0.04763397 0.034409154 -0.011626432 0.030785944
0.05424331 0.03925067 0.065582335 -0.065169014 0.017377667 -0.0011613778 0.009513676 -0.04098629
0.05695649 0.048770886 -0.03515578 0.029627938 -0.051458225 0.046837807 -0.007679858 -0.04127325
-0.0074485117 0.02176231 -0.0094944835 0.027651504 -0.009050952 -0.033606794 -0.004849893 0.076593734
0.033373117 0.069677904 0.0080854865 -0.010321934 -0.063050866 0.021687485 0.035537083 0.04017031
0.010232579 -0.0153514985 0.047347143 -0.012432081 -0.026610544 -0.050580963 -0.032565422 0.032690328
0.15118648 -0.041139055 -0.0017682246 0.019347101 0.049413238 0.006141034 -0.06316536 0.014435536
-0.04425999 -0.04012614 0.0345256 -0.012224854 0.01832684 0.028821947 0.01835293 0.03529432
0.0070611183 0.0042442014 -0.00050792063 0.07756976 -0.05846388 0.028255183 -0.08453165 0.06743859
-0.014285185 -0.15539582 -0.033770174 0.021881735 -0.011055778 -0.003626767 0.0035371946 0.030951956
0.06611755 -0.03461736 0.008853848 -0.06072602 0.032899026 -0.0020967454 -0.046112154 -0.052749094
0.008894981 -0.0046551037 -0.006134323 0.015308493 -0.012869897 0.035520613 0.023364922 -0.021445315
0.06570174 -0.040234838 -0.014092124 0.052430797 0.009822045 -0.0072887843 0.035748895 0.041199706
0.030703632 -0.004748364 -0.036349542 -0.0034208102 0.011995325 -0.009121188 0.043847125 0.03389315
0.019149216 -0.011406226 -0.005060007 -0.030743973 0.04512002 0.050335947 0.041133042 -0.04278805
-0.006548467 0.031107282 -0.027404422 -0.05611106 0.013486376 -0.068283096 0.056587506 0.022545999
-0.032722905 0.023288837 -0.027077354 -0.005613501 0.07278686 -0.02902754 0.0154009005 0.004798208
0.06836003 0.03763349 0.009406098 0.026072362 0.0026241394 -0.0262577 -0.03848615 -0.01763279
0.01359803 0.031185092 0.038900964 0.054243743 0.036608074 -0.0485713 -0.00604252 0.04770279
0.04074879 -0.0073775914 -0.007913644 0.009096274 -0.0600936 -0.054236423 -0.0052560624 0.09839456
-0.008778201 0.0059391805 0.12190357 0.0419929 0.029635496 0.107095584 -0.029705446 0.04325724
0.13270411 0.051621307 0.07728058 0.005258134 0.0074090166 -0.025915038 0.027026923 0.008611256

action_model._continuous_distribution.mu.bias f4 [2]
00000000: 5ba0 703d 00c3 a3bc
0.058746677 -0.019990444

action_model._discrete_distribution.branches.0.weight f4 [1, 256]
00000000: 3282 da39 adb9 183c ff8b 40bc 2cce 37bc
00000010: 5f86 8939 978a d43a c350 fc3b d6b4 46bb
00000020: 8162 b639 d6a1 1c3b e53e 6cbb a722 07bc
00000030: 03d2 efbb fe03 85bb 404e a43b 5b2b 8b3a
00000040: 351d 88bb b890 673b 35b4 333b 7ff8 35bc
00000050: a89f 09bc bf9e 57bc 67b3 b2bb 5009 8d3a
00000060: f55f 0e3c f90d c9bb 2191 873c 525b 5a3b
00000070: e30e 0abc 6ffd 2dba 9880 b63b 6c28 2939
00000080: 7322 99bb 7d84 6f3b 82ba a0bb a2d0 60bb
00000090: e902 1bbb 1b27 633b 22bc 1bbc d307 0d3c
000000a0: ef70 e83a a501 6f3b 3bbd 20bc f51e d53b
000000b0: 0ab4 e53a 90ed e1ba 4ea6 033c d5bf 32bb
000000c0: 35fb f3bb dbc2 94bb ee72 133c ed22 213b
000000d0: 7d20 43bc 4771 f23a 5597 31bc 79e0 393b
000000e0: b532 d03b cb56 6c3b 532b 4dbb d7b5 fa3b
000000f0: 5dd5 ed3a f564 dc3a 67d2 d43a c5cc 673b
00000100: 86a0 b53a 198a 01bc 9947 bc3b 0d2d 24ba
00000110: c9ca c23b 7198 03bc 7357 66bb 74d8 43ba
00000120: 47d5 de3a 3f47 933b 524c 64bb bccf 3ebb
00000130: 0e5c 07bc 0dd7 1ab9 4f3c 46bc 15d7 d3bb
00000140: bf3a 463c 0fdf 3e3c 7d2d f0b9 2887 d9bb
00000150: ecb8 aab9 4044 e7ba 0b85 543c 5e32 253c
00000160: b722 cfbb 4d50 ef3b 4b6c c23b d993 35bc
00000170: a792 543b aaba d6bb f102 85bb 55fe e6bb
00000180: 407b e9bb 791c 05bc 0b3e 52ba e272 7a3b
00000190: e349 f83a b81b 4c3c 9be0 a5ba dac5 e6bb
000001a0: 3b82 163b b1e8 113b bfea b6b7 0275 1bbb
000001b0: 0b17 c83b 3077 d1bb d3e2 a3bb e2b3 003c
000001c0: b261 16bb 8be4 83ba cd53 e1ba 78d7 903b
000001d0: 520c 29bc 5a2c 333c 4865 653b 889d 6f3b
000001e0: 67e8 f03a 7737 c43a f140 863a 5d51 1ebb
000001f0: 27ef 39bb 9ac1 14bc 0b14 a1bb 1b81 7cbb
00000200: a337 54bb 2978 03bb 68bd eebb 7fdd b43b
00000210: 1f50 a2bb 076a 3dbc 34f6 bc3b 107d 90bb
00000220: 5b55 203b ea52 263b fb3e 07bc b621 8c3c
00000230: 1fb3 323c 38d4 573c 4933 af3b eb7e 2c3c
00000240: 9099 583b c9b3 1d3c df08 e2bb 7e1a ca3b
00000250: 1aab 103c ff4b b8b9 7c12 31ba 2a0c 9a3a
00000260: 8f3d 0dba be5f 28bc e7b5 85ba 9a6d 27bc
00000270: 5d7c de3b 70b9 febb 3fda 0c3c eb37 b83b
00000280: 3686 96bb 8523 403c 4afa 713b fffe 64bb
00000290: 9be8 ab3b b456 b3b9 d622 b9bb 3bc3 fb39
000002a0: 0d1e 92bb 951c 27bb 0a41 5abb 5b2d fabb
000002b0: 470f 65ba 6a54 ec3a 7889 78ba b38d 91bb
000002c0: 6ab6 dfbb 0ee7 0d3a c6b0 25bc 7c47 223b
000002d0: 17c0 e73a 13d7 00bc 1364 0cbb 7256 783a
000002e0: a809 e43b e050 6cba 15a1 c93b 9bc1 2c3c
000002f0: 8799 af3b fe89 0e3c 0bdf 60bb a9cd 25bb
00000300: 1311 303c 6cc1 afbb 87d1 b2bb 7fc9 c63b
00000310: 5ff1 11bb 251a 35bc b087 febb 0b88 9dbb
00000320: 0de9 1d3c 5773 b4ba f07b 58bc 109a 86bc
00000330: c89c 533b 2099 aaba ff92 2abb 35d5 d2bb
00000340: 1fd6 ab39 f358 cfba 73ac acbb 73be 7dbb
00000350: b71e 0bbc 6f39 d13a 7870 d03a 8f66 b33b
00000360: de95 8c3b 393a b0bb 50f8 b1bb f709 37b9
00000370: bb2e fbba 2758 433b 8bdb 013c 5b93 fe39
00000380: 4255 da3b d644 1e3b cddc 5ebb 888f 2f3b
00000390: ff03 eb3b f7da ec3b 1467 acbb bc16 813b
000003a0: f607 33ba 91af 073c 5212 1f3b 2f6f a73b
000003b0: 85c3 4dbc 7ed8 3fba 0168 c7b9 5167 cabb
000003c0: 4b1f f1bb d58d 36bb 1714 34bc ab76 8eba
000003d0: 681d cfba 1e57 07bc 6c49 cb3a 3a0e 173b
000003e0: c754 36bc 6bdc 70bb 0ae6 fe37 e25c 6ebb
000003f0: 0935 1d3c a8a6 d6bb 87e5 14bc 9b8a 3f3c
0.00041677203 0.009321612 -0.011752128 -0.011218589 0.0002623079 0.0016215619 0.0077000572 -0.003032019
0.00034787136 0.0023900173 -0.003604823 -0.008248008 -0.0073187365 -0.004059314 0.005014211 0.0010617779
-0.0041538724 0.0035334062 0.0027420644 -0.011106609 -0.008399881 -0.013160407 -0.0054535153 0.0010760222
0.00868987 -0.006135699 0.016548695 0.0033318591 -0.008426401 -0.0006637191 0.005569529 0.00016132154
-0.004673296 0.0036547475 -0.004905046 -0.0034304042 -0.0023652858 0.003466076 -0.009505304 0.0086078225
0.0017733852 0.0036469486 -0.009810741 0.0065039345 0.0017524969 -0.0017236937 0.008035256 -0.0027274985
-0.0074457177 -0.00453983 0.008999569 0.0024587468 -0.011909601 0.0018496894 -0.010839303 0.0028362556
0.006353701 0.0036062475 -0.003130634 0.0076510715 0.0018145252 0.0016814756 0.0016237021 0.0035369855
0.0013857044 -0.00790646 0.00574584 -0.00062628166 0.005944584 -0.00803195 -0.0035147339 -0.00074709137
0.0017000817 0.004494577 -0.003483553 -0.0029115519 -0.008261694 -0.00014766697 -0.01209934 -0.0064648488
0.012098967 0.011649861 -0.0004581026 -0.0066384263 -0.00032562704 -0.0017644241 0.012971173 0.010082809
-0.006321277 0.007303274 0.0059333197 -0.011082613 0.0032436044 -0.006553014 -0.0040591885 -0.0070493617
-0.0071252882 -0.008124464 -0.00080201094 0.0038215448 0.0018942918 0.012457781 -0.0012655439 -0.0070426287
0.0022965807 0.002226394 -2.1805403e-05 -0.0023720865 0.0061062626 -0.006392382 -0.005001405 0.007855387
-0.0022946415 -0.0010062618 -0.0017191112 0.004420217 -0.010317879 0.010935867 0.0035002995 0.0036562402
0.0018379808 0.0014970143 0.0010242743 -0.0024157383 -0.0028371306 -0.009079361 -0.0049157194 -0.0038529101
-0.0032381795 -0.0020060635 -0.0072857626 0.0055195685 -0.004953399 -0.011560923 0.0057666544 -0.00440944
0.0024464938 0.002537901 -0.008254762 0.017105918 0.010906964 0.0131731555 0.00534669 0.0105283065
0.0033050515 0.009625384 -0.00689803 0.006167709 0.008829856 -0.00035151836 -0.00067547685 0.0011752893
-0.0005387896 -0.010276733 -0.0010201306 -0.010219002 0.0067897276 -0.0077735707 0.008596956 0.0056219003
-0.004593636 0.0117272185 0.0036922866 -0.0034942029 0.0052462346 -0.0003420614 -0.0056499047 0.0004801991
-0.0044591487 -0.0025499214 -0.0033302926 -0.0076348013 -0.0008737933 0.0018030528 -0.00094809337 -0.0044419407
-0.0068271654 0.0005413153 -0.010112947 0.0024761846 0.0017681149 -0.007863778 -0.0021421954 0.00094733306
0.006959159 -0.0009014737 0.0061532357 0.010544206 0.005358878 0.008699892 -0.0034312631 -0.0025299585
0.010746258 -0.005363634 -0.0054571065 0.0060665007 -0.0022269113 -0.011053597 -0.00776764 -0.0048074774
0.009638083 -0.0013767284 -0.013213143 -0.016430885 0.0032289494 -0.0013015606 -0.0026027558 -0.0064341077
0.00032775194 -0.0015819356 -0.005269581 -0.0038718253 -0.00849121 0.0015962551 0.0015902659 0.0054748724
0.0042903265 -0.0053780344 -0.0054312125 -0.00017455952 -0.0019163707 0.0029807182 0.007925878 0.00048556444
0.0066629956 0.0024149916 -0.003400612 0.0026788432 0.007172107 0.007228251 -0.0052613113 0.0039394777
-0.00068294944 0.008281604 0.0024272394 0.0051096897 -0.0125588225 -0.00073183316 -0.00038033727 -0.006176867
-0.0073584667 -0.0027855535 -0.010991118 -0.0010869106 -0.001580161 -0.008260516 0.0015509552 0.0023049251
-0.011128611 -0.0036752473 3.038628e-05 -0.003637128 0.009595164 -0.0065506287 -0.009087927 0.011690761

exp_avg f4 [256, 47]
00000000: 80b6 f636 5011 ed36 3e04 5036 94c3 7136
00000010: 1785 4236 71ec 4937 68bb 0ab7 70cd 8c36
00000020: 7c86 3136 c09c 3837 20b2 b136 487a 3a37
00000030: 64a4 4e37 d945 c737 9caf 2bb7 213b 6c37
00000040: 2aa1 87b6 1dbf 1a37 10b4 2636 4a74 a437
00000050: ca8a 5ab7 452f 2538 900f 9937 5a27 f937
00000060: a5cb 88b6 3db7 8f37 387c 1eb7 ce38 7437
00000070: 20d7 6ab6 3050 9a37 d2a8 0d36 f283 8b37
00000080: 5b16 74b7 3005 b137 f02f a137 813c 0d38
00000090: f01c 8036 66aa 2f37 fadc 0c37 6d6b b337
000000a0: 0bed 3db7 0ecf b336 57dc d337 0493 ed37
000000b0: 912f 3bb9 0f51 1aaf 2b5d 8bb9 6840 3b38
000000c0: 14e2 8b37 50c9 9e37 d6ea 8c38 a0c6 e137
000000d0: 0ec3 78b8 bfa7 ba38 1631 a438 bab7 5c38
000000e0: e87a aa37 12c8 8a38 b54d 7838 9666 8438
000000f0: 8369 2ab7 d850 e236 29fa 2a38 95a9 8137
00000100: 27ba c737 034f a938 1aa7 be38 0839 b838
00000110: e819 a536 2093 56b7 e0eb 4238 7f11 83b7
00000120: b2c5 9138 f8bb 3837 09c6 aa38 3ae1 3a38
00000130: 3826 c538 dc82 c037 cb81 8538 22ff a9b7
00000140: b203 7c37 235a 0b38 e17b 8338 790c d937
00000150: 06dd 7938 cc6d 0737 96f2 e637 1121 e437
00000160: d86e 58b8 e0cf 4d37 ff9e 2938 42c0 ce39
00000170: 991d 5830 e937 f939 0231 e4b7 d016 8ab8
00000180: 68ea 18b7 ccfc bab8 7d1b b5b7 acd4 3137
00000190: ace5 92b8 c8e3 b7b8 ab63 8fb8 ed99 90b8
000001a0: a6a0 57b8 3aa3 9db8 814b 9cb8 c07a 97b7
000001b0: d4f6 8ab7 892d 88b8 1061 27b8 1395 6ab8
000001c0: 334c fdb7 e3e6 a8b8 4895 2ab7 a564 0db8
000001d0: c601 e1b8 7678 05b9 745d b6b7 0410 90b8
000001e0: 19fd 7338 9d2c 2fb8 c85b 81b6 29e4 79b8
000001f0: fed3 72b8 be5a aeb8 a572 0b38 a069 8eb8
00000200: c4b9 b4b6 d5d3 9fb8 f953 74b7 e101 47b8
00000210: 8b3f 4eb7 a085 3ab8 ed2a 7b37 44c4 c4b6
00000220: 60e1 0ab8 77c7 89b8 44c2 62b8 eef9 21b0
00000230: 5be3 1139 c7ac 5138 deb3 5239 1032 10b7
00000240: 23b5 8739 019a 9c37 8823 46b8 6887 9239
00000250: 2bfe 9639 4b74 7b37 6c16 9f38 8218 3939
00000260: 8183 8939 7715 9138 8742 8fb8 3c28 1d39
00000270: 1caa 3239 c8aa e935 1ea7 5f39 2c15 2039
00000280: 6038 9239 cc10 2b39 15f4 bab8 58bb 15b8
00000290: df2d ac38 f265 d737 dcbc 4b39 5404 92b7
000002a0: 290f 2839 28ab ba38 aaf9 6439 20e9 dcb7
000002b0: 9449 0c39 9ae7 6938 c46a bf37 8034 68b6
000002c0: 3a8c 8a38 8ab3 fa37 c1e0 0d39 9097 0b37
000002d0: 4c3c f738 e46c 8238 2a36 c037 d662 a337
000002e0: cba8 e738 0a91 403a bb80 f82f 6c79 d53a
000002f0: 5119 f035 443b 00b7 6a67 7ab6 3e46 bfb7
00000300: 607e d934 226c de36 1fb4 0ab8 fdab 00b8
00000310: 8cf5 3836 d6ff ceb6 09ef 7236 5c02 9eb7
00000320: ec2c 8137 f414 ba36 1056 efb7 a8d4 02b8
00000330: ac99 2936 6da8 7ab6 ada9 6db7 2038 9db7
00000340: e7fb d8b5 9bc8 4a37 14c4 08b6 bc25 a1b7
00000350: 9e3d 03b7 2864 8636 a0c1 04b8 4506 beb7
00000360: bda8 ff34 747a b235 2e45 e7b6 558c a2b7
00000370: 574d 22b7 a818 1336 35fe 6eb7 c4a4 27b7
00000380: 92ea 83b6 047d 1736 f11b ddb6 be6e a1b7
00000390: d07c 17b7 f2d6 89b7 be61 c436 1393 56b7
000003a0: 3c67 6fb8 0aee fc2d bc78 5cb8 0887 15b8
000003b0: 29bc 9bb8 58c2 1037 d7f6 2fb9 b752 6bb8
000003c0: 42ef a038 d6db 5eb9 fcf0 50b9 f267 b3b7
000003d0: 4820 34b8 04c9 a4b8 09d9 2ab9 da92 82b8
000003e0: 3eae 4f38 a901 ebb8 48d8 13b9 b009 21b7
000003f0: af95 88b8 48d1 44b9 565a 63b9 89fc 51b8
7.352617e-06 7.065166e-06 3.0996885e-06 3.602564e-06 2.8985721e-06 1.2035584e-05 -8.269075e-06 4.196241e-06
2.6453336e-06 1.1003751e-05 5.2957475e-06 1.1114935e-05 1.2316832e-05 2.3755174e-05 -1.02332815e-05 1.4080463e-05
-4.0420755e-06 9.223612e-06 2.4840738e-06 1.9604475e-05 -1.3026127e-05 3.938309e-05 1.8246268e-05 2.9701438e-05
-4.076823e-06 1.7132255e-05 -9.446456e-06 1.4556759e-05 -3.4993936e-06 1.839557e-05 2.1108904e-06 1.6631533e-05
-1.4548738e-05 2.110246e-05 1.9215018e-05 3.367337e-05 3.818066e-06 1.0470487e-05 8.3961e-06 2.1388487e-05
-1.1320469e-05 5.35872e-06 2.5255764e-05 2.8321061e-05 -0.0001785143 -1.4035016e-10 -0.00026581562 4.4644257e-05
1.6675367e-05 1.8928811e-05 6.719462e-05 2.6914582e-05 -5.9309466e-05 8.900416e-05 7.829272e-05 5.2623196e-05
2.0322812e-05 6.617619e-05 5.9200178e-05 6.3133586e-05 -1.0157356e-05 6.7447363e-06 4.076414e-05 1.5456966e-05
2.3809333e-05 8.073265e-05 9.091031e-05 8.7844266e-05 4.920399e-06 -1.2789649e-05 4.647288e-05 -1.5624564e-05
6.9509624e-05 1.10110195e-05 8.1431186e-05 4.4555614e-05 9.400811e-05 2.294912e-05 6.36611e-05 -2.0265175e-05
1.5021231e-05 3.322413e-05 6.269641e-05 2.5874224e-05 5.957207e-05 8.072191e-06 2.75311e-05 2.7195116e-05
-5.1601644e-05 1.2267352e-05 4.0440817e-05 0.00039434625 7.8622403e-10 0.00047534637 -2.7202539e-05 -6.584602e-05
-9.114483e-06 -8.916258e-05 -2.1589682e-05 1.0599539e-05 -7.004602e-05 -8.7685476e-05 -6.837336e-05 -6.895126e-05
-5.140961e-05 -7.516747e-05 -7.4527234e-05 -1.8057763e-05 -1.656582e-05 -6.493467e-05 -3.99063e-05 -5.5928784e-05
-3.0195433e-05 -8.05387e-05 -1.0167547e-05 -3.3710752e-05 -0.000107291664 -0.00012728744 -2.1739608e-05 -6.869438e-05
5.817143e-05 -4.17648e-05 -3.8551843e-06 -5.9578717e-05 -5.789473e-05 -8.3138686e-05 3.3246954e-05 -6.790762e-05
-5.386044e-06 -7.6211676e-05 -1.4563085e-05 -4.7447047e-05 -1.2293352e-05 -4.4470304e-05 1.497076e-05 -5.8641035e-06
-3.311166e-05 -6.569822e-05 -5.4063523e-05 -5.892663e-10 0.00013912974 4.9990394e-05 0.00020094166 -8.594725e-06
0.00025884164 1.8668363e-05 -4.723997e-05 0.00027948176 0.000287996 1.4987842e-05 7.585887e-05 0.00017652105
0.00026228654 6.918137e-05 -6.831163e-05 0.00014987675 0.00017038774 1.7409557e-06 0.00021329193 0.00015266676
0.00027889293 0.00016314088 -8.914635e-05 -3.5698846e-05 8.210143e-05 2.567747e-05 0.00019429944 -1.7406572e-05
0.00016027376 8.9010515e-05 0.00021836782 -2.6334601e-05 0.0001337885 5.5767225e-05 2.2818691e-05 -3.4601253e-06
6.606472e-05 2.9885927e-05 0.00013530535 8.320334e-06 0.00011789109 6.2191655e-05 2.2913406e-05 1.9477138e-05
0.000110463785 0.0007345831 4.5202406e-10 0.0016286797 1.7888761e-06 -7.643193e-06 -3.7313098e-06 -2.2801683e-05
4.051135e-07 6.628704e-06 -3.3069515e-05 -3.0677755e-05 2.7561064e-06 -6.1690616e-06 3.6199947e-06 -1.8836166e-05
1.5398917e-05 5.5456712e-06 -2.8531096e-05 -3.1192467e-05 2.5272411e-06 -3.735094e-06 -1.41658065e-05 -1.8741994e-05
-1.6166567e-06 1.2086845e-05 -2.0379712e-06 -1.9210267e-05 -7.822555e-06 4.005171e-06 -3.165158e-05 -2.2652684e-05
4.7620225e-07 1.3297672e-06 -6.89239e-06 -1.9377252e-05 -9.6739595e-06 2.1919059e-06 -1.4245093e-05 -9.992338e-06
-3.931412e-06 2.2573522e-06 -6.589566e-06 -1.9244264e-05 -9.0293615e-06 -1.6431764e-05 5.852634e-06 -1.2789637e-05
-5.7078185e-05 2.8754794e-11 -5.256453e-05 -3.5650126e-05 -7.4260235e-05 8.628318e-06 -0.00016781256 -5.61054e-05
7.67396e-05 -0.00021253465 -0.000199262 -2.1386866e-05 -4.294541e-05 -7.8575715e-05 -0.00016293315 -6.226236e-05
4.951492e-05 -0.000112059824 -0.00014099583 -9.598603e-06 -6.512866e-05 -0.0001876998 -0.0002168206 -5.0064675e-05

exp_avg_sq f4 [256, 47]
00000000: 17d0 8530 e1d9 0e32 c0bd 7831 e7c8 1a32
00000010: 23c4 a730 3fc9 0132 6a4c 3231 5306 0232
00000020: 75d8 8f30 ec25 fe31 cd5f f631 17d2 3732
00000030: b03b 8130 f0d1 f431 89ad 9c31 6581 1932
00000040: a798 0830 2139 0232 5b87 e131 e0ba 3a32
00000050: 0d87 1c30 2ee1 0132 1302 d431 36af 3b32
00000060: 0bea 5f30 d356 0732 cd4b bc31 dd9b 3132
00000070: 0696 0230 9db7 f031 d687 0932 ef25 5532
00000080: c6c5 b230 25f8 0332 6730 de31 ec9f 3d32
00000090: 7aa3 2830 49bc db31 18f5 df31 fe56 4832
000000a0: ef2b 8d30 3cd4 0b32 e4e7 0e32 50fc 5732
000000b0: 7296 1b36 82bc d120 bb72 3a36 f443 1432
000000c0: a812 0833 2fe1 9f33 75c7 f233 bdfb b831
000000d0: 7da2 e132 a1f5 ab33 dcc9 f433 def4 2a32
000000e0: 1c51 0733 d7e7 8f33 56d8 dd33 571c 0932
000000f0: 6aab bd32 ae94 9b33 5288 e433 7ccd 2432
00000100: 22d4 f432 e0e9 8333 e2d1 d533 2f71 1e32
00000110: d2a7 a432 c36e 8833 63f6 d433 9a6b 4332
00000120: 03a7 f032 2b7d 8433 91f8 cc33 7f9c 4732
00000130: 71d2 8a32 b640 9533 11ba d433 cdc9 0832
00000140: cae7 0f33 bf9b 9b33 7ca6 e333 b44b 3732
00000150: 74de 9932 97d1 a333 0810 e533 37ea e531
00000160: f520 2133 fc9d 9b33 6d4c e533 50a8 0637
00000170: 1118 4722 cc0e 1537 9d1e 4a32 6ee9 9a32
00000180: f4e1 5433 0e37 9e33 030b 2532 1cfc 7e32
00000190: f891 5733 71e1 9933 7487 2d32 8745 c332
000001a0: de5c 5c33 e6c9 a033 7451 2432 db84 7032
000001b0: 87ef 5d33 cf94 9733 8e41 6b32 282f b132
000001c0: 3e05 5133 e7c6 9e33 48f8 dc31 6fae 6c32
000001d0: c0da 6f33 f04d a533 c315 7b32 eaf8 b232
000001e0: 73b0 3a33 1f8c 9333 047e df31 2f69 6032
000001f0: 9202 7633 3880 a433 3920 4f32 94db bc32
00000200: 22bc 3733 ff4f 8f33 dec7 af31 a0d6 4932
00000210: a151 6a33 7606 a433 3885 2732 dad9 b832
00000220: def5 4c33 e48f 9033 93eb b736 16af 1122
00000230: bde3 e236 fbc4 9332 1194 f433 4533 ae34
00000240: 69df ef34 d790 7e32 3507 c533 f93b bc34
00000250: d892 f334 a813 9332 3bb8 0234 89c8 8634
00000260: 5f80 d034 e6a1 b332 5a40 ca33 638e a934
00000270: aa99 ef34 3649 8532 9793 fe33 89d3 6b34
00000280: e0cd c434 fde7 ea32 ddf0 c433 4716 9634
00000290: 493e e334 e636 6732 b212 0534 a0d4 7234
000002a0: 027a bf34 6714 2533 c3ed b533 1655 9d34
000002b0: fe3e e234 cf5c 4a32 3b1f 1d34 601f 7834
000002c0: 34b6 c634 6363 3333 d832 9b33 fd38 a434
000002d0: ef16 e334 e462 9232 ba3f 1934 b2f1 6d34
000002e0: 9086 c134 1292 0638 48b1 3b23 d99e 2d38
000002f0: f3b2 f32f 0291 aa31 d767 d731 46e1 2a32
00000300: f6a0 f52f 2a57 9a31 5599 e431 8484 2d32
00000310: 7538 e62f ff5d b531 467a d731 7862 2832
00000320: 2641 f62f 1600 8831 c571 e931 d9af 2932
00000330: 7c0e 1530 9af6 9931 4a7d e231 176e 2832
00000340: 0d0b 0030 a4ce 8731 b34b c731 dbdd 1f32
00000350: 1f2c 0930 3e29 9f31 0f22 f331 83cb 2f32
00000360: 7a15 e82f f82f 6531 5351 c731 483b 1732
00000370: 3aa7 fe2f a018 aa31 5ba0 db31 8bb9 2b32
00000380: f745 e02f 89cc 6031 af9b b631 97f2 1632
00000390: 297c 4f30 dd81 ae31 6eb3 d931 a517 2832
000003a0: c26f ea35 dd55 9f20 9731 1236 0b21 ff32
000003b0: 8f97 5533 b655 dd33 8de4 2934 24e8 cf32
000003c0: 498f 3b33 8c7c 0734 dff7 3334 c462 0e33
000003d0: be4f 5933 9996 bf33 48eb 1b34 e33d a632
000003e0: c442 4933 089b f733 fa59 3234 9dd0 2a33
000003f0: ca75 6b33 3ff8 ba33 8d70 1d34 f873 5c32
9.736166e-10 8.315028e-09 3.619661e-09 9.00966e-09 1.2206595e-09 7.554546e-09 2.5945845e-09 7.568434e-09
1.046614e-09 7.396684e-09 7.1704336e-09 1.0699771e-08 9.40295e-10 7.1252018e-09 4.559926e-09 8.935193e-09
4.9693444e-10 7.5799855e-09 6.56375e-09 1.0869115e-08 5.694439e-10 7.559988e-09 6.170248e-09 1.0924671e-08
8.145952e-10 7.877776e-09 5.4801377e-09 1.0338195e-08 4.750692e-10 7.0057937e-09 8.005335e-09 1.2406857e-08
1.3007415e-09 7.681625e-09 6.466553e-09 1.103761e-08 6.135036e-10 6.3951444e-09 6.518018e-09 1.1661312e-08
1.0271587e-09 8.139121e-09 8.318214e-09 1.2572016e-08 2.318437e-06 3.553072e-19 2.7782942e-06 8.630185e-09
3.1681935e-08 7.444975e-08 1.1305284e-07 5.383724e-09 2.6267339e-08 8.007488e-08 1.13988534e-07 9.950979e-09
3.1505905e-08 6.701128e-08 1.0330466e-07 7.980893e-09 2.2080446e-08 7.2447946e-08 1.0641874e-07 9.592778e-09
2.8501805e-08 6.1427045e-08 9.956763e-08 9.222545e-09 1.9168429e-08 6.353141e-08 9.916837e-08 1.137496e-08
2.8015625e-08 6.169497e-08 9.544704e-08 1.1618908e-08 1.6161012e-08 6.950124e-08 9.9058646e-08 7.962126e-09
3.3505593e-08 7.24608e-08 1.06007946e-07 1.0669215e-08 1.7912704e-08 7.628403e-08 1.06665595e-07 6.6914043e-09
3.7515708e-08 7.246487e-08 1.0677545e-07 8.026211e-06 2.698227e-18 8.884537e-06 1.1764908e-08 1.8034111e-08
4.95656e-08 7.367463e-08 9.606768e-09 1.4842069e-08 5.0191346e-08 7.165625e-08 1.0100724e-08 2.2732605e-08
5.1307204e-08 7.487306e-08 9.564577e-09 1.40000465e-08 5.167342e-08 7.0585536e-08 1.3693706e-08 2.0626956e-08
4.8666372e-08 7.3936285e-08 6.431069e-09 1.377667e-08 5.5845476e-08 7.697588e-08 1.4615071e-08 2.083512e-08
4.346698e-08 6.870709e-08 6.5044805e-09 1.3062432e-08 5.7278676e-08 7.660168e-08 1.2056312e-08 2.1985933e-08
4.2779114e-08 6.6735076e-08 5.1158926e-09 1.174854e-08 5.455661e-08 7.63802e-08 9.75097e-09 2.1519487e-08
4.7721066e-08 6.731696e-08 5.4812494e-06 1.9743854e-18 6.761837e-06 1.7202629e-08 1.13890685e-07 3.244733e-07
4.467977e-07 1.4817679e-08 9.174838e-08 3.5061365e-07 4.536912e-07 1.7121991e-08 1.2174216e-07 2.5105354e-07
3.883642e-07 2.0911965e-08 9.4180635e-08 3.1582303e-07 4.4629024e-07 1.551653e-08 1.1854643e-07 2.1963037e-07
3.665764e-07 2.7346681e-08 9.170774e-08 2.7955886e-07 4.2327363e-07 1.3458452e-08 1.2393392e-07 2.2615359e-07
3.5665295e-07 3.8435612e-08 8.471718e-08 2.9305437e-07 4.2141613e-07 1.177905e-08 1.4633126e-07 2.3108214e-07
3.7012944e-07 4.1767077e-08 7.2269984e-08 3.0588845e-07 4.229873e-07 1.7041607e-08 1.4272419e-07 2.2160273e-07
3.6046958e-07 3.2084128e-05 1.0174831e-17 4.1394353e-05 4.4328594e-10 4.9641367e-09 6.2691288e-09 9.946524e-09
4.467961e-10 4.4918993e-09 6.653105e-09 1.0100056e-08 4.1876871e-10 5.2784794e-09 6.2712244e-09 9.801276e-09
4.479343e-10 3.9581307e-09 6.7941266e-09 9.877078e-09 5.422647e-10 4.4809214e-09 6.5917094e-09 9.803919e-09
4.6581833e-10 3.9525094e-09 5.8002683e-09 9.305462e-09 4.990301e-10 4.6321977e-09 7.076103e-09 1.0232614e-08
4.2215814e-10 3.3351153e-09 5.8009078e-09 8.802836e-09 4.6321152e-10 4.9504507e-09 6.391969e-09 9.995698e-09
4.0795076e-10 3.2712555e-09 5.3145963e-09 8.786308e-09 7.5482604e-10 5.0788302e-09 6.33593e-09 9.784263e-09
1.7466884e-06 2.6992467e-19 2.178456e-06 2.9700933e-08 4.973077e-08 1.0306705e-07 1.5822498e-07 2.4203537e-08
4.3669647e-08 1.2618165e-07 1.6760849e-07 3.3151778e-08 5.0596775e-08 8.921524e-08 1.4521095e-07 1.9353086e-08
4.6859682e-08 1.1530034e-07 1.6610275e-07 3.9770942e-08 5.482233e-08 8.706456e-08 1.466271e-07 1.2832054e-08

exp_avg f4 [256]
00000000: 547d a237 8975 bf38 7819 00b9 f4ac a039
00000010: 7b97 05b8 e439 64b9 fc8e 45b6 e830 7c37
00000020: 789a cf38 8c31 7fb9 1899 3938 350c 7b38
00000030: b86a ea38 b320 48b8 ca7e 2439 6210 d338
00000040: 9c0d 66b9 6530 0638 3a3a 2238 cf5e 7338
00000050: 13ae 80b9 09e6 f8b8 e051 96b5 629a 06b7
00000060: 0098 54b9 e4c7 2a38 bed7 4838 59e0 71b8
00000070: ae70 b339 4631 9ab7 3ba3 e5b8 db6b 4738
00000080: 0df8 d238 43f4 7539 006e 1ab7 fb32 b5b8
00000090: 476b 1e39 c57b 72b9 5e7d 8a38 4964 d2b7
000000a0: 7a86 e838 2ad8 8c38 7cc4 21b8 c4ee e738
000000b0: 8aad 4039 109c beb9 5e66 b838 488e 3a39
000000c0: 78a3 d8b8 08b9 0339 9738 4339 91f6 9438
000000d0: 0339 d337 779f a038 001b 3036 a6d9 54b8
000000e0: 9c59 a838 ebd1 b3b8 8d18 fab8 40ee 6e38
000000f0: bec0 1f39 04a7 8639 2375 7c39 420b 71b7
00000100: a211 a839 2c63 3239 fcc0 91b8 7f11 b3b8
00000110: 14ab 56b8 f9d7 1238 b210 9d38 5086 39b8
00000120: 20e9 1439 2fc4 3838 7d10 d538 ac83 ca38
00000130: 66ec 8339 f63e c738 afe7 0c39 ba78 47b9
00000140: 6043 57b5 980a 67b8 3ced 0c39 b72e 5eb8
00000150: da70 7bb9 1151 0739 f15d 63b8 e554 a438
00000160: d262 1439 106f 3a39 9123 2139 4373 9db8
00000170: d0ef 4538 87e0 c938 2782 40b8 629f 67b9
00000180: 45e9 9838 3b00 3a39 2776 78b9 3687 9d38
00000190: 5688 a7b8 9c31 1b39 189a 1ab8 1d12 a9b9
000001a0: 1a59 8eb8 34c4 ce36 a049 60b9 1028 e938
000001b0: 6aa5 cfb8 435c b9b8 5280 cbb7 bccd 8139
000001c0: 9799 1239 0ec1 0b39 b883 5ab8 3e72 d6b8
000001d0: 570d 69b9 f026 7338 dae3 f938 929c a537
000001e0: c983 1738 3825 66b9 bf5a 4939 2efc c4b7
000001f0: b263 f236 9384 8eb9 aaf6 66b8 1cd9 2f38
00000200: 428b 1c3a 0e09 e2b8 298f d0b8 f25a 5938
00000210: b946 c738 b52d d237 c963 04b9 2af0 e537
00000220: be34 bbb8 8b86 9ab9 0d48 b338 6803 a538
00000230: c736 8838 ec87 e0b6 2c68 1938 49ca f438
00000240: 7675 3e38 b43d 0138 fdf3 17b9 7f33 0839
00000250: e998 c2b9 c970 2538 6403 0dba 8a61 2139
00000260: e4a7 6837 544f d2b9 08a1 7937 0bf9 0938
00000270: 253b a1b8 65e8 1637 446d 6b37 1ae0 a4b7
00000280: 843a 3139 8ffd 81b9 b45e 5937 c1dd 8a37
00000290: d89d bb37 0933 9436 4ec7 6fb9 1578 07b9
000002a0: 789c bf37 2e38 c6b8 8f75 8fb7 4867 9e36
000002b0: 47e3 85b9 5df6 dc38 609a 3338 9295 0bb9
000002c0: f463 2b39 e850 c236 f1ca bfb8 fe70 1239
000002d0: 5a85 6438 3deb 00b8 22b4 6938 9dad e538
000002e0: 5955 5238 c9a5 ce37 abc9 6eb9 0b40 e4b8
000002f0: a4ff fc37 62b0 8bb8 d991 f238 bf2b 9d38
00000300: daa9 cf38 9aa5 dcb8 103d 85b8 2a7c 5ab9
00000310: 0637 0339 f69f 3439 b228 b938 4aa6 68b9
00000320: b2d6 5937 b6f3 9038 a1f7 92b8 5821 a1b9
00000330: 1216 b1b8 2400 09b8 3ecf 1e39 1ed5 9538
00000340: fb5a 81b7 a503 cc38 4065 4c35 f876 7837
00000350: c9ef 6039 0a53 bbb8 bafd 7f38 f316 cf38
00000360: 04f2 4239 0c19 ce38 c8ba bf37 34c5 f538
00000370: a4e9 e737 5dce 0ab9 14fa 86b9 733d 1a38
00000380: 0cd6 8f38 c3a1 2339 721c d438 8812 0c39
00000390: a10d d338 5616 18b9 3825 09b8 3eaf 3039
000003a0: 5450 2c38 42d7 c436 a0c2 3bb8 8073 e037
000003b0: 8a53 17b9 dd2e b3b8 cd06 3038 2f1a 9439
000003c0: de87 e3b7 d48a 9eb7 8ef0 b239 f6b1 fe38
000003d0: 7efe bc38 e047 ca39 b2af 00b9 9feb 2e39
000003e0: 104b cf39 5106 1639 82d9 a139 4007 8536
000003f0: c085 b338 b41b 2fb9 c8c2 9d38 4490 2f37
1.9370265e-05 9.129482e-05 -0.00012216519 0.00030646438 -3.185075e-05 -0.0002176534 -2.9438515e-06 1.5031757e-05
9.899301e-05 -0.00024337153 4.4250017e-05 5.9854432e-05 0.000111778674 -4.771417e-05 0.00015687491 0.000100643156
-0.00021939579 3.199316e-05 3.8678038e-05 5.8024012e-05 -0.00024543758 -0.00011868409 -1.11997e-06 -8.022967e-06
-0.0002027452 4.071732e-05 4.788464e-05 -5.7667818e-05 0.00034225493 -1.8381175e-05 -0.00010949975 4.7545745e-05
0.000100597834 0.00023456015 -9.204727e-06 -8.6402484e-05 0.00015108018 -0.00023125026 6.603704e-05 -2.508065e-05
0.0001108767 6.715984e-05 -3.856838e-05 0.00011059412 0.00018375195 -0.000363559 8.792871e-05 0.00017791346
-0.00010330131 0.00012562063 0.0001861773 7.1031165e-05 2.5179708e-05 7.659097e-05 2.624176e-06 -5.074744e-05
8.027555e-05 -8.5744854e-05 -0.00011925502 5.696551e-05 0.00015235224 0.00025682908 0.0002407623 -1.4367341e-05
0.00032056595 0.00017012347 -6.950085e-05 -8.538644e-05 -5.1180905e-05 3.5010253e-05 7.489453e-05 -4.4232525e-05
0.00014201226 4.405173e-05 0.00010159703 9.6566364e-05 0.00025162398 9.500787e-05 0.0001343775 -0.00019023093
-8.0191785e-07 -5.5084558e-05 0.00013439817 -5.297243e-05 -0.00023979266 0.00012904803 -5.4208507e-05 7.835942e-05
0.00014151193 0.00017779716 0.00015367406 -7.5078126e-05 4.7191803e-05 9.626248e-05 -4.589758e-05 -0.00022089251
7.291375e-05 0.00017738428 -0.00023695138 7.5115284e-05 -7.988575e-05 0.00014800433 -3.6859972e-05 -0.00032247687
-6.787684e-05 6.1621195e-06 -0.00021389732 0.00011117768 -9.90134e-05 -8.8386725e-05 -2.425924e-05 0.0002475808
0.00013980862 0.00013327991 -5.2097923e-05 -0.000102255945 -0.00022225581 5.7971978e-05 0.00011915686 1.9742442e-05
3.612394e-05 -0.00021948374 0.0001920266 -2.3482451e-05 7.223768e-06 -0.00027183126 -5.5065997e-05 4.192545e-05
0.0005971679 -0.00010778206 -9.9448785e-05 5.182153e-05 9.5022326e-05 2.5055235e-05 -0.00012625674 2.7410762e-05
-8.926679e-05 -0.0002947341 8.5488056e-05 7.8684476e-05 6.4951884e-05 -6.6915436e-06 3.657506e-05 0.00011672505
4.5408924e-05 3.0813462e-05 -0.00014491375 0.00012989154 -0.0003711649 3.9444105e-05 -0.00053792284 0.00015390493
1.3867368e-05 -0.00040113425 1.487905e-05 3.2895285e-05 -7.688095e-05 8.994805e-06 1.4032532e-05 -1.9654679e-05
0.00016901834 -0.00024793713 1.2956258e-05 1.6554144e-05 2.2365639e-05 4.416685e-06 -0.00022867063 -0.00012919337
2.2841836e-05 -9.45184e-05 -1.710167e-05 4.7207905e-06 -0.00025537072 0.00010536306 4.28207e-05 -0.00013311792
0.00016345066 5.7910693e-06 -9.1453905e-05 0.00013965738 5.448363e-05 -3.073666e-05 5.571929e-05 0.00010951909
5.0147388e-05 2.4634313e-05 -0.00022772576 -0.00010883816 3.0159783e-05 -6.66089e-05 0.000115666255 7.494492e-05
9.9021665e-05 -0.00010521263 -6.353308e-05 -0.00020836355 0.00012513631 0.00017225728 8.8290675e-05 -0.00022187192
1.2984196e-05 6.91185e-05 -7.007947e-05 -0.00030733156 -8.4441286e-05 -3.2663476e-05 0.00015145258 7.14457e-05
-1.5420364e-05 9.728157e-05 7.614326e-07 1.48096515e-05 0.00021451632 -8.932322e-05 6.103304e-05 9.874804e-05
0.0001859144 9.827511e-05 2.2855951e-05 0.00011719242 2.7646143e-05 -0.00013237582 -0.00025744794 3.677369e-05
6.858641e-05 0.00015605152 0.00010114246 0.00013358344 0.000100638026 -0.0001450417 -3.2698008e-05 0.00016849951
4.1082807e-05 5.8663145e-06 -4.4765533e-05 2.6756665e-05 -0.00014431603 -8.544114e-05 4.1968004e-05 0.00028248268
-2.7123777e-05 -1.8899715e-05 0.00034130033 0.000121448116 9.0119414e-05 0.00038581993 -0.00012272483 0.00016681709
0.00039538043 0.00014307468 0.0003087037 3.964553e-06 8.560298e-05 -0.00016699621 7.522624e-05 1.0464402e-05
