EcoSculptor/results/Final_1.1/Hunteranimal/checkpoint.pt (torch, 110626 bytes, 9 tensors)

network_body._body_endoder.seq_layers.0.weight f4 [256, 47]
0	0xbde82a77	-0.113362245
1	0xbd04e4b4	-0.03244467
2	0x3daa88f8	0.08326906
3	0xbe519f20	-0.20470858
4	0x3e5dd1bd	0.2166204
5	0xb86d8a88	-5.663422e-05
6	0x3d895493	0.067055844
7	0x3dc28c52	0.0949942
8	0x3e5137f5	0.20431502
9	0xbe64f26b	-0.223581
10	0x3d21f95e	0.039544456
11	0x3e15357b	0.14571182
12	0xbe7341c1	-0.23755552
13	0x3ea517bd	0.32244673
14	0x3d5f94fa	0.054585434
15	0xbdeecad5	-0.11659781
16	0xbe19deef	-0.15026449
17	0xbd9d9695	-0.07694737
18	0xbd8d9417	-0.069130115
19	0x3e22afca	0.1588737
20	0x3df02604	0.11726001
21	0x3d06968f	0.032858428
22	0x3e0abfda	0.13549748
23	0xbbc629cb	-0.0060474626
24	0xbdc1ffa0	-0.09472585
25	0xbea4d444	-0.32193196
26	0xbe7b7270	-0.24555373
27	0xbdc48117	-0.095949344
28	0x3c89932e	0.016793814
29	0x3dfd2a41	0.12361575
30	0xbe3eedd3	-0.1864541
31	0x3db2ffd6	0.08740203
32	0xbd5852c4	-0.052813306
33	0x3d199bc0	0.03750205
34	0x3ddea939	0.108721204
35	0xbe776d4b	-0.24162786
36	0xbdd821ff	-0.10553359
37	0xbd2f0563	-0.042729747
38	0xbdc9557d	-0.09830759
39	0x3e761895	0.24032815
40	0xbd798f05	-0.06092741
41	0xbe5072bf	-0.20356272
42	0x3de1d5bf	0.11027097
43	0xbe29b034	-0.16571122
44	0xbde6437c	-0.112433404
45	0x3b198efb	0.002343117
46	0xbc64ac76	-0.0139571335
47	0x3d9e022c	0.07715258
48	0xbd7ff44c	-0.06248884
49	0xbe66f3f4	-0.22553998
50	0x3c3bea19	0.011469387
51	0x3e0eeffa	0.13958731
52	0x3e2ceaae	0.16886398
53	0x3d76dafa	0.060267426
54	0xbe16f8c3	-0.14743333
55	0xbe1f7708	-0.1557275
56	0x3e51c4c9	0.20485224
57	0xbe02777f	-0.12740897
58	0x3eadb643	0.33928117
59	0x3e08a03e	0.13342378
60	0xba121a34	-0.00055733626
61	0x3d8641e3	0.06555536
62	0xbd043361	-0.03227556
63	0x3d980b47	0.07424026
64	0xbd2cf079	-0.04222152
65	0x3e167287	0.14692126
66	0xbe82019a	-0.25391847
67	0xbe08d8ea	-0.13363996
68	0xbd998916	-0.0749685
69	0xbce5bf3b	-0.028045287
70	0xbdcbfd44	-0.09960416
71	0x3e4f2e97	0.20232616
72	0xbe3639a6	-0.17795429
73	0x3e31c670	0.17360854
74	0x3bb12afc	0.0054067355
75	0xbd3a09c6	-0.045419477
76	0x3d8774ab	0.066140495
77	0x3df622f0	0.120183825
78	0x3daa9c40	0.083305836
79	0xbde78f3c	-0.11306617
80	0x3d53b6b7	0.051687922
81	0x3e3e57ba	0.18588153
82	0x3ceec437	0.029146297
83	0xbd4f792d	-0.05065267
84	0x3df4bee7	0.11950474
85	0xbdaa4b01	-0.08315087
86	0x3d144a5a	0.03620372
87	0xbe0e6075	-0.13903983
88	0xbdbd86df	-0.0925424
89	0xbd73026b	-0.059328478
90	0x3d898ec4	0.067166835
91	0x3dca76fd	0.098859765
92	0x39eb6c27	0.00044903273
93	0xbd1baba8	-0.0380055
94	0x3d94425c	0.072392195
95	0x3d399372	0.04530663
96	0xbe4bf691	-0.19918276
97	0x3dc9271c	0.09821913
98	0xbe1b1046	-0.15142927
99	0x3e402f02	0.18767932
100	0xbd20ed9d	-0.039289106
101	0xbb9bb94a	-0.004752313
102	0x3d777391	0.060412947
103	0x3daf9199	0.085726924
104	0x3e7f428c	0.2492773
105	0xbdf2e189	-0.11859424
106	0xbc9fd70e	-0.019511726
107	0x3d4f52fb	0.050616246
108	0xbe6f6dcc	-0.23381728
109	0xbd99ee6e	-0.0751618
110	0xbcd293e9	-0.025705295
111	0x3cd9676a	0.02653857
112	0x3e8517b7	0.25994655
113	0xbe1e9b79	-0.15488996
114	0x3e3ee5cd	0.1864235
115	0x3d450256	0.04809793
116	0x3cc5ec03	0.02416039
117	0x3df1902f	0.11795079
118	0xbe6509a1	-0.22366954
119	0x3d8e1f67	0.06939583
120	0xbe27697c	-0.16348833
121	0x3d5a0964	0.05323161
122	0x3e486551	0.19569899
123	0x3e3d3eb3	0.18480949
124	0x3e0ddc08	0.13853467
125	0x3e3db005	0.18524177
126	0x3ea04c93	0.31308421
127	0xbe4c15d2	-0.19930199
128	0xbe0feb7e	-0.14054677
129	0xbe2ddca3	-0.16978697
130	0x3e8f6fd9	0.2801502
131	0x3e44163a	0.19149104
132	0xbeb6018f	-0.35548064
133	0xbdb32fae	-0.087493286
134	0x3d5f8b92	0.054576464
135	0x3ec5eb42	0.3865605
136	0xbb4d72c9	-0.0031348935
137	0xbccca11a	-0.024979163
138	0xbd5859c0	-0.052819967
139	0xbc5718e3	-0.013128492
140	0x3da7c26b	0.08191379
141	0xbe06887f	-0.13138007
142	0xbe678fd0	-0.22613454
143	0xbc1422ce	-0.009041501
144	0xbd4ad073	-0.0495152
145	0xbe871e2b	-0.26390204
146	0xbcfd041e	-0.030885752
147	0x3ea7afd0	0.32751322
148	0xbe361f01	-0.17785265
149	0x3d0f5827	0.034996178
150	0xbdfed741	-0.124434
151	0xbda21dbb	-0.07915827
152	0xbddd75da	-0.10813494
153	0xbe40680f	-0.18789695
154	0x3ce1cd0a	0.02756359
155	0x3e8538a9	0.2601979
156	0x3deb5c92	0.11492266
157	0x3d87bab5	0.066274084
158	0xbd82aacc	-0.06380233
159	0xbe0a2f69	-0.13494648
160	0x3d845c0b	0.06462868
161	0x3e1131be	0.14179131
162	0x3d9c2997	0.0762512
163	0x3d80403e	0.06262253
164	0xbeb0d494	-0.34537184
165	0xbd600a95	-0.05469759
166	0xbd6ca5b7	-0.057775225
167	0xbd6c3e6a	-0.05767671
168	0xbe75b555	-0.23994954
169	0xbcba2564	-0.022722907
170	0xbe55b283	-0.20868878
171	0x3d2b746e	0.041859083
172	0x3dff322f	0.12460744
173	0xbbb2fbab	-0.00546213
174	0xbdd26da0	-0.102748156
175	0x3bf64759	0.0075158295
176	0xbc8e81fa	-0.017395962
177	0xbca7e40c	-0.020494483
178	0xbe3d6196	-0.18494257
179	0xbd68802f	-0.05676287
180	0x3e07f153	0.13275652
181	0x3c8a00b5	0.01684604
182	0x3d16eff1	0.03684992
183	0x3d8f40a0	0.06994748
184	0x3da4b84b	0.080429636
185	0x3ecd3587	0.400799
186	0x3dcbdaf2	0.0995387
187	0x3c5ff0f4	0.013668288
188	0x3db0b0e7	0.086274914
189	0x3e3d8d5e	0.18510959
190	0x3db3a004	0.08770755
191	0xbe3e838f	-0.18604873
192	0xbedaf861	-0.42767623
193	0x3db2de12	0.08733763
194	0x394aaf07	0.00019329424
195	0xbd715d06	-0.058926605
196	0x3d8dfc8b	0.069329344
197	0xbaf280c6	-0.0018501512
198	0x3dd51488	0.10404307
199	0xbd35eb54	-0.04441388
200	0xbd93b003	-0.07211306
201	0x3e1053fb	0.14094536
202	0x3f1704e4	0.5899184
203	0xbe7dc747	-0.2478305
204	0xbeeb2f6c	-0.45934618
205	0xbe35e1cb	-0.17761914
206	0xbdae0140	-0.08496332
207	0x3d1adc03	0.037807476
208	0x3dc9ff0e	0.09863101
209	0x3e0dd7b5	0.13851817
210	0xbe1c43d9	-0.15260257
211	0xbe975f69	-0.2956498
212	0x3e01022b	0.12598483
213	0x3e2e9cf2	0.17052057
214	0x3db6f4e9	0.08933432
215	0xbea081f4	-0.31349146
216	0x3e0da824	0.13833672
217	0x3df013ff	0.11722564
218	0xbd98f12f	-0.07467877
219	0x3e6567c2	0.22402862
220	0x3e174252	0.14771393
221	0x3db37c13	0.087639
222	0x3e4efbbf	0.20213221
223	0xbd9a1db2	-0.07525195
224	0xbdc91ed1	-0.09820331
225	0x3e3927e4	0.18081623
226	0x3ca538e8	0.020168737
227	0x3de83111	0.11337484
228	0x3d61a8e8	0.055092722
229	0x3bd804dc	0.006592376
230	0xbe30b911	-0.17258097
231	0xbccf913e	-0.025337812
232	0xbd38317e	-0.044969074
233	0x3e3b9ff6	0.18322739
234	0x3d6dcff2	0.05805964
235	0x3e64f6c8	0.22359765
236	0x3d963037	0.07333415
237	0x3dcaf300	0.0990963
238	0xbe7a0cac	-0.24418896
239	0x3e51945b	0.2046675
240	0x3dd06712	0.10175909
241	0x3d7f97ea	0.062400736
242	0x3cf8fa84	0.030392893
243	0xbdc6bc4a	-0.09703882
244	0x3d0602e0	0.032717586
245	0x3d9c3793	0.076277874
246	0xbd264444	-0.040592447
247	0xbdb640ac	-0.08899054
248	0x3de961f3	0.113956355
249	0x3cf14cd2	0.029455576
250	0x3e44b27e	0.19208714
251	0x3d994993	0.07484736
252	0xbe87966a	-0.26481944
253	0xbde3f3e1	-0.111305006
254	0x3e0d6782	0.13809016
255	0xbe091bcf	-0.13389514

network_body._body_endoder.seq_layers.0.bias f4 [256]
0	0x00000000	0.0
1	0x00000000	0.0
2	0x00000000	0.0
3	0x00000000	0.0
4	0x00000000	0.0
5	0x00000000	0.0
6	0x00000000	0.0
7	0x00000000	0.0
8	0x00000000	0.0
9	0x00000000	0.0
10	0x00000000	0.0
11	0x00000000	0.0
12	0x00000000	0.0
13	0x00000000	0.0
14	0x00000000	0.0
15	0x00000000	0.0
16	0x00000000	0.0
17	0x00000000	0.0
18	0x00000000	0.0
19	0x00000000	0.0
20	0x00000000	0.0
21	0x00000000	0.0
22	0x00000000	0.0
23	0x00000000	0.0
24	0x00000000	0.0
25	0x00000000	0.0
26	0x00000000	0.0
27	0x00000000	0.0
28	0x00000000	0.0
29	0x00000000	0.0
30	0x00000000	0.0
31	0x00000000	0.0
32	0x00000000	0.0
33	0x00000000	0.0
34	0x00000000	0.0
35	0x00000000	0.0
36	0x00000000	0.0
37	0x00000000	0.0
38	0x00000000	0.0
39	0x00000000	0.0
40	0x00000000	0.0
41	0x00000000	0.0
42	0x00000000	0.0
43	0x00000000	0.0
44	0x00000000	0.0
45	0x00000000	0.0
46	0x00000000	0.0
47	0x00000000	0.0
48	0x00000000	0.0
49	0x00000000	0.0
50	0x00000000	0.0
51	0x00000000	0.0
52	0x00000000	0.0
53	0x00000000	0.0
54	0x00000000	0.0
55	0x00000000	0.0
56	0x00000000	0.0
57	0x00000000	0.0
58	0x00000000	0.0
59	0x00000000	0.0
60	0x00000000	0.0
61	0x00000000	0.0
62	0x00000000	0.0
63	0x00000000	0.0
64	0x00000000	0.0
65	0x00000000	0.0
66	0x00000000	0.0
67	0x00000000	0.0
68	0x00000000	0.0
69	0x00000000	0.0
70	0x00000000	0.0
71	0x00000000	0.0
72	0x00000000	0.0
73	0x00000000	0.0
74	0x00000000	0.0
75	0x00000000	0.0
76	0x00000000	0.0
77	0x00000000	0.0
78	0x00000000	0.0
79	0x00000000	0.0
80	0x00000000	0.0
81	0x00000000	0.0
82	0x00000000	0.0
83	0x00000000	0.0
84	0x00000000	0.0
85	0x00000000	0.0
86	0x00000000	0.0
87	0x00000000	0.0
88	0x00000000	0.0
89	0x00000000	0.0
90	0x00000000	0.0
91	0x00000000	0.0
92	0x00000000	0.0
93	0x00000000	0.0
94	0x00000000	0.0
95	0x00000000	0.0
96	0x00000000	0.0
97	0x00000000	0.0
98	0x00000000	0.0
99	0x00000000	0.0
100	0x00000000	0.0
101	0x00000000	0.0
102	0x00000000	0.0
103	0x00000000	0.0
104	0x00000000	0.0
105	0x00000000	0.0
106	0x00000000	0.0
107	0x00000000	0.0
108	0x00000000	0.0
109	0x00000000	0.0
110	0x00000000	0.0
111	0x00000000	0.0
112	0x00000000	0.0
113	0x00000000	0.0
114	0x00000000	0.0
115	0x00000000	0.0
116	0x00000000	0.0
117	0x00000000	0.0
118	0x00000000	0.0
119	0x00000000	0.0
120	0x00000000	0.0
121	0x00000000	0.0
122	0x00000000	0.0
123	0x00000000	0.0
124	0x00000000	0.0
125	0x00000000	0.0
126	0x00000000	0.0
127	0x00000000	0.0
128	0x00000000	0.0
129	0x00000000	0.0
130	0x00000000	0.0
131	0x00000000	0.0
132	0x00000000	0.0
133	0x00000000	0.0
134	0x00000000	0.0
135	0x00000000	0.0
136	0x00000000	0.0
137	0x00000000	0.0
138	0x00000000	0.0
139	0x00000000	0.0
140	0x00000000	0.0
141	0x00000000	0.0
142	0x00000000	0.0
143	0x00000000	0.0
144	0x00000000	0.0
145	0x00000000	0.0
146	0x00000000	0.0
147	0x00000000	0.0
148	0x00000000	0.0
149	0x00000000	0.0
150	0x00000000	0.0
151	0x00000000	0.0
152	0x00000000	0.0
153	0x00000000	0.0
154	0x00000000	0.0
155	0x00000000	0.0
156	0x00000000	0.0
157	0x00000000	0.0
158	0x00000000	0.0
159	0x00000000	0.0
160	0x00000000	0.0
161	0x00000000	0.0
162	0x00000000	0.0
163	0x00000000	0.0
164	0x00000000	0.0
165	0x00000000	0.0
166	0x00000000	0.0
167	0x00000000	0.0
168	0x00000000	0.0
169	0x00000000	0.0
170	0x00000000	0.0
171	0x00000000	0.0
172	0x00000000	0.0
173	0x00000000	0.0
174	0x00000000	0.0
175	0x00000000	0.0
176	0x00000000	0.0
177	0x00000000	0.0
178	0x00000000	0.0
179	0x00000000	0.0
180	0x00000000	0.0
181	0x00000000	0.0
182	0x00000000	0.0
183	0x00000000	0.0
184	0x00000000	0.0
185	0x00000000	0.0
186	0x00000000	0.0
187	0x00000000	0.0
188	0x00000000	0.0
189	0x00000000	0.0
190	0x00000000	0.0
191	0x00000000	0.0
192	0x00000000	0.0
193	0x00000000	0.0
194	0x00000000	0.0
195	0x00000000	0.0
196	0x00000000	0.0
197	0x00000000	0.0
198	0x00000000	0.0
199	0x00000000	0.0
200	0x00000000	0.0
201	0x00000000	0.0
202	0x00000000	0.0
203	0x00000000	0.0
204	0x00000000	0.0
205	0x00000000	0.0
206	0x00000000	0.0
207	0x00000000	0.0
208	0x00000000	0.0
209	0x00000000	0.0
210	0x00000000	0.0
211	0x00000000	0.0
212	0x00000000	0.0
213	0x00000000	0.0
214	0x00000000	0.0
215	0x00000000	0.0
216	0x00000000	0.0
217	0x00000000	0.0
218	0x00000000	0.0
219	0x00000000	0.0
220	0x00000000	0.0
221	0x00000000	0.0
222	0x00000000	0.0
223	0x00000000	0.0
224	0x00000000	0.0
225	0x00000000	0.0
226	0x00000000	0.0
227	0x00000000	0.0
228	0x00000000	0.0
229	0x00000000	0.0
230	0x00000000	0.0
231	0x00000000	0.0
232	0x00000000	0.0
233	0x00000000	0.0
234	0x00000000	0.0
235	0x00000000	0.0
236	0x00000000	0.0
237	0x00000000	0.0
238	0x00000000	0.0
239	0x00000000	0.0
240	0x00000000	0.0
241	0x00000000	0.0
242	0x00000000	0.0
243	0x00000000	0.0
244	0x00000000	0.0
245	0x00000000	0.0
246	0x00000000	0.0
247	0x00000000	0.0
248	0x00000000	0.0
249	0x00000000	0.0
250	0x00000000	0.0
251	0x00000000	0.0
252	0x00000000	0.0
253	0x00000000	0.0
254	0x00000000	0.0
255	0x00000000	0.0

action_model._continuous_distribution.log_sigma f4 [1, 2]
0	0x00000000	0.0
1	0x00000000	0.0

action_model._continuous_distribution.mu.weight f4 [2, 256]
0	0x3c80511b	0.015663674
1	0x3c7b3e82	0.015334727
2	0xbbc2a68d	-0.0059402646
3	0xbbd09463	-0.0063653453
4	0xbc84e2db	-0.016221454
5	0x3be00423	0.0068364306
6	0xbc62c9e0	-0.013842076
7	0xbca2aa5a	-0.01985662
8	0x3b5e9eb0	0.0033969097
9	0x3c95825d	0.018250639
10	0x3c3695e2	0.011144133
11	0xbb5190e7	-0.0031977238
12	0x3c10ceb1	0.008838342
13	0xbc2c463c	-0.010514792
14	0x3c0941a9	0.008377471
15	0x3c07fa63	0.008299443
16	0x3cb4abfa	0.022054661
17	0x39014d0f	0.00012331105
18	0xbb76bfad	-0.0037650869
19	0xbb873a08	-0.004126791
20	0x3b4de3b3	0.0031416237
21	0x3b386ddb	0.002814165
22	0x3ab2c333	0.0013638496
23	0x3c773250	0.015087679
24	0xbc225567	-0.009908057
25	0xbc6e586b	-0.014547448
26	0x3b404033	0.002933514
27	0xbbf62af8	-0.0075124465
28	0xbcef26bd	-0.029193277
29	0xbcc6ccba	-0.024267543
30	0xbb82fb81	-0.0039972668
31	0x3b80bdd6	0.00392888
32	0x3b84f0ba	0.004057017
33	0x3caa807a	0.020813216
34	0x3bb4d499	0.0055185077
35	0xbc318fea	-0.010837534
36	0x3b37ee43	0.00280656
37	0xbc5cc9d7	-0.013475857
38	0x3cab99f4	0.020947434
39	0x3c2627b7	0.010141305
40	0xbb192d3d	-0.0023372911
41	0xbbe1b7bd	-0.0068883584
42	0xbc0b4964	-0.008501384
43	0x3ae66562	0.0017577822
44	0xbc963cb7	-0.018339498
45	0x3b9703c2	0.0046086023
46	0xbb5b1a58	-0.003343245
47	0xbb63ddaf	-0.0034769585
48	0x3c65c748	0.014024563
49	0x3cab2b05	0.020894537
50	0x3cd2a41b	0.025713017
51	0xbbc938a5	-0.0061407858
52	0xbc3c0043	-0.011474672
53	0xbc5bff95	-0.013427635
54	0xbcd5b42f	-0.026086895
55	0xb90570fc	-0.00012725958
56	0x3b8b4e1a	0.004251254
57	0x3c2a5e1f	0.010398417
58	0x3c6c5d47	0.014426536
59	0x3c765fba	0.015037471
60	0xb9ad53d6	-0.00033059594
61	0xbbe809a5	-0.007081228
62	0x3c89e507	0.016832842
63	0x3c5d96e0	0.013524741
64	0x3bec269a	0.00720675
65	0xbbad8668	-0.0052955635
66	0x3b97b4f4	0.0046297256
67	0xbbd9c572	-0.006645852
68	0xb8d949db	-0.00010361123
69	0x3bf58c5d	0.0074935392
70	0x3bf4acb3	0.0074668764
71	0xbc394d13	-0.01130988
72	0x3cb44d23	0.022009438
73	0xbc103d0e	-0.008803619
74	0xbbf67922	-0.0075217644
75	0xbb376dab	-0.0027988951
76	0xbb855aa7	-0.0040696445
77	0x3b461f8d	0.0030231208
78	0x3c5a7330	0.013333127
79	0x3c2cb54b	0.0105412705
80	0x3ce9c60d	0.02853682
81	0x3aa0bf87	0.0012264111
82	0x3afb9c07	0.001919628
83	0x3c29b114	0.01035716
84	0x3c704250	0.014664248
85	0xbc214224	-0.009842429
86	0x3d1015d8	0.03517708
87	0xbc020513	-0.00793578
88	0xbcaf2244	-0.021378644
89	0x3bb16c9e	0.0054145595
90	0x3c4cd748	0.012502499
91	0x3c2dbf03	0.010604623
92	0xbcba159f	-0.022715388
93	0x3a9925de	0.0011684259
94	0x3c6b6cfa	0.014369244
95	0x3b21c4e3	0.0024684004
96	0xbc9118b8	-0.017711982
97	0x37cc98cf	2.4389852e-05
98	0xbcc8886f	-0.02447912
99	0x3ad21558	0.001602809
100	0xbcc8b5ce	-0.024500754
101	0xbc806523	-0.015673226
102	0xbc4d35b5	-0.012525012
103	0x3beeba43	0.0072853877
104	0xba4862e6	-0.00076441315
105	0x3ca4ec6a	0.020132262
106	0x3bb2e953	0.0054599433
107	0x3c3866f5	0.011255016
108	0x3c4e0280	0.012573838
109	0x3c59fdc3	0.01330513
110	0xbc5ee6d3	-0.0136048375
111	0x3c6c70cb	0.014431189
112	0x3baff603	0.005369903
113	0x3b7ee4aa	0.0038893619
114	0x3c008360	0.007843822
115	0x3b20489f	0.0024457348
116	0xbaa01199	-0.0012212276
117	0xbbfd5295	-0.007730792
118	0x3c91d9ab	0.017803987
119	0x3b7eee4d	0.0038899363
120	0xbbccb79a	-0.006247473
121	0x3ba7f2e4	0.0051253904
122	0x3b16d967	0.0023017765
123	0x3cf18c50	0.029485852
124	0xbb7dbaea	-0.0038716146
125	0xbb8f5d45	-0.0043751323
126	0xbbd0ae5a	-0.0063684406
127	0x3aa041f1	0.0012226683
128	0x3bdf8bc7	0.0068220827
129	0x3af5ce23	0.001875345
130	0x3b8e028f	0.004333801
131	0xbc084316	-0.008316776
132	0x3b932b3c	0.004491238
133	0xbc0ba7b0	-0.0085238665
134	0xbbfad35f	-0.007654592
135	0xbbfac4d3	-0.007652858
136	0xbc365767	-0.011129237
137	0xbcaf6508	-0.02141048
138	0x3ca6ff1b	0.020385316
139	0x3c103096	0.008800646
140	0x3c9317ab	0.017955622
141	0xbc33305e	-0.010936825
142	0xbb994bfd	-0.004678248
143	0xbc4b9abe	-0.01242703
144	0xba8aba93	-0.0010584168
145	0xbbaa64a8	-0.0051999874
146	0xbc84cef9	-0.016211974
147	0x3b0b3ddc	0.0021246588
148	0x3b8aa407	0.0042309794
149	0x3bd34da0	0.0064484626
150	0xbc7fc9e2	-0.015612097
151	0x3b747a3d	0.0037304305
152	0xbb3f2da3	-0.0029171489
153	0x3c70c273	0.014694798
154	0xbc81825c	-0.01580923
155	0xbb5da9d3	-0.0033823147
156	0x3baf0d7f	0.005342185
157	0x3b950857	0.0045481133
158	0xbc15fca7	-0.009154475
159	0x3be717a5	0.007052379
160	0xbbb03de6	-0.0053784726
161	0x3bc2634e	0.005932248
162	0x3c3bef34	0.011470605
163	0xbbda9a85	-0.006671252
164	0xbbf12760	-0.00735943
165	0x3af0e8c7	0.001837992
166	0x3c0a975e	0.00845894
167	0xbc79493f	-0.015215217
168	0xbc71852d	-0.014741224
169	0x3ba28a45	0.0049603307
170	0xbcae794f	-0.021298079
171	0x3c2ecb43	0.010668579
172	0x3b8ea8aa	0.0043536024
173	0x3c253c43	0.010085168
174	0x3999f038	0.0002936141
175	0xbc13f04f	-0.009029462
176	0xbc240581	-0.010011078
177	0x3bc800b3	0.006103599
178	0x3c59de10	0.013297573
179	0x3bae376b	0.005316665
180	0xbcaaa71f	-0.020831643
181	0x3cfe0bf7	0.031011565
182	0x3b9fcb91	0.004876562
183	0x3ad4cee3	0.0016235973
184	0x3c52306b	0.012828927
185	0xbc99e799	-0.018787192
186	0x3b00c628	0.001964936
187	0x3cc7d801	0.02439499
188	0x3c1692ed	0.009190303
189	0x3b938457	0.00450186
190	0xbb92f962	-0.004485295
191	0xbb8082eb	-0.0039218566
192	0x3ca799a4	0.020459004
193	0xbc22699b	-0.009912874
194	0x3c3b800b	0.011444102
195	0x3be4066d	0.006958774
196	0xbb13166b	-0.0022443782
197	0x3bbef8c0	0.005827993
198	0xbc6f0470	-0.01458846
199	0x3b675137	0.003529621
200	0xbb71a2ed	-0.0036870793
201	0x3a54a273	0.0008111365
202	0xbbf910a0	-0.007600859
203	0xbbe0b8f5	-0.006857986
204	0xbc1ebc93	-0.009688514
205	0x3b3b2899	0.0028558134
206	0x3c6fe96a	0.014643053
207	0xbc5cd4d3	-0.013478476
208	0xbc6061c8	-0.013695188
209	0xbc3451c7	-0.011005825
210	0x3b84fffd	0.0040588365
211	0x3c8555bf	0.016276238
212	0xbca7a498	-0.020464227
213	0x3c451d9d	0.012030986
214	0xbbdcfff3	-0.0067443787
215	0xbc0ef521	-0.0087254355
216	0x3cdce33d	0.026963824
217	0x3b331fb2	0.0027332124
218	0x39a0c486	0.00030664
219	0xbc5a6b70	-0.013331279
220	0xbbb0c397	-0.00539441
221	0x3b83b781	0.004019678
222	0x3b926353	0.004467407
223	0x3c078604	0.008271698
224	0x3b657965	0.0035014984
225	0xbb642feb	-0.00348186
226	0xbc7aa350	-0.015297726
227	0xba3be9e4	-0.00071683363
228	0x3bf77a97	0.0075524556
229	0xbcceb862	-0.025234405
230	0xbc83395d	-0.016018564
231	0x3c3ed7fa	0.0116481725
232	0xbb176993	-0.0023103699
233	0xbc8f454e	-0.017489102
234	0x3ca7e31a	0.020494033
235	0xbbd6f32b	-0.0065597496
236	0x3c68e13d	0.014213857
237	0xbcb8f945	-0.022579798
238	0xbb60a87b	-0.003428011
239	0xbc8615ce	-0.01636782
240	0x3ca3ccf3	0.019995188
241	0x3bbe3256	0.0058043404
242	0xbcd5dfba	-0.026107658
243	0x3c878afd	0.016545767
244	0xbb80760f	-0.0039203237
245	0xbcc3ed0c	-0.023916744
246	0xba8b2240	-0.0010615066
247	0xbb8b2dbb	-0.004247395
248	0xbc38b8c4	-0.01127452
249	0xbb0f6784	-0.0021881768
250	0x3b2695ad	0.0025418804
251	0x3bfd5532	0.0077311033
252	0x3bc2c929	0.0059443903
253	0xbc99f6c0	-0.018794417
254	0x3c7e97b8	0.015539102
255	0xbc3ea877	-0.011636845

action_model._continuous_distribution.mu.bias f4 [2]
0	0x00000000	0.0
1	0x00000000	0.0

action_model._discrete_distribution.branches.0.weight f4 [1, 256]
0	0x3acbe807	0.001555682
1	0xbc58c443	-0.013230386
2	0xbaccd8df	-0.0015628597
3	0x3b975e6f	0.0046194117
4	0x3bb6c6b9	0.005577889
5	0xbaeb1a68	-0.0017936947
6	0x3bceace8	0.006307233
7	0xbb5c02cb	-0.0033571
8	0xbbcc72af	-0.0062392573
9	0x3a98b302	0.0011650028
10	0x3b629213	0.003457193
11	0x39f39d2f	0.00046465683
12	0x3aad241f	0.0013209617
13	0x3bb1687b	0.0054140664
14	0xbb8c81f5	-0.004287953
15	0xbaadd14d	-0.0013261229
16	0xbafbe99b	-0.00192194
17	0xbb00cb15	-0.0019652296
18	0x3abc67ed	0.0014374234
19	0xbb219b64	-0.002465927
20	0x3b8f638c	0.0043758806
21	0x3aeafc03	0.0017927889
22	0x3c2b3028	0.010448493
23	0xbbba03c1	-0.005676717
24	0x3afc637d	0.0019255724
25	0xbb40b22b	-0.0029403071
26	0xbad129f7	-0.0015957941
27	0x3ba3c486	0.0049977927
28	0x3bc08fa3	0.005876498
29	0xbc03b19d	-0.008037952
30	0xbc40a314	-0.011757631
31	0x3ae712bf	0.0017629488
32	0xbaebbe25	-0.0017985745
33	0xbc0262ab	-0.007958095
34	0xbb87a5f7	-0.0041396576
35	0xbb79f7e3	-0.0038142137
36	0x3bac16d4	0.0052517448
37	0xba88d20d	-0.0010438577
38	0x3be5d467	0.0070138457
39	0x3b76f252	0.0037681055
40	0x3af5e060	0.0018758886
41	0xba37151b	-0.0006984041
42	0x3c44ce5c	0.0120120905
43	0xbbf0575b	-0.0073346323
44	0xbba65d0c	-0.00507701
45	0x3b8bc439	0.004265335
46	0xbad91d5b	-0.0016564535
47	0xbb9bb507	-0.0047518048
48	0xbcb65cf9	-0.02226113
49	0xbc7349eb	-0.014849166
50	0x3c42a1c5	0.011879389
51	0xbb818b91	-0.003953405
52	0xbb99eb9b	-0.004697276
53	0x3bf45953	0.0074569373
54	0xbc134f87	-0.008991129
55	0x3c673628	0.014112033
56	0x3be1c172	0.0068895156
57	0xbbb0da2e	-0.005397103
58	0x3c10bee8	0.008834578
59	0x3c24fb68	0.010069706
60	0xba612f68	-0.0008590133
61	0x3bff35e8	0.0077884085
62	0x3b51b5d8	0.0031999256
63	0xbb598738	-0.003319217
64	0xbba0d74b	-0.0049084774
65	0x3b1c0514	0.0023806738
66	0xbbe96b48	-0.0071233846
67	0xbb7d9b9f	-0.0038697494
68	0x3b84754c	0.004042303
69	0x3b00130c	0.0019542603
70	0xbc52ca8a	-0.012865672
71	0x3bdb0c70	0.0066848323
72	0x39c694b6	0.000378763
73	0xbb185f4a	-0.0023250156
74	0x3aa94024	0.0012912792
75	0xbc0817b1	-0.00830643
76	0xbbc4b1ec	-0.0060026553
77	0xbac3d16f	-0.0014939735
78	0x3b39a8d7	0.0028329396
79	0xbb56b00a	-0.0032758736
80	0x3a80190f	0.0009773093
81	0x3c4dd2f3	0.012562501
82	0x3c3766db	0.011193956
83	0x3bcc2ed1	0.006231167
84	0xbc49f842	-0.012327256
85	0xbc1db5dd	-0.009625879
86	0x3b85933f	0.004076391
87	0xbba9f09a	-0.0051861526
88	0xbac08603	-0.0014688376
89	0xbc000751	-0.007814244
90	0x3c6ec7bd	0.0145739885
91	0xbc20cfe9	-0.009815195
92	0xbc0244af	-0.007950946
93	0xbbdb81b3	-0.006698811
94	0x3a847866	0.0010106682
95	0x3c0b0e43	0.008487287
96	0x3a69476d	0.0008898888
97	0x3c396133	0.011314678
98	0x3bbac5e9	0.0056998623
99	0x3a30d8fa	0.0006746199
100	0xbc2514b6	-0.010075739
101	0x3bd717f2	0.006564134
102	0x3b98fd7d	0.00466889
103	0x3bf90ba5	0.007600265
104	0x3ca068b5	0.019581178
105	0x3b8317b9	0.0040006307
106	0x3b9ae383	0.0047268285
107	0xbc014ebb	-0.007892306
108	0x3bd12a95	0.00638325
109	0xbc0847ef	-0.008317932
110	0x3b9f3beb	0.0048594377
111	0x3c0153d3	0.00789352
112	0xbb777b5d	-0.003776274
113	0xbb6fe1db	-0.0036603126
114	0x3c3e19ba	0.011602813
115	0x3b8c510e	0.0042821234
116	0xbbeb3d62	-0.0071789483
117	0x3a235e12	0.0006231974
118	0x3afad1e8	0.0019136043
119	0x3bd8d223	0.006616847
120	0x3af41225	0.001862113
121	0x3bb35530	0.0054728016
122	0xbbf254ea	-0.0073953765
123	0xbc595c5f	-0.013266652
124	0x3b622693	0.0034507855
125	0x3a779638	0.00094446866
126	0x3aacb24b	0.0013175694
127	0x39b1024f	0.0003376179
128	0x3b9bdcda	0.004756552
129	0x3b17476f	0.002308335
130	0xbb7eac18	-0.00388599
131	0xbb82806c	-0.0039825942
132	0xbb8bbfbd	-0.0042648003
133	0xbbd1560f	-0.006388433
134	0xbb77c8c5	-0.0037808877
135	0x3acbc27c	0.0015545632
136	0x3af6cb5d	0.0018828918
137	0x3b31a467	0.0027106048
138	0x3bbf0cd8	0.0058303885
139	0xb867a1cf	-5.5225388e-05
140	0xbb9d9a8c	-0.004809683
141	0xbb9056ee	-0.004404894
142	0x3b31c87f	0.0027127562
143	0xbac97e43	-0.0015372712
144	0xba1084c5	-0.0005512948
145	0xbb89c35b	-0.0042041964
146	0x3b88ee4c	0.004178798
147	0xbc196a36	-0.009363702
148	0xbb1ce165	-0.0023938057
149	0xbb125891	-0.0022330622
150	0xbbf87a97	-0.007582973
151	0x3b75c37a	0.0037500546
152	0x3bbd182b	0.0057707033
153	0x34afc607	3.2740374e-07
154	0x3c8dba79	0.017300831
155	0xbba29e1f	-0.004962697
156	0xbbd4643d	-0.006481676
157	0xbb86b3fb	-0.004110811
158	0x3ae86040	0.001772888
159	0xbc2ee6c3	-0.010675135
160	0x3b23b307	0.0024978535
161	0xbbfa6fd2	-0.0076427246
162	0xba72a24f	-0.0009255753
163	0xbb32662f	-0.002722155
164	0xbb32f59b	-0.0027307037
165	0xbc0d9642	-0.008641781
166	0xba9ac9a0	-0.0011809357
167	0xb9e781ea	-0.00044156547
168	0x3c0507db	0.008119549
169	0xbbce7ee0	-0.006301746
170	0x3ad1d73d	0.001600958
171	0x3c0ff1a3	0.008785638
172	0x3a27ab9a	0.0006396115
173	0x3b3cfd33	0.0028837442
174	0x3ad3934f	0.0016141924
175	0x3baf556d	0.0053507597
176	0x3becc423	0.0072255298
177	0x39a28d68	0.00031004404
178	0xbbbc481f	-0.005745902
179	0xbbe993af	-0.007128201
180	0x3991fd7b	0.00027845413
181	0x3c7804ef	0.015137895
182	0xbbb76237	-0.005596425
183	0x3bf45575	0.0074564763
184	0x3bee396d	0.0072700293
185	0x3c43428a	0.01191772
186	0x3bc14bd3	0.0058989315
187	0x3ae3453f	0.0017339363
188	0xbc19886c	-0.009370904
189	0x3c2efaf7	0.010679952
190	0xba4dc555	-0.0007849534
191	0xb9b92ee3	-0.00035320883
192	0xbace3557	-0.0015732449
193	0x3b365f75	0.0027827893
194	0x3c0c1402	0.008549692
195	0x3ba3906a	0.0049915807
196	0xbae06c10	-0.0017122049
197	0x3aa4b129	0.0012565005
198	0xbc1e8972	-0.009676324
199	0xba057a83	-0.0005091803
200	0x3881b71a	6.185305e-05
201	0x3b9779e1	0.0046226834
202	0x3bbd1623	0.005770461
203	0xbc1699c6	-0.009191936
204	0xbbc9e8c4	-0.006161781
205	0xbb4f26b3	-0.003160876
206	0x3bfa6957	0.007641952
207	0x3bbb95a5	0.005724626
208	0x397612d7	0.00023467407
209	0xbc11e320	-0.0089042485
210	0x3b8139ae	0.0039436435
211	0xbb801655	-0.003908912
212	0xbaf4c4fd	-0.001867443
213	0x3bcfa127	0.0063363495
214	0xbac96ff5	-0.0015368449
215	0x3c1e54a3	0.009663734
216	0xbb26cf86	-0.0025453283
217	0xbb093f6c	-0.0020942343
218	0x3b1f57af	0.0024313738
219	0x3c49730f	0.0122954985
220	0xbb20706a	-0.0024481067
221	0xbae6f89d	-0.00176217
222	0xbb140764	-0.0022587413
223	0xbbaf6e89	-0.005353753
224	0xbbc37be5	-0.005965697
225	0xbc117393	-0.008877653
226	0xbc070486	-0.008240825
227	0xbbb24004	-0.00543976
228	0xbbc4f105	-0.006010177
229	0x3be5f660	0.0070178956
230	0x3ca1d79a	0.019756127
231	0xbba41123	-0.0050069257
232	0xbbf1b8e5	-0.0073767775
233	0x3b114dfc	0.0022171726
234	0xbc41f53a	-0.011838252
235	0x3b4fdc82	0.0031717126
236	0x3adafe95	0.0016707951
237	0xb98cdaa7	-0.0002686579
238	0xbc201c63	-0.009772393
239	0x3c0bbb79	0.008528584
240	0xbbae30e7	-0.005315888
241	0x3b045823	0.0020194135
242	0x3c28ad0b	0.010295163
243	0xba414f97	-0.00073742255
244	0x3c1fa265	0.009743308
245	0x3c15d7ba	0.0091456715
246	0x3b3bb527	0.002864191
247	0xbb43353a	-0.0029786364
248	0xbb839084	-0.0040150303
249	0x3be8e990	0.007107921
250	0xbb61ce6b	-0.003445531
251	0x3b61c8a8	0.0034451876
252	0x3c4a60c6	0.012352174
253	0x3b03b5d9	0.0020097403
254	0xbbf7f7fd	-0.0075674043
255	0xbb813dae	-0.0039441204

network_body._body_endoder.seq_layers.0.weight f4 [256, 47]
0	0xbddf5b75	-0.10906116
1	0x3d32f14b	0.043687146
2	0xbe9c2597	-0.3049743
3	0x3d46b605	0.04851343
4	0xbe8e1b2c	-0.27755105
5	0xbe1ea765	-0.15493543
6	0x3da5d6cb	0.08097609
7	0x3cd0885f	0.025455652
8	0x3e78a832	0.24282911
9	0xbe67647a	-0.22596923
10	0xbe270971	-0.16312195
11	0x3c77ef9a	0.015132809
12	0x3de816d9	0.11332483
13	0x3e8217e3	0.2540885
14	0x3e0f7ab0	0.14011645
15	0xbdf12960	-0.1177547
16	0xbd9e5cf3	-0.077325724
17	0xbe4cc1b4	-0.19995767
18	0xbe2c5d61	-0.16832496
19	0x3d94f223	0.072727464
20	0x3b93da96	0.0045121415
21	0xbdde61d3	-0.10858502
22	0xbb91205f	-0.0044289078
23	0x3eb4b2df	0.35292718
24	0xbd91cabe	-0.07118748
25	0x3c92d164	0.01792211
26	0xbddecec5	-0.10879282
27	0x3e1b56f7	0.15169893
28	0xbd8b8e10	-0.06814206
29	0x3e30d769	0.17269672
30	0x3c4f12d7	0.012638769
31	0x3dc471bf	0.09592008
32	0x3ccd86bb	0.025088659
33	0x3c59bcd1	0.013289646
34	0xbe3e7280	-0.18598366
35	0xbe887f0b	-0.26659426
36	0xbd71c318	-0.059023947
37	0x3e98f172	0.29871708
38	0xbdcf8078	-0.10131925
39	0xbd8aa471	-0.06769646
40	0x3d00bab5	0.031428058
41	0xbeaf40e5	-0.34229198
42	0x3e1d85ac	0.15383023
43	0xbe11acb6	-0.1422604
44	0x3e1534cd	0.14570923
45	0xbe91e044	-0.28491414
46	0xbd4742d1	-0.048647705
47	0xbdb85328	-0.09000236
48	0x3cc35458	0.02384393
49	0x3dedcb8b	0.11611088
50	0xbda4d3d1	-0.08048213
51	0x3e4d880d	0.2007143
52	0x3d661157	0.05616888
53	0xbd635bdc	-0.055507526
54	0x3e3895dd	0.18025918
55	0x3b2a4bae	0.002598505
56	0xbe510be9	-0.204147
57	0xbdfb51ae	-0.122714385
58	0x3eaf4f18	0.3424003
59	0xbd508fb8	-0.05091831
60	0xbdcbdff3	-0.09954824
61	0xbdb4aaed	-0.08821664
62	0xbda4c0b6	-0.08044569
63	0xbd9c7752	-0.07639946
64	0x3deece9c	0.11660501
65	0xbed635b5	-0.4183785
66	0xbdde54e7	-0.108560376
67	0xbdc896fb	-0.09794422
68	0x3baf9586	0.0053584008
69	0x3d424327	0.047427323
70	0x3e2a5d33	0.16637115
71	0x3d9ee0ba	0.07757707
72	0xbe095ccc	-0.13414305
73	0xbe9f3d03	-0.31101236
74	0x3d723d90	0.05914074
75	0x3bcf9111	0.006334432
76	0xbda57e2f	-0.08080708
77	0x3dbddff7	0.092712335
78	0x3ce61608	0.028086677
79	0xbde1d889	-0.11027629
80	0x3e87c730	0.26519156
81	0x3dfa69fe	0.12227248
82	0xbe03526a	-0.12824407
83	0x3bb763c7	0.005596611
84	0xbe573e86	-0.21019945
85	0xbde30002	-0.11083986
86	0x3dce2367	0.10065346
87	0xbd836de8	-0.06417447
88	0x3de8c9dc	0.113666266
89	0x3cae3cc9	0.021269219
90	0xbc9d496f	-0.019200055
91	0xbe0af33a	-0.13569346
92	0x3e96401e	0.29345793
93	0x3e016cbb	0.12639134
94	0x3e7ceb74	0.24699193
95	0xbcf6a8bd	-0.030109758
96	0xbe9802de	-0.29689687
97	0xbe482935	-0.19546969
98	0x3dc909f9	0.09816355
99	0x3e2a7e75	0.16649802
100	0xbec7fed7	-0.39061615
101	0xbe21c14b	-0.15796392
102	0x3db3ef89	0.08785922
103	0x3db84aa2	0.0899861
104	0x3e52f9d0	0.20603108
105	0x3d7153ee	0.058917932
106	0x3c8888b9	0.016666757
107	0x3e1a5fb5	0.15075572
108	0x3e037d98	0.12840879
109	0xbe899680	-0.26872635
110	0x3e998464	0.2998382
111	0x3e12ccf9	0.14336003
112	0x3e3d2348	0.1847049
113	0x3d844234	0.0645794
114	0x3dcc984b	0.09989985
115	0xbe1f8000	-0.15576172
116	0xbddc320e	-0.10751735
117	0xbc926c9c	-0.017874055
118	0xbcb12f3e	-0.021628972
119	0x3ca983a4	0.020692654
120	0x3eabf007	0.33581564
121	0xbc8eadd6	-0.017416876
122	0xbe3121c8	-0.17298043
123	0xba9e156a	-0.0012060825
124	0xbe512524	-0.20424324
125	0xbd960952	-0.073259965
126	0xbba2ab54	-0.0049642716
127	0x3e4e720c	0.20160693
128	0xbe075920	-0.13217592
129	0xbe902c55	-0.28158823
130	0xbdcdfb27	-0.10057669
131	0x3e770a06	0.24124917
132	0x3d9295a0	0.07157445
133	0x3d0b4b2d	0.03400724
134	0x3c864a0a	0.016392726
135	0xbd01b89c	-0.031670198
136	0xbe3afc28	-0.18260252
137	0xbd5f62ed	-0.054537702
138	0xbe1918bc	-0.14950842
139	0xbe2975f3	-0.165489
140	0xbe486940	-0.195714
141	0xbe720bd0	-0.23637319
142	0xbccff9b4	-0.025387622
143	0xbd9da023	-0.07696559
144	0x3e5f8c49	0.21830858
145	0x3ccac42f	0.02475175
146	0x3b1bd91b	0.0023780528
147	0xbe687d85	-0.22704132
148	0xbe2e2b43	-0.1700869
149	0x3e0f52c5	0.13996418
150	0x3dcdb70e	0.100446805
151	0xbe9f9e48	-0.31175447
152	0xbc8676d9	-0.016414093
153	0xbd583354	-0.052783325
154	0x3bc7396d	0.0060798437
155	0x3adf9a11	0.0017059465
156	0x3e5ffb77	0.2187327
157	0xbc69fb3e	-0.014281092
158	0xbe22c8c9	-0.15896906
159	0x3b82a240	0.003986627
160	0xbc17fc8a	-0.009276519
161	0xbd44b4c7	-0.048023965
162	0xbe08fef8	-0.13378513
163	0x3d144c72	0.036205716
164	0x3d6e9a84	0.058252826
165	0xbebcb7fc	-0.3685912
166	0x3c91f346	0.017816197
167	0xbe8a5392	-0.27016884
168	0x3e35d34c	0.17756385
169	0xbd9ad49f	-0.075600855
170	0x3ddb900a	0.10720833
171	0x3cffca21	0.031224312
172	0x3df397dd	0.118942
173	0x3e294ace	0.16532442
174	0x3d5d1505	0.053975124
175	0xbe9448a1	-0.2896166
176	0x3dfba1c3	0.12286713
177	0xbb4cdc7f	-0.0031259356
178	0xbd1e4131	-0.03863639
179	0xbdedb86a	-0.1160744
180	0xbdbd5982	-0.09245588
181	0xbd93e691	-0.072217114
182	0xbe1cff64	-0.15331799
183	0xbe6eef8d	-0.23333569
184	0xbd8014e9	-0.06253988
185	0x3d5f1b05	0.054469127
186	0x3e9dfd1a	0.30857164
187	0x3c59b590	0.013287917
188	0xbca70490	-0.020387918
189	0xbe4cc8c1	-0.19998457
190	0xbda0c542	-0.07850124
191	0xbdd7366a	-0.105084255
192	0xbe5b3b51	-0.21409346
193	0xbd9e6bfd	-0.07735441
194	0x3d66e3a9	0.056369457
195	0xbe824604	-0.25444043
196	0xbce46b59	-0.027883219
197	0x3e02a7e1	0.12759353
198	0x3e2ded25	0.16984995
199	0xbdfcc17d	-0.123415925
200	0xbc1e54fc	-0.009663817
201	0xbd12de3b	-0.035856467
202	0xbc883900	-0.016628742
203	0x3e67dbad	0.22642393
204	0x3e8cc937	0.27497265
205	0xbdc00b86	-0.09377198
206	0xbdc3ae24	-0.09554699
207	0x3dd67c9f	0.10472988
208	0x3e25f8bf	0.1620817
209	0x3d1d62b0	0.038424194
210	0x3df622e6	0.12018375
211	0xbe682bfe	-0.22673032
212	0x3df55492	0.11979021
213	0x3e719916	0.23593554
214	0xbdd86930	-0.10566938
215	0xbda9581b	-0.08268758
216	0xbe8aec81	-0.27133563
217	0x3e2094d7	0.15681778
218	0xbe444815	-0.19168122
219	0xbd1415df	-0.03615367
220	0xbda552f3	-0.08072462
221	0x3e5b1e19	0.213982
222	0x3e4321c4	0.1905585
223	0xbcc18e97	-0.023627562
224	0x3d89842b	0.06714662
225	0xbe0bcb7c	-0.13651842
226	0xbd4651e1	-0.04841793
227	0xbd4869ac	-0.0489289
228	0x3e445bcd	0.19175644
229	0x3e8e2c87	0.27768347
230	0xbe7c2a09	-0.2462541
231	0xbe731e84	-0.2374211
232	0x3d512b34	0.051066592
233	0x3e59cd2f	0.21269678
234	0x3e404e70	0.18779922
235	0xbe962b2f	-0.2932982
236	0x3e57c8b8	0.21072662
237	0x3dd3bfec	0.103393406
238	0x3e350022	0.17675832
239	0x3cb5fe76	0.022216063
240	0x3d28fe7f	0.04125833
241	0xbe679085	-0.22613724
242	0xbc855919	-0.016277837
243	0x3d8c4bd9	0.06850404
244	0x3db6ed87	0.089320235
245	0x3df4d036	0.119537756
246	0x3e59cb39	0.2126893
247	0x3e443809	0.19162
248	0xbd4490de	-0.04798972
249	0x3de4c459	0.11170263
250	0x3e37b7d6	0.17941222
251	0x3e09d035	0.13458331
252	0xbe421066	-0.18951568
253	0x3e68c5f8	0.22731769
254	0x3e43cf4f	0.1912205
255	0x3e10edfb	0.14153282

network_body._body_endoder.seq_layers.0.bias f4 [256]
0	0x00000000	0.0
1	0x00000000	0.0
2	0x00000000	0.0
3	0x00000000	0.0
4	0x00000000	0.0
5	0x00000000	0.0
6	0x00000000	0.0
7	0x00000000	0.0
8	0x00000000	0.0
9	0x00000000	0.0
10	0x00000000	0.0
11	0x00000000	0.0
12	0x00000000	0.0
13	0x00000000	0.0
14	0x00000000	0.0
15	0x00000000	0.0
16	0x00000000	0.0
17	0x00000000	0.0
18	0x00000000	0.0
19	0x00000000	0.0
20	0x00000000	0.0
21	0x00000000	0.0
22	0x00000000	0.0
23	0x00000000	0.0
24	0x00000000	0.0
25	0x00000000	0.0
26	0x00000000	0.0
27	0x00000000	0.0
28	0x00000000	0.0
29	0x00000000	0.0
30	0x00000000	0.0
31	0x00000000	0.0
32	0x00000000	0.0
33	0x00000000	0.0
34	0x00000000	0.0
35	0x00000000	0.0
36	0x00000000	0.0
37	0x00000000	0.0
38	0x00000000	0.0
39	0x00000000	0.0
40	0x00000000	0.0
41	0x00000000	0.0
42	0x00000000	0.0
43	0x00000000	0.0
44	0x00000000	0.0
45	0x00000000	0.0
46	0x00000000	0.0
47	0x00000000	0.0
48	0x00000000	0.0
49	0x00000000	0.0
50	0x00000000	0.0
51	0x00000000	0.0
52	0x00000000	0.0
53	0x00000000	0.0
54	0x00000000	0.0
55	0x00000000	0.0
56	0x00000000	0.0
57	0x00000000	0.0
58	0x00000000	0.0
59	0x00000000	0.0
60	0x00000000	0.0
61	0x00000000	0.0
62	0x00000000	0.0
63	0x00000000	0.0
64	0x00000000	0.0
65	0x00000000	0.0
66	0x00000000	0.0
67	0x00000000	0.0
68	0x00000000	0.0
69	0x00000000	0.0
70	0x00000000	0.0
71	0x00000000	0.0
72	0x00000000	0.0
73	0x00000000	0.0
74	0x00000000	0.0
75	0x00000000	0.0
76	0x00000000	0.0
77	0x00000000	0.0
78	0x00000000	0.0
79	0x00000000	0.0
80	0x00000000	0.0
81	0x00000000	0.0
82	0x00000000	0.0
83	0x00000000	0.0
84	0x00000000	0.0
85	0x00000000	0.0
86	0x00000000	0.0
87	0x00000000	0.0
88	0x00000000	0.0
89	0x00000000	0.0
90	0x00000000	0.0
91	0x00000000	0.0
92	0x00000000	0.0
93	0x00000000	0.0
94	0x00000000	0.0
95	0x00000000	0.0
96	0x00000000	0.0
97	0x00000000	0.0
98	0x00000000	0.0
99	0x00000000	0.0
100	0x00000000	0.0
101	0x00000000	0.0
102	0x00000000	0.0
103	0x00000000	0.0
104	0x00000000	0.0
105	0x00000000	0.0
106	0x00000000	0.0
107	0x00000000	0.0
108	0x00000000	0.0
109	0x00000000	0.0
110	0x00000000	0.0
111	0x00000000	0.0
112	0x00000000	0.0
113	0x00000000	0.0
114	0x00000000	0.0
115	0x00000000	0.0
116	0x00000000	0.0
117	0x00000000	0.0
118	0x00000000	0.0
119	0x00000000	0.0
120	0x00000000	0.0
121	0x00000000	0.0
122	0x00000000	0.0
123	0x00000000	0.0
124	0x00000000	0.0
125	0x00000000	0.0
126	0x00000000	0.0
127	0x00000000	0.0
128	0x00000000	0.0
129	0x00000000	0.0
130	0x00000000	0.0
131	0x00000000	0.0
132	0x00000000	0.0
133	0x00000000	0.0
134	0x00000000	0.0
135	0x00000000	0.0
136	0x00000000	0.0
137	0x00000000	0.0
138	0x00000000	0.0
139	0x00000000	0.0
140	0x00000000	0.0
141	0x00000000	0.0
142	0x00000000	0.0
143	0x00000000	0.0
144	0x00000000	0.0
145	0x00000000	0.0
146	0x00000000	0.0
147	0x00000000	0.0
148	0x00000000	0.0
149	0x00000000	0.0
150	0x00000000	0.0
151	0x00000000	0.0
152	0x00000000	0.0
153	0x00000000	0.0
154	0x00000000	0.0
155	0x00000000	0.0
156	0x00000000	0.0
157	0x00000000	0.0
158	0x00000000	0.0
159	0x00000000	0.0
160	0x00000000	0.0
161	0x00000000	0.0
162	0x00000000	0.0
163	0x00000000	0.0
164	0x00000000	0.0
165	0x00000000	0.0
166	0x00000000	0.0
167	0x00000000	0.0
168	0x00000000	0.0
169	0x00000000	0.0
170	0x00000000	0.0
171	0x00000000	0.0
172	0x00000000	0.0
173	0x00000000	0.0
174	0x00000000	0.0
175	0x00000000	0.0
176	0x00000000	0.0
177	0x00000000	0.0
178	0x00000000	0.0
179	0x00000000	0.0
180	0x00000000	0.0
181	0x00000000	0.0
182	0x00000000	0.0
183	0x00000000	0.0
184	0x00000000	0.0
185	0x00000000	0.0
186	0x00000000	0.0
187	0x00000000	0.0
188	0x00000000	0.0
189	0x00000000	0.0
190	0x00000000	0.0
191	0x00000000	0.0
192	0x00000000	0.0
193	0x00000000	0.0
194	0x00000000	0.0
195	0x00000000	0.0
196	0x00000000	0.0
197	0x00000000	0.0
198	0x00000000	0.0
199	0x00000000	0.0
200	0x00000000	0.0
201	0x00000000	0.0
202	0x00000000	0.0
203	0x00000000	0.0
204	0x00000000	0.0
205	0x00000000	0.0
206	0x00000000	0.0
207	0x00000000	0.0
208	0x00000000	0.0
209	0x00000000	0.0
210	0x00000000	0.0
211	0x00000000	0.0
212	0x00000000	0.0
213	0x00000000	0.0
214	0x00000000	0.0
215	0x00000000	0.0
216	0x00000000	0.0
217	0x00000000	0.0
218	0x00000000	0.0
219	0x00000000	0.0
220	0x00000000	0.0
221	0x00000000	0.0
222	0x00000000	0.0
223	0x00000000	0.0
224	0x00000000	0.0
225	0x00000000	0.0
226	0x00000000	0.0
227	0x00000000	0.0
228	0x00000000	0.0
229	0x00000000	0.0
230	0x00000000	0.0
231	0x00000000	0.0
232	0x00000000	0.0
233	0x00000000	0.0
234	0x00000000	0.0
235	0x00000000	0.0
236	0x00000000	0.0
237	0x00000000	0.0
238	0x00000000	0.0
239	0x00000000	0.0
240	0x00000000	0.0
241	0x00000000	0.0
242	0x00000000	0.0
243	0x00000000	0.0
244	0x00000000	0.0
245	0x00000000	0.0
246	0x00000000	0.0
247	0x00000000	0.0
248	0x00000000	0.0
249	0x00000000	0.0
250	0x00000000	0.0
251	0x00000000	0.0
252	0x00000000	0.0
253	0x00000000	0.0
254	0x00000000	0.0
255	0x00000000	0.0

value_heads.value_heads.extrinsic.weight f4 [1, 256]
0	0xbc65cd80	-0.014026046
1	0xbd6ef2ea	-0.05833713
2	0xbe048afe	-0.12943646
3	0x3e0f3d99	0.13988341
4	0xbdbabe4d	-0.09118328
5	0x3daf1946	0.085497424
6	0x3dcb43ca	0.09925039
7	0xbdac3dd5	-0.08410231
8	0xbe01ba2b	-0.12668674
9	0xbd128bfa	-0.035778023
10	0x3e0c85a9	0.13722862
11	0xbd8f4fad	-0.06997619
12	0xbd86b56a	-0.06577571
13	0x3d4bd324	0.049761906
14	0xbc8c7970	-0.01714775
15	0x3d8c9dac	0.06866011
16	0x3e040187	0.12891208
17	0x3d3080a0	0.043091416
18	0xbe1aca41	-0.15116216
19	0x3d87ebe0	0.066367865
20	0xbe0aa125	-0.13538034
21	0x3d2a7b14	0.041621283
22	0xbd6a44e2	-0.057194598
23	0x3de85036	0.11343424
24	0xbdab6bbd	-0.08370159
25	0x3e192e15	0.14958985
26	0x3d885a42	0.0665784
27	0xbd4e2b4c	-0.05033426
28	0x3aa72100	0.0012750924
29	0x3d49e874	0.04929395
30	0x3e07edb1	0.13274266
31	0x3d470c9c	0.04859601
32	0xbd4ae2d4	-0.049532726
33	0x3d84acd2	0.06478275
34	0x3c8e1e48	0.017348424
35	0x3de6ebfe	0.11275481
36	0x3c8fe210	0.01756385
37	0xbcaf91a0	-0.021431744
38	0xbd7e0ada	-0.062022068
39	0xbcd0c3f8	-0.02548407
40	0x3e0076bd	0.12545295
41	0x3ccc5f40	0.024947762
42	0xbdea63d8	-0.11444825
43	0x3e026d9d	0.12737127
44	0xbd93279c	-0.07185289
45	0x3d8f6364	0.07001379
46	0xbd9e4d31	-0.07729567
47	0xbcc3a690	-0.023883134
48	0x3d9db7fa	0.07701106
49	0x3deb42fa	0.11487384
50	0x3c93d3f0	0.018045396
51	0x3d8aeab0	0.06783044
52	0x3d80f2f2	0.06296338
53	0x3dd5b1de	0.10434316
54	0xbdeff43a	-0.117165044
55	0x3db15b90	0.08660042
56	0x3d77b540	0.060475588
57	0x3d330df4	0.04371448
58	0xbe174050	-0.14770627
59	0x3dde0372	0.10840501
60	0xbcb2ca90	-0.021825105
61	0xbe1a99a0	-0.15097666
62	0x3d91833c	0.07105109
63	0x3d88df2e	0.06683193
64	0x3de716b2	0.11283626
65	0xbd5e85c0	-0.054326773
66	0xbe0c61c4	-0.1370917
67	0x3d9bc728	0.076063454
68	0xbd326e66	-0.043562315
69	0x3d03aee0	0.032149196
70	0xbe04fe94	-0.12987739
71	0xbd0c309e	-0.034226052
72	0xbd7ebbca	-0.06219081
73	0x3dbf3630	0.09336507
74	0xbcad2598	-0.02113609
75	0x3d897dda	0.067134574
76	0x3e176007	0.14782725
77	0x3e047d55	0.12938435
78	0x3c6f4d30	0.014605805
79	0xbdabe651	-0.08393539
80	0xbdeaf4d2	-0.11472477
81	0x3db713b4	0.08939305
82	0xbd5f20da	-0.05447469
83	0x3dc190fe	0.09451483
84	0xbdd27432	-0.10276069
85	0xbdf69850	-0.1204077
86	0xbd9c548e	-0.07633315
87	0x3dcb69d2	0.09932293
88	0xbb933d20	-0.0044933707
89	0xbba2b120	-0.0049649626
90	0xbca76258	-0.020432636
91	0x3c21eed0	0.0098835975
92	0xbe081543	-0.1328936
93	0x3ccc9368	0.024972633
94	0xbd3fb7ac	-0.046806023
95	0xbdf74359	-0.120733924
96	0x3e087f31	0.1332977
97	0x3e0830a3	0.13299803
98	0x3cc9c848	0.024631634
99	0xbe168c7f	-0.14702033
100	0x3da4d25e	0.08047937
101	0x3e0aa7ab	0.13540523
102	0x3da914e2	0.08255936
103	0x3daf9872	0.085739985
104	0xbe1b0ed2	-0.15142372
105	0x3de6ddca	0.11272772
106	0x3de2c2fa	0.11072345
107	0xbdafc8a1	-0.08583189
108	0xbd767dc8	-0.060178548
109	0xbd749006	-0.059707664
110	0x3b5efd00	0.0034025311
111	0x3d9b0e78	0.07571119
112	0xbdeb8916	-0.115007564
113	0x3d9c1aac	0.07622275
114	0xbdfac92c	-0.12245402
115	0xbdf01d3f	-0.11724328
116	0xbd3c3104	-0.045945182
117	0x3b7b54c0	0.0038350075
118	0x3cc8a5e0	0.024493158
119	0x3df918e2	0.12162949
120	0x3a1a8000	0.0005893707
121	0xbdcfd382	-0.10147764
122	0xbdb1a509	-0.08674056
123	0x3e15fb19	0.14646567
124	0xbd9d5764	-0.07682684
125	0xbdd8c034	-0.10583535
126	0xbd4450d8	-0.04792866
127	0xbda576c4	-0.08079293
128	0xbde5a797	-0.11213606
129	0xbdf15c74	-0.11785212
130	0x3caa1d30	0.02076587
131	0xbd1c07a4	-0.038093224
132	0x38f29800	0.000115677714
133	0xbe149af3	-0.14512233
134	0x3dfbec22	0.12300898
135	0xbd8799c4	-0.06621125
136	0xbd023720	-0.031790853
137	0xbc3a5270	-0.011372194
138	0x3cfab4b8	0.030603752
139	0x3c1f3770	0.009717807
140	0x3e1043f9	0.1408843
141	0xbdf476a0	-0.119366884
142	0xbcccf390	-0.025018483
143	0xbd99487d	-0.07484529
144	0xbe15b5b4	-0.14620095
145	0x3dd27422	0.10276057
146	0xbe0ed116	-0.13946947
147	0x3da2f85a	0.079575256
148	0xbd6c80e0	-0.057740092
149	0xbde67c91	-0.11254228
150	0xbe0254e9	-0.12727703
151	0xbde59f3a	-0.11212011
152	0x3d49b0cc	0.049240872
153	0xbe0ab990	-0.13547349
154	0x3c956718	0.018237635
155	0x3e02062b	0.12697665
156	0xbce72bc0	-0.028219104
157	0xbdb0276c	-0.08601269
158	0x3d441c04	0.04787828
159	0xbdfcfc4f	-0.123528115
160	0xbd89352d	-0.066995956
161	0xbdd4f32a	-0.10397942
162	0xbd999413	-0.07498946
163	0xbd50348a	-0.050831355
164	0xbc99c500	-0.018770695
165	0xbda8bb37	-0.082388334
166	0x3c0a8310	0.008454099
167	0xbd2c9466	-0.04213371
168	0xbe1baf50	-0.15203595
169	0x3c15a8e0	0.009134501
170	0xbd055ba2	-0.03255809
171	0xbc5c2fb0	-0.013439104
172	0x3d1406fc	0.036139473
173	0xbd3c2712	-0.045935698
174	0xba5a9d00	-0.0008339435
175	0xbe0ead2a	-0.13933244
176	0xbd4c7384	-0.04991485
177	0x3df4f1ce	0.11960183
178	0xbe169bc0	-0.14707851
179	0xbd2fc324	-0.04291071
180	0xbd8f3817	-0.0699312
181	0x3ddc9ec6	0.10772471
182	0x3e148807	0.14505015
183	0xbc8aef30	-0.016959757
184	0x3e13f023	0.14447074
185	0xbd8187ae	-0.06324707
186	0xbd9067dd	-0.0705106
187	0xbe078310	-0.1323359
188	0xbd8ebf9c	-0.0697014
189	0x3c80a2b8	0.01570259
190	0xbd988ecc	-0.07449111
191	0x3dda4caa	0.10659154
192	0xbb9fd5e0	-0.004877791
193	0x3e0b564f	0.13607143
194	0xbe1207ce	-0.1426079
195	0x3d05f0d4	0.032700375
196	0x3c1ce8d0	0.009576991
197	0x3d415cd0	0.047207654
198	0xbd918fd4	-0.07107511
199	0x3c917578	0.017756209
200	0x3dc08548	0.094004214
201	0x3da0c442	0.07849933
202	0x3d627e34	0.055296138
203	0xbdcf0856	-0.10109012
204	0xbd8b2f8f	-0.067961805
205	0xbdd9dc3f	-0.10637712
206	0xbdf5b438	-0.119972646
207	0x3acfaf00	0.0015845001
208	0x3cb62868	0.022236064
209	0x3d953114	0.072847515
210	0x3d41b1dc	0.04728876
211	0x3d1869e4	0.03721036
212	0xbd8530ef	-0.06503474
213	0x3d7c38e0	0.061577678
214	0x3d86b800	0.06578064
215	0x3d3fb5c0	0.04680419
216	0xbdfa4661	-0.12220455
217	0x3dfd1ed6	0.12359397
218	0x3cab61f0	0.020920724
219	0x3d9cb500	0.076517105
220	0x3e11614b	0.1419727
221	0xbc4ee780	-0.012628436
222	0x3de2efb2	0.110808745
223	0xbda76783	-0.0817404
224	0x3d4f0524	0.05054201
225	0x3c869478	0.016428217
226	0xbde6141f	-0.112343065
227	0x3d8ea2c8	0.06964642
228	0x3d0ce8a0	0.034401536
229	0xbd44eb74	-0.048076108
230	0xbe11912d	-0.14215536
231	0xbdfc9f13	-0.123350285
232	0x3cb47388	0.022027746
233	0xbc3fba80	-0.01170218
234	0xbdd61060	-0.10452342
235	0xbde87875	-0.113511
236	0xbdd00a5c	-0.10158226
237	0x3d70bc8c	0.058773562
238	0xbdeb61d7	-0.11493271
239	0xbd55ef68	-0.05223027
240	0xbda565cc	-0.08076057
241	0x3dbe443a	0.09290357
242	0x3dca3a62	0.09874417
243	0xbc053120	-0.008129388
244	0x3dab720c	0.08371362
245	0x3d8dda48	0.069263995
246	0xbe16b5db	-0.1471781
247	0x3d75e71c	0.060034856
248	0xbcad6818	-0.0211678
249	0x3d4ffd48	0.050778657
250	0x3db2ac02	0.08724214
251	0x3d4652fc	0.048418984
252	0x3cd54ca8	0.02603753
253	0xbd10b90e	-0.035332732
254	0xbd810cba	-0.063012555
255	0x3d165238	0.036699504
