EcoSculptor/Assets/Trainings/Final 2.0/Alphahunteranimal.onnx (onnx, 223275 bytes, 6 tensors)

network_body._body_endoder.seq_layers.0.weight f4 [256, 208]
00000000: 7909 9e3d 5b62 11be 9d28 ef3b a381 24bd
00000010: d545 76bd 56f0 963d 31c5 ec3c 3b5c c03d
00000020: dfeb 74bc 6400 a6bd 1987 d93b 80f2 5ebd
00000030: 912a 7c3d 81db 323d 3c15 3db9 8230 413d
00000040: 7c83 ecbd 6bec 143d 32c4 22be af53 2ebd
00000050: bc7d 9b3d 8156 113d 349d 71bc c902 31bd
00000060: 64e5 cb3c 7f59 e33d 48ab 02bc 3dc2 db3c
00000070: 87a7 c4b7 ae96 a83d fefc 343b 8aad bbbd
00000080: 1666 d33c 1b28 d13d ae95 d93c e8dc 8a3d
00000090: e7c7 f73b 41b6 d43d 58f8 083b cddd 0c3e
000000a0: f7c6 c2bd ccc2 f0bd ac77 9f3c c2d2 f73d
000000b0: 950c 89bc 8811 efbd 8e11 b53d d713 6e3c
000000c0: 95c6 12bc d12e 1dbd 5ea3 953d 3bb4 0c3c
000000d0: 2285 4dbc 9ccb 05be b85c 70bd 6d79 6bbd
000000e0: c7db 273d 0977 553d b7fc d5bd 765f 203e
000000f0: 7349 383d 40b8 99bd 8f5b e23d 254c 1bbe
00000100: 4ac0 393d 53cc 7a3d c9f4 2d3d 0f85 cdbc
00000110: c287 d33d b30f 8e3d ed13 1c3d 9423 dd3c
00000120: 7a21 d7bc de47 a5bd e7fa 143d 7a56 893c
00000130: efc3 c23b f845 333d c24e 793e 2876 10bc
00000140: 305a 84bd 9375 4f3d 34ad 8a3c 0907 983d
00000150: a5f3 8ebd ff8b b3bc b363 d63d a20a 0ebc
00000160: 1453 f53d e61a 203e dcc7 92bd 413c 213c
00000170: 2725 e2bc 6b51 8abc 62e3 fd3c 46ee 813d
00000180: 1523 a4bc 6915 183d d542 653d 247e c0bd
00000190: 8c10 3fbd 4c39 cebc b3eb ae39 6cd4 ebbb
000001a0: 2af0 a83d 3f51 d33d 640a 6b3d f014 09be
000001b0: 299c 24bd 32c7 c53d f7f5 793d c688 e33c
000001c0: 8d4f cfbd 1833 b5bd f532 0a3d 2d1a e9bd
000001d0: 5042 963c e8b3 99bd d803 b53d babf 1bbd
000001e0: 7570 203c 3303 353d 6a91 583c 997e c73d
000001f0: 134f 953d e77d 943c 7a99 df3c 978f 7dbc
00000200: 46bc 9fbb 5d9a 1e3e c507 c43c 7ab7 14be
00000210: f7c1 443d fd58 873b 7714 0a3e 9d25 89bd
00000220: 009a f73d 43a2 be3d b7d0 0d3c 0110 c93d
00000230: 5ade 5b3d 2a1a 043d 7777 14be 9c46 0d3d
00000240: 05be eb3d 8e17 e3bd 8111 afbc 35c4 643d
00000250: e23d 9f3d f92f 323d c265 e0bc 60c5 163e
00000260: dc53 78bd 17c2 623d f84e 043d 897e 8a3c
00000270: 0b48 373d e00e 2b3d 4b11 693d 7a19 873d
00000280: 6e13 c63c d2a9 913d 4217 973c 7601 b73c
00000290: 3659 603d 2ce8 babc 1469 22bd 273b 4abd
000002a0: 8595 8cbd 93b0 e4bd 2236 19be c141 8bbe
000002b0: 43e1 03be 8605 d63d 373e 853b 5ea9 9f3c
000002c0: b718 1fbe 2005 2ebd c6a6 883c 3050 e23d
000002d0: 27e0 32bd 13a2 79bd 9450 ab3d ded4 f43d
000002e0: 46bd 3dbd 23dd ef3c 8dbe 2fbd c0a2 e1bd
000002f0: acff 313d f327 d13c 29a9 b0bc ab82 b9bd
00000300: 32d7 30bd ae80 9a3c b4d9 8dbd c11e 9bbc
00000310: 936d ba3c 58c7 0abe d15c c7bc 64a7 0c3d
00000320: e75a 673d f5a5 cb3d da88 623d ca25 c3bd
00000330: 6dfa 053d 15ca 7cba 8183 97bd 3a14 4e3c
00000340: c467 773d b781 24be be0f 7d3c a7c6 923d
00000350: 3832 e4bd ff11 dd3d 0fed 29be dd09 a3bc
00000360: 8e87 723d 8edc 233e c935 ebbc a728 22bd
00000370: 5491 673d 6ade 9bbd e908 b2bd 1fe8 863d
00000380: 55ba 183d a60d ce3c a265 46bd d557 d5bd
00000390: 11e1 8dbd dc1f 6e3d 52f5 e7bb dbc1 d0bd
000003a0: 2cb6 083c 06fa 9fbd 54fb 88bd df6a b6bd
000003b0: 84dc 003e 51e6 273e 328a f73d c26f 2bbe
000003c0: 1521 933d 8472 3fbc 7132 ccbd 0622 a1bc
000003d0: 4e8b ff3c ad9d 4cbd dc08 e73d 3a27 02bd
000003e0: 4c20 033e 8ea5 4ebe b2f2 d5bd 026c 2fbd
000003f0: eba5 103c 6f6a c2bd a9c7 9f3d f445 073e
0.077166505 -0.14197676 0.0072985427 -0.040162694 -0.06012519 0.07370059 0.028902622 0.093925916
-0.014948814 -0.08105543 0.0066384193 -0.054430485 0.061564032 0.043666366 -0.00018032355 0.0471654
-0.11548516 0.03635828 -0.15895155 -0.042560276 0.07592341 0.035482887 -0.014746953 -0.043215547
0.024889655 0.111010544 -0.007975407 0.026826018 -2.3443032e-05 0.08231865 0.0027616615 -0.09163959
0.025805514 0.10212728 0.02656063 0.06780416 0.007561672 0.10386325 0.0020899978 0.13756485
-0.09510606 -0.117559046 0.019466244 0.12100746 -0.016729632 -0.11673266 0.08841239 0.014531097
-0.008958478 -0.038374726 0.073065504 0.008587892 -0.012543948 -0.13065952 -0.058682173 -0.057488848
0.04098108 0.052115474 -0.10448592 0.15661415 0.04499192 -0.07505846 0.1105262 -0.15165766
0.045349397 0.061230015 0.042469773 -0.025087861 0.10328628 0.06936588 0.03810494 0.026994504
-0.02626108 -0.08070348 0.03637209 0.016764868 0.0059437673 0.0437679 0.2434645 -0.008817233
-0.064625144 0.050649237 0.016928293 0.07423217 -0.06980065 -0.021917341 0.10468235 -0.008669527
0.119787365 0.15635261 -0.071670264 0.009841026 -0.027605606 -0.016884526 0.030992214 0.06344275
-0.02003626 0.037129793 0.05597194 -0.093990594 -0.04664664 -0.025173806 0.00033363476 -0.0071969535
0.08248933 0.10318231 0.057382956 -0.13386893 -0.04018799 0.09657134 0.061025586 0.02777518
-0.10122595 -0.08847636 0.033740003 -0.11381946 0.018342167 -0.075050175 0.08838624 -0.03802464
0.009792437 0.044192504 0.013218263 0.097409435 0.07290473 0.018126441 0.027294863 -0.015476129
-0.004874739 0.15488572 0.023929486 -0.14523116 0.04803654 0.0041304813 0.13484369 -0.06696627
0.1208992 0.09308293 0.0086557185 0.09817506 0.053678848 0.032251514 -0.14498697 0.034491166
0.11510853 -0.11088477 -0.021370651 0.05585118 0.07775475 0.04350278 -0.027392272 0.1472373
-0.06062685 0.05536088 0.032301873 0.01690604 0.04474644 0.041762233 0.056901257 0.06596656
0.024179187 0.07112469 0.018443707 0.022339564 0.05477258 -0.022815786 -0.03965099 -0.04937282
-0.06864456 -0.11166491 -0.14962056 -0.27198604 -0.128789 0.10450272 0.0040662545 0.01948994
-0.15536772 -0.042485356 0.016681086 0.11050451 -0.0436708 -0.06094558 0.083649784 0.11954664
-0.046323083 0.02928025 -0.042906333 -0.1101737 0.04345672 0.025531745 -0.021565037 -0.09058126
-0.043173976 0.018860187 -0.06926289 -0.018935563 0.022757327 -0.13552606 -0.02433625 0.034339324
0.056483176 0.09943763 0.055306293 -0.09528692 0.032709528 -0.00096431497 -0.07398129 0.012578065
0.060401693 -0.16065107 0.015445648 0.07166796 -0.11142391 0.10794448 -0.16594337 -0.019902164
0.059211306 0.16002104 -0.02871217 -0.03958955 0.05653508 -0.076107815 -0.08693106 0.06587242
0.037287075 0.025152992 -0.04843677 -0.10417143 -0.06927694 0.058135852 -0.007078805 -0.10193225
0.008344214 -0.0781136 -0.06688562 -0.08907103 0.1258412 0.16396452 0.120869055 -0.16741851
0.07184044 -0.0116850175 -0.099705584 -0.019669544 0.031194355 -0.04995506 0.11280987 -0.03177569
0.12805289 -0.20180342 -0.10446681 -0.042827614 0.00882862 -0.09492957 0.07801754 0.13210279

network_body._body_endoder.seq_layers.0.bias f4 [256]
00000000: 8175 fd3c 3e5f ac3c 9248 af3c c329 253b
00000010: d17c 373c d374 083c 1847 5e3d 399a e83b
00000020: ec8b e33c be1c c0bb a92e a2bc 1ab7 833c
00000030: 5a16 0e3c d17c 15bb 7567 133b a94c 53bc
00000040: ed63 563a 92c5 abbc 313e 193c 0f9b 613c
00000050: 6cc9 c8ba aae0 54bc 08eb 31bc c895 56bc
00000060: 563f 08bc 294b cbbb 6666 2cbc 89b6 34bc
00000070: a147 64bb 46e0 3cbb ad3c 373d 32ec d6bb
00000080: c30e 51bb e22c 76bb ba88 1e3d 126e 05bc
00000090: 6fc1 333c 72bb 90bb c47a 473c d202 113a
000000a0: 9a61 3c3d 6810 153b fb54 cabb 376d 65bb
000000b0: 68cb 29bc da16 9f3a b734 11bb ae61 ec3a
000000c0: be81 11ba f264 533c b572 90bc 8459 8cbc
000000d0: accc b53b b182 bf3c 9f8e b13c 9701 323c
000000e0: b920 b3bb 2700 c7bc 204a f6bb ddc4 7b39
000000f0: bbe7 983c b359 6f3c dcf0 c3bc e47d 973c
00000100: 7617 cabc 0d6d dc3a e33a 3dbc 4ece 423c
00000110: 9cd8 a53c 0479 f53c 2eb7 e1bb 409c 0c3c
00000120: 4151 98b9 bd43 09bc 842b 643c cb38 2ebc
00000130: acde 443c 4e95 d3bc abe3 3c3b c8b7 6139
00000140: 13f9 63bc 7959 20bc 8ce2 11bb 5888 c63a
00000150: 69a9 613b 4df5 943c 9a5d fabb b349 0e3b
00000160: c0ce e7bb 299b 5cb8 2e00 e83c 48c9 f33c
00000170: fc72 09bc b9cf a8bc 92fa 79bb de92 02bc
00000180: 2e54 123d a5c0 293c 5e6e 23bb 08e5 2f3c
00000190: 932c 103d 4028 b9ba ccf5 f2bc 5dc6 e13c
000001a0: 017a ed3a a6d0 ec3b e4aa 063d edc3 1c3c
000001b0: 1676 a43c 444e 883c 3ce7 4b3c a78e 593c
000001c0: f74a e3bb 4214 973a f7d8 293c 397e 95ba
000001d0: 41be 193c 05ed 033d 86f0 f63c c526 4c3c
000001e0: 6a3f 273c dde8 06bb 6369 98bc 1801 c83b
000001f0: 7db0 90bb b758 883c 548b ce3c b541 03bc
00000200: 250d 503b 44a1 8cbb 1893 403c f515 0bbc
00000210: 59e9 c83c 9edc b63a b9dd 7f3c 143f 683c
00000220: be7f 24bc c826 833c e8d2 bb3c 06ea c73c
00000230: 993c fcbb e15a 2e3d e5f1 f23b c2bd 0a3b
00000240: eee0 de3b 3fdb dfbb 1538 3f3c 9424 533c
00000250: f2df d5ba 4633 e1bc 5987 313c 7c4f cebc
00000260: 581f 5b3c e6fb 893c 3b17 eb3c 55ae 093c
00000270: e4b6 503b db48 24bc c063 b03c 2200 c13c
00000280: 0cb0 313c d083 5bbb 1aff 38bc 2087 58bc
00000290: df7a ae3c a250 483c 9b5e 293d f4e2 46ba
000002a0: 51f6 aabc e26c c73b b7db de3a 3e29 ecbc
000002b0: d89b aa3c af9e 57ba 8976 fb3b e1b0 783a
000002c0: 33b0 ae3b 3e45 1ebc 81db 56bc 58f1 7d3c
000002d0: 8713 913c 3175 ba3c 096f 52bc 8a0f 293c
000002e0: d1a5 e1bb 6072 383c a4e3 853c cfe9 df3c
000002f0: e67d 9a3b e519 f3bb c876 29bc c74d 13bc
00000300: c867 993c 0720 5a3c 4fe6 49bc b215 ae3b
00000310: 100d 8fbc 865d 82bc 9558 293b e1da 7f3c
00000320: 8857 d93b e067 afbc f76a 8ebb 0ea5 6fbc
00000330: 9db4 c83b 835e 0b3d 9020 723c 6e85 0e3b
00000340: 4e48 383d 0455 e4bb dfd5 f33a 90f8 963c
00000350: 3b76 243c b579 0ebc bbb7 4fbb aa24 50ba
00000360: 263f 25bc 7d81 7fb9 bebd 56bc f666 a4bc
00000370: 5a33 2dbc 8793 943c 1d7f 6bbc 9f2e 4cbc
00000380: 8735 583c d54c bcbb c553 093c 1aff 79bc
00000390: 958e 2ebc 4fbf 59bc 774c ad3c 601f 813c
000003a0: 2234 e83c 4382 37bb 8671 103d 4fc8 e13c
000003b0: c6fe 78bb 05a5 7d3b ca85 5ebc f035 39b9
000003c0: 7162 7d3b 0ac3 8bbb 1e9b ab3c 7633 38bb
000003d0: 95ad 5fbc 28b0 25bc 74d1 29ba 3644 19bc
000003e0: e91e f13b 0278 033d 4ab2 4abc 0fc0 e3bc
000003f0: 4d6d ccbb 9e63 c03c 8e09 283d 31bf 46bc
0.03093982 0.021041509 0.021396909 0.0025201894 0.011199192 0.008328634 0.05426702 0.007098463
0.02777668 -0.0058628013 -0.01979764 0.01607852 0.008672321 -0.0022809992 0.0022492085 -0.012896695
0.0008178342 -0.020968232 0.0093532065 0.013769879 -0.0015318817 -0.012993017 -0.0108592585 -0.013097234
-0.008315882 -0.006204028 -0.010522461 -0.011029848 -0.0034832733 -0.00288202 0.0447356 -0.0065589184
-0.0031899668 -0.0037563373 0.03870461 -0.008143919 0.010971411 -0.0044168765 0.012175266 0.00055317313
0.045991518 0.0022745375 -0.0061746812 -0.0035007724 -0.010363437 0.0012137548 -0.0022156665 0.0018034482
-0.0005550644 0.012902485 -0.017632822 -0.017132528 0.0055480804 0.023377748 0.021674452 0.010864637
-0.0054665473 -0.024292065 -0.0075161606 0.00024010563 0.018665185 0.014608788 -0.023918562 0.018492647
-0.02466939 0.0016817168 -0.011549684 0.011890007 0.020244889 0.029964931 -0.006888292 0.008582175
-0.00029052238 -0.0083779665 0.013926391 -0.010633658 0.01201598 -0.02582803 0.0028822224 0.00021526136
-0.013914364 -0.009786957 -0.0022260277 0.0015146835 0.0034433252 0.018183375 -0.0076405527 0.0021711409
-0.007074207 -5.259659e-05 0.028320398 0.029759064 -0.008389231 -0.020606862 -0.0038143736 -0.007969586
0.03572481 0.010360871 -0.002493761 0.010735758 0.03519876 -0.0014126375 -0.02965822 0.027560407
0.0018118025 0.0072270213 0.032877818 0.009568197 0.020075839 0.016638882 0.012445267 0.01327864
-0.0069364267 0.0011526423 0.01036667 -0.0011405415 0.009383739 0.03220846 0.030143987 0.012460415
0.01020799 -0.0020585575 -0.01860494 0.006103646 -0.0044155703 0.016643865 0.025212921 -0.008011271
0.0031746116 -0.0042916853 0.01175382 -0.008489122 0.024525331 0.0013951247 0.015616828 0.014175195
-0.010040222 0.016009703 0.022927716 0.024403583 -0.0076976535 0.042567138 0.00741409 0.0021170233
0.006801716 -0.006831556 0.011671086 0.012887139 -0.0016317351 -0.02749027 0.010835492 -0.025184385
0.013374172 0.016843747 0.0286976 0.00840338 0.0031847293 -0.010027136 0.02153194 0.023559634
0.0108451955 -0.0033495314 -0.01129129 -0.01321581 0.021298824 0.012226256 0.04134999 -0.0007586919
-0.020869406 0.006085978 0.0017002736 -0.02882826 0.020826265 -0.0008225245 0.0076740426 0.0009486806
0.005331063 -0.009660063 -0.013113857 0.015499435 0.017709507 0.02276096 -0.012843856 0.010318646
-0.006886222 0.011257738 0.0163439 0.027333168 0.0047147153 -0.0074188584 -0.010343261 -0.0089907115
0.018726245 0.0133133 -0.012322976 0.005312645 -0.017462283 -0.015913736 0.0025840153 0.01561615
0.006632749 -0.021411836 -0.0043462473 -0.014626754 0.0061250464 0.03402568 0.014778271 0.002174701
0.04499083 -0.0069681425 0.0018603167 0.01842907 0.010037954 -0.008696009 -0.0031695205 -0.00079400337
-0.010085857 -0.00024366933 -0.0131067615 -0.020068627 -0.010571325 0.018136753 -0.014373568 -0.012462287
0.013196356 -0.005746464 0.008381789 -0.015258575 -0.010654111 -0.01329024 0.021154625 0.015762031
0.028345171 -0.0028001226 0.035264514 0.027561335 -0.0037993654 0.0038703096 -0.0135817025 -0.00017663068
0.0038663412 -0.004265194 0.02094799 -0.0028106845 -0.013652225 -0.0101128 -0.00064780493 -0.009354642
0.007358421 0.03209687 -0.012371609 -0.027801542 -0.0062386156 0.023485001 0.041024737 -0.0121305445

action_model._continuous_distribution.log_sigma f4 [1, 2]
00000000: 7035 6b3b 5566 b8bc
0.0035890006 -0.022509733

action_model._continuous_distribution.mu.weight f4 [2, 256]
00000000: e8d3 fdbc 09dc 1abd 4bf7 4fbc 63c8 eebc
00000010: a8fa 25bd c26b 903c 1feb f53c 259b 353d
00000020: 9c62 2f3d ff91 57bd fa5d 8eb9 613b 7fbd
00000030: f24e efbc ebb7 fbbc 3d6c e53c e650 a0bc
00000040: 8035 673c 17d0 e6bb 2330 dc3b c50d 863c
00000050: d61d 903b 48d3 e6bc ba31 acbc 56d7 1eb9
00000060: 3442 ffbc e10e c6bc 7b3b 473b 20e1 92bc
00000070: 69fb 00bb 1fb6 50bc 8a83 e9bb 8d6c bcbc
00000080: 4d2b 673c e0ff d6bc 28d9 073d 080a 03bc
00000090: 2f44 0a3d b9bd eebc 3fab 853d b0e1 0cbd
000000a0: 132a a73d 5956 ee3c d5c6 c4bc 23db cabc
000000b0: 6331 ac3b c5b6 653c a5ea 213b 82d6 13bd
000000c0: 8f8a 18bd 9798 e93c c9c3 55bc 6f26 8d3b
000000d0: c535 6ebd be37 deba 7886 1e3d 93c4 bcbb
000000e0: 9f59 5d3c e50b 2ebc dba7 04bc 6400 c33c
000000f0: a77c 4abd 8fd4 89bd 783a 60bc 2f86 73bd
00000100: fe1e abbb 3834 db3c e624 983b a963 393d
00000110: 8ebe 1f3d b1f8 06bd 0d4f 0a3c 78bd 60bd
00000120: 21f5 963c 640b dfbc 607b 1d3d 96d8 2bbc
00000130: be32 083d 02c8 39b9 67d2 a8bc dc64 41bd
00000140: ecd0 a9bb 3ffa 253c 6a1c 4dbd 30c0 f8bc
00000150: 0add 973c facd 34bd 9e8b 243b e123 f03c
00000160: f8c7 e73c 3d74 cf3c 3db7 593d 5d3c 49bc
00000170: 0aba 08bd 9777 ca3b 76c2 84bc ac94 4c3b
00000180: 0dd7 29bd 4fd7 a03c 94ca a63c a5d1 8d3c
00000190: fd3b 9cbd 692b ab3c 062e 6e3b 8e69 193c
000001a0: 4cb3 f9bc 0537 04bd 7289 b6bc e4b2 dfbc
000001b0: e77f 833d 6ce8 563d 1829 373d 4838 423d
000001c0: b7bf 9e3c 29a5 8f3c 16b5 3abd 1fe0 88bb
000001d0: c73b 083d 6f51 eebc 9a55 10bc 19fb 823d
000001e0: 3d3e 9dbc b463 103d c796 95bb 2e7d 013d
000001f0: 9f87 01bd d9f9 393d 02ef 4e3c 22ad bbbc
00000200: 8c72 fe3b e8cb ca3c 7f19 12bd 329c 9cbc
00000210: 0b49 953c f502 743c a544 493d 5118 393d
00000220: faf1 79bc ce44 da3c a184 2c3d af51 693d
00000230: a28a 2c3c e204 8f3d 1354 173d df48 7abd
00000240: 2123 963c 4970 473c 6c93 113d b728 eb3c
00000250: e674 f83b 7914 e6bc 4438 fc3c 93e9 00bc
00000260: 0690 59bd 896a 6bbd b8d5 8dbd da0e 3bbd
00000270: 6304 c13a af75 52bc 7504 523d b667 01bd
00000280: 5661 83bc a040 3ebc 048d 3d3a eda5 d5bb
00000290: 0ed6 d33c 8449 673c 325c 233d 7915 fabc
000002a0: f256 a039 aaed 063d e711 e23c 4b21 ad3b
000002b0: fc4c c13b f3e4 05bd bde7 11bd f4dd df3a
000002c0: 3e0d 243d e20e e9bc 080c 86bc 2267 ffbc
000002d0: 1a00 a03b 0976 99bc 6080 773a 4fa0 0cbd
000002e0: f58a c73c a13c 89bc abdf c03c c250 09bd
000002f0: ff3c 1e3d 3809 95bc 3bae 12ba e9ac 3dbc
00000300: ad8a da39 8168 f43b aead a6bc 21f9 293d
00000310: fd7e debc 785d 8abc e5dc 913c e75e c4bc
00000320: 9de3 a53c 3ac1 87bb 4e09 af3c 397c 54bb
00000330: 74e7 f4bc 4b65 7a3d 2774 7fb9 c203 20bd
00000340: bdfc 21bd 599e 55bc db7c b23c 12c7 a1bc
00000350: e8b3 31ba 38c6 38bc fd9c d8bb c3f3 7abc
00000360: acb5 81bc b035 56bc f9fd d4bc 522d 21bc
00000370: 5660 aebc 25da e2bb e51e 59ba b821 9dbc
00000380: ee5f 103d 3d3d 8ebc a345 bf3c 218a b6ba
00000390: 576a d1ba ff9b 98bc 1fdd 6b3a 63f7 653d
000003a0: 69c6 62bc a5b7 963c d225 87bb 77e9 bf3c
000003b0: 4147 e836 db7f 1fbd a6d9 58bc c3e9 8b3c
000003c0: 6dfd ef3c 974f 4fbb e7e7 8d3c 0580 f0bc
000003d0: 2aa8 163c 9cef a93b e43d 0abd 7ee3 ab3c
000003e0: 159c f73c f96f dcbb 0de2 203a 0a00 893a
000003f0: 5e5a dabc 2626 983d b10e 07bc 34dd 8abb
-0.030984834 -0.037807498 -0.012693237 -0.029148286 -0.040522248 0.017629508 0.030019341 0.04433741
0.04281865 -0.052629467 -0.0002715437 -0.062312488 -0.029212449 -0.030727347 0.028005714 -0.019569825
0.0141118765 -0.007043849 0.0067196055 0.016363988 0.004398088 -0.028176919 -0.021019805 -0.00015148273
-0.031159498 -0.024177017 0.0030400443 -0.017929614 -0.0019681102 -0.012738734 -0.0071262764 -0.02300098
0.014109445 -0.026245058 0.03316608 -0.007997997 0.03375643 -0.029143201 0.06526803 -0.03439492
0.08162322 0.029093908 -0.024020592 -0.024762696 0.005254911 0.014020626 0.002470651 -0.036093242
-0.037241515 0.028515143 -0.013047167 0.00430756 -0.058156747 -0.0016953868 0.03870246 -0.005760738
0.013510137 -0.010622953 -0.0080966605 0.023803897 -0.049435284 -0.067299955 -0.013685815 -0.05945414
-0.0052222004 0.026758298 0.0046430705 0.04526106 0.039000086 -0.032952014 0.008441699 -0.05486819
0.018427433 -0.027227111 0.038447738 -0.01048865 0.033251517 -0.00017717484 -0.02060814 -0.047215328
-0.005182376 0.010130464 -0.050075926 -0.03036508 0.018538017 -0.044141747 0.0025107632 0.029313983
0.028293595 0.025323981 0.053153265 -0.012282458 -0.033380546 0.006178807 -0.016206007 0.0031216545
-0.041464854 0.019633917 0.020360269 0.01731188 -0.07628629 0.020894723 0.003634335 0.009363545
-0.030481003 -0.032279033 -0.022282336 -0.027306981 0.0642088 0.05246775 0.044716924 0.047416955
0.019378526 0.01753481 -0.045582853 -0.004177108 0.033260133 -0.029091565 -0.0088094715 0.06395549
-0.019194717 0.035251334 -0.004565093 0.03161352 -0.03162348 0.04540429 0.012630226 -0.022909705
0.00776512 0.024755433 -0.035668846 -0.019117448 0.018223306 0.014893283 0.04913773 0.045189206
-0.015255446 0.026644137 0.042118672 0.056962665 0.0105310995 0.06983353 0.036945414 -0.06110465
0.018327298 0.012172767 0.035540983 0.028705938 0.0075822948 -0.028085934 0.030788548 -0.007868188
-0.053115867 -0.057474647 -0.06925529 -0.04566846 0.0014726039 -0.012845441 0.05127378 -0.031593047
-0.016037624 -0.0116120875 0.0007230791 -0.006520024 0.025858905 0.014116649 0.039882846 -0.030527817
0.00030582357 0.032941498 0.027596427 0.00528351 0.00589907 -0.032689046 -0.035621393 0.0017079697
0.04005169 -0.02844948 -0.016363159 -0.031177107 0.0048828246 -0.018733041 0.00094414316 -0.03433257
0.024358252 -0.016752543 0.023544153 -0.033524282 0.03863239 -0.018192872 -0.00055954204 -0.0115768695
0.00041683522 0.007458747 -0.020346489 0.041497353 -0.027160162 -0.016890272 0.017805526 -0.023971034
0.020250136 -0.0041429074 0.021366742 -0.0032422675 -0.029895522 0.061131757 -0.00024361965 -0.039066084
-0.03954767 -0.013038241 0.021788051 -0.019748244 -0.0006778822 -0.011277728 -0.0066105113 -0.015316906
-0.015833698 -0.013074324 -0.02600001 -0.009837465 -0.02128617 -0.0069229775 -0.0008282497 -0.019181117
0.035247736 -0.017363185 0.023348635 -0.0013926664 -0.0015977126 -0.018629072 0.0008997488 0.05614413
-0.01384125 0.018398115 -0.0041243816 0.023426754 6.922434e-06 -0.03894029 -0.013235485 0.01707924
0.029295648 -0.0031633133 0.017322494 -0.02935792 0.009195367 0.0051860344 -0.03375043 0.0209825
0.030225793 -0.0067272154 0.00061372 0.0010452282 -0.026654419 0.07429151 -0.008243249 -0.0042377952

action_model._continuous_distribution.mu.bias f4 [2]
00000000: df36 e33b b7aa 603c
0.0069340314 0.013712577

action_model._discrete_distribution.branches.0.weight f4 [1, 256]
00000000: 422c f53b 8163 c53b 4dab 813b 32a5 e4bb
00000010: a7e0 95bb 2eb7 2d3b 6b77 693b ad4e e1bb
00000020: 3d1c a93b fafe 8e3b 6c1e 9b3a 39a1 0c3a
00000030: 9347 4aba 32da 403c fa34 ae3b 0c05 013c
00000040: abe3 833b 1234 e638 b565 15bc 98fe 4bba
00000050: 720f 933b d276 56bb 6b3e a5ba c4a6 c2ba
00000060: 1ad5 d739 375e 5abb 1be0 203c ba1f 453b
00000070: aebf 0dbc 9516 bdba 9f40 7bbb 7de5 063b
00000080: 4f3c dcbb c5bc cf3b 77ae f5bb 78e1 d5ba
00000090: a8de e6bb adf2 e43b 43d1 ccba ea43 a23a
000000a0: a623 033b 405d 1e3b 7a72 01bb 8dc3 223b
000000b0: efd5 8fbc 5c2c c0bb 125b a73b b867 acba
000000c0: ef33 903b 0be7 593c 9de3 753c d79a be3b
000000d0: 6061 ec3b 7bfe 8abb 574c 62bb b7b0 dd3b
000000e0: 5847 7e3b 0023 5fba e9ae 173c 9ded 70bc
000000f0: affa be3b b7de 8e3b 8750 3c3c 376a ba3b
00000100: 1d9c 383b 3077 27bc 121d d8ba 7ae2 54bb
00000110: c503 d93a 7d8a 1a3c 06bf 43bc 7760 353a
00000120: e9f3 313b 4617 2d3b aa6c 30bc 7d2f 803a
00000130: f34a 85bb df63 b63b b6c9 c6bb c8cc e8bb
00000140: a3e4 6b3b 3328 e33b 7ce1 843a 1274 453a
00000150: 7f9d fbbb 252f a23b f31a c6ba e411 003a
00000160: 5089 6fbb 8f20 063c 38ea 3cbb 0bfa 39bb
00000170: 4194 8c3b 6aec 35bb 4803 86ba b888 1dbb
00000180: 7d5e 27ba 6efe 2bbc 0d17 e5bb 82b4 533c
00000190: 4f74 9c3b 482d 85bc c9e9 9f3a 55cd 22bc
000001a0: a31e 09bc 165b 133c d0f6 d5ba 5079 df3a
000001b0: 6dfb 47bc e640 4abb b899 a1b9 96b7 3b3a
000001c0: f6c4 333b 5afe d53b 8a8b 07bc 8a05 cbbb
000001d0: cabe ddbb 6eb8 153b bffc 5e39 1f33 51ba
000001e0: b63e b4bb 9ced 33bc 0684 47bc 171c 07bc
000001f0: 0878 1c3c 2d5e 77bb b3ad 9abb 9b96 0fbc
00000200: 4fe9 953b 22fa 62ba f5aa 113b 5765 8e3b
00000210: 188c acba 564c 3fba 90a6 053b d0a3 f23b
00000220: 68d6 6abb 82a7 e5b9 78e3 7d3b d7e9 0e3c
00000230: a7de 95ba f841 593b 8394 5f3c 29e1 873a
00000240: 9e2c ac3b 88bd 323a b3d5 42bb 36fb 32bc
00000250: add4 a43b 758e 763b 7530 1f3b 9aa4 683c
00000260: d0ef 283b 0a33 123c 31e9 bfbb f5eb a83b
00000270: cadd 673c 1bfb 253b dd56 78bb 0d59 b339
00000280: 085c 853b 0e5e 173b 0db7 eebb db79 4abb
00000290: 9e1a 2bba 269c 8a3a 32ba e7bb c79a 683c
000002a0: d7f2 4f3b 9b3a 4dba 9381 8dba ec66 a0bb
000002b0: 7040 21bc 00a3 013c 5ef4 a9bb f392 48ba
000002c0: 7347 04bb c71a 8bbb eb02 8b3c 67eb 89bb
000002d0: c7c7 a53a ca38 f9ba 63eb 59ba 2e80 113c
000002e0: f59d 9fba fb06 78ba 17af 523c 877a 29bc
000002f0: f804 f83b 9384 1e3c dfa1 f4bb d50b cb39
00000300: b02c 803b f31c 1e3c 3992 32bc e8d5 d1ba
00000310: 9ff4 853a da0c f5bb 160f 3a3a 767f 89b9
00000320: c5fa 043b 5a17 80ba 83cd 3bbb 8c72 c1ba
00000330: bd3b 0e3c 1391 c73a 0684 0d3c f6f4 193c
00000340: a82e 6abb 1f28 b23b 6862 2838 7dbd 01bb
00000350: 228f 54bb 97d1 273b a3c1 57b9 658e 5c3c
00000360: c344 21bc dfa1 69ba eab1 dc3b b03a 973b
00000370: f145 213c 61be 1fba 0634 98ba 96f2 113b
00000380: 2f84 073c f388 023a 1076 3bbb bb14 1e3b
00000390: efae e63a aac5 023b cbb5 813a fe96 43bb
000003a0: ab44 36bb 773a 56bc df64 9c39 1d09 e73b
000003b0: 7615 473c fa5f b9bb 64c4 10bc bc93 213a
000003c0: 7d70 e93a 35ac 833b 47cb 263c 8039 57bb
000003d0: f302 533b 7908 0d39 f567 72ba 4873 39bb
000003e0: adfd 8539 f241 783b 7e6e a03c 7204 d13a
000003f0: cff7 cb3b c61c c73b 177f e53b 4bbd 49bb
0.0074820826 0.0060238247 0.003957188 -0.0069777006 -0.0045739 0.0026506889 0.0035624157 -0.006875834
0.005160837 0.0043638917 0.0011834628 0.00053646 -0.0007716354 0.011770772 0.005316374 0.007874738
0.004024943 0.000109769535 -0.009118487 -0.0007781773 0.004487925 -0.003272463 -0.0012607103 -0.0014850725
0.0004116677 -0.0033320317 0.009819056 0.0030078725 -0.008651657 -0.0014426286 -0.0038338078 0.0020583563
-0.0067210565 0.0063396418 -0.0074976045 -0.0016317805 -0.0070455857 0.006986937 -0.001562633 0.0012379859
0.0020010262 0.0024164468 -0.0019752071 0.0024835796 -0.017558066 -0.005864663 0.005107292 -0.0013153469
0.004400722 0.013299714 0.0150078805 0.005816798 0.0072137564 -0.004241762 -0.0034530365 0.006765451
0.0038799848 -0.00085119903 0.00925801 -0.014705089 0.0058282237 0.004360046 0.011493809 0.0056889313
0.0028169223 -0.010221288 -0.0016488156 -0.0032483623 0.001655691 0.009432432 -0.011947399 0.00069189764
0.0027153438 0.0026411577 -0.010768095 0.0009779778 -0.0040677725 0.005566105 -0.0060665263 -0.00710449
0.0035994432 0.0069322824 0.0010138 0.00075322494 -0.007678687 0.0049494677 -0.0015114233 0.00048854784
-0.003655035 0.0081864735 -0.0028826129 -0.0028377797 0.004290134 -0.0027759322 -0.0010224367 -0.002403779
-0.0006384624 -0.0104976725 -0.0069912733 0.012921454 0.0047746073 -0.016256943 0.0012200411 -0.00993665
-0.008369121 0.008993885 -0.0016324166 0.0017049704 -0.012205941 -0.0030861436 -0.00030822842 0.00071608403
0.002743063 0.006530565 -0.008273015 -0.0061957287 -0.0067671286 0.0022845524 0.00021265725 -0.0007980335
-0.00550064 -0.010981943 -0.012177473 -0.008246443 0.009550102 -0.0037745342 -0.0047204136 -0.0087639345
0.0045749317 -0.00086584885 0.0022227142 0.0043455767 -0.001316431 -0.0007297447 0.0020393468 0.007404782
-0.0035833362 -0.00043803087 0.0038740318 0.008722744 -0.0011434153 0.0033150893 0.013646248 0.0010366786
0.005254342 0.00068184035 -0.0029729425 -0.010924151 0.0050302357 0.0037621532 0.0024290357 0.0141994
0.0025777705 0.0089233015 -0.005856656 0.0051550814 0.014152 0.0025326672 -0.0037893571 0.00034207889
0.004069809 0.0023096832 -0.007285005 -0.0030895385 -0.00065270986 0.00105751 -0.0070717568 0.014197058
0.0031730437 -0.0007828862 -0.0010796062 -0.0048950817 -0.009842023 0.007912397 -0.0051866015 -0.00076512917
-0.0020184189 -0.0042451355 0.016969165 -0.0042089703 0.0012648039 -0.0019014117 -0.00083129684 0.008880658
-0.0012177812 -0.00094614894 0.0128591275 -0.010344154 0.0075689517 0.009675163 -0.0074655856 0.00038727993
0.003911577 0.009650457 -0.01089912 -0.0016009184 0.0010219997 -0.0074783387 0.0007097585 -0.00026225642
0.0020291072 -0.0009772584 -0.002865643 -0.0014758869 0.008681235 0.0015225731 0.008637434 0.009396782
-0.0035733376 0.0054369117 4.014597e-05 -0.0019796782 -0.0032433947 0.0025607103 -0.00020576133 0.013461684
-0.009843054 -0.00089123653 0.006735076 0.0046151504 0.0098433355 -0.00060937373 -0.0011612184 0.0022269837
0.008271261 0.00049795135 -0.0028604306 0.0024121243 0.0017599742 0.0019954243 0.0009896097 -0.0029844637
-0.0027811925 -0.013075463 0.00029829793 0.007050647 0.012151113 -0.0056571933 -0.008835886 0.0006163677
0.0017810013 0.0040183314 0.010180301 -0.003284067 0.0032197803 0.00013449964 -0.0009247058 -0.0028297473
0.0002555674 0.0037881103 0.019583937 0.0015946759 0.0062246094 0.006076428 0.0070036757 -0.0030782993
