EcoSculptor/Assets/Trainings/Final 2.0/Hunteranimal.onnx (onnx, 181291 bytes, 6 tensors)

network_body._body_endoder.seq_layers.0.weight f4 [256, 167]
0.0637908 0.0429403 -0.013210071 -0.024526855 -0.07594477 0.041575667 -0.09085402 -0.04496686
0.08666249 -0.0007869485 0.032348443 0.022466047 -0.04381947 0.120674975 0.19799413 0.18837729
0.054398566 -0.0003897216 0.054939087 -0.11384933 0.046730783 -0.114510216 0.061062906 0.16614969
0.076343335 0.052657206 0.08149981 -0.080182336 0.015470807 -0.08659123 -0.0056041367 0.0916632
0.04059879 0.102034785 -0.034019798 0.0037603956 0.16489471 -0.0661524 -0.005465082 0.050975014
-0.008483051 0.098129414 0.034085546 -0.044423286 0.09863167 -0.17122072 -0.030969657 -0.06423356
-0.049149618 0.035877004 -0.11016866 -0.0016951544 0.16122746 -0.034494217 0.09572763 0.025348678
-0.13673261 0.00904653 0.03729239 -0.089104004 -0.058284428 -0.0007006903 -0.17654814 0.037199564
0.059671894 0.021356273 0.23207912 -0.0154284965 0.048934985 -0.10305242 -0.1140926 -0.14700025
0.037083715 -0.024768256 0.06575971 -0.0137023525 -0.005566208 -0.08279748 -0.076633036 0.050705202
0.006851439 -0.0019063982 -0.0870352 0.070357986 -0.10107413 0.11422721 0.08866241 0.035654046
-0.038840104 0.1137913 -0.010016155 0.22377363 -0.08992588 -0.11511212 -0.009156758 0.046068296
-0.066764764 0.110874176 -0.0942131 -0.046003826 0.09363409 -0.05018758 0.091621734 0.016550044
-0.11088486 0.009343349 -0.04399652 -0.004197471 0.08025933 -0.06841843 -0.06301328 0.08578384
0.077912204 0.046507604 -0.042882286 -0.08363286 0.018489964 -0.04617336 0.0933878 0.09855847
-0.19196197 -0.08015268 -0.09704039 0.07483944 -0.0060197143 0.018106671 0.08247964 0.10161922
0.07189496 -0.06865495 0.08174943 0.007706123 0.103541784 -0.04655227 0.04182431 -0.10901105
-0.09780462 0.004442295 0.0698278 -0.14118677 -0.00572282 0.13024804 0.03793334 0.04693416
0.0685464 -0.21410929 -0.03151341 0.017980007 0.012161415 0.03719483 -0.11427675 -0.05872638
0.027039219 -0.0028359878 -0.08240495 0.040032875 -0.15104161 -0.008933726 -0.10764235 0.08896587
-0.24041705 0.06432172 -0.04139316 0.08876293 0.110852584 -0.10649533 -0.06554975 0.019052846
-0.022718597 -0.05114707 0.07051875 -0.19118625 -0.10766174 0.032662164 0.1256489 0.111798085
-0.05586822 -0.07964456 -0.024370167 0.012684579 -0.01055473 -0.04463694 -0.018700555 0.042305753
-0.19612175 -0.0964682 -0.043716334 0.005237978 -0.010975854 -0.058629196 0.04350871 0.083835065
-0.07783204 -0.17890888 0.024818169 -0.1403398 -0.018238809 0.07162814 0.07517851 0.003000654
0.1355441 -0.09563371 -0.020404356 0.031066943 0.03960028 0.013861272 0.0145156635 -0.016952574
-0.012696899 -0.0517654 -0.17018706 -0.010484171 0.08566502 -0.007982314 -0.08615663 -0.13802414
-0.06828915 0.008599872 0.063724585 0.10847527 -0.15121248 -0.07046639 0.028013976 -0.06869836
0.15707928 -0.09079333 0.089600205 0.10393446 0.0938243 -0.10222287 0.09683212 0.04391636
-0.053934436 -0.0509737 -0.04845512 -0.09523257 -0.09367544 -0.123950295 0.020954508 0.016741067
0.07192377 -0.13002238 -0.067470826 0.030803073 0.031104125 0.07338786 0.0243257 0.030985571
0.1477777 -0.119001746 0.005420362 0.017436435 0.012756487 0.1277954 0.0036233934 -0.062678196
00000000: c0a4 823d 2be2 2f3d 0e6f 58bc 8bec c8bc
00000010: ee88 9bbd 3f4b 2a3d ac11 babd 2c2f 38bd
00000020: 1b7c b13d 384b 4eba cd7f 043d b70a b83c
00000030: 0b7c 33bd 7124 f73d f9be 4a3e fae5 403e
00000040: 08d1 5e3d 8c53 ccb9 cf07 613d d629 e9bd
00000050: c768 3f3d 5584 eabd 191d 7a3d 2523 2a3e
00000060: e559 9c3d 15af 573d 5fe9 a63d a336 a4bd
00000070: 4579 7d3c be56 b1bd e8a2 b7bb eab9 bb3d
00000080: eb4a 263d 9df7 d03d 5858 0bbd f870 763b
00000090: 29da 283e e97a 87bd 6e14 b3bb 2dcb 503d
000000a0: 7ffc 0abc 13f8 c83d 499d 0b3d 31f5 35bd
000000b0: 67ff c93d 7c54 2fbe 14b4 fdbc e28c 83bd
000000c0: 1c51 49bd c4f3 123d 1ba0 e1bd f12f deba
000000d0: d018 253e cf49 0dbd d90c c43d 08a8 cf3c
000000e0: a203 0cbe e637 143c e8bf 183d 297c b6bd
000000f0: a7bb 6ebd 88ae 37ba 09c9 34be 925e 183d
00000100: 846a 743d 5af3 ae3c 26a6 6d3e cec7 7cbc
00000110: 0d70 483d 260d d3bd 62a9 e9bd 3c87 16be
00000120: 18e5 173d cce6 cabc 07ad 863d d57f 60bc
00000130: bd64 b6bb ba91 a9bd c8f1 9cbd 42b0 4f3d
00000140: 0982 e03b 1ce0 f9ba 833f b2bd d917 903d
00000150: f4ff cebd f5ef e93d a394 b53d fa09 123d
00000160: cd16 1fbd 6a0b e93d cd1a 24bc ea24 653e
00000170: 0f2b b8bd e7bf ebbd 3a06 16bc 1cb2 3c3d
00000180: f7bb 88bd 0012 e33d ccf2 c0bd 826e 3cbd
00000190: 3bc3 bf3d 7e91 4dbd 2da4 bb3d f593 873c
000001a0: 9a17 e3bd d914 193c b235 34bd f08a 89bb
000001b0: 015f a43d f61e 8cbd 1b0d 81bd 70af af3d
000001c0: 6f90 9f3d c27e 3e3d 56a5 2fbd b447 abbd
000001d0: 4478 973c 4720 3dbd 1a42 bf3d 06d9 c93d
000001e0: ae91 44be 1727 a4bd 1dbd c6bd 6c45 993d
000001f0: 0641 c5bb 7154 943c 16eb a83d bd1d d03d
00000200: aa3d 933d f79a 8cbd 3f6c a73d a583 fc3b
00000210: b70d d43d 98ad 3ebd f84f 2b3d 2f41 dfbd
00000220: ca4d c8bd ac90 913b e101 8f3d 4493 10be
00000230: 7e86 bbbb be5f 053e fd5f 1b3d 093e 403d
00000240: 0e62 8c3d 773f 5bbe 3514 01bd cf4a 933c
00000250: ac40 473c 9b59 183d ee09 eabd 138b 70bd
00000260: 5a81 dd3c fbdb 39bb edc3 a8bd 83f9 233d
00000270: a7aa 1abe c35e 12bc 9873 dcbd bd33 b63d
00000280: e32f 76be 1bbb 833d e08b 29bd 57c9 b53d
00000290: ae06 e33d 391a dabd f33e 86bd b714 9c3c
000002a0: 5a1c babc 977f 51bd 226c 903d 54c6 43be
000002b0: c27d dcbd c3c8 053d 1baa 003e 65f6 e43d
000002c0: 13d6 64bd b01c a3bd f2a3 c7bc fbd2 4f3c
000002d0: bfed 2cbc 39d5 36bd e831 99bc cc48 2d3d
000002e0: 24d4 48be 1f91 c5bd e60f 33bd 58a3 ab3b
000002f0: 11d4 33bc 2b25 70bd 3036 323d b8b1 ab3d
00000300: 6866 9fbd e433 37be 794f cb3c 3db5 0fbe
00000310: 8e69 95bc c6b1 923d 31f7 993d 9fa6 443b
00000320: 13cc 0a3e 9bdb c3bd 0927 a7bc 1a80 fe3c
00000330: e733 223d 631a 633c 1bd3 6d3c 20e0 8abc
00000340: a706 50bc f507 54bd 8445 2ebe cdc5 2bbc
00000350: 2471 af3d 40c8 02bc e372 b0bd 3356 0dbe
00000360: 2fdb 8bbd 7ae6 0c3c 0982 823d 4828 de3d
00000370: 72d7 1abe af50 90bd 917d e53c bab1 8cbd
00000380: 64d9 203e daf1 b9bd 5080 b73d 97db d43d
00000390: f426 c03d 395a d1bd eb4f c63d a4e1 333d
000003a0: 5bea 5cbd ccc9 50bd e078 46bd 4b09 c3bd
000003b0: e9d8 bfbd a7d9 fdbd caa8 ab3c 9024 893c
000003c0: c54c 933d 9624 05be 252e 8abd ba56 fc3c
000003d0: 14ce fe3c 604c 963d b146 c73c 74d5 fd3c
000003e0: 0a53 173e 30b7 f3bd 4b9d b13b dbd6 8e3c
000003f0: 9600 513c ccdc 023e 7476 6d3b 6d5d 80bd

network_body._body_endoder.seq_layers.0.bias f4 [256]
0.0026642068 0.022965394 0.008124602 0.01404038 0.005177449 0.017191714 0.01763385 0.025660241
0.039634727 0.016080294 -0.017777609 -0.015541143 0.018468168 0.021120824 0.0035366856 -0.025538873
0.08313183 -0.0011637106 0.042244747 0.013431977 0.017026711 0.035163436 -0.0017188003 0.0012594805
-0.038138196 0.017260361 0.0028565943 0.0044959364 0.022249382 0.0133420415 -0.024618046 -0.010107211
-0.017700018 0.04841175 0.020654183 -0.02085218 -0.003641426 0.034733873 0.004826938 0.057617936
-0.020320244 -0.008906393 0.04491257 -0.009376878 -0.022470567 0.022694986 -0.0032858562 0.008992203
-0.004529669 0.018705275 0.052025672 0.038267422 -0.027099464 -0.0026970252 -0.026150862 -0.013134397
0.029829456 0.043241102 0.020756194 0.0014280189 -0.008739281 -0.014688965 0.028134884 -0.006204834
0.027126469 -0.0037138 0.0027009612 -0.023499936 0.08294096 -0.021184985 -0.009920479 -0.003630912
0.02073509 -0.013125262 0.07439678 0.050030425 0.0062367194 -0.022370853 0.07177648 0.026256902
0.017749332 0.01530977 0.067289315 0.018107915 -0.002067887 0.038275577 0.046065018 -0.02404755
-0.0013932664 0.05151192 -0.012284704 0.006769567 -0.008762014 -0.023255982 0.008895305 0.061269976
-0.015124835 0.03407601 0.0008612005 -0.0070922365 0.08495096 0.044686295 -0.017220033 -0.00035177782
0.012815324 -0.023755876 0.028648915 0.007337659 0.012758375 0.09033227 0.06881377 -0.008626779
0.0801673 0.017648201 -0.0017786542 0.045186035 0.09790485 0.03171566 0.07254485 0.08631408
0.017770104 0.0010895138 0.03748932 0.0031399583 -0.0071234284 0.027228506 -0.03361753 0.023065215
-0.011011762 0.020696 0.07185566 0.037965752 -0.0010163413 -0.02191637 0.00021889682 -0.013696198
-0.024555072 0.025870688 -0.015939232 0.0008321807 0.005162472 0.0058135274 -0.025556855 0.0124892015
0.0034113622 0.04723882 0.069688044 -0.010880578 0.07011078 0.01844322 0.036414422 -0.02460056
-0.014299116 0.0017140968 0.005481952 0.009554794 0.0026447775 0.007977153 -0.020227345 -0.019972341
-0.02041319 0.017907562 0.04753218 -0.016917098 -0.024201788 0.037226416 0.031449158 0.03520876
0.0028288006 0.015006737 0.031972934 0.06627779 0.06407865 0.014495389 0.021928953 -0.0038017204
0.009930166 0.016246399 0.004152374 -0.015327179 -0.008818218 0.043208063 0.030262815 -0.024103075
0.014006415 -0.005770325 -0.015194142 -0.0184938 0.0042203357 0.03966549 0.0002232927 -0.008710855
0.030807853 -0.0014539703 0.08872809 0.0025021138 0.015669871 0.060294602 -0.015318301 -0.0027809069
-0.020077312 -0.006943123 -0.02599392 0.043200314 -0.016934445 -0.024251316 0.012622251 0.03318782
-0.0014232832 0.02754061 0.04973035 0.0074270926 -0.004438021 0.009131441 -0.009892422 -0.0182736
-0.025466092 -0.0064649326 0.007371379 0.01319381 0.005341072 -0.0169971 0.0030444576 -0.014866455
0.0053295987 0.039455492 -0.0065885345 -0.009802139 -0.027400574 0.018947493 -0.0067261504 -0.016080225
-0.035571262 0.03778749 -0.015865006 0.0023104022 0.017963173 0.03146357 -0.004350767 0.023464814
0.015317176 0.06545334 -0.0044211247 0.06356293 -0.005381132 0.033792906 0.0014382554 -0.012459762
0.024874754 0.0022665525 0.026130779 -0.025486415 -0.019179568 0.033367652 0.021171642 0.047053196
00000000: f999 2e3b ec21 bc3c 0d1d 053c 9f09 663c
00000010: 97a7 a93b a3d5 8c3c dd74 903c 6d35 d23c
00000020: 0658 223d d2ba 833c 59a2 91bc 47a0 7ebc
00000030: 8e4a 973c 9405 ad3c bdc7 673b e636 d1bc
00000040: 0541 aa3d a687 98ba d408 2d3d cb11 5c3c
00000050: 9a7b 8b3c 8907 103d 5e49 e1ba 2715 a53a
00000060: cc36 1cbd 9a65 8d3c b335 3b3b a652 933b
00000070: 5644 b63c 9498 5a3c c9ab c9bc b798 25bc
00000080: a1ff 90bc 664b 463d f632 a93c 31d2 aabc
00000090: fea4 6ebb 1b45 0e3d 4a2b 9e3b c900 6c3d
000000a0: a476 a6bc 1fec 11bc 3ef6 373d 7aa1 19bc
000000b0: 3214 b8bc d6ea b93c 8557 57bb 0854 133c
000000c0: 9e6d 94bb ce3b 993c df18 553d 4dbe 1c3d
000000d0: b2ff ddbc 93c0 30bb 553a d6bc a731 57bc
000000e0: e75c f43c 951d 313d e508 aa3c 5d2c bb3a
000000f0: 342f 0fbc fca9 70bc 217b e63c ec51 cbbb
00000100: 5438 de3c 3a63 73bb 9c02 313b f082 c0bc
00000110: f3dc a93d 228c adbc 8189 22bc 98f4 6dbb
00000120: a3dc a93c 570b 57bc 575d 983d b4ec 4c3d
00000130: 655d cc3b 1443 b7bc 8cff 923d b718 d73c
00000140: 0c67 913c d4d5 7a3c fbce 893d 0d57 943c
00000150: 6385 07bb dac6 1c3d acae 3c3d 5eff c4bc
00000160: 439e b6ba 2afe 523d c845 49bc 3ed3 dd3b
00000170: 8d8e 0fbc 5483 bebc 9dbd 113c 3af6 7a3d
00000180: 28ce 77bc 4993 0b3d 30c2 613a fe65 e8bb
00000190: c5fa ad3d fa08 373d 0711 8dbc d26e b8b9
000001a0: 5df7 513c af9b c2bc 21b1 ea3c bf70 f03b
000001b0: 8108 513c 2000 b93d 3cee 8c3d 5557 0dbc
000001c0: c12e a43d f692 903c bb21 e9ba fe14 393d
000001d0: 5782 c83d 48e8 013d 6592 943d 70c5 b03d
000001e0: 9c92 913c 04ce 8e3a 678e 193d c2c7 4d3b
000001f0: a66b e9bb 510e df3c 89b2 09bd 43f3 bc3c
00000200: ad6a 34bc a88a a93c 0f29 933d fa81 1b3d
00000210: c136 85ba f689 b3bc ab87 6539 0566 60bc
00000220: b827 c9bc c4ee d33c fe92 82bc b426 5a3a
00000230: f429 a93b 677f be3b 9c5c d1bc 829f 4c3c
00000240: 2991 5f3b 7e7d 413d 9bb8 8e3d 7444 32bc
00000250: 3e96 8f3d 3c16 973c 4a27 153d 1d87 c9bc
00000260: d746 6abc 8bab e03a f2a1 b33b b68b 1c3c
00000270: 0154 2d3b 9bb2 023c d1b3 a5bc 099d a3bc
00000280: 9039 a7bc e1b2 923c 1ab1 423d ba95 8abc
00000290: d442 c6bc ba7a 183d d5d0 003d 1037 103d
000002a0: 6663 393b d1de 753c 0df6 023d a6bc 873d
000002b0: ab3b 833d 117e 6d3c 59a4 b33c 4926 79bb
000002c0: 23b2 223c 2b17 853c a310 883b d91e 7bbc
000002d0: 497a 10bc f0fa 303d b9e9 f73c d073 c5bc
000002e0: 2a7b 653c ff14 bdbb daf0 78bc 4f80 97bc
000002f0: be4a 8a3b 4878 223d ae23 6a39 f9b7 0ebc
00000300: c060 fc3c 2693 beba 13b7 b53d 81fa 233b
00000310: 1a5e 803c 79f7 763d 9cf9 7abc e03f 36bb
00000320: 2d79 a4bc 2383 e3bb 34f1 d4bc d0f2 303d
00000330: 1bba 8abc b2aa c6bc 8fcd 4e3c f4ef 073d
00000340: 768d baba d89c e13c 0db2 4b3d f85e f33b
00000350: d26c 91bb 0a9c 153c d313 22bc 84b2 95bc
00000360: 449e d0bc c9d7 d3bb 9c8b f13b da2a 583c
00000370: 2904 af3b 813d 8bbc 8685 473b 6f92 73bc
00000380: eaa3 ae3b 159c 213d a2e4 d7bb 2799 20bc
00000390: 2b77 e0bc c637 9b3c 0a67 dcbb adba 83bc
000003a0: 2cb3 11bd 0ec7 1a3d 54f7 81bc 1e6a 173b
000003b0: 8127 933c f2df 003d e190 8ebb 4839 c03c
000003c0: e4f4 7a3c 670c 863d 15df 90bb 482d 823d
000003d0: 3554 b0bb 6e6a 0a3d d883 bc3a 0824 4cbc
000003e0: 24c6 cb3c 718a 143b 3710 d63c e3c8 d0bc
000003f0: 781e 9dbc 85ac 083d 2770 ad3c daba 403d

action_model._continuous_distribution.log_sigma f4 [1, 2]
-0.028610852 0.019548448
00000000: 4e61 eabc 1124 a03c

action_model._continuous_distribution.mu.weight f4 [2, 256]
0.023316998 -0.0123460265 -0.03331268 -0.010856232 0.030460713 0.013580879 0.037886444 0.04688165
0.017746992 0.07297478 0.0014170916 0.019211266 -0.09890472 -0.016182601 -0.03162315 -0.02443094
-0.007972533 0.030635724 -0.01688177 -0.05340434 0.021574596 -0.013266725 -0.047340035 -0.0013223233
-0.0014817124 0.035385378 -0.035009705 -0.027016444 0.0014132096 -0.04509962 -0.017302116 -0.04956117
0.00132094 0.011704535 -0.03596513 -0.00045490524 -0.029030798 -0.03217181 0.016472235 0.08235044
-0.018701032 0.0019468731 0.058319174 0.025214965 0.0060061538 0.013675937 -0.024114178 -0.06582348
-0.029431952 0.029953623 0.010335401 0.007168986 -0.00843597 0.024845958 0.0061567 -0.02248543
0.021612441 -0.023644978 0.05488837 -0.028433803 0.008651145 -0.003790554 0.04513031 0.022953149
-0.0012903083 0.015729839 -0.0076832715 -0.004359818 0.0036470687 0.0022110518 -0.005932589 0.019168956
-0.0030540817 -0.024435187 0.012141901 -0.007285295 -0.0389101 -0.019673225 0.081860185 0.054924052
0.03400459 0.05556539 -0.010608661 -0.06402219 -0.027583903 0.015204528 -0.045701697 0.009124745
0.02519122 0.12257422 -0.022373041 -0.049604457 -0.018979019 0.0086705405 -0.05303968 0.079556935
-0.014396595 -0.0030543653 0.009795325 0.016518353 0.037397962 0.11935081 -0.011834091 0.020902276
-0.01927909 -0.016418044 0.044955175 -0.036079068 -0.03534299 -0.0005028259 0.03951756 -0.02185401
0.020971825 0.06680499 -0.011423604 0.024979971 0.0017828142 -0.012381258 0.040232144 -0.026482007
0.007072321 -0.059037622 -0.027068561 -0.036720842 0.019105554 -0.0831864 -0.010664871 -0.04830787
-0.028496657 0.054265708 -0.0019650962 -0.04844885 -0.045147095 0.015526699 -0.03294844 0.018926585
-0.0260998 -0.032912683 -0.021318432 -0.052136816 0.018527666 0.028324416 0.0068643605 -0.039743103
-0.02259245 -0.02889995 0.016630212 0.015836386 0.016341282 -0.02767787 0.04751492 -0.016548324
0.012503256 -0.042519603 0.028225902 0.034467805 -0.01896578 -0.023459898 0.004432382 -0.019006234
0.0037474704 -0.0024843959 0.045782875 -0.012136719 0.012258478 0.046413917 0.030887535 -0.022075571
-0.021448238 0.030041499 0.03714669 0.04073052 0.045392625 0.0093573155 0.04181987 -0.03998168
0.031786203 -0.02746818 -0.022926915 0.004169899 -0.027923668 0.045852948 0.02902522 -0.012013933
0.054085758 0.021074444 -0.021220919 0.0039237826 0.03656258 0.023107558 -0.028266797 0.032473926
-0.06863608 -0.04879633 -0.020407593 0.031453222 -0.06275591 -0.00705914 0.018939473 -0.033597857
-0.0029394997 -0.037435286 0.005583037 -0.0320754 -0.03740871 -0.008620912 -0.045729447 -0.08432156
-0.043577086 -0.0845991 0.0191446 -0.021654721 0.026279863 -0.0042826845 -0.04647905 -0.012117697
-0.014086725 -0.03362406 0.056596026 0.048676632 0.016830202 -0.04783031 0.028959712 -0.04878392
0.022209493 0.006847661 -0.039116334 -0.022783501 -0.014959853 0.037474692 0.022192469 -0.023279153
0.0012493196 -0.005902337 0.005311974 0.041719 -0.020756258 -0.0353014 -0.044777736 -0.026922729
0.03562878 0.032714453 -0.03671814 0.016329804 0.030385489 0.032580145 -0.0036943064 -0.015796972
-0.022731038 -0.012215398 -0.046199385 0.010772388 0.00074083795 0.044233926 -0.084482044 0.049352996
00000000: 4a03 bf3c fd46 4abc e072 08bd 56de 31bc
00000010: bf88 f93c 5682 5e3c d12e 1b3d f906 403d
00000020: 2462 913c cd73 953d b4bd b93a f260 9d3c
00000030: 8f8e cabd 6091 84bc 4787 01bd 6523 c8bc
00000040: 3a9f 02bc c5f7 fa3c a34b 8abc 82be 5abd
00000050: 35bd b03c ae5c 59bc a0e7 41bd cf51 adba
00000060: 0536 c2ba 42f0 103d 5666 0fbd 9751 ddbc
00000070: 723b b93a 61ba 38bd 2bbd 8dbc a700 4bbd
00000080: 6423 ad3a 61c4 3f3c 2c50 13bd 5980 eeb9
00000090: ffd1 edbc 96c6 03bd c8f0 863c 59a7 a83d
000000a0: e832 99bc 392e ff3a 16e0 6e3d 9d8f ce3c
000000b0: 45cf c43b 0a11 603c 198b c5bc 76ce 86bd
000000c0: 471b f1bc 4d61 f53c d055 293c d0e9 ea3b
000000d0: 0637 0abc c089 cb3c 25be c93b 5d33 b8bc
000000e0: 930c b13c 1db3 c1bc a1d2 603d 02ee e8bc
000000f0: 88bd 0d3c f16a 78bb 8fda 383d 3e08 bc3c
00000100: 901f a9ba dddb 803c f4c3 fbbb cedc 8ebb
00000110: a903 6f3b 4be7 103b 2a66 c2bb 3708 9d3c
00000120: fd26 48bb 4d2c c8bc d3ee 463c 7cb9 eebb
00000130: 3260 1fbd be29 a1bc 50a6 a73d 0bf8 603d
00000140: 6648 0b3d 8998 633d f3cf 2dbc 111e 83bd
00000150: a3f7 e1bc 6a1c 793c b431 3bbd f47f 153c
00000160: d15d ce3c 3108 fb3d ab47 b7bc 0b2e 4bbd
00000170: e379 9bbc e20e 0e3c 2340 59bd bfee a23d
00000180: b2df 6bbc bf2b 48bb 927c 203c 7f51 873c
00000190: 9b2e 193d 336e f43d c6e3 41bc 403b ab3c
000001a0: 2fef 9dbc 227f 86bc eb22 383d a5c7 13bd
000001b0: d0c3 10bd 13d0 03ba 2add 213d 2e07 b3bc
000001c0: 1bcd ab3c 0ed1 883d 112a 3bbc cca2 cc3c
000001d0: 51ad e93a c3da 4abc 76ca 243d cbf0 d8bc
000001e0: eebe e73b 6fd1 71bd e3be ddbc 9868 16bd
000001f0: 4083 9c3c a25d aabd b6bb 2ebc 79de 45bd
00000200: d271 e9bc b845 5e3d d8c8 00bb 4d72 46bd
00000210: 29ec 38bd b263 7e3c f2f4 06bd ed0b 9b3c
00000220: 3fcf d5bc 73cf 06bd fea3 aebc 6a8d 55bd
00000230: 55c7 973c 9b08 e83c 6eee e03b aac9 22bd
00000240: cd13 b9bc 97bf ecbc 153c 883c 4fbb 813c
00000250: 27de 853c b3bc e2bc 019f 423d 5a90 87bc
00000260: 75da 4c3c 0929 2ebd 023a e73c 1d2e 0d3d
00000270: 205e 9bbc f92e c0bc 843d 913b f6b2 9bbc
00000280: 1f98 753b 3fd1 22bb d386 3b3d 17d9 46bc
00000290: c9d7 483c 851c 3e3d db07 fd3c d4d7 b4bc
000002a0: 37b4 afbc 9719 f63c 2127 183d 0cd5 263d
000002b0: 9eed 393d 6d4f 193c 504b 2b3d d5c3 23bd
000002c0: 4032 023d f304 e1bc 3ad1 bbbc a6a3 883b
000002d0: 2dc0 e4bc 4dd0 3b3d 4cc6 ed3c 16d6 44bc
000002e0: 0789 5d3d 50a4 ac3c 7ed7 adbc 1393 803b
000002f0: a5c2 153d 104c bd3c c58f e7bc 6103 053d
00000300: 1391 8cbd a9de 47bd d32d a7bc 18d5 003d
00000310: 2c86 80bd 5c50 e7bb f426 9b3c e89d 09bd
00000320: 9fa4 40bb be55 19bd e9f1 b63b 7f61 03bd
00000330: e039 19bd ba3e 0dbc cd4e 3bbd c8b0 acbd
00000340: e37d 32bd 4b42 adbd 23d5 9c3c 3e65 b1bc
00000350: de48 d73c c355 8cbb d160 3ebd 4e89 46bc
00000360: 02cc 66bc 62b9 09bd 3cd1 673d 2661 473d
00000370: 7edf 893c b7e9 43bd eb3c ed3c a6d1 47bd
00000380: aff0 b53c 5862 e03b 7338 20bd 77a4 babc
00000390: 2c1a 75bc 107f 193d fbcc b53c ecb3 bebc
000003a0: 36c0 a33a 6468 c1bb 1110 ae3b 8be1 2a3d
000003b0: 0709 aabc 3398 10bd dc68 37bd 0e8d dcbc
000003c0: 7cef 113d 97ff 053d c365 16bd 15c6 853c
000003d0: fdea f83c c272 053d 2d1c 72bb a768 81bc
000003e0: 7136 babc 1823 48bc 913b 3dbd ac7e 303c
000003f0: cb34 423a a22e 353d ec04 adbd 5e26 4a3d

action_model._continuous_distribution.mu.bias f4 [2]
0.011356591 0.029473718
00000000: ff10 3a3c de72 f13c

action_model._discrete_distribution.branches.0.weight f4 [1, 256]
-0.00025582284 0.0029996368 0.00078943896 0.0017994315 0.0043259594 0.0076133916 -0.007968872 0.00020159881
0.0001540102 -0.011330932 0.00045451146 -0.0034724218 0.0072060213 0.009408648 -0.003956211 -0.0044633956
-0.0004116222 -0.0016914959 0.0043503502 -0.0042359675 -0.009095368 -0.003650734 -0.0018461067 0.002722366
0.0025340049 0.0026267448 -0.00068161427 -0.015298004 0.011031295 0.009973098 -0.0015354168 0.0047864364
0.0017284492 0.0012047063 0.0020116677 0.0009528156 -0.002112733 0.004255285 0.007238561 -0.0021800231
-0.0010612869 -0.008900354 0.003727229 -0.0062590945 0.0009885316 0.0061983764 -0.0055243676 -0.0028025256
0.0005141333 -0.0016431155 0.0062947692 0.0013273888 0.002352736 -0.0034527106 0.0019410386 -0.0028866294
-0.005582463 0.00095755974 -0.0022072818 -0.009233648 0.003963436 0.0044544092 -0.0030786796 -0.00020767802
-0.0024208103 -0.008662737 -0.005478713 -0.00014147388 -0.002510324 0.0006512596 0.0029390946 -0.011643714
0.009666352 0.00065808365 0.0067641223 0.0046972525 -0.011788569 0.010376169 0.019796398 0.0004266258
-0.0102716675 0.0021197998 -0.0033932403 0.0019875418 -0.0011570513 -0.013003181 0.0008248781 -0.009069554
-0.000875826 -0.0017532799 -0.003952464 -0.011381461 -0.0034401433 -0.0012817708 -0.013560461 -0.003168728
0.0045091864 0.00024281062 0.0020730065 -0.0038692043 0.00026617094 0.00049991923 0.011701015 -0.007576385
0.004689924 -0.011301743 0.0016027036 -0.006186608 -0.0041575804 0.007097788 -0.0068804147 0.0023835783
0.0040279073 0.005894613 0.0060279984 0.0056493524 -0.0043070028 -0.0022430846 -0.018823415 0.0048414054
0.0047161872 0.0014066182 0.016279303 -0.0013601445 -0.0019005742 -0.001975406 -0.00010264432 0.006611634
0.006988816 0.012281145 0.008547709 0.00771461 -0.010453752 -0.0036662505 -0.0059267203 0.015555431
0.0035403192 -0.0070898146 -0.0020305251 0.0070182825 -0.008917679 -0.0044238158 0.005841088 -0.005723242
0.004512907 -0.001358211 0.0071588317 -3.25404e-05 -0.0014519986 -0.003241304 -0.0035892078 -0.004719024
-0.0032162673 -0.00134831 0.00040329664 -0.001617164 0.006420293 -0.0059195273 0.00050866784 0.005293694
-0.0041184193 0.0047625243 -0.0023173706 0.009966829 -0.007144779 0.0035408174 -0.010910279 0.0075305398
0.00029791388 -0.009371234 0.0024043852 -0.0020265975 0.0010579623 0.0039182734 -0.00858432 0.005904576
-0.007826493 -0.0011388622 0.005744695 0.0066000135 0.0065437234 0.006878478 0.010294263 0.0048916554
-0.0040024547 -0.0017507588 -0.010088858 -0.0011854674 0.004124251 0.006553116 -0.0055745267 -0.002164915
-0.003958858 -0.0076660896 0.00060082076 0.0022238826 -0.00023830507 0.00069833366 -0.0021591738 -0.0055742604
-0.0008752765 -0.0024978914 0.015563763 -0.009175351 -0.0015966604 -0.0016517952 0.017998721 0.0016626859
0.00040931124 -0.0074057924 -0.007307444 0.009477184 -0.005414983 -0.0114559205 -0.0041602757 0.002950304
0.004489967 -0.0019655244 0.006343746 -0.0036294975 0.004105199 -0.005015254 0.003401241 -0.0045617614
-0.0046597044 -0.012782874 0.0052821445 0.0005631045 0.009265889 -0.00511036 0.0009955706 -0.0032770664
-0.013349878 -0.008512488 -0.0063105472 -0.010208369 0.0043862322 0.008630944 -0.009803756 0.010260045
0.0024340593 0.0058003683 0.0025917585 -0.0028217288 -0.000633032 0.008724458 0.001114482 -0.0034461317
0.0026833327 -0.0022261885 -0.0015020482 -0.010561007 0.0027825336 -0.00540141 0.0063053914 0.0095895035
00000000: f61f 86b9 8e95 443b 5af2 4e3a e7da eb3a
00000010: c7c0 8d3b c279 f93b df8f 02bc 4564 5339
00000020: cc7d 2139 60a5 39bc 7f4b ee39 9291 63bb
00000030: 7d20 ec3b bb26 1a3c 1aa3 81bb ad41 92bb
00000040: ffce d7b9 2fb5 ddba 628d 8e3b dfcd 8abb
00000050: bd04 15bc 2741 6fbb 10f9 f1ba b969 323b
00000060: 8c11 263b 7725 2c3b 5cae 32ba 7ba4 7abc
00000070: 9bbc 343c 3466 233c 0a40 c9ba 8ad7 9c3b
00000080: 228d e23a 3ce7 9d3a 2fd6 033b 5fc6 793a
00000090: c775 0abb eb6f 8b3b 7331 ed3b b8de 0ebb
000000a0: e11a 8bba cad2 11bc 8744 743b 1719 cdbb
000000b0: 9e91 813a c01b cb3b c105 b5bb 94aa 37bb
000000c0: e7c6 063a cf5d d7ba 5a44 ce3b c7fb ad3a
000000d0: 5c30 1a3b df46 62bb 736a fe3a 9b2d 3dbb
000000e0: 18ed b6bb bf04 7b3a 0ba8 10bb ba48 17bc
000000f0: b6df 813b 4bf6 913b acc3 49bb 25c4 59b9
00000100: 75a6 1ebb 27ee 0dbc c786 b3bb 9b58 14b9
00000110: 3f84 24bb 4bb9 2a3a d39d 403b 47c5 3ebc
00000120: 9e5f 1e3c 3f83 2c3a 92a5 dd3b 69eb 993b
00000130: d824 41bc cf00 2a3c 0e2c a23c bfac df39
00000140: 7f4a 28bc 57ec 0a3b 2061 5ebb 6b41 023b
00000150: 33a8 97ba 4b0b 55bc a23c 583a 7798 14bc
00000160: b097 65ba 50ce e5ba ac83 81bb 4f79 3abc
00000170: 0774 61bb 1701 a8ba b22c 5ebc 6faa 4fbb
00000180: ccc1 933b fb9a 7e39 47db 073b 7a92 7dbb
00000190: dc8c 8b39 030d 033a 9db5 3f3c 5343 f8bb
000001a0: efad 993b f22a 39bc cf11 d23a 08b9 cabb
000001b0: 503c 88bb 9094 e83b 1a75 e1bb cf35 1c3b
000001c0: 89fc 833b 9927 c13b 8486 c53b 341e b93b
000001d0: c221 8dbb b700 13bb 9033 9abc a7a4 9e3b
000001e0: 3f8a 9a3b 465e b83a 2c5c 853c e046 b2ba
000001f0: b01c f9ba d075 01bb c042 d7b8 68a6 d83b
00000200: 7002 e53b db36 493c b10b 0c3c d7ca fc3b
00000210: 3746 2bbc 7a45 70bb ef34 c2bb 35dc 7e3c
00000220: b304 683b ad51 e8bb 8f12 05bb 9ff9 e53b
00000230: 751b 12bc a8f5 90bb 9966 bf3b 098a bbbb
00000240: 02e1 933b 0006 b2ba a294 ea3b fd7b 08b8
00000250: fd50 beba 0f6c 54bb ea38 6bbb 0ba2 9abb
00000260: 03c8 52bb c7b9 b0ba 8f71 d339 05f7 d3ba
00000270: 5261 d23b 98f8 c1bb 1f58 053a b976 ad3b
00000280: cef3 86bb f30e 9c3b 07df 17bb e94b 233c
00000290: c01e eabb 0f0d 683b 07c1 32bc bfc2 f63b
000002a0: 5331 9c39 ce89 19bc e492 1d3b aad0 04bb
000002b0: 53ab 8a3a dc64 803b 3fa5 0cbc 2c7b c13b
000002c0: b13a 00bc e045 95ba ff3d bc3b ed44 d83b
000002d0: bb6c d63b db64 e13b 45a9 283c 2e4a a03b
000002e0: 0627 83bb b879 e5ba bd4b 25bc af61 9bba
000002f0: ba24 873b 85bb d63b 85aa b6bb 3fe1 0dbb
00000300: 4fb9 81bb d233 fbbb 6680 1d3a 8fbe 113b
00000310: 88e1 79b9 6110 373a ed80 0dbb 49a8 b6bb
00000320: d072 65ba aab3 23bb 27ff 7e3c 3654 16bc
00000330: 0847 d1ba 0d81 d8ba 0e72 933c 7bee d93a
00000340: d398 d639 4aac f2bb 4873 efbb 3146 1b3c
00000350: 2b70 b1bb 9db1 3bbc ec52 88bb e359 413b
00000360: 9320 933b 07d0 00bb 33df cf3b dddc 6dbb
00000370: e884 863b 0057 a4bb 5be7 5e3b d47a 95bb
00000380: 6fb0 98bb 426f 51bc d715 ad3b 4e9d 133a
00000390: f5cf 173c cf74 a7bb ce7d 823a 0dc4 56bb
000003a0: 72b9 5abc f677 0bbc b5c8 cebb 0141 27bc
000003b0: 62ba 8f3b ce68 0d3c ef9f 20bc bf19 283c
000003c0: bd84 1f3b 0411 be3b 7eda 293b c1ec 38bb
000003d0: 0ff2 25ba 07f1 0e3c cf13 923a 7fd8 61bb
000003e0: dada 2f3b 3fe5 11bb 60e0 c4ba 1308 2dbc
000003f0: 2b5b 363b 50fe b0bb 759d ce3b 4b1d 1d3c
