EcoSculptor/Assets/Trainings/MultiTrainingResults/Newanimal.onnx (onnx, 172075 bytes, 6 tensors)

network_body._body_endoder.seq_layers.0.weight f4 [256, 158]
0	0x3ca8836f	0.020570485
1	0xbdd3d43b	-0.10343214
2	0xbd84de37	-0.064876966
3	0xbd6b0f94	-0.057387903
4	0x3acf127f	0.0015798359
5	0xbcc04138	-0.023468599
6	0xbe274926	-0.16336498
7	0x3de4b525	0.11167363
8	0xbdc3ae36	-0.095547125
9	0xbd4c7289	-0.049913917
10	0x3dfc5f2c	0.1232284
11	0x3deab661	0.11460567
12	0xbb5be1cb	-0.003355133
13	0xbe13a6c5	-0.14419086
14	0xbd2260b0	-0.03964299
15	0xbd717a46	-0.0589545
16	0xbd0d4f64	-0.03449954
17	0x3d96916e	0.07351957
18	0x3dc91c49	0.09819848
19	0x3d0d11b5	0.034440715
20	0xbdabf854	-0.08396974
21	0x3d8ba488	0.06818491
22	0x3e1504be	0.1455259
23	0xbda28f45	-0.07937483
24	0xbdc2d164	-0.09512594
25	0x3db89c1d	0.09014151
26	0xbd7211cd	-0.059099007
27	0x3d304104	0.043030754
28	0xbe560d8d	-0.20903607
29	0xbd5d29a9	-0.05399481
30	0x3d11108b	0.035416167
31	0x3d87ec42	0.066368595
32	0xbd0bf1ee	-0.03416627
33	0xbe31713c	-0.17328352
34	0x3d49002f	0.04907244
35	0x3ce019fa	0.027356137
36	0xbc952409	-0.01820566
37	0xbd666b8f	-0.05625492
38	0x3dcf2d4a	0.1011606
39	0xbd03b3ea	-0.032154
40	0x3d00f2a3	0.031481396
41	0x3d37dd48	0.044888765
42	0x3c4539b2	0.012037681
43	0xbdf6f9a1	-0.12059332
44	0xbd823a49	-0.06358773
45	0xbdd23327	-0.10263663
46	0xbdcd50b0	-0.100251555
47	0x3d1abc71	0.037777368
48	0xbd9048d8	-0.07045144
49	0x3dc32a65	0.095295705
50	0xbc8e987c	-0.017406695
51	0xbd912b1d	-0.07088301
52	0x3b88298c	0.0041553434
53	0x3d1c797e	0.0382018
54	0xbc2456ce	-0.0100304615
55	0xbdd5cec7	-0.1043983
56	0x3cdfc6ae	0.027316418
57	0x3d8461ed	0.0646399
58	0xbc4de696	-0.012567183
59	0x3d58f49e	0.05296766
60	0xbcc150a3	-0.02359802
61	0xbbe3c1f6	-0.006950612
62	0xbe074a32	-0.13211897
63	0xbdcce4d2	-0.100045815
64	0x3de54f83	0.11196806
65	0xbdbae4ef	-0.09125697
66	0x3d33e92d	0.043923546
67	0x3dbcda1e	0.0922129
68	0xbd511224	-0.05104269
69	0xbe0b4cae	-0.1360347
70	0xbd18dee4	-0.03732194
71	0x3d6f8586	0.058476947
72	0xbc0f8469	-0.008759596
73	0x3e352273	0.17688923
74	0xbd5dfa97	-0.05419406
75	0x3c18dc47	0.009329862
76	0xbd8e4eda	-0.069486335
77	0x3e015103	0.1262856
78	0xbc860271	-0.016358586
79	0xbd40f7b7	-0.04711124
80	0xbcf1e449	-0.0295278
81	0xbda19dea	-0.07891448
82	0x3d81cd03	0.06337931
83	0xbd053c94	-0.032528475
84	0xbd178d4d	-0.03699999
85	0xbe293b1a	-0.16526452
86	0xbde4d79a	-0.11173935
87	0x3d9cc175	0.076540865
88	0xbd83524c	-0.06412181
89	0x3c25b846	0.010114735
90	0xb9915758	-0.0002772163
91	0x3e1bf425	0.15229852
92	0xbd865f26	-0.06561117
93	0x3dd48edc	0.10378811
94	0xbd46f55d	-0.04857384
95	0x3dbc1911	0.091844685
96	0xbd0b3e6d	-0.03399508
97	0x3d058399	0.032596204
98	0x3be4275a	0.006962699
99	0xbca7d39f	-0.020486651
100	0xbd9d4e5f	-0.07680964
101	0xbd090cab	-0.033459347
102	0xbdf0910a	-0.11746414
103	0x3d8fdd67	0.07024651
104	0x393cf652	0.00018020839
105	0x3c90ae1b	0.017661145
106	0x3d9f51c9	0.07779271
107	0x3d2ea53c	0.04263805
108	0xbc9ffe49	-0.019530432
109	0xbc0ffd10	-0.008788362
110	0x3d1b6b21	0.037943963
111	0x3cdaea45	0.026723037
112	0xbdd71020	-0.105011225
113	0xbdef94b8	-0.11698288
114	0xbc94dde4	-0.018172212
115	0x3db58ff5	0.08865348
116	0xbc2e1f86	-0.010627633
117	0xbe0c4d01	-0.1370125
118	0xbdbe7160	-0.09298968
119	0x3b54b44c	0.0032456098
120	0xbddc41d4	-0.10754743
121	0x3c8c81f2	0.017151807
122	0x3d96382a	0.07334931
123	0x3bcfd754	0.006342808
124	0xbd84f1d6	-0.06491439
125	0x3e0d9426	0.13826045
126	0xbd1b4d81	-0.03791571
127	0x3ca95fcc	0.020675562
128	0xbd0797fa	-0.03310392
129	0x3ab3350e	0.0013672428
130	0xbdcf5d5a	-0.10125227
131	0x3d892095	0.06695668
132	0xbc73f546	-0.014890021
133	0xbde41224	-0.111362725
134	0x3e0fe256	0.14051184
135	0xbcc490a7	-0.023994757
136	0xbcad23e6	-0.021135282
137	0x3d1dd2bf	0.03853106
138	0x3c76f32c	0.015072625
139	0x3d62a3a9	0.05533186
140	0xbd8cf062	-0.06881787
141	0x3cbc7c40	0.023008466
142	0xbda4fe6d	-0.0805634
143	0x3ca3ab64	0.019979186
144	0x3d90ff4b	0.07079943
145	0xbe262cbf	-0.16228007
146	0x3c950ae0	0.018193662
147	0xbe00ce49	-0.12578692
148	0x3cdc1574	0.026865698
149	0x3dee43dc	0.11634037
150	0xbd0188b3	-0.031624507
151	0x3dbd5f97	0.09246748
152	0xbe16f98f	-0.14743637
153	0x3e206ed1	0.15667273
154	0x3e201fa3	0.15637068
155	0xbd7d4273	-0.06183095
156	0x3d942700	0.07234001
157	0xbe43db41	-0.19126607
158	0xbe0453b8	-0.12922561
159	0xbd37d52a	-0.044881023
160	0x3e2d87f3	0.16946392
161	0x3d91dc0e	0.0712205
162	0x3cbd4ba6	0.023107361
163	0x3dc7f1f7	0.09762948
164	0xbd933666	-0.0718811
165	0x3e0aee1e	0.13567397
166	0x3d5849f7	0.052804913
167	0xbd2c3f53	-0.04205258
168	0xbb58f854	-0.0033107
169	0xbd577707	-0.052603748
170	0x3d271ac8	0.040797025
171	0x3ccbccf7	0.024878008
172	0xbdbf541c	-0.093422145
173	0xbc8eda1a	-0.017437983
174	0xbe0bac68	-0.13639987
175	0x3d8312e7	0.0640009
176	0x3c9bd91a	0.01902442
177	0xbe3fe5ed	-0.18740053
178	0x3dd06716	0.10175912
179	0x3dd00409	0.1015702
180	0x3e54780a	0.20748916
181	0xbd1be3fd	-0.038059223
182	0x3e10addc	0.14128822
183	0xbb833182	-0.0040037045
184	0xbde26703	-0.11054804
185	0x3cff6d58	0.031180069
186	0x3d9421c2	0.07233001
187	0xbdafcc07	-0.08583837
188	0xbc24b0dc	-0.010051932
189	0x3d8025e3	0.06257226
190	0x3e1ba506	0.1519967
191	0x3deaf97f	0.11473369
192	0x3d577707	0.052603748
193	0x3baf115d	0.005342646
194	0x3d70462d	0.058660675
195	0x3e45100f	0.19244407
196	0xbc438b7c	-0.011935111
197	0xbb2d9b36	-0.0026490218
198	0xbd4219ef	-0.047388013
199	0x3d1831ed	0.037156988
200	0x3e11e868	0.14248812
201	0x3c6e3078	0.014537923
202	0x3c267472	0.010159599
203	0xbbfc64e1	-0.0077024554
204	0xbde91018	-0.11380023
205	0xbcc7b105	-0.024376402
206	0x3c1fdbc2	0.009756984
207	0x3d418d2b	0.04725377
208	0xbe2c09e2	-0.16800645
209	0x3e3a909d	0.18219228
210	0x3ada02f4	0.001663296
211	0x3cc27dd5	0.023741642
212	0xbde7d46f	-0.11319815
213	0xbc72ef3e	-0.014827548
214	0xbd73c2ff	-0.059512135
215	0x3c58999c	0.013220217
216	0x3c8b8147	0.017029418
217	0xbda9a17b	-0.08282753
218	0xbca78725	-0.020450184
219	0xbd87b47a	-0.0662622
220	0xbda26111	-0.0792867
221	0xbdf21cfc	-0.118219346
222	0xbda8dd14	-0.08245292
223	0x3e091f4f	0.1339085
224	0xbe1efcf2	-0.15526178
225	0x3de09f72	0.10967912
226	0x3b414aab	0.0029493968
227	0xbd25077c	-0.04029034
228	0x3dcca8e4	0.09993151
229	0xbd99c9b5	-0.07509176
230	0x3cdc8cc0	0.026922584
231	0xbc5dee5c	-0.013545599
232	0xbd90f95f	-0.07078814
233	0x3cc13d30	0.023588747
234	0x3b81002a	0.003936787
235	0x3dd72c12	0.105064526
236	0xbb83f36c	-0.004026821
237	0x3d329769	0.043601427
238	0xbdaf1326	-0.08548574
239	0x3c0613d3	0.008183437
240	0xbc26e531	-0.010186479
241	0xbd0ecb14	-0.03486164
242	0xbd3eb368	-0.046557814
243	0x3a7aae95	0.0009562758
244	0xbd2f042d	-0.04272859
245	0xbc7212c3	-0.014774981
246	0x3cd70fd8	0.026252672
247	0x3cb09a90	0.021558076
248	0xbdd9afe2	-0.1062925
249	0xba85be9f	-0.0010203904
250	0x3bed0faa	0.0072345333
251	0x3dbd367f	0.0923891
252	0xbd35a7ef	-0.044349607
253	0x3d64991a	0.05581007
254	0x3ccb891d	0.024845654
255	0xbac006ff	-0.0014650522

network_body._body_endoder.seq_layers.0.bias f4 [256]
0	0x3c5100d2	0.012756543
1	0x3bfce031	0.0077171554
2	0x3b4a044d	0.0030825317
3	0x3cb44511	0.02200559
4	0x3c91b2be	0.017785426
5	0x3d2b0e09	0.04176143
6	0x3cb2a190	0.021805555
7	0x3cccd622	0.02500445
8	0x3ce58002	0.02801514
9	0x3cb08fe7	0.021552993
10	0x3bb0928e	0.0053885644
11	0x3cebd6dc	0.028788976
12	0x3c9abe13	0.018889463
13	0xbbaa788d	-0.005202359
14	0x3c9b9663	0.018992608
15	0x3ca58ccb	0.020208737
16	0x3cd4daf1	0.025983306
17	0x3b474109	0.0030403754
18	0x3c8eafe5	0.017417857
19	0x3cadaaec	0.021199666
20	0x3bcb5805	0.006205561
21	0x3cf1d63a	0.029521096
22	0xbb2aa73c	-0.002603962
23	0x3cd8f627	0.026484562
24	0x3ad56151	0.0016279613
25	0x3ccefc0d	0.025266672
26	0x3c9f9274	0.019479014
27	0x3d2e0e38	0.04249403
28	0x3c4f6be9	0.012660005
29	0x3ce94100	0.028473377
30	0x3caa65dc	0.020800523
31	0x3caf4f03	0.02139998
32	0x3c1384d1	0.009003834
33	0x3ce29fdc	0.027664118
34	0x3c1be1e4	0.009514306
35	0x3c084928	0.008318223
36	0x3ccfa5ce	0.025347617
37	0x3ca237f0	0.019802064
38	0x3c00619c	0.007835772
39	0x3cd8d10a	0.026466865
40	0x3cb743a9	0.02237113
41	0x3c37d7b9	0.011220866
42	0x3cf946ea	0.030429322
43	0x3c3cad9d	0.011516002
44	0x3ca6f78d	0.020381713
45	0x3c823087	0.01589228
46	0x3c742651	0.0149017135
47	0x3d11f3db	0.03563295
48	0x3cdcb404	0.026941307
49	0x3c4a9ede	0.012366978
50	0xbb851151	-0.004060902
51	0x3c981648	0.018565312
52	0x3ca9b823	0.020717686
53	0x3cdf90a4	0.02729065
54	0x3c9141a9	0.017731505
55	0x3cf4e70e	0.029895332
56	0x3ca46e86	0.020072233
57	0x3c6cf49a	0.014462614
58	0x3bee45c8	0.007271502
59	0x3c123328	0.008923329
60	0x3d16e9c3	0.036844026
61	0x3d1f8144	0.038941637
62	0x3b861561	0.004091904
63	0x3d120b6a	0.035655417
64	0x3c4c5092	0.012470381
65	0x3c17bca9	0.009261289
66	0x3c4c96c6	0.012487119
67	0x3c307994	0.010771174
68	0x3cb60a69	0.02222176
69	0x3c1d20f4	0.009590376
70	0x3c726bb9	0.014796191
71	0x3d004e71	0.031324808
72	0xbb86437e	-0.004097401
73	0x3ce1325b	0.027489832
74	0x3c232788	0.009958155
75	0x3c869ec9	0.016433137
76	0x3cd43bdb	0.025907448
77	0x3cebd16a	0.02878638
78	0x3cb4deff	0.02207899
79	0x3c861776	0.016368609
80	0x3cf14ab5	0.029454568
81	0x3d79fa28	0.061029583
82	0x3be967c2	0.0071229646
83	0x3c3dbcf8	0.011580698
84	0x3c1a386d	0.009412867
85	0x3cd669ae	0.026173439
86	0x3c3542b5	0.0110632675
87	0x3c11ddb5	0.008902957
88	0x3ccd2059	0.025039839
89	0xbc626154	-0.01381715
90	0x3be5cd36	0.0070129884
91	0x3cb0a3b9	0.021562444
92	0x3cb73113	0.022362268
93	0x3cbe83dd	0.023256237
94	0x3c4ecefe	0.012622593
95	0x3c70e14d	0.014702153
96	0x3d197266	0.037462614
97	0x3d1a9940	0.037743807
98	0x3bbb76f9	0.0057209698
99	0x3c7a6615	0.015283127
100	0x3c89d57d	0.016825432
101	0x3c4bcdae	0.012439175
102	0x3cf88296	0.030335706
103	0x3cb0354a	0.021509785
104	0x3d0b6366	0.03403034
105	0x3c376762	0.011194082
106	0x3cc63f2e	0.024200048
107	0x3cb557d8	0.022136614
108	0x3d0c8bfe	0.034313194
109	0x3cec4045	0.02883924
110	0x3cc74397	0.024324222
111	0x3c291555	0.010320027
112	0x3c65f194	0.0140346475
113	0x3c19e6e1	0.009393425
114	0x3c0408df	0.008058756
115	0x3b81c2fc	0.0039600115
116	0x3c86694b	0.01640763
117	0x3ce288c1	0.0276531
118	0x3bed1fb2	0.0072364444
119	0x3d3fa9b7	0.046792712
120	0x3b42b05d	0.0029707171
121	0x3c0e4093	0.008682388
122	0x3c325d15	0.01088645
123	0x3ce5eac9	0.028066056
124	0x3d126518	0.03574094
125	0x3cbd3060	0.023094356
126	0x3cf9cc72	0.030492995
127	0x3c8dd8c0	0.017315269
128	0x3cd65acd	0.026166344
129	0x3c8ea898	0.017414376
130	0x3c31960a	0.010838995
131	0x3c86ab53	0.016439116
132	0x3ccce596	0.025011819
133	0x3ceaa4a5	0.028642962
134	0x3c7ce698	0.015435837
135	0x3cfa2239	0.030533897
136	0x3ca35ddb	0.019942215
137	0x3c8f82a1	0.017518343
138	0x3d1dfe34	0.038572505
139	0x3d1c3ddf	0.038144942
140	0x3af8a7d6	0.0018970917
141	0x3c9e3984	0.019314535
142	0x3c7296a5	0.014806424
143	0x3c902bed	0.01759907
144	0x3cb26bcc	0.021779917
145	0x3c4c2a8b	0.012461315
146	0x3d0ea714	0.034827307
147	0x3d24837c	0.040164456
148	0x3c85cdbd	0.016333455
149	0x3ccf9302	0.025338653
150	0x3c55ea32	0.013056325
151	0x3c35578b	0.011068235
152	0x3c559144	0.013035122
153	0x3b879e92	0.004138776
154	0x3d28007d	0.04101609
155	0x3cf3c45c	0.029756717
156	0x3ca14f9d	0.019691283
157	0x3c886277	0.016648514
158	0x3c6497e6	0.013952231
159	0x3d0763fb	0.033054333
160	0x3cbb78ff	0.022884844
161	0x3c59fd83	0.013305071
162	0x38cf8d11	9.896805e-05
163	0x3cbe71c0	0.0232476
164	0x3c1b6af7	0.009485952
165	0x3cd64844	0.026157506
166	0x3d2ad1fc	0.041704163
167	0x3d1b8a67	0.037973788
168	0x3d0cc586	0.03436806
169	0x3c601bd3	0.013678509
170	0xbb5a5ca7	-0.0033319385
171	0x3c1cf37b	0.009579535
172	0x3cd19cae	0.025587406
173	0x3c28a88e	0.010294093
174	0x3c9448ba	0.018101085
175	0x3cd383f2	0.025819752
176	0x3c8da721	0.017291607
177	0x3cd8510a	0.02640583
178	0x3d069268	0.032854468
179	0x3c7d385c	0.015455332
180	0x3c8b6379	0.017015206
181	0x3c7b7664	0.015348051
182	0x3cc1804c	0.023620747
183	0x3b7b40f9	0.0038338287
184	0x3cc8610b	0.024460336
185	0x3c86d4bf	0.016458867
186	0xbbb9e4d7	-0.005673032
187	0x3c2ed633	0.010671186
188	0x3c0daa7d	0.008646605
189	0x3d085362	0.033282645
190	0x3d0fe954	0.03513463
191	0x3d0e4f4c	0.034743592
192	0x3c8b7855	0.017025152
193	0x3ca23d2d	0.019804562
194	0x3c252dfc	0.010081764
195	0x3beb8dc0	0.007188529
196	0x3c1ee588	0.009698279
197	0x3cd809e0	0.026371896
198	0x3bc02e6a	0.005864908
199	0x3c887807	0.016658796
200	0x3c4e0906	0.012575394
201	0x3c8baa90	0.017049104
202	0x3cd8c2e3	0.026460117
203	0x3d215f88	0.039397746
204	0x3c3de71c	0.011590745
205	0x3cb93fc3	0.022613412
206	0xb79a8a91	-1.8422756e-05
207	0x3cc352b1	0.023843141
208	0x3c39dad7	0.011343679
209	0x3c799b43	0.015234771
210	0x3d0c3d9a	0.034238435
211	0x3cab95a9	0.020945387
212	0x3c4f8e28	0.01266817
213	0x3d09d45e	0.033649795
214	0x3cee113d	0.029060954
215	0x3ac472b1	0.0014987794
216	0x3c33186a	0.010931114
217	0x3b87b837	0.004141833
218	0x3cb7cf23	0.022437638
219	0x3be22a91	0.006902047
220	0x3cfefb28	0.03112562
221	0x3d01a76c	0.031653807
222	0x3c76571d	0.015035418
223	0x3c5565c2	0.013024749
224	0x3cb9f60e	0.022700336
225	0x3ca22757	0.01979415
226	0x3d14a6df	0.036291953
227	0x3caedb4e	0.021344807
228	0x3c395a22	0.011312993
229	0x3c81567b	0.015788307
230	0xbbd30136	-0.0064393533
231	0x3b84b8da	0.0040503563
232	0x3d17702b	0.036972206
233	0x3ab50ef4	0.001381366
234	0xbaa5dd41	-0.001265444
235	0x3ca3429f	0.019929228
236	0x3cfb0821	0.030643525
237	0x3c867be9	0.016416507
238	0x3c95da77	0.018292649
239	0x3b90d681	0.004420102
240	0x3cd8d053	0.026466524
241	0x3d111368	0.035418898
242	0x3c2cab72	0.010538923
243	0x3c2f9185	0.010715847
244	0x3bd3ef1a	0.006467712
245	0x3cfe6b1f	0.031056939
246	0x3a519bbd	0.0007995924
247	0x3c851962	0.016247455
248	0x3c73115f	0.014835685
249	0x3bec5456	0.007212202
250	0x3cddf66c	0.027095042
251	0x3c89c760	0.016818702
252	0x3cac9617	0.021067662
253	0xbaca6143	-0.0015440363
254	0x3ce8fa3e	0.028439637
255	0x3c303095	0.01075377

action_model._continuous_distribution.log_sigma f4 [1, 2]
0	0xbe2ebd7b	-0.17064469
1	0xbe764585	-0.24049957

action_model._continuous_distribution.mu.weight f4 [2, 256]
0	0xbd3c6cf6	-0.04600235
1	0xbd519398	-0.051166147
2	0x3b6ff0ac	0.0036611957
3	0xbd967ff1	-0.07348622
4	0xbd5b2a88	-0.053507358
5	0x3dc89a53	0.0979506
6	0x3d9471bb	0.07248255
7	0xbd6eb149	-0.05827454
8	0x3cca96c0	0.024730086
9	0xbd9b0c97	-0.07570761
10	0x3ccfcd4d	0.02536645
11	0x3b84d44f	0.0040536295
12	0xbd71cb97	-0.05903205
13	0xbcacf109	-0.021111028
14	0x3c20aaec	0.009806376
15	0x3d7811a6	0.060563706
16	0xbddbe178	-0.10736364
17	0x3c169a4f	0.0091920635
18	0xbcdcbdc2	-0.026945952
19	0xbdc2705a	-0.094940856
20	0xbb5c8c1e	-0.0033652852
21	0x3cf1a68c	0.029498361
22	0xbc89c142	-0.016815785
23	0xbd9b9613	-0.07596984
24	0x3c2c983b	0.010534341
25	0xbda0d9fa	-0.07854076
26	0xbd476ca3	-0.04868759
27	0x3d5fa67d	0.054602135
28	0xbd83e685	-0.064404525
29	0xbdcc0894	-0.09962574
30	0x3d5e391a	0.054253675
31	0xbc9ede17	-0.01939301
32	0x3d0c75f5	0.03429218
33	0xbd1d3191	-0.03837735
34	0xbd15a1bd	-0.0365312
35	0xbc616438	-0.013756804
36	0x3d1a5275	0.037676293
37	0xbcd415eb	-0.025889358
38	0xbccf181d	-0.025280053
39	0x3b1bd2e2	0.002377682
40	0x3d8a50fc	0.06753728
41	0xbd368a0f	-0.044565257
42	0xbd9b7d5b	-0.07592269
43	0x3d527ce0	0.05138862
44	0x3dcbb0f8	0.099458635
45	0x3cb45c96	0.022016805
46	0x3ac97703	0.0015370551
47	0xbcb3ca05	-0.021946916
48	0xbc5de7bd	-0.01354402
49	0x3cf7a88a	0.030231733
50	0xbd3458ab	-0.044029873
51	0xbd837468	-0.06418687
52	0x3c59dfa6	0.013297951
53	0xbd70c846	-0.058784746
54	0x3d776cc6	0.06040647
55	0xbd4a25f9	-0.04935262
56	0xbba061e8	-0.004894484
57	0x3cddf7fd	0.02709579
58	0x3d3da388	0.046298534
59	0x3d327452	0.043567963
60	0xbd859c61	-0.065239675
61	0x3d93adf8	0.07210916
62	0xbcf8be6b	-0.030364236
63	0x3d95f5ad	0.073222496
64	0xbccc035b	-0.024903944
65	0xbd814626	-0.06312208
66	0xbd0ccab2	-0.034372993
67	0x3be38c83	0.0069442405
68	0x3d96c762	0.07362248
69	0xbd19519e	-0.03743135
70	0xbd82c314	-0.063848644
71	0x3dcd06ad	0.10011039
72	0x3c7e147a	0.015507812
73	0x3d05da5e	0.032678954
74	0xbcce4dc7	-0.025183572
75	0xbd910d6e	-0.0708264
76	0xbd3dd3a4	-0.046344414
77	0xbd0804b6	-0.033207618
78	0x3c865188	0.016396299
79	0x3d7744bd	0.06036829
80	0xbd8b2d85	-0.067957915
81	0xbdb28022	-0.08715846
82	0xbd0a025a	-0.03369365
83	0x3bfeb918	0.0077735297
84	0x3c369f76	0.011146417
85	0x3c313c94	0.010817666
86	0x3d18732d	0.037219215
87	0x3d3c62dd	0.04599272
88	0x3d8c31cf	0.06845438
89	0xbbe27e50	-0.0069120303
90	0x3d927ad3	0.07152333
91	0x3dc4a777	0.09602254
92	0xbd373510	-0.04472834
93	0x3d9bf909	0.07615859
94	0xbcc07d85	-0.023497352
95	0xbdc304ba	-0.09522386
96	0x3e0fda5c	0.14048141
97	0x3d3fddcf	0.046842393
98	0xbd0521da	-0.032502986
99	0xbbdf431b	-0.0068134195
100	0x3d43a831	0.04776782
101	0x3d79f35a	0.061023094
102	0xbbf2f66c	-0.0074146297
103	0xbd6463bd	-0.05575918
104	0xbdacde70	-0.08440864
105	0x3d9adddf	0.0756185
106	0x3d8b1874	0.067917734
107	0x3d505d04	0.050869957
108	0xbd044827	-0.032295372
109	0x3c81e6cc	0.015857123
110	0x3d13733c	0.035998568
111	0x3d5ab6e2	0.053397067
112	0x3da9bd7e	0.08288096
113	0xbbdb1167	-0.006685424
114	0x3d3197df	0.043357726
115	0xbc6abfdf	-0.014327972
116	0x3d846cdb	0.06466075
117	0x3ccf076e	0.025272097
118	0xbd97682c	-0.07392916
119	0xbdbd1404	-0.09232333
120	0x3b3f2945	0.0029168886
121	0xbd01a031	-0.03164691
122	0xbc8ea59c	-0.017412953
123	0xbd433f7e	-0.047667973
124	0xbd28a1e0	-0.04117
125	0xbd98f7f7	-0.074691705
126	0x3c875ce2	0.016523782
127	0xbdb34099	-0.087525554
128	0x3db4c57e	0.08826731
129	0xbc117ed8	-0.00888034
130	0x3d0343bb	0.032047015
131	0x3d2eefde	0.042709224
132	0xbdbdeeec	-0.09274086
133	0xbdb815d2	-0.08988537
134	0x3d53aa48	0.051676065
135	0x3cc8beac	0.024504982
136	0x3d81a112	0.0632955
137	0x3d06baee	0.032893114
138	0xbd0da6fc	-0.034583077
139	0xbdb74f92	-0.08950724
140	0xbc8f0f49	-0.017463343
141	0xbd5120bd	-0.051056612
142	0x3ca0fceb	0.01965185
143	0xbda9384e	-0.082626924
144	0xbd991404	-0.07474521
145	0xbc2f08d4	-0.010683257
146	0x3d2e49ff	0.042551037
147	0xbbcfce6d	-0.0063417465
148	0x3d45f954	0.04833348
149	0xbda261b8	-0.079287946
150	0xbd27d76b	-0.040976923
151	0x3cc82936	0.024433713
152	0xbd40e049	-0.047088895
153	0x3d24749c	0.04015027
154	0x3cd38fed	0.025825465
155	0xbd2ebec6	-0.042662404
156	0x3d168aa5	0.036753315
157	0xbd83bd1c	-0.06432554
158	0xbd74632d	-0.059664894
159	0x3dd402cc	0.10352096
160	0x3ca33e1e	0.01992708
161	0x3d106fe2	0.03526295
162	0xbcc85d66	-0.024458598
163	0xbd9b3b00	-0.07579613
164	0xbcacf0ae	-0.021110859
165	0xbdb45aae	-0.08806358
166	0x3c1e5ccf	0.009665682
167	0x3db6e7b7	0.08930915
168	0x3da67534	0.081278235
169	0x3d097a58	0.03356394
170	0xbc74c71c	-0.0149400495
171	0x3d54a585	0.051915664
172	0xbd811d02	-0.06304361
173	0x3d71ead1	0.05906183
174	0xbb8a6b6c	-0.0042242315
175	0x3ddc4b27	0.10756522
176	0x3c800f78	0.015632376
177	0x3de49b92	0.11162485
178	0x3c835ade	0.01603454
179	0xbda035bf	-0.07822751
180	0x3d2d12a9	0.042254124
181	0x3ce65918	0.028118655
182	0xbc065eb1	-0.008201287
183	0xbbb35935	-0.005473281
184	0xbd8e27b5	-0.06941167
185	0xbb1d7f6e	-0.0024032253
186	0x3c98a499	0.018633174
187	0x3b06516f	0.0020495316
188	0xbc94ca54	-0.018162884
189	0xbdc84984	-0.09779647
190	0xbd68a573	-0.05679841
191	0xbdc252b2	-0.09488429
192	0xbd873fd8	-0.06603974
193	0xbd3d6ddd	-0.046247352
194	0xbd9a793f	-0.07542657
195	0xbd698ee1	-0.057021026
196	0x3c93b1aa	0.018029053
197	0x3d38adf3	0.045087766
198	0x3c14da0d	0.0090851905
199	0x3da488ae	0.08033882
200	0x3d161313	0.036639284
201	0xbb6eb197	-0.003642177
202	0xbdd96f12	-0.10616888
203	0x3c7a13c9	0.015263506
204	0xba0dc273	-0.00054076983
205	0xbd9e186e	-0.07719503
206	0xbcf33582	-0.0296886
207	0xbb01a566	-0.0019782423
208	0x3badc4e4	0.005303012
209	0x3c4935bd	0.012280879
210	0xbcc5b36c	-0.024133407
211	0xbd51ec1f	-0.051250573
212	0xbcb157dd	-0.021648342
213	0x3d6971f5	0.056993444
214	0xbcd08e8d	-0.025458599
215	0xbba0aa3e	-0.004903107
216	0xbc84c33f	-0.016206382
217	0x3cb9c97f	0.022679089
218	0xbdbe32aa	-0.09287007
219	0x3d2c242d	0.042026687
220	0xbdbf5ffb	-0.09344479
221	0xbc815973	-0.015789723
222	0xbd5ee219	-0.054414842
223	0x3d8c852d	0.06861339
224	0x3d6861eb	0.056734007
225	0x3cf2d0cc	0.029640578
226	0x3c3c679d	0.011499313
227	0xbb0479f3	-0.002021429
228	0x3c9c3b46	0.019071233
229	0xbd2b4a3c	-0.041818842
230	0x3cd1be89	0.02560355
231	0xbd126512	-0.03574092
232	0xbcfc2c47	-0.030782832
233	0x3be8c036	0.0071029915
234	0x3d1f6266	0.0389122
235	0x3d457b2a	0.04821316
236	0x3d4b5aeb	0.049647253
237	0xbc1980ef	-0.009369119
238	0xbca038f4	-0.019558407
239	0x3c94f807	0.018184675
240	0xbd8d8682	-0.06910421
241	0x3d4863d7	0.04892334
242	0xbcd2167f	-0.025645493
243	0xbcb20711	-0.021731885
244	0x3d0dc42a	0.034610905
245	0xbd3a4bf3	-0.045482587
246	0xbd0e94e7	-0.034809973
247	0x3d5c8c4e	0.053844742
248	0x3a36151b	0.0006945894
249	0x3b83e007	0.004024509
250	0xbd8f4cec	-0.069970936
251	0xbd646abe	-0.05576586
252	0xbd3b89c3	-0.045785677
253	0xba249fe5	-0.00062799297
254	0xbce966d1	-0.02849141
255	0xbc4d20a7	-0.012519992

action_model._continuous_distribution.mu.bias f4 [2]
0	0xbab8e4a0	-0.0014106221
1	0xb9b6bfd0	-0.00034856657

action_model._discrete_distribution.branches.0.weight f4 [1, 256]
0	0xb97497d8	-0.0002332622
1	0xbbe28e8d	-0.006913966
2	0xbac7dee6	-0.0015248924
3	0xbba5642e	-0.0050473427
4	0xbbca8935	-0.006180907
5	0xbbe653ad	-0.007029018
6	0xbac82933	-0.0015271067
7	0xbb8c7d52	-0.0042874003
8	0x3a7a56f2	0.0009549699
9	0xbc83362e	-0.016017046
10	0xbc0f93e5	-0.008763288
11	0xba7a02d8	-0.0009537167
12	0x399e1a50	0.00030155713
13	0x3bafff28	0.005370993
14	0x3b852e11	0.0040643294
15	0x3c2f3c75	0.010695566
16	0xbb931561	-0.0044886325
17	0xbba2a96f	-0.0049640457
18	0x396ab095	0.00022381761
19	0x3b700def	0.0036629399
20	0x3acdec35	0.0015710654
21	0x3b1377e8	0.002250189
22	0x3af20ff0	0.0018467885
23	0x3be3f82b	0.006957074
24	0x3ba76581	0.0051085358
25	0x3bfb84ad	0.0076757283
26	0xbb87d4a4	-0.004145222
27	0xbbdd0778	-0.006745275
28	0x3c18971f	0.009313374
29	0xbaed3e05	-0.0018100148
30	0x3c3a4d43	0.01137096
31	0xbb11b2b3	-0.0022231757
32	0xbc8127fe	-0.01576614
33	0x3b0edb77	0.0021798292
34	0xbaf1bc05	-0.0018442875
35	0xbc0496e2	-0.008092614
36	0xbb076523	-0.0020659647
37	0x3a2836b6	0.0006416844
38	0x3bb3e890	0.00549037
39	0x3caaf1f0	0.020867318
40	0x3c3966cb	0.011316012
41	0x3acec172	0.0015774204
42	0xbbd8d2b2	-0.0066169137
43	0xb9dd68da	-0.00042230525
44	0x3c6da987	0.0145057505
45	0x397fb86b	0.00024387396
46	0xbbdb8983	-0.0066997423
47	0xbb0c4531	-0.0021403546
48	0x3b4c5c1d	0.0031182833
49	0x3bc049fb	0.005868194
50	0xbb936dcc	-0.004499173
51	0xbbd05858	-0.0063581876
52	0x3b884ee6	0.004159796
53	0xbb58e943	-0.003309802
54	0x3c851100	0.016243458
55	0x3c3178eb	0.010832052
56	0x3b9dcf08	0.00481594
57	0xbb67a9ea	-0.003534908
58	0x3b190b69	0.0023352748
59	0xbb349c54	-0.0027559
60	0x3bde0e75	0.0067766258
61	0x3b26ab51	0.0025431702
62	0x3be4ada5	0.006978708
63	0xbb379023	-0.0028009496
64	0xbb99b596	-0.004690836
65	0xbac44cbf	-0.0014976485
66	0xbab024ce	-0.0013438703
67	0xbb4349ec	-0.00297987
68	0x3c53c75b	0.012925948
69	0xbb7e6b78	-0.003882138
70	0xbbc8f005	-0.006132128
71	0x3b051003	0.0020303733
72	0x38c2175b	9.254991e-05
73	0x3b37e62b	0.0028060775
74	0x3bad7ab7	0.0052941698
75	0x3b806b1c	0.0039190184
76	0x3b6645bf	0.0035136787
77	0xbc3b7408	-0.011441238
78	0x3c2cdf5e	0.010551302
79	0x3b14818a	0.002266022
80	0xbb8e1757	-0.0043362784
81	0xbb94394f	-0.0045234333
82	0x3b8af367	0.0042404416
83	0xbba7be07	-0.0051190886
84	0x3c2dbc5b	0.0106039895
85	0x3c0bded5	0.008537014
86	0x3ac2ba83	0.001485661
87	0x3a9de73c	0.0012047063
88	0xbab449b7	-0.0013754879
89	0x3b8e1e78	0.0043371283
90	0x3aa6b08c	0.001271741
91	0xb74aaecf	-1.2080839e-05
92	0x3bd9b768	0.006644178
93	0xbafb2e70	-0.001916362
94	0x3a3164fc	0.0006767062
95	0xb97eebdd	-0.00024311194
96	0x3c644c65	0.0139342295
97	0x3bc8435f	0.006111547
98	0x3c4aeeee	0.012386067
99	0xbb6b126d	-0.0035869137
100	0x3b03cbf3	0.0020110577
101	0x3c2d119f	0.010563283
102	0xbaf889b3	-0.0018961936
103	0xbbc8b033	-0.00612452
104	0x3c092c60	0.008372396
105	0xbc1d83f5	-0.009613981
106	0xbb38ab3f	-0.0028178243
107	0x3babca09	0.0052425903
108	0x3bb6d52d	0.0055796118
109	0xba9c1797	-0.0011908886
110	0x3bb00fe0	0.005372986
111	0x3c10c118	0.0088351
112	0xbaaa3e46	-0.001298853
113	0xbc0a21d3	-0.008430916
114	0xbb907c5a	-0.004409355
115	0xbbc1b8e6	-0.005911934
116	0xbc013e97	-0.007888458
117	0xbbba64dc	-0.005688293
118	0x3ac58983	0.0015070889
119	0x3a27eed9	0.00064061355
120	0x3bc0867d	0.0058754073
121	0xbbc8861f	-0.006119504
122	0xbb7b13eb	-0.0038311433
123	0xbb280153	-0.0025635555
124	0xba379c07	-0.0007004146
125	0xbbfc1c3d	-0.007693796
126	0xbc1c2510	-0.009530321
127	0xbc552fa0	-0.013011843
128	0x3c017efe	0.007903812
129	0x3bb2de6f	0.005458645
130	0x3c8af8ef	0.016964404
131	0x3bf3abdf	0.00743626
132	0x3b1ae527	0.002363512
133	0xbb7e5f4d	-0.0038814128
134	0x3ba7358a	0.005102818
135	0x3c09eca2	0.008418234
136	0x3b3cb0ec	0.0028791977
137	0x3c3c57c5	0.011495535
138	0xbb31c957	-0.0027128065
139	0x3bf6168f	0.0075100134
140	0x3c089499	0.00833621
141	0xba2055d7	-0.0006116307
142	0xbbc75aab	-0.0060838065
143	0xbafab95d	-0.0019128729
144	0xbb925a63	-0.0044663413
145	0xbb9d0d30	-0.004792832
146	0x3be33430	0.0069337115
147	0x3abbf719	0.0014340609
148	0xbb1557f3	-0.0022788018
149	0x3b896dda	0.0041940035
150	0xbbc3af1b	-0.005971802
151	0xbc0fc33c	-0.008774575
152	0xbadc7f3b	-0.0016822586
153	0xb7db8e47	-2.6173087e-05
154	0x3b92950a	0.0044733332
155	0xbc08581b	-0.008321787
156	0x3ba59163	0.005052732
157	0xba45b97c	-0.0007542593
158	0xbbf05bc3	-0.0073351576
159	0x3a8a1836	0.001053578
160	0x3c110f93	0.008853811
161	0x3c1fd50c	0.009755384
162	0x3afec8f0	0.0019438546
163	0x3ba8a44a	0.005146538
164	0x3b95e737	0.004574682
165	0xbb7090e0	-0.0036707446
166	0x3b2b3adc	0.0026127612
167	0x3bb751ff	0.0055944915
168	0xbc998cec	-0.018743955
169	0x3c1f2524	0.009713445
170	0xbb5a6bd0	-0.0033328421
171	0xbbde7d8b	-0.006789868
172	0xbc2b2713	-0.010446328
173	0xbb8969fb	-0.004193542
174	0x3b30e65e	0.0026992778
175	0xbbb963db	-0.0056576557
176	0xba2f20ef	-0.00066806277
177	0x3b002fe9	0.0019559807
178	0x3b4fdf05	0.0031718623
179	0x3c171fac	0.00922386
180	0xbb74b673	-0.0037340194
181	0x3c0810d7	0.008304796
182	0x3b47cf90	0.0030488707
183	0xbb39614b	-0.002828675
184	0xbb54e500	-0.0032485127
185	0x3b5bf0bd	0.003356024
186	0xbbaefbca	-0.005340074
187	0xbc343603	-0.0109992055
188	0x3b5fc43a	0.003414406
189	0x3bc7d70a	0.0060986327
190	0xbc19e8a9	-0.009393849
191	0x3b6a2ca7	0.0035732181
192	0xbb246b84	-0.0025088498
193	0xbb95d5a1	-0.0045725857
194	0x3c3a9b11	0.01138951
195	0x3a52a60a	0.0008035606
196	0x3b6f20f5	0.003648815
197	0xba7928ef	-0.0009504696
198	0x3c0bd5f7	0.0085349
199	0x3b0b5353	0.0021259382
200	0xbc100ea7	-0.008792556
201	0x3c14bf7c	0.009078857
202	0x3b001bd4	0.0019547837
203	0x3be8d79b	0.0071057803
204	0x3b48c203	0.0030633218
205	0xbc5ac6b7	-0.013353041
206	0x3b3885e3	0.0028155975
207	0x3c1a6958	0.00942453
208	0xbb9fa225	-0.004871624
209	0xbc05dd89	-0.008170494
210	0xbc17ee09	-0.009273061
211	0xbbf6ecf0	-0.0075355694
212	0xbaf04283	-0.0018330369
213	0xbc4e1a07	-0.012579448
214	0xbbd06218	-0.00635935
215	0x3a85fecb	0.0010223029
216	0xbb829ddc	-0.0039861035
217	0xbcb80556	-0.022463482
218	0xbab12563	-0.001351517
219	0xbc4c4813	-0.012468356
220	0xbc26237d	-0.010140297
221	0xbc0138f3	-0.007887113
222	0xbc603033	-0.013683367
223	0x3af62efa	0.0018782311
224	0x3b42ee6b	0.002974416
225	0xbc277c9f	-0.010222583
226	0xbc8742ff	-0.016511438
227	0xbbaa7489	-0.0052018804
228	0x3acf0d75	0.0015796857
229	0xbb30978d	-0.00269458
230	0xbbed0f52	-0.0072344923
231	0xbc198663	-0.009370419
232	0xbb813b18	-0.003943812
233	0x3c379918	0.011205934
234	0x3bc47dc2	0.005996437
235	0x3b93ef3d	0.0045146034
236	0x3c508793	0.012727636
237	0x3bc5eb4f	0.006040014
238	0x3bb1fd6a	0.0054318206
239	0xba7dade0	-0.00096770935
240	0x3b9a966b	0.0047176383
241	0xbc2cc215	-0.01054432
242	0x3b0dffcc	0.002166736
243	0x3a39c810	0.00070870016
244	0xbb745662	-0.0037282933
245	0xba8fdb9b	-0.0010975482
246	0xbb903f9e	-0.004402115
247	0xbc2715a5	-0.010198032
248	0x3b8bd243	0.0042670085
249	0x3bc3f8aa	0.005980571
250	0x3b45403a	0.0030098096
251	0xbb919ca0	-0.00444372
252	0x3c0a1e62	0.008430095
253	0xbb20b3d7	-0.0024521255
254	0xbb2a8383	-0.0026018328
255	0xb9cadc2f	-0.00038692492
