EcoSculptor/results/MultiTraining1/Newanimal/Newanimal-959560.onnx (onnx, 172075 bytes, 6 tensors)

network_body._body_endoder.seq_layers.0.weight f4 [256, 158]
00000000: a5f4 c6bd 0349 87bd 584f dc3b 5d01 b43d
00000010: ff8b 22be fa77 dfbc 74ca 61bd 1011 04bd
00000020: 2187 2d3b bfcf 253c 59e3 623c 8cbc fdbd
00000030: baae 2a3e 4559 393b e593 6d3d c15c 0f3e
00000040: 2c26 5abc 909d 8d3c 7f62 4dbd 5987 b3bc
00000050: 0144 b43d 10be ea3d 8b67 f6bc fe4b c2bb
00000060: 1ba0 fc3c be0d 99bc 5254 1abe 3fd1 70be
00000070: 56c1 6a3d 03dc 503c ad56 d33d b36a 203e
00000080: 0e25 a6bd 280b 093d 1f25 97ba 8167 64bd
00000090: 7f3c f6bd e237 c03d bc1f 50bd 68a5 a23b
000000a0: a954 03be 0e91 123c 78bc 10be 89d3 6fbc
000000b0: 1920 a4b8 5976 473d 6593 e8bd 187b 373d
000000c0: 6c61 873d 75df 93bc 721d 1b3d 9e60 533d
000000d0: 5317 22bd 1554 a2bd bb93 563d 0367 33bd
000000e0: 9c9b 153d 00b7 b53d 9409 e43c d8e0 2e3d
000000f0: 34f0 193e 4dd5 13bd 93a9 1d3d ce1f f9bc
00000100: 0701 0cbe 6a30 c3bd ba51 0ebe 1ced 283d
00000110: b761 ccbd b28f ba3d 7b06 dfbd 2c72 efb8
00000120: dfc1 abbd 52bf 88bd fa10 bebc 8217 f8bc
00000130: b716 06be 5087 863d 0898 37be 94d2 bfbd
00000140: e152 d3bd 2434 aebd 1db4 96bd 7f52 8bbd
00000150: 12dc cbbb 8ef8 4f3e 6f48 d9bd fccb dd3d
00000160: 5ef3 90bd f909 28bd 3560 a33c 518a e7bc
00000170: 6d1d 06be 3efc 0c3e dce8 59bc 7f0b 063e
00000180: 9b3b ec3d 11cd 1ebd 2499 9ebc 48e4 14be
00000190: badb d7bd 5d0c 613d 4352 313d 592a fb3c
000001a0: 7046 f6bb e0d2 d43d 50db 4f3c b3bf e43d
000001b0: b497 d73d ba56 80bc 2309 1cbd 967c 1abc
000001c0: d903 06be 521f 843d 69a7 82bd 8012 423d
000001d0: a7f8 c4bd 3bc1 023b 0302 993d 0e8a d2bd
000001e0: 7f42 05bd d57c ca3d e720 403d eaa8 1ebe
000001f0: b8a0 9e3c ee3b 4ebd fb27 ee3c fbc1 8b3d
00000200: 2839 903c 7063 0b3d c5b1 753d a2a8 95bc
00000210: b5db cbbd c4ff cdbd a319 7c3d 63f2 6f3d
00000220: 8def aa3d db77 fa3c edfa 0ebe 50a8 853d
00000230: 4bea 0bbd 201b 863d 8950 0bbd 428c 163e
00000240: 868a 053e 4fa8 a5bc d3f0 10be 4b60 1bbe
00000250: 689a 37be 5b76 703d 3dc4 0b3e 6935 7a3d
00000260: da22 82bd df55 603d 03a9 99bc 86a8 033e
00000270: 314b 9f3b de38 893d aa4b e53c 70c9 0cbe
00000280: fab1 02bc 0afa 8cbc b637 1bbe 5e51 673d
00000290: 361d 10be c70b da3d 55ee 6fbc 456a 1cbd
000002a0: 3868 e03c 4a8d 9a3c cd37 a63d 89d7 06bd
000002b0: 70e7 20bd 9799 ebbd 9832 20be b248 1f3e
000002c0: 8d1f c73d 256b 06bd d7f3 a53d 477c b3bd
000002d0: f367 573d 2b6b e8bb 38a6 2bbd 8d3f 63bd
000002e0: a247 f43d acf0 cd3d 2f3c bfbd fc10 003c
000002f0: a32a b9bd efcb b3bd 8dd3 cc3d de39 9dbc
00000300: 6795 ba3d dfd8 d43d 9718 c3bc 742c 803d
00000310: 7098 583d 9e7a 15be 9862 42bd cac2 2bbd
00000320: 6721 ea3c 110c a83d db99 843c 2ad9 95bd
00000330: 262b 6a3d 12ae 253d 5afa b13d 58e5 bfbb
00000340: 99d0 f63d cdf8 cc3d 0f56 b53a 127b e43c
00000350: 333a b63c f09f 9abd fcc8 c43c 46f4 d8bc
00000360: db79 ac3d 2044 a8bd 85a5 0d3e 6339 2ebe
00000370: 0ae9 cd3d db19 2c3e 3603 8d3d 7c38 683d
00000380: 89bd 383d 0f7f 7e3d 2cdb 0bbd 0e81 5ebd
00000390: d105 773d 3b06 aebd d6c5 f53d d33d 1bbd
000003a0: 5b4b 25be d61b bc3c d8b9 dd3c 4e61 d33d
000003b0: 73b5 06bd 103f 093c b9b2 b93d 15e3 bc39
000003c0: bff5 fa3c 3779 dfbc f6e1 8ebc fad1 e5bd
000003d0: dfb5 613c c4b8 f83d 4d08 4abd 1226 91bc
000003e0: 50c3 953c 482b 3abe 1b25 d43d 94f9 a6bd
000003f0: 335e 42bd 76cd b33d 83d3 15be 8cbb 063e
-0.09714631 -0.06605723 0.0067233257 0.087893225 -0.15873717 -0.027278889 -0.055124715 -0.032242835
0.0026478248 0.010120331 0.013848149 -0.12389478 0.16668215 0.0028281969 0.05800237 0.14000227
-0.013314765 0.017287046 -0.05014276 -0.021915125 0.08802033 0.11462033 -0.03007867 -0.005929469
0.030838063 -0.01868331 -0.15071228 -0.23517321 0.057313286 0.012747767 0.103192665 0.15665703
-0.08112536 0.033457905 -0.0011531449 -0.05576277 -0.120232575 0.09385659 -0.050811514 0.0049635656
-0.12825264 0.008945717 -0.14134395 -0.014637836 -7.826108e-05 0.04869685 -0.11356238 0.044795126
0.066103786 -0.018050889 0.037869878 0.051605813 -0.039573025 -0.079261936 0.05238698 -0.04379941
0.036525354 0.08872795 0.027836598 0.042694896 0.15033036 -0.03609209 0.038491797 -0.030410673
-0.13672267 -0.095307186 -0.13898364 0.04124175 -0.09979575 0.09109439 -0.10889908 -0.00011417674
-0.08386587 -0.066771165 -0.023201454 -0.030284647 -0.13094603 0.065687776 -0.17929089 -0.093663365
-0.10318542 -0.08506039 -0.07358573 -0.06802844 -0.006221303 0.2030966 -0.10609519 0.108299226
-0.070776686 -0.041025136 0.019943336 -0.028264197 -0.13097163 0.13768098 -0.013300147 0.13090323
0.11534806 -0.038769785 -0.019360133 -0.14540207 -0.105399564 0.05494343 0.04329134 0.030659841
-0.007515721 0.10391784 0.0126865655 0.11169376 0.10526982 -0.015666354 -0.03809465 -0.009429118
-0.13087405 0.064512864 -0.06379587 0.047380924 -0.09617739 0.00199516 0.07471087 -0.10280238
-0.03253412 0.09887091 0.046906378 -0.15494123 0.019363746 -0.050350122 0.029071799 0.06824108
0.01760538 0.034030378 0.059983987 -0.018268887 -0.09954015 -0.10058549 0.061547887 0.058580767
0.08346472 0.03057473 -0.13962908 0.06526244 -0.034158986 0.065481424 -0.03401235 0.14701942
0.13041124 -0.020221857 -0.14154367 -0.15173452 -0.17929995 0.058706623 0.13649078 0.061086092
-0.06354304 0.054769393 -0.018757349 0.12857255 0.0048612584 0.067003 0.027990181 -0.13748717
-0.007977003 -0.017209072 -0.15157971 0.056474082 -0.14073643 0.106467776 -0.014644225 -0.038187284
0.027393445 0.0188662 0.08116112 -0.032920394 -0.039283216 -0.11503904 -0.156443 0.15555075
0.09722815 -0.032817025 0.081031494 -0.087639384 0.052589368 -0.0070928535 -0.041906565 -0.05548053
0.119277254 0.1005567 -0.09337651 0.007816549 -0.090413354 -0.087791316 0.100012876 -0.019192632
0.091105275 0.103929274 -0.023815436 0.06258479 0.05287975 -0.14597556 -0.047457308 -0.041933812
0.02858038 0.082054265 0.016186645 -0.073168114 0.057170056 0.04044921 0.08690329 -0.0058561973
0.120515056 0.100083925 0.0013834852 0.027890716 0.022244548 -0.07550037 0.024021618 -0.026483666
0.084216796 -0.08216119 0.13832672 -0.17014079 0.10054214 0.16806738 0.06885378 0.056694493
0.04510263 0.06213289 -0.034144565 -0.054322295 0.06030828 -0.08497282 0.12000625 -0.037900757
-0.16142027 0.022962492 0.027066156 0.10321294 -0.032887887 0.008376852 0.09067292 0.00036027344
0.030634759 -0.02727948 -0.017441731 -0.112216905 0.013776272 0.12144616 -0.049324322 -0.017718349
0.018281609 -0.18180573 0.1035864 -0.08153072 -0.047453117 0.08779423 -0.14631467 0.13157481

network_body._body_endoder.seq_layers.0.bias f4 [256]
00000000: ee5e 31b9 1f48 7e3b a45f 353d 1d66 883c
00000010: adfa 993c 5563 833c 4b36 0b3d cae4 243b
00000020: a73e 6d3c 9a21 f93c 36d3 b33c ac5f 013d
00000030: dbc9 f03c d6bb b73c 9aef 133c b53d 303d
00000040: bf4a 69ba a269 c83c aba7 0fbc fef1 0f3c
00000050: 0557 2a3d 8935 0e3d ea82 f93b 72bf 3e3b
00000060: 402b eabb 2c89 bcbb 62ed 413c 9217 263c
00000070: 97f9 703c ec44 fb3c 6d52 cc3c b3a9 e43b
00000080: 2012 9d3c 3eb2 833b b1a5 2f3c 10a4 b93c
00000090: eb1d b63b 4ff3 823c 4524 ca3c c635 d73c
000000a0: 0d2e e33c 1f31 b83c 9e50 a13c e370 d53c
000000b0: ed44 7c3c 34cb 88bb 23e7 163c c105 f93c
000000c0: 21e5 253b fde3 ad3c caa9 a53b 56b7 e53c
000000d0: 9d7f 103d b4c1 203c 4564 0d3d 2d8c 0e3d
000000e0: 7aa1 d23b e97c 6c3a c795 cc3c 691f b7ba
000000f0: 3c8f 153d 6dd7 743c 6b86 ef3c 777c 973c
00000100: 17f2 a83c bdac a8bb 1bbd 4fbb 77ca da3c
00000110: f549 9eba 1f4f b23b e7ab bf3c 7f11 813c
00000120: b6e9 aa3c a6b1 673c 65c6 eb3c 2b4c b53c
00000130: afba 4e3c 80c6 a0bb 1b70 9d3c b2a6 353c
00000140: 9a23 fa3c 2838 cc3c 2450 893c f2e7 6c3c
00000150: 7915 a73c 2739 b83b ec08 6f3c 2426 233c
00000160: 23f2 603c 7b1f 273d 6092 873c 6784 be3b
00000170: f80a 8dbb 0f1c fd39 5b9b f93b 2787 ce3b
00000180: b012 0e3c fa08 dc3b c659 e03c 34ca 373b
00000190: 0163 5d3b fd91 083d 7e4a 873b 9c95 923c
000001a0: de40 963c f2cc 753c 2285 8e3c 6e6b 993a
000001b0: 04f4 ae3c 1cdd 9d3a 09a0 6d3c b6a9 883c
000001c0: 1a5f f23c 02bc 463c 0646 943c 8d66 813c
000001d0: b9a3 e03c c222 9d3c 0a18 9b3c ed34 c23c
000001e0: fa4d 333d 9903 f43c ad54 893b 0639 113d
000001f0: d773 033d f4fd b73c 2be8 ca3b dc9b a23b
00000200: 3389 693c 0be8 e53c c07c 443b 9463 ea3c
00000210: ed3c 823c a023 8b3c 047c 113d 48cd c83c
00000220: 29a5 e43b 6458 7a3c 40ad 2fbb 31ce a83c
00000230: 7cb2 a83c b5a9 163c fa95 6f3c ca6f 613c
00000240: 24f9 0d3d 6e70 1a3c 7aa7 793c f9a6 d83c
00000250: cd6d 3f3d 5fd0 b23b 6be8 de3c bb64 6a3c
00000260: 3c88 713c 789b 753c 7fda bb39 22ef da3c
00000270: 8ed8 cebb fd02 5c3b cb53 cf3c 24dd b13c
00000280: 91fb b63b d886 873c e8b8 2e3d c36c f43c
00000290: 683c be3c 670a 9b3c 9892 b43c ee07 a43b
000002a0: cc79 dfbb a52c 153d f26a 3c3c 2a5d 6d3b
000002b0: 02e9 143d 86a4 1e3c 358c 4b3a 60e9 1d3d
000002c0: e9bf db3c 11ce 253d b42c 723c 6f4e 333c
000002d0: 4a1d 883b 8688 3f3c 4fbd e33b 49d3 f93c
000002e0: 8318 b83c 3683 e43c db09 b03c b211 da3c
000002f0: f1b8 543c 62da 483c f3a7 af3b 4a07 28bb
00000300: eeee ad3c 9577 2cbc 41ee 453c 8b07 a03c
00000310: 1c94 f53c 2e0c e33b 1643 003d 1edc dc3c
00000320: fc4c 963c 7f5e 7c3c 2fc9 8e3c 4573 b23b
00000330: d3fd 4e3c cd72 9d3c 3273 043d ad9b 893c
00000340: 822b bc3c d319 673c 6d18 ad3c e23c 053c
00000350: 043e ba3c 3ebc 263a 0876 f23c 320e 453c
00000360: ae54 3b3c dc0a b33c a7a5 9b3c d369 533c
00000370: 48b6 613c 648a a33c 9bfc 093c e2a5 f53c
00000380: beee 053c ff4e 723c 6794 4cba 2d1f 453c
00000390: 282b 1c3d e2a6 8e3c d42d 8d3c 8100 273d
000003a0: b641 dc3c 9f0f 3e3c f7f2 1d3b 979e 493c
000003b0: c427 e33c 5cd9 1a3c 1e91 953c 9cef 923c
000003c0: c621 75bb 0df9 333d ec34 0e3d 5fc4 a13c
000003d0: 8bfc 0f3c 8f77 0b3c 87af f53b 3e62 e73c
000003e0: bdaa da3c 7200 8b3c abc0 b53b 6f1a 8c3c
000003f0: c16c 453b 8f4b 043d 8452 6e3c 3cc9 0a3d
-0.000169154 0.0038800312 0.044280663 0.016650254 0.01879629 0.016038576 0.033987325 0.0025160783
0.0144802695 0.03041153 0.0219513 0.03158538 0.029393127 0.022428434 0.009029293 0.0430276
-0.00088993827 0.024464432 -0.0087680025 0.008785723 0.041586895 0.034719024 0.007614483 0.002910581
-0.007146269 -0.005753657 0.011836382 0.010137456 0.014707944 0.030672513 0.024941647 0.0069782375
0.019173682 0.004019051 0.010720656 0.022661239 0.0055577657 0.01598516 0.024675498 0.026270758
0.02773192 0.02248436 0.019691762 0.026054805 0.015397293 -0.0041746143 0.009210381 0.030398251
0.0025313573 0.021226877 0.005055641 0.028041523 0.03527795 0.009811807 0.034519453 0.03480165
0.006427941 0.00090212986 0.024973763 -0.0013971153 0.036513552 0.01494394 0.0292389 0.018491967
0.02062325 -0.005147545 -0.003169841 0.02670787 -0.0012076484 0.005441561 0.0233974 0.015755413
0.020863395 0.014141476 0.028781125 0.022131046 0.012617751 -0.0049064755 0.019218495 0.011087107
0.030534554 0.024929121 0.016761847 0.014459597 0.020395981 0.0056220475 0.0145895295 0.009957824
0.013729605 0.040801506 0.01654929 0.0058141234 -0.004304286 0.00048276826 0.007617397 0.0063027325
0.008671448 0.0067149373 0.027386557 0.0028044106 0.0033780935 0.03334235 0.004128753 0.017893605
0.018341478 0.015002476 0.017397467 0.001170499 0.02135659 0.0012044045 0.014503487 0.016682487
0.029586364 0.0121297855 0.018099796 0.01579597 0.027421819 0.019181613 0.018932361 0.023706878
0.043775536 0.029786872 0.0041910023 0.035454772 0.032092895 0.022459961 0.0061922274 0.0049624275
0.014253902 0.028064748 0.0029981583 0.028611936 0.015898192 0.01698476 0.03551866 0.024511948
0.0069776964 0.015279863 -0.0026806146 0.020606132 0.02059292 0.009195735 0.01462316 0.013759563
0.034661427 0.009426219 0.015237683 0.026446806 0.046735574 0.0054569687 0.027210435 0.014306243
0.014741953 0.01499068 0.00035830212 0.026725356 -0.0063124364 0.0033571117 0.02530851 0.021711893
0.0055841883 0.01654379 0.04265681 0.029837018 0.023222163 0.018925859 0.022042558 0.005005828
-0.0068199392 0.03641953 0.011500107 0.003621886 0.036355026 0.00968278 0.0007764728 0.038552642
0.026824908 0.040479723 0.014781166 0.010943993 0.004153882 0.011690265 0.0069500576 0.030496256
0.022472626 0.027894598 0.021489074 0.026619766 0.012983547 0.012259098 0.0053605973 -0.002563911
0.021232095 -0.010526557 0.01208073 0.019534847 0.02997785 0.006928942 0.031313978 0.026960429
0.018347256 0.015403389 0.017429916 0.00544587 0.012633759 0.01921978 0.03233642 0.016797865
0.022969965 0.014105278 0.021129811 0.008132191 0.02273465 0.0006360448 0.029597297 0.01202731
0.011433763 0.021855764 0.018999888 0.012903648 0.013776369 0.01996345 0.008422042 0.029986326
0.008174596 0.014789342 -0.0007804096 0.012031359 0.038127095 0.01741356 0.017233767 0.040771965
0.026886802 0.011600404 0.0024101117 0.012305877 0.027728923 0.009451237 0.018257674 0.01793652
-0.0037404164 0.043938685 0.03471844 0.019746957 0.008788238 0.008512392 0.007497731 0.028245088
0.026692742 0.016967986 0.0055466495 0.017102448 0.0030124637 0.03229862 0.01454604 0.03388332

action_model._continuous_distribution.log_sigma f4 [1, 2]
00000000: 2987 dbbd fa43 3dbe
-0.10719139 -0.18482962

action_model._continuous_distribution.mu.weight f4 [2, 256]
00000000: c7cd cebc 11c8 ce3a f8da 393d 8d8d 0fba
00000010: f390 d93c 1b96 4c3c ce3c d23d 9d1c 75bd
00000020: bdba 363d d20e 2ebd 602a 013c c5ee 0c3d
00000030: 501d a83d 5d7b b63d caf6 f33c a8e6 8bbc
00000040: 279c 193c 955c b73d 54db 09bd 72bd 6c3c
00000050: 2dbf b3ba db47 893d 286e 7fbd 130d b23c
00000060: 3245 323c 84eb 36bc a49f a9bc ed22 603c
00000070: d575 613d ac77 813d 84ce d53c 673e 7cbd
00000080: b2c3 12bd 5884 92bb b0d0 1ebd 52f1 2f3d
00000090: b351 7ebd 22e1 edbb 7217 a83d 9742 013d
000000a0: 2cc2 1fbd c0cd 8cbd 56be 8abc 9043 7abc
000000b0: 5082 12bd 5e00 79bc 5c5a 68bb 46a2 933d
000000c0: fe4b 11bd 3037 c73c d2d6 46bd 8cbd fcbd
000000d0: 9f6d c93d eb73 2ebd a0c4 7e3d 7ec2 f03a
000000e0: c6d2 8d3c 5f4b 943c 6e54 8bbd 0496 09bd
000000f0: 8810 bcbb 9d93 76bd e571 873d fade 7fbb
00000100: 55b5 003d 2e69 c4bb 9cbd 03bd 3db4 543d
00000110: 3cb2 703b 77c3 7cbc 6b22 813d 9bea 023d
00000120: cbd9 293d 79e5 42bd 93b2 07be bfd3 9fbc
00000130: bda4 0fbc 379c 16bd 40db 103d 3bb7 09bd
00000140: 9d22 b53d 2e48 9dbd fcc6 983c 2a94 693c
00000150: 7a53 86bd 6582 15bd fd98 07bd 0143 25bd
00000160: 5010 6b3c f7db 1fbd 6cde 60bc 6ffd 36bd
00000170: f758 09bd e8b8 75bc 4d1c 27bd 4e14 80bd
00000180: ab43 96ba 0ca4 41bd 27c5 123d 1eaa f9ba
00000190: 8ae0 99bc 4f54 bf3d 62ca 303c c7b3 3f3d
000001a0: f28e e9ba 20d8 b3bc 298c adbd d913 94bc
000001b0: c7a3 cb39 0a94 c53b d2fd 3f3d c97d 423c
000001c0: ec0c 26bd 76d2 0e3c 1e01 973c dc6c 0ebd
000001d0: 103e e5bd 59b8 a1b9 446b d7bc e353 793d
000001e0: 80a3 983d 5ff8 663d 90f3 debc 0b4d ecbd
000001f0: c04c b73d 0652 e73c e614 8dba 8f3f 56bb
00000200: d76a fd3c f341 5c3c 6ad5 28bd 277b 763d
00000210: 9596 2b3d 6d9d 263d e5c6 9d3d 012e d03b
00000220: 62b4 8f3b 9652 db3c f28f 54bc 47ed d5bd
00000230: a5e6 c03c d495 85bd bfd2 113d 725a 4a3d
00000240: e15d e63d 3081 d2bc c91f 75bd 6550 083d
00000250: d52c b33d b4e7 303c aae9 c5bc 39a7 093d
00000260: a0bb 70bc 74df 1c3c 58b8 d7bc 3f5e f3bd
00000270: bc72 b1bc c22b e9bc 9b6a 733d cf5e 953d
00000280: 4a48 a0bd 32cf 1c3d 8470 74bd 3901 b2bd
00000290: 8bcb 5fbd 6e36 823d c61a 77bd 3b6d 6cbb
000002a0: 6422 d538 41a9 b73d 2035 ae39 a421 703a
000002b0: 0269 5f3d 1135 49bd 8129 f23a 5e50 c4bd
000002c0: e1e0 0ebc 5db4 f7bc c3d6 63bd 2feb 96bd
000002d0: dc94 4cbc 7f2b 51bd dd35 463c ef89 af3c
000002e0: 3be9 80bd 92ab d03b 2d05 4f3d 86a7 9cbd
000002f0: cf1c 8bbd 82b8 26bd e350 fa3b 6f39 7d3c
00000300: d76a 193d 69a1 c33b b98c 443d 5e29 58bc
00000310: 64fa 963d 1b68 9abd 6a6b 7c3d f1f9 b6bd
00000320: 3028 e039 f8cc 023c fd1e 4dbd da24 cfbc
00000330: a39c a5bd 5afc 56bd ad36 4dbd d842 113c
00000340: ca48 9ebd 6db1 19bd b6d6 593d 9fcc 64bd
00000350: 61fc 3a3d bee8 26bd 43f4 6abc 6513 83bc
00000360: feb8 9637 f689 693c 3548 09bd 0cfc 78bd
00000370: 5df0 b23c 46c7 22bd 41dc 82bd 543b 243d
00000380: 8c99 e43c bfab a2bd b7d5 56bb 161c 453d
00000390: 7304 2b3d 09b3 b53c 0747 cf3c 2c7b 003e
000003a0: 96ba 8e3d eebe a8bc b8f9 6dbd 7830 80bc
000003b0: 5244 603d f4f0 68bd ff21 81bd ba86 0c3d
000003c0: fc8f 50bc b908 cc3d afc8 613d 8a1b 91bd
000003d0: 1643 85bd fcc5 71bd 6a91 83bd f771 363d
000003e0: 942e e9bd 0028 4e3d af81 e83c 68c3 a63c
000003f0: f9e6 17bd 3a89 5f3d 5307 1dbc 3231 953d
-0.025244607 0.0015776177 0.04537484 -0.000547611 0.026558375 0.01248696 0.10265504 -0.05984174
0.04461168 -0.042494603 0.007883638 0.034407396 0.08208716 0.089102484 0.029780764 -0.017077759
0.0093756085 0.089532055 -0.033656433 0.014449464 -0.0013713591 0.067031585 -0.062360913 0.02173475
0.010880755 -0.01116455 -0.020706005 0.013680202 0.055044014 0.06321654 0.02609945 -0.06158295
-0.03583116 -0.004471343 -0.03877324 0.04295475 -0.062089633 -0.007259504 0.08207597 0.031557646
-0.039003536 -0.06875181 -0.016936462 -0.015274897 -0.035768807 -0.015197841 -0.003545425 0.072086856
-0.035472862 0.024318308 -0.048544712 -0.12340841 0.09835362 -0.042591017 0.062199235 0.001836851
0.017312419 0.018102346 -0.06803213 -0.03359033 -0.0057392754 -0.06019937 0.066135205 -0.0039042816
0.03142293 -0.0059939837 -0.032163247 0.0519297 0.003672733 -0.015427462 0.06305393 0.03196202
0.04146747 -0.047582123 -0.13251714 -0.019510148 -0.008767304 -0.03677007 0.035365343 -0.033622008
0.088444926 -0.07679783 0.01864957 0.0142565165 -0.06558891 -0.036501307 -0.033104885 -0.040347103
0.014347151 -0.039028134 -0.0137249045 -0.044675287 -0.03353211 -0.014997698 -0.040798474 -0.06253873
-0.0011464258 -0.047275588 0.03583255 -0.0019047891 -0.018783826 0.093422525 0.010790439 0.04680231
-0.001781909 -0.021953642 -0.08473999 -0.01807587 0.000388412 0.0060296105 0.04687292 0.01187081
-0.040539667 0.00871717 0.01843315 -0.034771785 -0.11193478 -0.00030845663 -0.026296265 0.060871016
0.0745306 0.05638921 -0.027215749 -0.11538132 0.08950186 0.028237354 -0.0010763675 -0.0032691692
0.030934734 0.013443458 -0.041219153 0.06017604 0.041891653 0.040677477 0.07703952 0.0063531403
0.004385517 0.026772778 -0.012973772 -0.10445648 0.02354748 -0.06522718 0.035601374 0.04940266
0.11248375 -0.025696367 -0.059844766 0.033279795 0.087487854 0.01079743 -0.024159271 0.03360674
-0.014693171 0.00957476 -0.02633302 -0.118832104 -0.021661155 -0.028463248 0.05942784 0.07293474
-0.07826288 0.038283534 -0.059677616 -0.086916395 -0.054637473 0.06358038 -0.060328268 -0.0036075849
0.00010163037 0.089678295 0.00033227447 0.0009160286 0.054543503 -0.049122874 0.0018475504 -0.09585641
-0.0087206075 -0.030237371 -0.055624735 -0.073690765 -0.012486663 -0.05106687 0.012097803 0.021428077
-0.06294485 0.006368109 0.050542045 -0.0764914 -0.06792604 -0.040703304 0.007639037 0.015455588
0.037455406 0.0059701693 0.047985766 -0.013193456 0.07371977 -0.07539388 0.061625876 -0.08934391
0.0004275455 0.007983439 -0.05007838 -0.025286127 -0.08086517 -0.052486755 -0.05010097 0.008866034
-0.07728727 -0.037522722 0.05318328 -0.055859204 0.045650844 -0.040749304 -0.014340463 -0.016000459
1.7967537e-05 0.014254084 -0.033516128 -0.060787246 0.02184313 -0.039740823 -0.06389666 0.040095642
0.027905248 -0.07942914 -0.0032781193 0.048122488 0.04175229 0.022180097 0.025302423 0.12546986
0.06969182 -0.020598855 -0.05809948 -0.015648112 0.054752655 -0.056870416 -0.06305312 0.034308173
-0.012729641 0.09962601 0.055123027 -0.07085331 -0.06506936 -0.059026703 -0.0642422 0.04454228
-0.11385837 0.050331116 0.02838215 0.020356849 -0.037085507 0.05457423 -0.009584266 0.07284774

action_model._continuous_distribution.mu.bias f4 [2]
00000000: b3a1 213c d2bd 2d3b
0.009865212 0.0026510847

action_model._discrete_distribution.branches.0.weight f4 [1, 256]
00000000: 4fe7 c43b c889 543b e027 e43b 0e62 2e3b
00000010: 2bef 41bc adb6 833b 384a 6c3a 1fba aaba
00000020: 1630 18ba f55c 9939 32d2 5d3b d6f5 3039
00000030: 0df2 61bb 682c 193c 7157 aab9 89fe c3bb
00000040: f981 953b 106b b33b 8fe4 97bb 2256 913b
00000050: f5fc 7aba 4859 483c d135 b5bb e289 d13a
00000060: ed57 29bc 731d 0ebc 908a 983b e39d 6ebb
00000070: a37a 17bc f411 2b3b 8b15 f53a ad5d ca39
00000080: 4de6 b3ba c332 22bb e80b 3f3a b8f1 f0bb
00000090: 4b3c 1ebc a516 743b 675d 42bb 1afa d13b
000000a0: 1c04 ca3b 44f4 3a3b 4b13 2e3c c35a c23a
000000b0: 1b35 c63b 7b10 c93b b3af 863b 83b4 f23b
000000c0: 9377 c8bb cbf4 edbb 90b7 253b b0ae 483c
000000d0: bb1e 1fbc 1b56 b23b cf48 7abc 9386 e4bb
000000e0: 37bc 673b 27c6 943b 2f15 0ebb 0bf7 e6bb
000000f0: 5a40 21b8 721d 783b ed81 013c c35f cebb
00000100: 3344 45bb 2547 fcbb 0875 57ba 6730 30bb
00000110: a14d 96bb 54d5 32ba 566b 8abb adbd aabb
00000120: 343e 20bb 318b 46bc d080 ff3b 3a71 3d3c
00000130: 7bf4 fe3a 9a96 2abc dcd3 203c 2b05 2cbb
00000140: bd02 cebb b234 5fbb fba9 9a3b dba0 d5b9
00000150: 627f d9bb c22d e33a a354 aabb c610 b23b
00000160: 58d3 5c3b 7125 8d3a 7a4c f339 7ef3 873b
00000170: ae3a 063c 4f24 10ba 88c7 7bbb 40c1 04bc
00000180: 6bec 483b 979a 2db9 df83 97bb 8a19 fabb
00000190: 99d0 b539 0302 0dbc 2821 d3ba d725 303c
000001a0: cc5e 0e3c 39cd 4839 c38f 8fbc ef80 40bb
000001b0: bc2e 983b d52f 29bb d6a5 3fbc c49c 0139
000001c0: 81b3 a53b 5d3e d43a 94b7 cc3b 6804 ea39
000001d0: d01f d53b 6797 a739 62f8 6e3b 4d3a 383c
000001e0: 37ab dc3b e09c 5abc e817 ad3b 2c9a 163b
000001f0: f242 cdba db00 84bb 02ea 0bba 0621 84bc
00000200: 3fd3 28bb 0a62 71bb bc8e b8bb 9122 073b
00000210: 680a 0e3c 4eb3 81ba b31c eb3b db67 d23b
00000220: 1b0b f5bb 799c c339 1d8d 47ba 2a95 a7bb
00000230: 60fe 8bbb 60a1 d1ba e4fb 3a3b ebd3 0e3c
00000240: 23fd f13b 6388 7c3b 8751 8fbb c736 9abb
00000250: 8f1f b2bb 6d11 61bb 8af4 99b9 c7b0 e23a
00000260: 3365 8837 1496 4cbb 4ac2 31bc 4b81 f4bb
00000270: f3b6 9fba c34a bcbb 070d 0dbc d2b5 d53b
00000280: f508 dc3a 7f48 b9ba 0f26 ff3a 1a73 57bb
00000290: 3b30 21bc f9a8 31bc 804a 073a 399c 82bb
000002a0: 6b02 573b 670a 9c3b 1340 67bb 7867 e3bb
000002b0: abdf e83b ea82 f537 97eb 453b 0e71 82bb
000002c0: fff9 833b 427b f4bb 0df2 e2bb 3f94 10bb
000002d0: 9ebe 3b39 f3e3 b83b 207c 483c bf53 1cbc
000002e0: 63a8 3abb 8d59 70ba 8267 6cbc 4d0f e3ba
000002f0: 6fa5 0a3c 3b87 86ba 8262 b3bb 197a 2cbc
00000300: ee6d 2c3b 3b89 64ba 1ffd 32bb c0da e4bb
00000310: 130a e23b ec75 01bc 12ff 1d3b 60d3 62bb
00000320: a94e 423b f2f2 cdb9 7750 21ba ea47 6f3a
00000330: 126a b93b f42c 173c 46b0 94bc 81aa 983a
00000340: 28c2 f6bb 44ce 87bb 4249 cb3b 06eb a03b
00000350: cbf3 973b c2c7 45bb 17b1 2ebc 77dc 22ba
00000360: ed75 ddbb c355 f73b 6155 abba 5ac7 fdba
00000370: cfe9 b8ba e527 d83a b760 02ba 9553 c03b
00000380: db6e f5b9 f13e 4c3b b5ba 50bb 01b9 a9bb
00000390: f631 c73b bd1f 6c39 4276 74b9 2baf 85bb
000003a0: 12fc f93b 725b 333b c0f4 74bc e23a 3ebc
000003b0: 62b2 53ba 6c1f a1ba 923e 43bc 997f 1a3c
000003c0: 9b8b b43c c0e5 9ebb b2df 37bb 4750 14bc
000003d0: f3ad 4d3c 42c5 1abc b5df 18bc 5376 8bba
000003e0: a8aa a5bb c28f 0c3b b36b 63bb 8585 97bb
000003f0: f347 8a3b 127b e53b d96e a83a 5ff4 853b
0.0060090194 0.0032430757 0.0069627613 0.0026608738 -0.011836807 0.0040195794 0.0009013745 -0.0013025439
-0.0005805505 0.00029251692 0.003384721 0.00016876249 -0.003447655 0.009348966 -0.00032490076 -0.0059812707
0.004562613 0.0054754093 -0.0046354006 0.0044353167 -0.00095744367 0.012228318 -0.005530097 0.0015986527
-0.010335905 -0.008674013 0.00465519 -0.0036410026 -0.0092455475 0.002610323 0.0018698437 0.00038598236
-0.0013725251 -0.0024749495 0.0007287846 -0.007353034 -0.00965793 0.0037244943 -0.0029657723 0.0064079883
0.0061650407 0.0028526941 0.010624717 0.0014828074 0.006048811 0.006135998 0.0041103004 0.0074067726
-0.00611777 -0.0072618476 0.0025286414 0.01224868 -0.009711917 0.0054423935 -0.015276148 -0.0069740503
0.0035359988 0.004540223 -0.0021680107 -0.007048493 -3.8445323e-05 0.0037859348 0.007904512 -0.006298037
-0.0030100464 -0.007698911 -0.0008219038 -0.0026884319 -0.004586891 -0.00068219495 -0.004224221 -0.0052105994
-0.0024451138 -0.012118147 0.007797338 0.01156264 0.0019451523 -0.010411883 0.009816136 -0.0026248198
-0.0062869475 -0.0034058508 0.0047199703 -0.00040746373 -0.0066374997 0.0017332362 -0.0051980778 0.0054341285
0.0033695307 0.0010768605 0.0004640555 0.0041488996 0.008192701 -0.00054985745 -0.003841849 -0.008102715
0.0030658494 -0.00016556155 -0.0046238746 -0.007632439 0.00034678428 -0.008606437 -0.0016107904 0.010751209
0.0086895935 0.00019149938 -0.017524606 -0.0029373725 0.004644243 -0.0025815864 -0.011697253 0.00012360798
0.005056799 0.0016192902 0.00624747 0.0004463524 0.0065040365 0.00031965526 0.0036463966 0.011244369
0.0067342776 -0.013343066 0.005282391 0.0022980077 -0.001566021 -0.0040284223 -0.0005337299 -0.016129028
-0.0025760678 -0.0036832117 -0.0056322496 0.0020619968 0.008669473 -0.0009895356 0.007175052 0.006421072
-0.0074781305 0.0003730988 -0.0007612275 -0.0051142173 -0.004272267 -0.0015993528 0.0028531486 0.008717517
0.0073849126 0.0038533441 -0.0043737325 -0.004706237 -0.005435891 -0.0034342662 -0.0002936463 0.0017295115
1.6259588e-05 -0.0031217383 -0.010849545 -0.007461702 -0.001218526 -0.005746217 -0.008609063 0.006521919
0.0016787337 -0.0014135985 0.0019466298 -0.0032875002 -0.009838159 -0.010843509 0.00051609427 -0.0039859083
0.0032807838 0.0047619822 -0.0035285994 -0.0069398247 0.0071067414 2.9267238e-05 0.0030200237 -0.0039807623
0.0040276046 -0.0074609825 -0.0069258274 -0.0022061018 0.0001790472 0.005642408 0.012236625 -0.009541451
-0.0028481714 -0.00091686175 -0.014428975 -0.0017323286 0.008462294 -0.001026369 -0.0054743895 -0.010527157
0.002631064 -0.00087179587 -0.0027311516 -0.006984085 0.0068981736 -0.00790165 0.0024108333 -0.0034610853
0.0029648936 -0.00039281655 -0.0006153653 0.00091278425 0.0056583965 0.009227026 -0.01815046 0.0011647494
-0.0075304694 -0.004144462 0.0062038014 0.0049108295 0.0046372167 -0.003017888 -0.010662339 -0.00062126614
-0.0067584426 0.0075480654 -0.001307171 -0.001936178 -0.0014107766 0.0016491382 -0.0004973518 0.0058693388
-0.00046812635 0.0031165446 -0.0031849567 -0.005179525 0.006078954 0.00022518537 -0.00023313708 -0.0040797195
0.007628926 0.0027367738 -0.014950931 -0.011610718 -0.00080755923 -0.001229269 -0.011916773 0.009429836
0.022039225 -0.0048491657 -0.0028056917 -0.009052343 0.01255368 -0.009446444 -0.00933068 -0.0010640122
-0.005055744 0.002144799 -0.0034701645 -0.004624071 0.004220003 0.0070031965 0.0012850418 0.004087969
