EcoSculptor/Assets/Trainings/Final3.3/Hunteranimal.onnx (onnx, 181291 bytes, 6 tensors)

network_body._body_endoder.seq_layers.0.weight f4 [256, 167]
00000000: ab50 863d 3b2d fb3b 5ce6 ba3d 8c22 13bd
00000010: b0b6 ca3d 146f 443d 2b0d 9a3d 81f4 a7bd
00000020: 1c15 0a3e 9116 d83d 597d 063e 9be7 513c
00000030: 2dd1 f4bd 4323 80bd 37fc e6bd 5029 58bc
00000040: b024 0e3b 231e 133d ace8 043c 079a aebb
00000050: 57ce 6abd 293e 493d 6e23 57bc 4921 083d
00000060: cdbe f9bc efdd 2bbd b047 dabc 5d97 8bbd
00000070: 9e9f 963d 8b39 aabd e3e5 71bc 0231 cf3c
00000080: 67fc c43d 2cbb 483b 16ae 363c 9aa7 4abe
00000090: 0ab6 d53d fa68 e33d ed04 3dbd cc37 1d3e
000000a0: 0159 2c3d 8010 5bbd 264e 9e3d 5e19 dcbd
000000b0: 90d2 833d 0c31 dc3b 0a78 043e 7ed8 263e
000000c0: 28c1 46be 71f7 413d 8d06 1cbe 2da5 03be
000000d0: 457d 9d3d 060f c1bd 5cb2 843d 6151 403d
000000e0: a90c f73d 8e96 8d3d 2765 9b3d fac3 1dbe
000000f0: cad1 32bd e20c b2bb ddca 38be 06a6 013e
00000100: 9e48 d03c 0b5e 053e ae54 a43d e30c 7fbd
00000110: 8948 cabd dbf9 26bd b550 b13d f42e e63d
00000120: e5eb 7abd 4b42 1b3e fca1 ebbc bc6d 7dbe
00000130: 1b42 df3d a9d2 593c c395 e9bd 797d f33d
00000140: 6df3 0c3e a8bd c43d 0a20 e539 44d4 bbbb
00000150: ce7b f2bb 6eea 863d e78e e93d 94d6 913d
00000160: d307 14bd f758 fcbd f4fe aebd 739f 8fbd
00000170: f8e5 0fbe 978f 56bd 46c1 8dbd 001a 823d
00000180: 2cb3 193d e0df 82bb fdfc 23be 6c70 1bbd
00000190: c9c2 e0bd f0a1 5e3d 0de5 70bc 32b5 3b3c
000001a0: 0216 ab3d f9c1 c83c 8a8a 6fbd c273 0bbe
000001b0: fcbf 1abe bd66 59bb 2654 883d fcf8 eebd
000001c0: d6c6 d63c 8883 8a3a 09ca 8e3b ec8e 57be
000001d0: 9854 373d 2744 2d3d 137e f5bc 34db 463e
000001e0: ad4c 19bd e209 b6bc c152 4ebd a2c5 debd
000001f0: 29ce e0bd be4c 0bbd 1205 623d 459f 683e
00000200: 47d2 d63d 9080 d83d 5974 efbc 64dc bcbd
00000210: 4b22 eebc b306 4d3c 7661 4cbc 9f99 aebd
00000220: 59b8 f6bd efce b1bd 0424 873d ec84 aebb
00000230: 8c98 3f3c 2307 cebd e9d1 b43d 7edc 51bc
00000240: 5506 1ebe 667a 87bb b545 8ebd bfd9 fcbd
00000250: 697a e4bc b1e7 153e c157 5fbd 1488 9f3d
00000260: db1b 0d3c fecf 303d 117b 10be 5ef3 c4bc
00000270: 8844 153d 4378 55bc a527 e63d a31c 503e
00000280: 1ea1 ec3b 9c94 ab3d 6a2d 27be 654e c63d
00000290: 2c9c aaba c427 da3d 59bc 3bbd 0fec 403d
000002a0: 433f 7e3d 1e78 bbbd ec59 3dbe 6af3 97bd
000002b0: adb8 64bd 3ec4 603d d20f 2bbc fff7 893d
000002c0: 69c9 e4bb a944 13bd e1e2 923c c702 443b
000002d0: 7682 a6bd b1c8 983c f2a0 d0bd c7a0 66ba
000002e0: b4cd a43d 3517 69bd 30e0 02bd 8021 37bd
000002f0: 9d06 113d fb6a 8d3c f3c0 c2bd 524d 23be
00000300: 501e 6e3d c027 813c dd6c edbd 43eb 5b3d
00000310: 7bd7 e63d a57a 913d 9d0a d03c 9098 723c
00000320: 1874 86bc 48c7 94bd 6faf a03d af28 063d
00000330: 9877 3a3d eb15 7a3c 3aa6 51bd d424 0fbd
00000340: 48a6 f0bd a16e 5cbd 74fc b03c 7e49 a1bd
00000350: 2581 433c e912 d8bd 19eb 143c 4ff7 ebbd
00000360: 187f d43c 46b2 c03d 3f19 dabd 1af4 903d
00000370: 79d8 d63c f49f 11bd fccb a1bd 88eb cc3d
00000380: 37a0 c5bd ccb8 7e3c 5b66 a5bd 5b63 b0bd
00000390: 8f27 a33d 4857 9ebd 1cc7 73bc 4b1c 203e
000003a0: 9711 0e3e 1f6d 263e 6143 10bd ed24 f6ba
000003b0: 2ad2 ec3d 244c 513d a176 a23d 5512 72bd
000003c0: 5498 8cbd 9090 b2bd aa56 db3b 8d53 efbd
000003d0: 13b9 1f3d 8541 66bd 51a3 043e bb12 09be
000003e0: 9377 cb3c 1ec8 e5bd 34a1 e6bd f80c 9e3d
000003f0: 7023 eabd b99f 973c 8ada 5cbd d1cb 82bd
0.06558355 0.007665304 0.09125969 -0.03592162 0.09898126 0.047957495 0.07522043 -0.08200932
0.13484615 0.10551179 0.13133754 0.012811567 -0.119539596 -0.06256726 -0.11278575 -0.013193443
0.0021689348 0.035917412 0.008112114 -0.00532842 -0.057325687 0.049131546 -0.013131006 0.03323487
-0.030486489 -0.0419597 -0.026645511 -0.0681598 0.07354663 -0.08311757 -0.014764282 0.025291923
0.096184544 0.0030629141 0.011149904 -0.19790497 0.10435112 0.11104007 -0.046147276 0.15353316
0.04207707 -0.053482533 0.077297494 -0.10747026 0.06436646 0.006719714 0.12936416 0.16293523
-0.19409621 0.04735512 -0.15236874 -0.12855978 0.07689909 -0.094266936 0.06479332 0.04695261
0.120629616 0.06913482 0.07587653 -0.1540679 -0.0436571 -0.0054336647 -0.18046136 0.12660989
0.025425252 0.13024156 0.08023964 -0.06226815 -0.09877116 -0.040765624 0.08657972 0.11239424
-0.061260123 0.15162008 -0.028763764 -0.24748892 0.109012805 0.013294854 -0.11405518 0.118891664
0.13764735 0.096064866 0.00043702155 -0.005732091 -0.0074000126 0.06587683 0.114042096 0.07121006
-0.036140274 -0.12321656 -0.08544722 -0.070128344 -0.1405257 -0.05238303 -0.069216296 0.06352615
0.037524387 -0.003993973 -0.16014476 -0.03794901 -0.10974652 0.054353654 -0.014703047 0.011456775
0.08353807 0.024506556 -0.05848173 -0.13618377 -0.15112299 -0.003317281 0.06656675 -0.11668584
0.02621786 0.0010567764 0.0043575806 -0.21050614 0.04475841 0.042301323 -0.029967343 0.19419557
-0.03742664 -0.02222151 -0.05037189 -0.10877539 -0.10976822 -0.034008734 0.055180617 0.22717007
0.10489326 0.10571396 -0.029230284 -0.09221724 -0.029069087 0.012513804 -0.012474408 -0.08525395
-0.1204688 -0.086820476 0.06598666 -0.005325904 0.011694085 -0.10059955 0.088291 -0.012808917
-0.15432103 -0.004134464 -0.06946889 -0.12346219 -0.027890401 0.14639165 -0.054527048 0.07789627
0.008612598 0.043167107 -0.14109446 -0.024041828 0.03644231 -0.013029161 0.1123803 0.20323424
0.007221355 0.08377954 -0.16325918 0.09682921 -0.0013016514 0.10652116 -0.04583392 0.047100123
0.06207205 -0.0915377 -0.18491334 -0.074194744 -0.055840183 0.05487465 -0.010440784 0.067367546
-0.006982018 -0.03595415 0.01793045 0.0029908882 -0.08130352 0.018650385 -0.10186948 -0.00087977614
0.08047047 -0.056906898 -0.031952083 -0.044709682 0.035406698 0.017262926 -0.095094584 -0.15947464
0.058134377 0.015766025 -0.1159303 0.05369116 0.112715684 0.07103471 0.025395686 0.014806882
-0.01641278 -0.072645724 0.07845961 0.032753643 0.04552421 0.015264015 -0.051183917 -0.03494723
-0.11750466 -0.05381644 0.021604754 -0.07875346 0.011932646 -0.10550482 0.009089255 -0.1152178
0.02593951 0.09409003 -0.106493466 0.07077809 0.02622627 -0.035552934 -0.07900235 0.100058615
-0.09649699 0.015546989 -0.080761634 -0.086127006 0.079665296 -0.07731491 -0.014879014 0.15635793
0.13873897 0.16252564 -0.035220508 -0.0018779315 0.11563523 0.051098004 0.07932783 -0.059099514
-0.06864992 -0.08718979 0.006693681 -0.11685858 0.03899486 -0.056214828 0.12952925 -0.13386051
0.02483729 -0.1121981 -0.11261216 0.07717317 -0.114325404 0.018508779 -0.053919353 -0.06386531

network_body._body_endoder.seq_layers.0.bias f4 [256]
00000000: a323 413b b166 ffbb d64b 5ebb 9475 e93c
00000010: 3cac d539 111e 113c 26e3 b2bb a147 853c
00000020: f0b9 8fbc 46a1 0b3b 4ebc 6f3c 190b 533b
00000030: 9c4d 883c b352 a83c 4df1 b4bb 4772 a93c
00000040: 0075 083d 0781 5cbc 022c eabb 927e 09bc
00000050: ab39 a43c 5aa2 ebbb fead 3e3c 2165 33bb
00000060: 0fc0 433c 74b8 2439 4c9f 323c 4951 0f3c
00000070: 3eb8 93bc 1948 583c 50ee ab3c 990a 8e3c
00000080: 37c5 74bc 08ca d7bb df69 05bc bdb5 a63b
00000090: 3b74 32bc 5c7e 533c 4923 ebba 5426 c83c
000000a0: 11da b53b 2ab5 b6bb 964d 403c 4c90 d13b
000000b0: 7dac 8b3b c2bb c93b 50e1 b43a 200d bc3b
000000c0: 70d3 e3bb 1a45 853c 241e 16b8 0cda 833c
000000d0: 8396 3c38 a66f 073b 8dab 033c cb03 c53b
000000e0: 1c7b 33bc 7902 803c 9f63 99bc 584b 273c
000000f0: bd89 67bb bf23 5a3c 275c a5bb f3e1 553b
00000100: 9d46 c33c d157 ddbc 2327 92bc efe1 ac3c
00000110: 15f6 a4bb 4ca2 e6bb 8849 813c da15 c83c
00000120: 37dc eaba f1da 98bc 4eb8 a13c 9b18 b8bb
00000130: 5524 163b 7c1d 3fbb 9584 6abb c480 41bc
00000140: d335 663b a492 fbbc 1bbd c5bb eaea 3b3c
00000150: ca1c 03bb db14 7abc 1ed8 05bd e5b4 d5bb
00000160: 8863 f3bb 35c3 a03b 3d35 9d3c 7d57 223c
00000170: ba74 d4bc 78e2 bf3c 0b32 dcbb 25db 8fbb
00000180: 3eb8 363c 7b38 1b3d 2d6b d23a d0d7 fcba
00000190: d0a9 5ebc 821a 4a3c aec4 b5bc a882 2e3c
000001a0: 43f8 b4bc f9e5 b93b 4525 493c b5f2 523b
000001b0: 0c57 20bc 4211 7fbc e10f d93b 1094 483b
000001c0: 56a5 e0bb 3bda 963b 212d ae3b 19df 34bc
000001d0: 8a8c b7bb 864b 083d 3b3c e63c a20e 59bc
000001e0: 8917 c4ba 5dc5 213c beee d4ba 3875 34bc
000001f0: a0f5 853b 2da0 bd3b 1a88 af3c 42a3 ba3c
00000200: b1d7 5fbc 61a6 213c b350 01ba 5bb0 3cbc
00000210: c191 33bb b928 0e39 f09c ab3b 95e1 b6bc
00000220: eba2 6ebb cd0c e83c 33fc df3c 53f5 56bc
00000230: 74ed 4b3c 2eb4 24bc b37e 6dbb 1f90 8d3c
00000240: c326 da3b 9aa8 21b9 725c bb3b 2c42 4e3a
00000250: 9b46 b0bb f3c2 0e3c 6cec 9ebb 3030 9e3b
00000260: c015 30bb b664 76b9 8684 013c 43ec d1bb
00000270: 9fce 1ebc 646b 59bc 9373 59ba 9455 eebb
00000280: a4df 303c 0fc3 843c 9d3e 2ebc 70b8 cb3c
00000290: 7f33 d3bb ce1f f7bb 04a0 e7bb 0cea bcbc
000002a0: d5b9 fd3b 80db b538 bd84 8ebb a057 9f3c
000002b0: 4c2d bd3a dac3 1e3d c324 073d 6179 3d3c
000002c0: 0d6d a3ba 9585 db39 a0d5 143c a9f9 d13a
000002d0: c926 aaba e038 07bc a3b0 4bbb 949c b7b9
000002e0: 9052 2cbc b77a 5a3b 997c 783b cd6d 0cbc
000002f0: 5c48 eaba 8f69 243c 86f6 753c 9ff6 c03b
00000300: 7e26 853c 6f01 02bb 6207 d73c fd36 443c
00000310: 77ed a13a 79f1 a9bb 8f65 463c 253e 8c3c
00000320: 5875 50bc 366d 05bc abc6 bc3a 5be4 973c
00000330: c567 92bc 918c 49bc 7830 1b3c 5196 d23b
00000340: 7e69 733a 3455 c93c 1d2a 4bbb fe3b 5f3c
00000350: f8cf bf3c 2cb1 f6bb ebf1 51bc 6765 33bc
00000360: 0579 cbbb de33 5bbc 4243 ac3a 4039 13bd
00000370: cb47 47bc f9de 4fba 5d5a 1b3c 2e2b 08bb
00000380: 3c73 2bbc 3dab aabb 5c53 92bb f37a c73c
00000390: cac7 8d3c c2b1 963b d18a 963b 47ce 0c3c
000003a0: a235 ba3c c4c9 9fbc 66b6 bb3c 833d b93b
000003b0: 84c9 60bc 610f 543c 00c2 523c 30c2 18bc
000003c0: aa67 82bc c0dd 103c e675 273b ca04 443c
000003d0: 8252 acbb 5ef5 b3bc b7dd 0dbb 843b 60bb
000003e0: f153 16bc c34e 45bc b9bc 12bc 6685 383b
000003f0: aba4 1d3c 67bb d93a 7bce 013a a8fc 0939
0.0029470704 -0.007794224 -0.0033919713 0.028498448 0.0004075485 0.008857266 -0.005459207 0.016269507
-0.017544717 0.0021305843 0.014632298 0.003220266 0.01663857 0.020547247 -0.0055219294 0.020684374
0.033314705 -0.013458497 -0.0071463594 -0.008391993 0.02004703 -0.0071909847 0.011638163 -0.002737351
0.011947646 0.00015708973 0.010902237 0.008747407 -0.01803219 0.013200783 0.02098766 0.017339038
-0.014939598 -0.0065853633 -0.008142917 0.005087583 -0.010891969 0.012908544 -0.0017939593 0.024432339
0.005549677 -0.0055757957 0.011737248 0.0063953754 0.0042625056 0.0061564157 0.0013800059 0.0057388693
-0.0069526955 0.016268302 -3.5790858e-05 0.016095184 4.4962868e-05 0.0020665913 0.008036506 0.006012415
-0.0109546445 0.015626179 -0.01872426 0.010210834 -0.00353299 0.013314187 -0.005046386 0.0032635897
0.023837382 -0.027019413 -0.017840927 0.021103827 -0.005034218 -0.0070383903 0.015782133 0.024424482
-0.0017918412 -0.018659087 0.019741204 -0.0056181676 0.002290984 -0.0029161861 -0.0035784591 -0.011810485
0.0035127297 -0.030709572 -0.006034506 0.011469582 -0.0020006173 -0.015263761 -0.03267681 -0.0065218084
-0.0074276365 0.004906083 0.019190425 0.009908554 -0.025934566 0.023423418 -0.006719833 -0.0043901377
0.011152325 0.03789566 0.0016053669 -0.0019290391 -0.013590291 0.0123354215 -0.02218851 0.010651268
-0.022091037 0.005673167 0.012276952 0.0032188122 -0.009786379 -0.015568079 0.0066242074 0.003060583
-0.006855647 0.004603652 0.0053154384 -0.011039519 -0.0056014704 0.03327515 0.028104892 -0.013248118
-0.0014960627 0.009873715 -0.0016245467 -0.011014275 0.0040881187 0.0057869167 0.021427203 0.022782926
-0.013662265 0.009866328 -0.00049329846 -0.011516656 -0.0027400109 0.00013557346 0.0052372143 -0.022324363
-0.0036413025 0.028326416 0.027341938 -0.013120013 0.01244675 -0.010052724 -0.0036238849 0.017280636
0.006657453 -0.00015416965 0.0057178074 0.0007868137 -0.0053795106 0.008713472 -0.004849961 0.0048275217
-0.0026868433 -0.00023497906 0.007905131 -0.0064063384 -0.009692817 -0.013270233 -0.0008295115 -0.0072733853
0.010795508 0.016206292 -0.010635045 0.02486822 -0.006445348 -0.007541633 -0.007068636 -0.023060821
0.0077431 8.6716376e-05 -0.0043493197 0.019450963 0.0014433055 0.038760997 0.032994043 0.0115645835
-0.0012468413 0.0004187046 0.009084135 0.0016019839 -0.001298153 -0.008253306 -0.0031080625 -0.0003502114
-0.010517731 0.0033337304 0.0037916063 -0.0085711 -0.0017874348 0.010034933 0.015012389 0.0058887745
0.016253706 -0.001983728 0.026248638 0.011976001 0.0012354095 -0.0051862565 0.012109174 0.017119477
-0.012723289 -0.008143714 0.0014402469 0.018541506 -0.017871747 -0.01230158 0.009472005 0.0064266105
0.0009285434 0.02457676 -0.0031000443 0.013625143 0.023414597 -0.0075284448 -0.012814025 -0.010949469
-0.006209495 -0.013379065 0.0013142603 -0.03594327 -0.012163113 -0.0007929649 0.0094819935 -0.002077769
-0.010464486 -0.0052084015 -0.0044655036 0.024350619 0.01730718 0.004598827 0.004594185 0.008594102
0.022730652 -0.019505389 0.022914123 0.0056530847 -0.01371992 0.01294312 0.012863636 -0.009323642
-0.015918572 0.008841932 0.002555245 0.011964032 -0.005258859 -0.021967586 -0.0021647045 -0.0034215162
-0.009175287 -0.012042704 -0.008956128 0.0028155684 0.009621779 0.0016611636 0.00049517275 0.0001315946

action_model._continuous_distribution.log_sigma f4 [1, 2]
00000000: c8fc 963c 0eba eabd
0.018431082 -0.11461268

action_model._continuous_distribution.mu.weight f4 [2, 256]
00000000: cc4a 6d3d 0208 fe3a 45dc b2ba 8190 2bbd
00000010: 0548 a43b 73bf bdbb 9568 41bb bbde c2bc
00000020: 1f12 a43b e6be b7bc 5833 3ebd b122 863d
00000030: 7aea a7bc c455 40bd 212b 363c 49f4 41bd
00000040: 9b5a 9bbd dea5 b0bb a139 283c 61d3 ad3c
00000050: 54b7 38bd f7a8 603c 5ba5 babc 4a82 07bc
00000060: 1245 20bd fb1a 023d 8552 9f3d c561 e3bc
00000070: 6f88 1f3c 491e 0ebd e731 31bd 7ee5 ccbc
00000080: 0359 5c3b b00a f9b9 e509 003d 65af 7d3d
00000090: eded da3b ca5c 52b9 76cc 37bc d2ad 93bd
000000a0: e5c8 aebb 0aba ec3c 7504 a9bc 06d8 e5bb
000000b0: f0b4 97bc 67ee 02bd 2576 743d ddd8 e539
000000c0: d702 dc3a 9f39 d7bc 4d50 66bc 4a32 40bd
000000d0: 9d69 c2bb 5d07 1cbc 084d c4bc 3073 7a3d
000000e0: 3365 f3ba 9a21 a8bc b2e1 293c 0b2d 98bc
000000f0: 160d 423b 520a 30bd c954 f33c 6abf 2cbc
00000100: e177 27bd 5f93 e43b 8dac 023c 5508 33bd
00000110: 3f7a 3c3c f5ba bd3c 5934 38bd 5528 66bd
00000120: 7d37 253b 5260 013c f9f5 49bd e8e3 b93c
00000130: d535 fb3c bf54 e0bb 69f9 273d d3a5 023d
00000140: 50d5 02bb 9537 ac3c 8713 b43c 593a 20bd
00000150: 04a0 5e3c f61b e23a 3001 073c 5d1a a13c
00000160: 6773 1d3d 0f4f 75bc 251a f4bc 943e 06bc
00000170: b806 4f3c aeeb 37bd 1454 893c 05d5 203c
00000180: 61eb 2fbd 334a 2cbd 41a6 3c3d af12 df3c
00000190: c543 193c eabe 06bd a691 2f3c 9666 abbc
000001a0: 0585 393c 5dea eb3c f622 3abc 2394 653d
000001b0: 7a68 023c 37b7 1cbb cb9c 92bc a5e7 2d3d
000001c0: fe40 183d fa34 413d fe51 363b 130f 3d3b
000001d0: ec95 d93c ba54 a9bd d327 16bd 96ba e7bb
000001e0: eb37 65bc d0f6 c5bb 0493 483c 00d0 013d
000001f0: 12b8 88bc cdb1 edbc 7c47 f0bc f15e 51bd
00000200: 03a1 fd3b 3260 5dbc 579e 333d 3eb0 f03c
00000210: 16c5 50bc b0a1 263d c211 613d 1725 dd3b
00000220: a40f af3c d150 adbd 5f47 90bd 3b59 9c3c
00000230: db60 873c 0ed0 3cbc 2a25 3d3d 2d26 2cbd
00000240: 133b f2bc 31ec 613d d130 97bc 8334 713c
00000250: 4aaf 393c 7968 3abd 2c74 223d 62fb 5c3d
00000260: 185f b83c b932 3d3d 640f cbbc c14c a73c
00000270: 7fb8 90bb 9547 8c3c b9b8 8ebc 38d3 553c
00000280: 12e3 74bc 0bef 98bc b3ea 823a 7a80 43bd
00000290: 1937 d93c 5adc e53b d2f4 c23c 0fd0 05ba
000002a0: 4370 88bc 182c 91bc 2a5c 32bc 91b9 f7bc
000002b0: 600a 3b3d 7d05 8ebd 008c 58bd 6eb9 babc
000002c0: aca4 7abc 23c6 043a 85c4 15bd 90b0 d5bc
000002d0: e9ee 523d 7199 8ebb e67b 433d ada4 3dbc
000002e0: 3671 b43b 862d 11bc 4ba9 7e3d bf72 bd3c
000002f0: 5c82 2cbc 28b6 1c3c e145 e6bc 416c d4bc
00000300: b773 19bd cd13 2ebb 21a8 85bd 87b2 0dbd
00000310: 9c2f 333d 7b91 9938 dadc 97bc 0471 cebc
00000320: 8b8e c83c 892a 3f3c 8097 b8bc b9f0 a0bc
00000330: 11c9 9a3a cdca 763c 5f2c 0bbd 909a dabc
00000340: be3e 143d 6416 b9bc ad37 bbbb c621 d2bc
00000350: eb10 4ebd 10a0 123d 3e86 c53b 3f69 41bb
00000360: b510 163d e525 583c b977 273d 2ef5 023d
00000370: ef35 1bbc 18a6 0c3d eb03 aebc c5bd b73c
00000380: 29b6 a63c 32b5 0c3d 322f 113d e937 2abd
00000390: 0350 12bd bef7 a8bc 0e70 9cbc 40d4 3e3d
000003a0: a448 83bd 513b bd3c 6eae a73d e8f7 4ebc
000003b0: 6abe 8e3c 5387 1ebd e730 1ebd 63c3 3a3c
000003c0: 8512 9d3c 4964 4bbc aa91 dcb8 b64d 91bc
000003d0: 6d72 2a3b 300f fe3b b948 cb3c b9b0 163c
000003e0: efb9 e23c 0ca0 233d d6cf 58ba 4444 c83c
000003f0: 1f4c a4bc a9af c83c cc4a 9339 2761 a83b
0.05793266 0.0019381049 -0.0013645968 -0.041885857 0.005013468 -0.005790645 -0.0029511799 -0.023787847
0.005007043 -0.022429895 -0.046435684 0.065495856 -0.02049755 -0.046956792 0.011118681 -0.04735211
-0.07585641 -0.0053908667 0.010267646 0.021218957 -0.04509671 0.013712159 -0.022783926 -0.008270809
-0.03912837 0.03176401 0.07779411 -0.027756581 0.009737118 -0.03469685 -0.04326048 -0.025011774
0.003362239 -0.00047500944 0.031259436 0.061934847 0.006681195 -0.00020061727 -0.011218181 -0.07210888
-0.005334007 0.028897304 -0.020632008 -0.0070142774 -0.018518895 -0.03196564 0.059682984 0.0004383986
0.0016785514 -0.026272593 -0.014057231 -0.04692296 -0.0059330002 -0.00952324 -0.023962513 0.061145008
-0.0018569588 -0.020523835 0.010368751 -0.018576166 0.002960985 -0.042978592 0.029703515 -0.010543684
-0.04088581 0.006975576 0.00797571 -0.043709118 0.011503755 0.023160437 -0.044971798 -0.056190807
0.0025210076 0.0078965 -0.049306843 0.022691682 0.030665318 -0.00684604 0.04100934 0.031896424
-0.001996357 0.021022597 0.021981968 -0.039118145 0.013587955 0.0017250765 0.008240029 0.019665891
0.038440134 -0.014972462 -0.029797623 -0.008193631 0.012635879 -0.044902496 0.016763724 0.009816413
-0.042949084 -0.04206295 0.04605699 0.027230589 0.009354536 -0.032896914 0.010715878 -0.02092294
0.011323218 0.028798277 -0.011360874 0.056049477 0.0079594795 -0.0023912915 -0.01789703 0.04245724
0.037171356 0.047169663 0.0027819867 0.0028848096 0.026560746 -0.082681134 -0.036659073 -0.0070718033
-0.013990383 -0.0060413852 0.0122420825 0.031692505 -0.016689334 -0.029015446 -0.029330961 -0.051115934
0.0077401414 -0.013511704 0.043852177 0.029380914 -0.012742301 0.04068154 0.054948576 0.006748806
0.021369763 -0.0846268 -0.07044863 0.019085517 0.016525676 -0.0115242135 0.04617802 -0.042028595
-0.029569184 0.05515689 -0.018455895 0.014721992 0.011333296 -0.04550979 0.03966157 0.053950675
0.022506282 0.04619095 -0.024787612 0.020422341 -0.004416525 0.017123977 -0.017422067 0.013050847
-0.014946716 -0.018668672 0.0009988159 -0.047729947 0.02651553 0.0070147933 0.02379838 -0.00051045505
-0.016655093 -0.01772122 -0.010886231 -0.030239852 0.04566419 -0.069346406 -0.05286789 -0.022793498
-0.01529805 0.0005064925 -0.03656437 -0.026085168 0.051497374 -0.0043517877 0.04772558 -0.011574906
0.00550666 -0.008860951 0.06217317 0.023126004 -0.010529127 0.009564914 -0.028109493 -0.025930526
-0.03746387 -0.0026562095 -0.06526209 -0.034594085 0.043746576 7.3227064e-05 -0.018537927 -0.025200374
0.024482032 0.011667856 -0.022533178 -0.019646036 0.001180919 0.015063 -0.033977862 -0.02668503
0.036192648 -0.022593684 -0.005713424 -0.02565087 -0.050309103 0.03579718 0.006027966 -0.0029512194
0.036637027 0.0131926285 0.04088566 0.031972103 -0.009473308 0.034338087 -0.021242103 0.022429356
0.020350533 0.03435249 0.0354454 -0.041557226 -0.035720836 -0.020625945 -0.0190964 0.046589136
-0.064103395 0.023099573 0.08187567 -0.012632348 0.01742478 -0.038703274 -0.038620856 0.011399123
0.01917387 -0.012414047 -0.000105175495 -0.01773725 0.0026008144 0.0077532753 0.02481495 0.009197407
0.02767655 0.039947554 -0.0008270716 0.024446614 -0.020055829 0.024497824 0.00028093753 0.0051385346

action_model._continuous_distribution.mu.bias f4 [2]
00000000: 4583 68bc 04b1 693a
-0.014191453 0.0008914622

action_model._discrete_distribution.branches.0.weight f4 [1, 256]
00000000: 6dd6 a9bb 652a 7abb ad9a 6fbb 1768 5cbb
00000010: 737c 3abc c2bb 953b 43ef f83a ebf5 0bba
00000020: 7506 d43b c12f 3c3b e7df 28ba 4285 fc3b
00000030: fbe7 423b d74f 87bb da1b 323b cf02 9439
00000040: 2fdc 2fbc 65bc e63b ca13 943b 8f21 02bc
00000050: e37f 3dbb da25 bebb 6042 1bbb 93c2 f6ba
00000060: da86 f83b 05f5 9dbb e3ca 653b 4761 ffbb
00000070: 67f8 e23b b561 e63b f7bc f03a 0233 38bb
00000080: db55 ad3b f3b7 b9bb 1df0 9c39 6451 b9bb
00000090: b302 243b 9eba 1d3c 7228 8abb e3e9 ca3a
000000a0: be7d 12bc 539d 84bb 0d1f ec3b ed60 aebb
000000b0: 6fef bebb 703c 4fba 2a30 7e3b 23a4 193c
000000c0: e7cf 253c 487f adbb 8a19 d1bb 2a83 18bb
000000d0: e4e6 083c 774e 113b bba1 d53b b317 f3bb
000000e0: b3ed f5ba c705 cd3b 7fb1 bcbb 3d4a 79bc
000000f0: eb9f fe3b beae bebb b148 83bb 2da8 b8bb
00000100: 9109 183c 47d6 a1ba 4a72 57ba 809b 6dbb
00000110: d5ab d53b 0d96 113b 383e feb9 f8ba fb3b
00000120: d3fc 923b 00f2 51bb 19d3 15bb b25a 9cbb
00000130: c5af 7bba 501f 46bc b26f 69bb f3a8 bc3b
00000140: 283d a2ba f311 0abb a221 7c39 3a81 3fbb
00000150: adb9 e3bb ab25 b23b 1ff8 bfbb 7054 dabb
00000160: 8a00 0f3c 8220 a2ba 070b 2ebb 2b06 d73a
00000170: 7933 173c 9d7c e8b9 c27b 9abb 1ab7 6dba
00000180: 7a73 4a3b 683a a8bb 67ef 063b 6807 04bc
00000190: 6c6a 813a 54b7 893b 7f15 b1bc 7b88 273c
000001a0: 5f7a 0abc 521e e7bb 0336 9fbb 35ef 53bb
000001b0: 27ab 373a 78f9 813a 5be2 7bbc 32ec 3a3c
000001c0: b6c3 c2bb 8fa4 03bb a534 d03b 3e84 b93b
000001d0: 27c0 1abc 4a39 ef3a 2043 d7bb dd7c 6d3b
000001e0: 4ddf a93b e2ff 6d3b e888 d63b 2d57 3ebb
000001f0: 8026 e23b 72f2 073b f190 15bc 0085 f23b
00000200: 5b6b 8abb 9b5f b139 383c 22bb 3f64 663c
00000210: 0751 beba 176d 10bc f8f3 b6ba 67c9 eb39
00000220: cda2 b2bb 421f cfb9 d9d7 993a d7eb 173b
00000230: a9e1 1eba b9d6 473c 760f 84bb 0f9c c83b
00000240: e5aa c63a 424e e63a 6734 e33b f488 c9bb
00000250: 6a35 e9b9 c623 2bbb f902 123b 2e44 103c
00000260: 1d28 7c3c 8afa fcba fa0a 263a 3223 03bc
00000270: 1a99 b6bb 7323 14bb 4c27 00bc 5b00 02bc
00000280: dd46 91bb f7e4 133b 876e 393c 0f30 d03b
00000290: 8ff1 9739 7237 ef3b 62e0 7abb d605 0ab8
000002a0: 1d18 ce3b 1c97 97bb d30c 213c 3beb 8ebb
000002b0: 87b5 6d3b cb39 3a3a f43a 8d3b af68 e3bb
000002c0: d293 14bb 944e 033b b316 bcba 9745 fe3a
000002d0: 8cab 24bc 8770 12bc 6d7f f23b de17 c9bb
000002e0: adee dc3b 9735 0e3c 07da 8a3b 0281 e1bb
000002f0: 9832 b3bb 0d01 053c 42e2 793b 03cb 813b
00000300: 4a70 48bc baf9 273b ba5f 003b 1c5b 313c
00000310: 4ba8 813c 407f e53b b7ac d33a 1325 8fbb
00000320: 83f7 1ebc 272a 903a acea 0bbc 5b4e 0cbc
00000330: aba9 05b7 a879 f0ba 70d3 d8bb 3624 143c
00000340: e0b7 063b db39 dd3a c505 2a3b 68a6 f7bb
00000350: fdf9 f73a 90af dcbb 295d 3b3b c7b6 26ba
00000360: 8334 543a f237 f0bb 3356 083a 75be ebbb
00000370: 3859 fb3b f73e 05bc 0454 0abc d71e 4bbc
00000380: 983a d53b c5c3 713b 8bbd ae3a c0ca adbb
00000390: 27c3 19bb cf4d 97ba 238f d0bb b361 f1ba
000003a0: b890 0c3c 5dc8 dfb8 9612 c2bb d481 1a3c
000003b0: 7b06 593b 37e7 843b 7bef 7c3b 18c3 ec3a
000003c0: 43c0 293b ff72 1bba 8571 183c c94b 033c
000003d0: ed48 5b3b 17d8 253c 3760 59bc b8cb c13a
000003e0: bd60 b03b bd14 e23b 47a7 b53b 4487 33ba
000003f0: 7285 e2b9 7e03 1d3b 1f01 c4bb ebf3 153a
-0.0051830322 -0.0038172242 -0.00365607 -0.0033631378 -0.01138221 0.0045695016 0.0018992204 -0.0005339074
0.0064704963 0.0028714987 -0.00064420555 0.0077063153 0.0029740322 -0.0041293907 0.0027177245 0.00028230852
-0.010733648 0.0070415013 0.0045189606 -0.007942571 -0.0028915338 -0.005802852 -0.0023690686 -0.0018826298
0.007584435 -0.0048204684 0.0035063557 -0.007793579 0.0069265845 0.0070306906 0.0018366863 -0.0028106575
0.005289776 -0.0056676804 0.00029933537 -0.0056554545 0.0025026023 0.009627013 -0.0042162472 0.0015481081
-0.008941112 -0.004047075 0.00720585 -0.005321613 -0.0058268826 -0.0007905429 0.0038786032 0.009377512
0.010120369 -0.005294714 -0.0063812183 -0.002327154 0.00835583 0.0022172013 0.006519524 -0.0074185967
-0.0018762856 0.006256792 -0.005758464 -0.015215454 0.0077705286 -0.0058191707 -0.004006468 -0.0056352825
0.009279625 -0.0012347185 -0.00082186295 -0.0036256015 0.006520728 0.0022214681 -0.00048493012 0.0076822005
0.0044857054 -0.0032035112 -0.002286142 -0.004771554 -0.0009601082 -0.012092426 -0.0035619554 0.005757445
-0.0012377845 -0.0021067827 0.00024045122 -0.0029221312 -0.0069496245 0.0054366193 -0.0058584358 -0.0066628978
0.008728156 -0.0012369307 -0.0026556866 0.0016405036 0.009228581 -0.00044343332 -0.00471446 -0.0009068117
0.0030891583 -0.0051339157 0.0020589472 -0.008058406 0.0009873635 0.0042027626 -0.021616695 0.010225411
-0.008452027 -0.007053175 -0.0048587336 -0.0032338623 0.00070063997 0.0009916266 -0.015373792 0.011408852
-0.0059437407 -0.0020087098 0.006353932 0.0056615165 -0.009445227 0.0018251326 -0.006569281 0.0036237754
0.00518409 0.0036315848 0.006547082 -0.002904366 0.006901562 0.0020743874 -0.009128795 0.0074011087
-0.0042242236 0.00033831302 -0.0024755131 0.0140619865 -0.0014519998 -0.008815072 -0.0013958206 0.0004497275
-0.0054515363 -0.00039505406 0.0011737301 0.0023181343 -0.00060608477 0.01219719 -0.0040301634 0.0061221193
0.0015157132 0.001757093 0.006933737 -0.0061503593 -0.0004448102 -0.0026113852 0.0022279604 0.008805318
0.015390423 -0.0019300741 0.0006334033 -0.008003997 -0.0055724503 -0.0022604137 -0.007821869 -0.007934655
-0.0044334964 0.0022566894 0.011317856 0.0063533853 0.0002898094 0.007300311 -0.0038280715 -3.29072e-05
0.0062894956 -0.004626168 0.009829718 -0.0043615378 0.0036271529 0.0007103949 0.0043100063 -0.0069399695
-0.0022671116 0.002003585 -0.0014350027 0.0019399401 -0.010050666 -0.008937961 0.0074004442 -0.0061368784
0.0067423196 0.008679769 0.0042374167 -0.006881834 -0.0054686777 0.008117926 0.0038129245 0.0039609685
-0.012233803 0.0025631026 0.0019588307 0.010824945 0.015827319 0.007003695 0.0016149495 -0.0043684333
-0.009702566 0.001099889 -0.008539837 -0.008563603 -7.966922e-06 -0.0018346803 -0.006617002 0.0090418365
0.0020556375 0.0016878204 0.002594338 -0.007557679 0.0018919107 -0.006734796 0.0028589463 -0.00063596334
0.0008094983 -0.007330888 0.0005200833 -0.007194335 0.007670548 -0.008132688 -0.008442882 -0.0123974895
0.006507229 0.003689037 0.0013331635 -0.0053037107 -0.0023462267 -0.0011543575 -0.0063647195 -0.0018415957
0.0085794255 -0.00010670789 -0.005922626 0.0094303675 0.0033115435 0.0040558833 0.003859489 0.0018063514
0.002590195 -0.00059299165 0.009304409 0.008013674 0.0033460215 0.010122321 -0.013267568 0.0014785444
0.005382626 0.006899445 0.0055436227 -0.0006848464 -0.00043205504 0.002395838 -0.005981579 0.00057202455
