EcoSculptor/Assets/Trainings/Final3.3/Preyanimal.onnx (onnx, 181291 bytes, 6 tensors)

network_body._body_endoder.seq_layers.0.weight f4 [256, 167]
00000000: 8936 fa3c 49fe b53d 6bda 2bbd 1d40 3c39
00000010: 9d5e 63bd 287c 943c 79fe 3abd e5e6 3bbd
00000020: 7bb3 90bd 1fa1 83bd d5c9 af3b 2cb0 e4bd
00000030: 86a6 543e ebcb dbbc 3852 af3d 251f efbc
00000040: eb6b e33c 794d cb3b eec1 053c 84b9 c33d
00000050: 0548 c33d 5e0a 4abd 30d8 c5bd d502 483d
00000060: 4af0 ab3c eefb bfbc 9fb8 513c 143f 903d
00000070: 7b29 a9bd 6766 f6bc 8b49 e93d 969b d53d
00000080: bb5c 83bd 473d 22be 9da6 d63d c2bb c53d
00000090: 7920 e03d 8fd1 46be 6adc 203c e9f8 333d
000000a0: f4f8 f93d abb8 4d3c 9510 ebbd 6ab0 a7bd
000000b0: 7cca e53d ce56 c5bd a4a6 283e 4ef8 d23c
000000c0: 413b 5b3d 0452 3abd 91a8 96bd e209 163d
000000d0: 9c14 083d 17ed d6bd 8111 083d e166 ffbc
000000e0: fa02 dcbd 67a1 eabd e1c8 923c 9e21 fdbd
000000f0: 431b 953b 1402 3b3c 0470 003e 00f0 6d3d
00000100: 2077 df3d 025f 933c 88d2 84bd c179 a73d
00000110: 0550 ad3a dd3b 45bd cb13 13bd 678e 8a3c
00000120: 5503 59bd 49aa bdbd b150 fabd 1214 a93d
00000130: cbfe 94bd 79bc 723d af09 0c3e 6678 6d3d
00000140: da23 4dbd 25c7 113e 0958 283d 9045 16be
00000150: b599 65bc dbeb aebc 6b54 0b3e 12fc 62bd
00000160: b168 5d3e 260d ccbc c7ab b73d 2cb6 14be
00000170: 4553 8139 a50f 50bc 5e5b 83bd 2e00 e03d
00000180: 68bc e4bc 93ee 943d e9f2 eabc be00 993c
00000190: 51fa d43c 9e4e 0f3d 63b4 edbd 0668 d438
000001a0: dbf6 fa3c 76cd b4ba 4298 5dbb 66e5 92bd
000001b0: 596f c6bc 7ea3 05be 8bcb 56bd 768d bcbc
000001c0: 03eb 33bd 0839 023d acdb f53c 5014 cabd
000001d0: 12ea 8fbd 4442 db3c 86da e33c 4dd2 9ebc
000001e0: 14d1 32bd 324c 61be 5878 89ba 3fcc 74bd
000001f0: a0fc bcbd f893 993d 0efa 3dbd b953 9c3d
00000200: 9360 c9bd e555 d6bc abb8 37bd 9cce 1fbe
00000210: 89ef 503a 6e2e 063d a650 babd ef2a 62bb
00000220: 5618 19be 2b22 6b3e ddd1 cdbd c6bb 55bd
00000230: 6eea 16be 7e74 36bc 5374 08bc 6712 093d
00000240: ab47 573c 3016 ccbd 63bf 573c 5f58 4abe
00000250: 2635 093e dcae 85bd 6821 72bb 8588 9b3c
00000260: d77e 73be 5ce9 5ebc 521a 25bd ece0 86bd
00000270: bbc3 e4bd e842 d83c 646a c0bd 5b79 923b
00000280: 90bf df3d 7d53 88bd d897 233d 1965 b33b
00000290: 9758 f33d b4eb 913c 616d 653c 970b 203d
000002a0: 5ef8 99bd 25f7 253d 96ff b3bd 2ea7 5abc
000002b0: 1cd8 c5bb 3cac d13d 588b 863d ec9b 533c
000002c0: 2b2d 193b f55c 2dbd aa97 353e 0cc0 3fbd
000002d0: dbba af3d a6f4 bcbc 6fe7 40bc 4690 063e
000002e0: 9b14 01be ffa0 883d 0acf debc 9c79 873c
000002f0: 6cdb 1f3d d15b 87bc 8ecc 6b3d cf0c de3d
00000300: 0565 24bd e4e9 26bd e325 503d d4c3 963b
00000310: 0188 24be 82e2 113d d82a 17be 1e06 133e
00000320: a035 a9bc bbb4 413c 59f1 003e 62b3 15bd
00000330: 662b bebb 01db 983c 16ce 87bd 844d f43c
00000340: 4948 39be 6ffa 52bb 6190 c63d 9553 b03d
00000350: dd2e ff3d 0a66 4cbd 8bf0 18be 33ca 27bd
00000360: 63fd c4bd bbee 22bc 65a1 56bc 45bc 32bd
00000370: 807f f73d c0a1 5e3d 328a 7b3d 1fd2 b7ba
00000380: 8dcc 203d ebda a9bc 3164 9c3d f535 ca3d
00000390: 24d1 07bd 2c4c 69bc b99a 5abd 1def fb3d
000003a0: f807 59bd 0d96 4dbd db00 aa3d 902b 8e3d
000003b0: 6e03 98bd abd4 b3bd d9d6 b1bb 4ce3 943c
000003c0: 54c5 b6bc a0ac 7b3d c77c 353e 542a c3bd
000003d0: 5a05 11bc 20d9 393c 7fce 903d e8d6 cc3d
000003e0: 9b5c d73d e208 503c bb53 a13d 4e63 0c3e
000003f0: 3c7b 23bd be10 793c efd6 87bd 1141 023d
0.030543583 0.08886392 -0.041956346 0.00017952961 -0.055510152 0.018125609 -0.04565284 -0.045874495
-0.07065483 -0.06427216 0.0053646364 -0.111664146 0.20766649 -0.026830634 0.08560604 -0.029189656
0.02776142 0.006204304 0.008163912 0.09556869 0.09535221 -0.049326293 -0.09660375 0.048830826
0.020988602 -0.02343556 0.012800365 0.07043281 -0.08259865 -0.030078126 0.1139098 0.10430066
-0.06414171 -0.15843688 0.10480998 0.096549526 0.10943694 -0.19415878 0.009818176 0.04393855
0.12205687 0.012556235 -0.11477772 -0.08187945 0.112202615 -0.09635697 0.16469818 0.025753167
0.053523306 -0.045488372 -0.0735637 0.03663052 0.03322278 -0.1049444 0.033219818 -0.031176986
-0.10742755 -0.11456566 0.017918052 -0.123599276 0.004550369 0.01141407 0.1254273 0.05809021
0.10911393 0.01798964 -0.06485468 0.081775196 0.00132227 -0.048152793 -0.035907548 0.016913606
-0.052981693 -0.09260995 -0.12222422 0.08255781 -0.072751604 0.059261773 0.13675569 0.05797615
-0.05008302 0.14236124 0.041099582 -0.14674973 -0.014013697 -0.021352699 0.13606422 -0.055416174
0.21621968 -0.024908613 0.08968311 -0.14522618 0.00024666838 -0.012699042 -0.06413911 0.10937534
-0.02792187 0.07272067 -0.028680282 0.018677112 0.025998266 0.034987085 -0.11606672 0.000101283236
0.030635288 -0.0013794142 -0.0033812677 -0.071726605 -0.024223017 -0.13050649 -0.052440207 -0.023016673
-0.043925297 0.03179267 0.030011974 -0.098671556 -0.07027067 0.026764996 0.027814161 -0.019387389
-0.043656424 -0.22001722 -0.0010488136 -0.059765097 -0.09227872 0.07498926 -0.04638105 0.07633156
-0.09832873 -0.026164005 -0.044853847 -0.15606159 0.0007970264 0.032759123 -0.09097414 -0.0034510454
-0.1495069 0.22962253 -0.10049794 -0.052181028 -0.14737865 -0.011136172 -0.008328515 0.033464815
0.013139646 -0.099651694 0.013168189 -0.19760273 0.13399181 -0.065274924 -0.0036946181 0.018985996
-0.23778854 -0.013605442 -0.040308304 -0.06585869 -0.11170145 0.02639909 -0.093952924 0.004470033
0.109252095 -0.06656549 0.03993973 0.0054746983 0.118821315 0.017812587 0.014003129 0.039073553
-0.075180754 0.0405189 -0.087889835 -0.013345523 -0.006037725 0.10237929 0.065695465 0.012915593
0.002337287 -0.04232498 0.17733636 -0.04681401 0.08580562 -0.023065876 -0.011773928 0.13140973
-0.12605517 0.066713326 -0.027198333 0.01653748 0.039027616 -0.016523274 0.057568125 0.10842287
-0.040135402 -0.0407504 0.05081738 0.0046009813 -0.16067506 0.035616405 -0.14762437 0.14357802
-0.020655453 0.011822875 0.12592067 -0.036548026 -0.0058035133 0.018659117 -0.06631105 0.029822119
-0.18093981 -0.0032192727 0.09695507 0.08609692 0.1246011 -0.049902 -0.1493551 -0.040964317
-0.09618642 -0.009944613 -0.013100003 -0.04363658 0.120848656 0.054353476 0.06141109 -0.0014024413
0.039257575 -0.020734271 0.076362975 0.09873573 -0.033158436 -0.014239352 -0.05337021 0.123014666
-0.052986115 -0.050191928 0.083009444 0.06941903 -0.07422529 -0.087807976 -0.005427223 0.01817479
-0.02231089 0.061443925 0.1772338 -0.09529558 -0.008851374 0.011343271 0.07070636 0.100019276
0.1051571 0.01269743 0.078772984 0.13709757 -0.039912447 0.015201746 -0.06632792 0.031800333

network_body._body_endoder.seq_layers.0.bias f4 [256]
00000000: 6cae 99bc d2f3 993c 698d f3bb 8f24 0b3b
00000010: c6b6 4bbc 4f33 f13b f16b 0bbc c38e 7dbb
00000020: 9ca9 29bc f9e3 d1bc b2a5 e5bb dbd0 34bc
00000030: 3e6e 773a f0f6 c4bb 0ac8 2c3b 991e 42ba
00000040: 1f02 8abc eace 92bb f92e 6339 9614 9a3c
00000050: 8a46 2f3c a552 423c 0f93 10bc fa11 fa3b
00000060: a734 0bbc da0b 8c3a 6026 51bc e185 95bc
00000070: 4c2f 1dbc 9cc5 873b 4880 afba 6bd1 2c3c
00000080: f2c6 8c3a 34e6 d7bc 7276 40ba 6127 843c
00000090: 2ff7 103c 2fa3 673c 5abb 3aba 7087 1fbc
000000a0: 242b bebb 6645 a73b e2c9 87ba 11f2 d5bb
000000b0: 9fc1 763a 6261 9bbb 7b81 da3b e77b 203c
000000c0: 594f af3b 45c0 673b 254e 673b 20d4 8fbc
000000d0: 7688 5dbc b28b a83c 8c96 593c fa86 55bc
000000e0: 7b9f e03b 239c 03bc df03 92bc e5e8 5cbb
000000f0: 22fa 113c 33b7 623b b13b cb3b 15cd 463c
00000100: 6d79 c0bb 8e0e bfbb 61c3 94bb 695c a8ba
00000110: 32bb b5ba 2d5b a0bc a8f3 ccba fbe6 1e3c
00000120: bacd 483b 49e2 5e3c 470e 72bc beb3 653c
00000130: ce1c f938 d731 f13b 5a61 aa3b 8edd 29bb
00000140: 8ba0 9fbb d726 b93c 4b3e 1a3c a5e2 fd3a
00000150: 2118 ff3b 3155 e53b 5ae7 41bc a4ac e63b
00000160: 6273 cebb 75fe c03b 0390 51bb 444b 5e3b
00000170: f844 30bc 5ebd 2c3b 52cd 2438 458f 5f3b
00000180: 129a eb3a d9e6 613b fb3d d2bb fe92 9bba
00000190: e46d c4bc 3be4 8d3b b89f 5a3c abcf b63b
000001a0: 65ae 6f3c ee1a 1b3c afa2 d5b7 fcde f53a
000001b0: adf5 64bc 7101 2d3a 0bf9 25bc f400 56bc
000001c0: dda8 d8bb 41ee 0fbb 28bb 45bb ac16 4f3c
000001d0: d6ed 553c d1a4 29bb 5576 303c 5618 b83a
000001e0: 17f1 9f3b 6cad e9ba b1bf d93a 8314 32bc
000001f0: c7a1 443c fd5e 9fbb 6462 88bb f58f 1f3c
00000200: 5caa f4bb 9e66 b13a e4d6 b1ba 7a9b 283c
00000210: 97bd 70bc 93af 3ebc d309 1fbc 51cd ba3b
00000220: dffd 013b 9320 75b9 1a08 aebc ae79 0c3c
00000230: c5aa 7dbc 58b2 62bc 3a1c c4bb f494 f0bb
00000240: c7d1 933b 79a8 6cbc 7f5f 073c d111 d33b
00000250: 53b9 4cbc 080e 753a 288e ae3b 723b f2bb
00000260: 2241 5abc fb15 3f3c 5f06 9b3c dc4b f4ba
00000270: 5bdf 193b e175 45bb 9855 1abc 1886 4c3b
00000280: acdb 603b c370 5fbc 6b53 12bc b178 17bb
00000290: 89fd 25bb 2cf2 bfbb 1528 113b 2ced 113c
000002a0: 52ee e53b adb7 35bc 0e9d 993b f9a3 ad3b
000002b0: c339 df3b d7b0 d63b 4c82 2bbc 1a29 8dbc
000002c0: a927 56bc ea66 5ebc 0d6f a9bc 20d1 833b
000002d0: d7ac 283b dbd7 3ebb 572f d13b 7524 79ba
000002e0: 1f29 733a 7109 913c 97d2 e83a 19ae 3639
000002f0: c030 523c d335 f73b 9f70 ca3a 2b1c 9d3b
00000300: c36a 943b 9162 523c faf9 65bc eee3 ca3b
00000310: 5197 483c d8e3 bfbc 96c9 82ba 0427 1f3c
00000320: 61cf f43c bbfe 35bc d1c6 0b3c 9e06 943b
00000330: e3d1 4abc a36f 19bb 9d50 143c cece b73b
00000340: 19e4 3fbb 92a4 5c3c 3332 93bb 542b 50bc
00000350: e577 613c 9334 cabb d2ed 7f39 c946 e9bb
00000360: 4a41 cbbb 51df 363b c34f 04bc 5639 0bbc
00000370: 29a3 933c 6722 2dba a0e6 7c3b aef0 edbc
00000380: 9107 a4bb 4a3a c3bb 0632 ffb9 06ee 7fbc
00000390: 1b24 e83b 2fc6 e33b 3e1b 5ebc d9fb eebb
000003a0: 4fb2 b13b 94a2 62bb 55fa ac3b fe51 1abb
000003b0: e89a 9abc 6c2e fb3b 4940 90bc a965 1dbc
000003c0: e364 b9bb 4f73 463c d934 fbba 4a22 0b3b
000003d0: cc5e 9f3c 99aa 9bbc 9cde d3bb 7ca3 69bb
000003e0: 6ced 0fb8 e98f ae3b dda8 a6bc 9207 f83a
000003f0: 8c20 933b dee3 c7bb 7dec 493c d673 cabb
-0.018759929 0.01879302 -0.007432629 0.0021231507 -0.012433713 0.007360853 -0.008509622 -0.003868983
-0.010355379 -0.025621401 -0.007008278 -0.011036123 0.00094387296 -0.0060108826 0.002636435 -0.0007405072
-0.016846715 -0.0044802325 0.00021665906 0.018808644 0.01069797 0.011860524 -0.008824124 0.0076315375
-0.00849644 0.0010684684 -0.012765497 -0.018252315 -0.009593796 0.00414343 -0.0013389671 0.010547976
0.0010740443 -0.026354887 -0.00073418685 0.016132059 0.008847996 0.014138027 -0.00071232545 -0.009736881
-0.0058034826 0.0051047085 -0.0010359848 -0.0065291007 0.0009413007 -0.0047418335 0.0066682673 0.009795166
0.005350035 0.0035362404 0.003529438 -0.017557204 -0.013521304 0.020574424 0.013280522 -0.013032669
0.006854949 -0.008032831 -0.017824112 -0.0033708152 0.008909734 0.0034594059 0.006202184 0.012133856
-0.00587385 -0.0058305925 -0.0045398925 -0.0012844923 -0.0013864993 -0.019574726 -0.001563658 0.009698625
0.00306402 0.013603755 -0.014773912 0.014019905 0.000118786105 0.0073606777 0.0051995935 -0.002591941
-0.004871433 0.022601528 0.009414266 0.0019369913 0.007784859 0.006998681 -0.011834944 0.0070396233
-0.006300376 0.0058897086 -0.0031976707 0.0033919374 -0.010758631 0.0026357989 3.9291866e-05 0.0034112495
0.0017974994 0.0034469871 -0.00641608 -0.0011869369 -0.023978181 0.0043301857 0.013343744 0.005578955
0.014628981 0.00946687 -2.5467334e-05 0.0018758471 -0.013974589 0.0006599641 -0.010130177 -0.013061751
-0.006611927 -0.0021962079 -0.0030171368 0.012639683 0.013057193 -0.0025885592 0.0107704 0.0014045339
0.004881035 -0.0017828173 0.0016612915 -0.010869148 0.012001461 -0.0048636184 -0.0041621197 0.009738912
-0.0074665975 0.0013534611 -0.0013568071 0.010290975 -0.014693639 -0.01163854 -0.009706932 0.005700745
0.0019835157 -0.00023377156 -0.021244098 0.008573933 -0.015482609 -0.013836466 -0.00598481 -0.0073419753
0.0045110914 -0.014444464 0.008262514 0.006441333 -0.012495357 0.0009348099 0.005327005 -0.0073923403
-0.013321193 0.011662955 0.018923936 -0.001863833 0.0023479077 -0.0030130076 -0.009419821 0.0031207856
0.0034310622 -0.013637724 -0.008931021 -0.002311271 -0.002532812 -0.0058577266 0.0022149135 0.008906644
0.0070169354 -0.011091155 0.004687912 0.005299088 0.0068123057 0.0065518427 -0.010468077 -0.017231513
-0.013070979 -0.013574341 -0.020682836 0.0040227324 0.0025737786 -0.002912036 0.006383817 -0.0009504029
0.0009275842 0.017704697 0.0017762956 0.00017421729 0.012829006 0.007544258 0.0015444941 0.0047946176
0.0045293286 0.012840883 -0.01403665 0.006191722 0.012243108 -0.023424074 -0.000997829 0.009713892
0.029884042 -0.011108096 0.008531288 0.0045173904 -0.012379142 -0.0023412488 0.009052423 0.00560937
-0.0029280244 0.013466971 -0.004492068 -0.012705643 0.013761495 -0.006170818 0.0002440729 -0.007119034
-0.0062028514 0.0027904103 -0.008075657 -0.008497557 0.018022137 -0.00066045526 0.0038589612 -0.02904543
-0.005005785 -0.0059578763 -0.0004867466 -0.015620714 0.007084382 0.0069511156 -0.0135563 -0.007293206
0.0054228674 -0.0034581767 0.0052788653 -0.0023547406 -0.018872693 0.007665446 -0.017608779 -0.009606757
-0.0056577786 0.012112453 -0.001916553 0.0021230155 0.019454382 -0.019002246 -0.006465746 -0.0035650423
-3.4314973e-05 0.005327214 -0.020344192 0.0018923155 0.004489964 -0.006100162 0.01232445 -0.0061783595

action_model._continuous_distribution.log_sigma f4 [1, 2]
00000000: ddb3 99bc 2a87 11be
-0.018762523 -0.14211717

action_model._continuous_distribution.mu.weight f4 [2, 256]
00000000: be90 6cbc aa9a 86bd 1aed b43c 8d7c 36bd
00000010: c673 9f3c 0195 47bc 6902 8ebc fa1b 043d
00000020: 9a33 153b 7ed2 913b dd85 223c 6305 d93c
00000030: 4a32 26bd d828 9c3c dda1 ccbc 2dd7 be3c
00000040: 18a6 473c c1e7 a33c 6040 c63c 9331 92bd
00000050: fa94 ebbc b285 9c3d 029e b33c 6e68 fc3c
00000060: f7f0 c63c 4aa0 bbbc 999a ffbb d35d d13b
00000070: 3245 83ba 4e8e 273c f7df b2bc a609 8dbd
00000080: 05b3 6f3c 2cc2 143c 40c9 94bc bd9a 36bd
00000090: 3791 303d 9a69 28bd 1fc4 db3c 488c 053d
000000a0: 261a 273b c1c2 0cbc fbcc 9f3a b526 4b3b
000000b0: 3ee4 7bbc 17bf d63c 10c6 223d c2fe 29bd
000000c0: 54d8 ca3b e9e7 aabc 1242 cf3c b1e4 0cbc
000000d0: 40e5 353c 845d 41bd ab5a 913d 0826 5d3b
000000e0: f33b 01bd 7d72 923c 7dfe 113d c03d eabc
000000f0: 5926 203d a4d4 5a3c ab70 293c d4f1 913d
00000100: 32fa 7cbc 3799 d53b 306c e83c 569e 753c
00000110: ab82 263d 5372 1538 d125 1b3d 36a3 a53c
00000120: b811 cfba c338 2d3d ef48 fbbb f31a f2bc
00000130: b5a6 b5bc 0131 4d3d f45d b13c cd4b 27bc
00000140: 9460 15bb d951 413d 0b9e 14bd eb72 d83c
00000150: b43c ccbc 09c5 2c3d 4542 023d c61a 2ebc
00000160: deaa d03b 7ea0 0fbd da58 cb3c e2d1 fc3b
00000170: 8005 c03c 1c99 48bc 67a2 23bd 75f0 ff3c
00000180: 8f90 103d 952b efbc 60ba 133d 885e c93b
00000190: 7aa2 9a3c 10eb 2739 8255 543d f076 0bbc
000001a0: 6726 90bd 627e bcbc 738e 843b f44f 513c
000001b0: 3904 14bc 0c0c 373c fa8b ce3c 9a24 8dbc
000001c0: f8d9 263d 5ba8 bd3c 935a 263b 5052 9c3b
000001d0: c8ec f7bc 5373 62bb a0e0 46bd c575 1a3c
000001e0: bf9b 62bc ba8f 3d3c fe75 153d ef00 be3c
000001f0: c383 913c c629 9c3a f882 9cbc 75cf 133d
00000200: ef42 6bbc def7 143d ec66 4cbc 2a30 1a3d
00000210: cd79 36bc 8ede 8abc e6bf aabc 7bef 093d
00000220: 6a79 42bd 7448 d13c 577d a2bb e7a0 4c3d
00000230: b199 00bb 6475 92bc 39ce 17bd 9419 6dbc
00000240: 4d78 023c ebfa c83b b0d5 0abd 9ad3 68bb
00000250: 8293 473c 9cb8 75bc 9a23 903c a0de 163d
00000260: 304c 26bc 9df8 853c 418a 673d be31 e6bc
00000270: d13f 963c aaba 073c 75fa 75bc ca87 90bc
00000280: 6160 9dbc 037e 5c3b 4d26 8c3c fb1f ffbc
00000290: 1073 f23c 342b 063d a6d8 84bc 40a6 06bd
000002a0: 7abf b3bc 571b fdbc 0fb2 9ebb d751 843c
000002b0: 78c7 f1bc bcf4 f63c e5f2 a3b9 3633 69b7
000002c0: 39e4 d73c e369 983c e46e 70bc 9285 a2bb
000002d0: 640a b33b b9da f1bb 482d abbc 1df0 4e3d
000002e0: c948 1fbc 38a2 25bd b267 2fbc c063 eb39
000002f0: 1dbb 143d 2436 a13a 03ab a1b9 697b 823c
00000300: 7475 0cbd cdec 84bc e0a8 393b 8ee7 f4bc
00000310: b06b 41bc 9e18 053b 9f46 173c c4a4 c43c
00000320: fd42 a4bd 4c58 9eba 6e08 723d 7074 2abd
00000330: ea8b fcbb 5b80 6abb fec0 823d bc0f 143d
00000340: 81e9 4b3b d8dd 133d 4d4e 90bc 3f5e de3c
00000350: cabe ecbb 59d2 b13c 763e 15bc 8f2e babc
00000360: 34ab 54bb 482c 4a3c 6739 03bd 02fa afbc
00000370: 03d7 b53d 121b 0fbd cd2d a6bb c11f 123c
00000380: 47f6 923c 869b 5a3c d733 c6bc 1d07 9bba
00000390: 1d32 93bc df66 ec3c dd02 6d3c 8489 d53c
000003a0: c012 47bc 09cc 923c 8194 f93c 0d46 3b3b
000003b0: b9da 2c3a 22c5 9ebc d34d e93c f2b5 213d
000003c0: 63f3 2ebd 68b0 d3bc c72d 0e3d 0d92 64bd
000003d0: bfdd febc 8e96 4d3c 5b17 afbc 45ac 0f3d
000003e0: 4227 f8bb e31d 033d d47a 61bc 2f43 5b3c
000003f0: 676c 37bd 9f9b 413a a29c 413d 62de 263d
-0.014438806 -0.065724686 0.022085715 -0.044552375 0.019464385 -0.012181521 -0.017335134 0.032253243
0.0022766353 0.0044501415 0.009919611 0.026491826 -0.040575303 0.019062445 -0.024979526 0.023295963
0.012185596 0.02000797 0.024200618 -0.07138362 -0.028757561 0.07642688 0.02192593 0.030811515
0.024284823 -0.02290358 -0.007800412 0.0063893585 -0.0010015129 0.010226799 -0.02183531 -0.06886606
0.014630084 0.009079497 -0.01816237 -0.044581164 0.043107238 -0.041116334 0.026826916 0.032604486
0.0025497763 -0.008591355 0.0012191826 0.0030998413 -0.015374241 0.026214166 0.03973967 -0.04150272
0.006190339 -0.020862537 0.02530006 -0.008599446 0.011102021 -0.047208324 0.07097372 0.0033744592
-0.031551313 0.017876858 0.03564309 -0.028593898 0.03909907 0.013356362 0.010341804 0.07126203
-0.015440511 0.006518509 0.0283719 0.0149913635 0.04065196 3.563084e-05 0.03787786 0.020219427
-0.0015798127 0.04229046 -0.0076686065 -0.029553866 -0.022174219 0.050095562 0.021651246 -0.010210943
-0.002279316 0.047197197 -0.036283534 0.026421985 -0.02493129 0.042180095 0.03180148 -0.0106265005
0.006368025 -0.035065167 0.024822641 0.0077154497 0.023440123 -0.012243535 -0.0399498 0.031242589
0.03529411 -0.029195586 0.036066413 0.006145302 0.018876303 0.00016013929 0.05183936 -0.008512244
-0.07038575 -0.023009483 0.0040453016 0.01277541 -0.00903421 0.011172306 0.02521323 -0.017229367
0.040735215 0.023151567 0.0025383576 0.0047705546 -0.030264273 -0.0034553602 -0.048554063 0.0094274925
-0.013831078 0.011569912 0.03648948 0.023193805 0.017763024 0.0011914305 -0.01910542 0.03608652
-0.01435922 0.036369197 -0.01247571 0.03764359 -0.011137438 -0.016951825 -0.020843457 0.033675652
-0.04747907 0.025547244 -0.0049587893 0.049958136 -0.0019622857 -0.017878242 -0.037061904 -0.01447143
0.007963252 0.0061334274 -0.033895195 -0.0035526515 0.012181165 -0.014997628 0.017595101 0.036833405
-0.01015 0.0163539 0.056528334 -0.02809989 0.018340977 0.00828425 -0.015013327 -0.017642874
-0.019210996 0.0033644445 0.017108107 -0.03114318 0.029595882 0.032756045 -0.016216587 -0.032873392
-0.02194189 -0.030896826 -0.0048430036 0.016152306 -0.02951406 0.030145995 -0.00031270753 -1.3899806e-05
0.026353942 0.018605178 -0.014674876 -0.0049597705 0.005463885 -0.00738081 -0.020895615 0.05052196
-0.009721943 -0.040437907 -0.010705875 0.00044897012 0.036311258 0.001229946 -0.00030835727 0.015927987
-0.0342917 -0.016226197 0.0028329417 -0.02989557 -0.01180546 0.0020308862 0.009233146 0.024004348
-0.080205895 -0.0012080758 0.05909007 -0.04161495 -0.0077071087 -0.0035782072 0.063844666 0.036147818
0.003111452 0.03610024 -0.017615462 0.02714455 -0.0072248923 0.021706747 -0.00910913 -0.022727279
-0.0032450678 0.012339659 -0.032037165 -0.021481518 0.08878901 -0.034937926 -0.005071378 0.0089187035
0.0179397 0.013342744 -0.024194641 -0.0011827681 -0.017968232 0.028857647 0.014466015 0.02606655
-0.012150466 0.017919557 0.03046632 0.002857569 0.00065938715 -0.01938111 0.028479492 0.039480157
-0.04271258 -0.025840953 0.034711625 -0.055803347 -0.031111596 0.012548102 -0.021373441 0.0350764
-0.0075730393 0.032010924 -0.013762195 0.013382717 -0.044781115 0.0007385555 0.047268517 0.040739425

action_model._continuous_distribution.mu.bias f4 [2]
00000000: dc23 81bb 4995 e5bb
-0.0039410423 -0.0070063216

action_model._discrete_distribution.branches.0.weight f4 [1, 256]
00000000: 4c47 cbbb 1dab 93bb a7d8 b3ba 2231 883a
00000010: 2728 543b 5334 87bb 9205 36ba 014a 133b
00000020: c703 c3ba e7be 3d3b 74a9 89bc 91d6 11bb
00000030: 87de e3ba d3c0 993b bb25 c63b bdff b2bb
00000040: 0e14 3a3b 3755 8a3b c755 08bc a28c e0bb
00000050: 88b3 1c3a 5aa8 dd3b 45d6 e4ba a773 ed3b
00000060: adc5 77bb b755 073a 1348 f4b9 de00 3bb9
00000070: 5a16 0b3b 9b68 c53b bf05 9039 3fd8 f3bb
00000080: ab59 3d3b c3ce 63b9 5888 fcba d0b1 97bb
00000090: 1378 37bc 7e35 21ba 2144 c3bb 108c 9abb
000000a0: 9b9e 113a 75f5 483b 0bff 8a3b 266d c039
000000b0: e8d3 1c3c 3b61 b0bb a84d 7c3b cf47 3939
000000c0: 6779 c7bb 2f7e 873b fdc0 b7bb 278a 843b
000000d0: 74f1 a33b aa2b 8fbb 08fd 4d3b 235d 1b3b
000000e0: 8fda 1b3b 1b8f 11ba 9d78 07bc 9bf8 9d3b
000000f0: f5c7 fd3a 276f 783b d433 23bc 0aa0 feba
00000100: 4a36 a2bb 3f7f bdbb df98 1d3c 2766 13bc
00000110: 0837 4f3c bbb8 b6ba f4c3 99bb 9f28 6fbb
00000120: 7460 1cbc 3bf5 223b 9da4 1abc b794 013c
00000130: 7a22 0abb 700f b1bb 778f 63ba 3782 7cbb
00000140: 581f 7c3a b8f2 8d3a e826 5fbb c393 afbb
00000150: 2523 d73a 489d a83b 3acc c5bb 2108 97bb
00000160: 058a ccbb 351b 24bc b67f 373c ffef 8cbb
00000170: aeb9 ab3a 0741 b4bb d386 41bb f437 213c
00000180: 43a5 d4bb 420b bf3b 4f5a 9fbb 702a 57bc
00000190: 4820 943b 5329 a5bb ed99 4eba 0b05 023c
000001a0: d56e 513b 471a ecbb 1d9e d33a 827a 043a
000001b0: 6798 0cbb 55cc 953b f20c e03b c5d8 093b
000001c0: 5b94 983b f304 0abc 06c5 823a 0f51 f83b
000001d0: 5da3 923b ddb2 59ba 13d0 493b f26f 5f3b
000001e0: bf48 06bc 0342 313c 17e4 d6bb ef05 9fbb
000001f0: 901a 8c3a 2350 523c de42 98ba a30b e0ba
00000200: a536 e53b c7b1 dcbb 6daa ceba 33b1 273c
00000210: 5dc0 4c3b 4a9c 80bc 693f 2bbb 5ae6 323c
00000220: 97b2 99bb 5464 08bc a41c 1a3c b692 c4ba
00000230: 7440 9dbb ab64 ed3b 7785 2d3b b57a bf3b
00000240: 6757 873b eb82 7a3b 923f 5eba a7f6 19b9
00000250: 1b25 173c 4db8 993a a587 7abc 0b8e 38bc
00000260: 3faf 3eba 6389 ac39 5bbd 4a3b 95ea 9abb
00000270: 2c80 b23a c0ea 6439 520f ab3b 8773 2d3c
00000280: a3e9 b2bb da51 1f3b 7062 03bb cb4c a63a
00000290: f502 aa3a d6a1 2b3c 7bc1 b5bb ad55 a03b
000002a0: c520 dabb aeea 11bc 3619 85ba beb1 0d3c
000002b0: 60bd cdba 9329 f839 a28f 3c3b 0764 3bbb
000002c0: b79f 9b3b 78e4 ecba 386e 6cbb 5beb 803b
000002d0: f0a9 3f3b 3845 3ebc 8722 70b9 7907 bf3a
000002e0: da1d b23b 30d3 b5bb 9ff5 ab3b 477b 1639
000002f0: 5f79 003c d14f af3a e289 b13b db8f ccba
00000300: 63d0 b93b f7bc 86bb 0700 2f3c 97aa 3c3b
00000310: e86e 693b cf99 06bc 180a c239 bad8 ccbb
00000320: 1820 ce3b 033a 363c 4d6e 64ba 3f6a bd3a
00000330: 8729 4dbb 8f50 f2bb f374 503c 1129 1c3c
00000340: 3076 10bb ff64 5ab9 4b90 9e3a e72c ab3b
00000350: cf4c 16bb 1ed9 c2bb a5d6 2c3c c5f9 e8bb
00000360: fffb aeba 7598 cabb 5876 1e3c 88c3 b0bb
00000370: 4fac 87bb c7b3 f1ba b3a8 323b 567a 80bb
00000380: ebf8 45ba fb63 e2bb 68f5 64ba d4a9 30b9
00000390: efdd 48bc bb95 44bb 4a5c 913a 10b2 fa3a
000003a0: 9b9f 48ba 222c e6bb cab9 cbbb 96a5 aabb
000003b0: 0da7 783c 8085 48bb 3927 89bb b58a dcba
000003c0: 13b7 7eb9 9bb4 4d3b affc 983b db0b 6c3b
000003d0: 1b94 6dbb ef42 003c addb 373b 6e9a c4bb
000003e0: ed9a dd3b 1c0b 93bb 4b0c 583b a031 64bc
000003f0: 6ddf 3bbb 077e 893b 4d4a d0bb 308a 23bc
-0.0062035676 -0.0045064823 -0.0013721184 0.0010390619 0.0032372565 -0.0041261106 -0.0006943579 0.002247453
-0.0014878445 0.0028952898 -0.016804434 -0.0022253136 -0.0017385044 0.004692176 0.0060469783 -0.0054626153
0.0028393301 0.004221584 -0.008321232 -0.0068527022 0.000597768 0.006764454 -0.0017458877 0.007246453
-0.0037807033 0.0005162614 -0.00046593006 -0.00017834033 0.002122304 0.006024433 0.00027470101 -0.00744155
0.0028892558 -0.00021725432 -0.0019266708 -0.004629351 -0.0111980615 -0.00061496336 -0.0059590493 -0.004716404
0.0005554945 0.0030663882 0.0042418293 0.00036702416 0.009572007 -0.0053826845 0.0038498435 0.00017669726
-0.0060874703 0.0041349153 -0.005607723 0.0040447894 0.0050031487 -0.004369219 0.0031431336 0.0023706637
0.0023781394 -0.00055526354 -0.008268503 0.004820896 0.001936196 0.0037908049 -0.009961087 -0.0019426357
-0.0049503194 -0.005782991 0.009618967 -0.008996523 0.012647398 -0.0013940552 -0.004692549 -0.0036492718
-0.009544481 0.0024865407 -0.009438661 0.007908992 -0.0021077679 -0.0054034516 -0.0008680741 -0.0038529763
0.00096177077 0.0010829782 -0.003405029 -0.0053581907 0.0016413672 0.0051457025 -0.0060363086 -0.0046091233
-0.006242039 -0.010016252 0.011199882 -0.0043010707 0.0013101602 -0.005500916 -0.0029529824 0.00984
-0.0064894273 0.0058301995 -0.0048630605 -0.0131326765 0.00452045 -0.0050403266 -0.0007881213 0.007935773
0.003195693 -0.007205281 0.0016145144 0.00050536555 -0.0021453144 0.0045714774 0.0068374807 0.0021033746
0.004656357 -0.008424032 0.000997693 0.0075780223 0.004475041 -0.0008304546 0.0030794188 0.0034093824
-0.008196055 0.010818961 -0.006557952 -0.0048530023 0.0010689069 0.012836489 -0.0011616608 -0.0017093312
0.0069950395 -0.00673506 -0.0015767344 0.010235119 0.0031242587 -0.015699524 -0.0026130325 0.010919178
-0.004690479 -0.008324701 0.0094062425 -0.0014997337 -0.004798943 0.0072446666 0.0026477256 0.0058434852
0.004130292 0.0038225006 -0.00084781006 -0.00014683102 0.009225155 0.00117279 -0.015291129 -0.011264334
-0.00072740385 0.00032908758 0.0030935619 -0.0047276714 0.001361852 0.00021831226 0.005220332 0.010586626
-0.0054599806 0.0024310262 -0.0020047687 0.0012687681 0.0012970852 0.010475596 -0.0055467463 0.004893026
-0.0066567385 -0.00890605 -0.0010154608 0.008648334 -0.0015696697 0.0004733322 0.0028772135 -0.0028593556
0.004749264 -0.001807346 -0.0036076438 0.0039343066 0.0029245578 -0.011613183 -0.00022901046 0.001457437
0.0054356875 -0.005548857 0.005247786 0.00014351039 0.007841437 0.0013375228 0.0054180482 -0.0015606837
0.0056705936 -0.004111882 0.010681159 0.0028788203 0.0035619084 -0.008215382 0.00037010084 -0.0062514218
0.006290447 0.0111222295 -0.0008713946 0.001445122 -0.003130527 -0.0073948572 0.012723195 0.009531275
-0.0022043101 -0.00020827724 0.0012097446 0.0052238586 -0.0022933965 -0.0059462925 0.010549222 -0.007109853
-0.0013350247 -0.006182725 0.00967177 -0.005394403 -0.004140414 -0.0018440419 0.0027261197 -0.0039208336
-0.0007552045 -0.0069088913 -0.0008734078 -0.00016847934 -0.012259944 -0.0029996473 0.0011090126 0.0019126553
-0.00076531776 -0.007024304 -0.006217216 -0.0052077277 0.015176547 -0.003059715 -0.004185584 -0.0016826006
-0.00024291528 0.0031388167 0.004668794 0.0036017809 -0.0036251608 0.007828458 0.002805452 -0.0059998548
0.0067628534 -0.0044874083 0.0032966312 -0.013927847 -0.0028667108 0.004195932 -0.0063565136 -0.009981677
